m6A_BERT_Stacking/Resnet/model_pth/H41_bilstm.pth (torch, 69975 bytes, 13 tensors)

weight f4 [64, 16]
00000000: c054 dabe a00c 1dbf 3c52 3a3f 3694 223f
00000010: e0fa 39bd c49b b73e 684c 293e 0854 d3be
00000020: 286c 8d3e f48f 31bf e0f6 d13d 82c1 513f
00000030: a4eb 69bf fa98 4f3f 1e7c 1d3f 10fe 8f3d
00000040: fe8d 9abe fcf4 5bbe 4e44 b3be 6106 273f
00000050: 5109 6bbf 8f33 2ebf dae6 6b3f 1843 8c3f
00000060: ae56 56bf d579 de3e 3ff7 5f3f bf6b 5cbf
00000070: d69a f33e 43a3 b0be 774f 7b3d d42a 3a3f
00000080: ee51 363e abbf 843e 6198 383f 438b 523e
00000090: e67e 133f d647 a0be 66a8 7ebf 3700 b83e
000000a0: c39b 503f 7f04 30bf 8181 1f3f 2ad4 693d
000000b0: d22f 2a3f 2847 2d3e 3fc8 ffbe 6f0f 6fbe
000000c0: e299 d33e bcbc ebbd 1576 7bbf b43d 233f
000000d0: 35c2 53bf 0ebe 54bf dd84 80be 6055 71be
000000e0: 9ffd dfbe 854f 9bbc 3828 6f3f 4538 163f
000000f0: 9af1 80bf 53b2 2ebf 95d6 43bf 4a39 2ebf
00000100: b3ac 9b3d 58ea 47bf f23f ac3e edcc 9b3d
00000110: b459 45bf b58a fdbe aee8 bdbe b9cc 5fbd
00000120: 83a2 75be 32c3 6b3f 312f 483f 6fe8 793f
00000130: cefa bc3e 4c18 45bf 1fb6 c83e efbd 833f
00000140: fe06 87be f603 90bf 7e28 a9be a662 f2be
00000150: abe2 58be 1e00 00bf 5a80 77bf b55a 8a3e
00000160: 792c fa3d 82fc 31be 62a7 0fbe 3d3f 223e
00000170: 87bc 0b3d 4c59 0c3f 2d99 1ebf d630 0b3f
00000180: 3840 cf3e e742 ddbe 8438 143d cb4a 8dbe
00000190: 3d72 b9be d97f 453d c2fe 93bf 3a3b a7bd
000001a0: 7588 c33e 7ac5 21bf 1416 8c3f 4fdb 2bbf
000001b0: 7529 15bd 8f51 933e 9ce6 30bf 21e5 943f
000001c0: fd11 5a3f ba7c 1cbd 26bd 413f 85fe 2c3f
000001d0: 2225 873c aafb 75bf d488 293f aab4 013f
000001e0: 4fa5 94be 90f6 d5be 4b1c 6cbf 4fb8 1bbf
000001f0: c680 743f 55f3 97be acd1 513f 856d 8ebf
00000200: ef8c 863e ff07 c43e 368f 6ebf 778c 373e
00000210: 8e78 b73e a41d 62bf 9564 39bf 5777 8a3f
00000220: 45c6 70bf 6538 4cbf 08fa 11bf b475 523f
00000230: f2d7 5bbe f717 683d 060f 673f 36dd 573f
00000240: b867 7cbf 961b f4be c43f 293f df95 233f
00000250: 65f6 563e eb9e 45bd 5e8a 3c3f 4a7e 7ebf
00000260: aff5 0abf 0f01 44bd fb82 3a3e a5f8 673f
00000270: c47e 313f 8f69 0abf 27fc eb3d b28a b13e
00000280: 0147 7abf 602c 71be beb8 2dbf febc 533f
00000290: 9581 46be 6a74 363f 1e6d 6b3d e9d6 173e
000002a0: 74c5 5fbc 8771 453f 9a94 bcbd 080f 003f
000002b0: 55c6 9d3d 5a1a 643f aa8b 15bf 8109 71bf
000002c0: 9329 e6bd 0551 613b becc c4be 1ad6 ae3e
000002d0: 2960 853f 40a1 393f a3f2 6abe 3680 4e3f
000002e0: 2bdf 3f3f 4e48 34bf da15 9ebe 38de 793f
000002f0: 21a0 1d3f afe7 013f 4241 003f e7c7 23be
00000300: aac2 29bf a786 563e 3e2d acbe a30f 51bf
00000310: 536f f43d 15e6 67be 2886 683e 662c 5fbf
00000320: e38b 29bd 69aa 18bd e74c ad3e 9ec2 e93e
00000330: f1f9 2dbe 56b8 303f 30dc 41bf e568 9a3d
00000340: 2b15 8dbf 1676 9a3e 0812 dbbe 7210 373e
00000350: 4ca9 e63e 0475 25bf 5902 f83e 4d17 003f
00000360: e4b3 22bf bf62 01be 5089 fdbd ee5a 313e
00000370: 81c3 b3bd 6b6b 3fbd cbeb a9be 1769 9d3e
00000380: 4d55 2b3e e28c e53c d8eb d63e 0952 26be
00000390: 4354 f6be 3c7f 1e3f 0f45 593f a6db 0dbe
000003a0: 8a65 a63e 7c9e 29bd 3943 aebe 5061 143f
000003b0: 0674 e2be 978c 8dbc 5c4a ad3e 4063 20bf
000003c0: d3e5 e4be 8ce5 edbe 6585 393f 41e3 013f
000003d0: fb72 d13d 25bc 2ebd 23e6 85bf 3f27 5a3e
000003e0: 7739 7e3f 75f7 113d 4b26 ebbe 4a3d 7a3f
000003f0: d1a9 3f3f 9d55 c3be b06c 093e f7e4 edbd
-0.42642784 -0.6134739 0.7278173 0.635074 -0.04540527 0.35861027 0.16533053 -0.41275048
0.2762158 -0.6936028 0.10252166 0.81935894 -0.91375184 0.810928 0.6151751 0.070308805
-0.30186456 -0.21480173 -0.3501305 0.6524411 -0.9181109 -0.6804742 0.92149127 1.0957975
-0.8372601 0.43452325 0.8748664 -0.8610191 0.47579068 -0.3449956 0.06135508 0.727216
0.17804691 0.2592748 0.7210751 0.20560937 0.57615507 -0.31304806 -0.99475706 0.35937664
0.81487674 -0.6875686 0.6230698 0.0570871 0.6647922 0.16921675 -0.49957463 -0.23345731
0.4132834 -0.115106076 -0.98227054 0.63766026 -0.8271821 -0.831025 -0.25101367 -0.23567724
-0.43748185 -0.018958816 0.93420744 0.5867961 -1.0073731 -0.6824085 -0.764993 -0.68056166
0.07601299 -0.78091955 0.33642536 0.07607446 -0.7709 -0.49519888 -0.37091583 -0.054638598
-0.23987775 0.9209472 0.7819701 0.9762029 0.369101 -0.769902 0.39201447 1.0292338
-0.26372522 -1.1251209 -0.33038706 -0.47340888 -0.21180217 -0.5000018 -0.96680224 0.2702233
0.12215514 -0.1738148 -0.14028695 0.15844436 0.03411534 0.54823756 -0.6195248 0.5437139
0.40478683 -0.43215105 0.03618671 -0.27596125 -0.3621997 0.04821763 -1.1562121 -0.081655934
0.38190046 -0.6319195 1.0944238 -0.67131513 -0.03641649 0.28773162 -0.6910188 1.1632425
0.851837 -0.038204886 0.7567924 0.67575866 0.016497198 -0.96087134 0.6622441 0.50666296
-0.2903237 -0.41789675 -0.9223067 -0.6082811 0.9550899 -0.29677835 0.8196056 -1.1127173
0.262794 0.3828735 -0.9318727 0.17924677 0.35834163 -0.8832648 -0.724191 1.081767
-0.94052535 -0.7977355 -0.5702214 0.8221085 -0.21469095 0.05666348 0.902573 0.84321916
-0.9859576 -0.47677296 0.66112924 0.6390056 0.2099243 -0.04824726 0.7364863 -0.9941145
-0.54281133 -0.047852572 0.18214028 0.90613776 0.69334054 -0.5406732 0.115227036 0.3467613
-0.97764593 -0.23552084 -0.6786002 0.82710254 -0.19385369 0.71271384 0.05747711 0.14828075
-0.013657916 0.77126354 -0.09208031 0.50022936 0.077038445 0.8910271 -0.58416235 -0.94155127
-0.112383984 0.0034380567 -0.38437456 0.34147722 1.0419971 0.7251167 -0.22944121 0.80664384
0.749499 -0.7042283 -0.30876046 0.97604704 0.6157246 0.50744146 0.50099576 -0.15994225
-0.6631266 0.20949803 -0.33628267 -0.81664485 0.11935296 -0.22646363 0.22707427 -0.8717712
-0.041393172 -0.03727189 0.33847734 0.45656294 -0.16989876 0.69031274 -0.75726604 0.07539538
-1.1022085 0.30168217 -0.42787194 0.17877367 0.45051038 -0.64631677 0.4843929 0.50035554
-0.6355574 -0.12635325 -0.12379706 0.17319843 -0.08777524 -0.0467333 -0.33187708 0.3074424
0.16731758 0.02802128 0.4197681 -0.16242231 -0.48111162 0.61912894 0.84871 -0.1385332
0.32499343 -0.041410908 -0.34035662 0.5796099 -0.44229144 -0.017278953 0.33845794 -0.62651443
-0.44706592 -0.46464193 0.7246917 0.50737387 0.10227009 -0.042659897 -1.0460857 0.21304034
0.99306434 0.035636384 -0.45927653 0.9774977 0.74868494 -0.38151255 0.13420367 -0.11615937

weight_ih_l0 f4 [128, 16]
00000000: efe7 8bbd 090f 9bbe 0692 0c3e bbbe b43c
00000010: f657 053e b89e c23b 5d5e 36bd 9a4c 48bd
00000020: e375 05be 72a2 ae3d ac2f a9bd 985d 8f3e
00000030: 96f2 dbbd fd62 8d3e 18de 9fbd ba79 6f3e
00000040: a72f 00be 6a3e 46be 538d 033e 027e 6d3e
00000050: 109f 603d e645 04be 442c 12be 01cc be3c
00000060: 3a9c 03be ed32 8ebe 6c0b 443d 34b5 83bd
00000070: 6b94 b9bd 3177 6c3e e5cf 093e 43a3 e23d
00000080: d0a0 1d3e 3091 04be 54ea 483e 96b3 62be
00000090: 4910 2b3c c4cf 32bc 0cc7 373e 6adf e23d
000000a0: cc00 ce3d d295 aebd b0c1 55be dab5 663d
000000b0: 88cc 34be a657 d7bd ad68 d3bc b037 ccbe
000000c0: 9dd9 c23d 87da a8bd 0d8b 7d3e 49a8 033d
000000d0: f22b 22be 53c8 7a3c 84d2 c6bd 8097 7cbd
000000e0: c23c b53d a3a4 353e ff14 333e 23bb d33d
000000f0: 64df ebbc 8df8 d03d b05f a83d 4c3c 82be
00000100: e1d3 883e 3261 87bd d349 da3c 5a55 b2bd
00000110: c8a8 acbd 98bf d73b 3ac9 e7bd 7bfb c5bd
00000120: fadc 073e f134 b53d 5fb8 17be 96c4 893d
00000130: 2287 b43c 5d1a 00be c2dd 7c3d 544a efbd
00000140: f16e 4dbc ccce 493d 0c8c 75be 1469 fcbd
00000150: c493 65be 394b 203d 2b4d 843e ec92 7f3e
00000160: dbf1 a4be 25b4 733d bcef 76b9 0e0e 8f3d
00000170: b231 123e 0b4e d3bd 11d7 adbd daf9 e13d
00000180: e753 a5bd 39d3 f6bd 9c3d cf3d 0b41 353e
00000190: f887 db3d abd2 943d d8bc f93d 2fde 3d3e
000001a0: 4591 cabd d903 b43d 8489 7d3e 5967 aebd
000001b0: 3387 07bd 1fba a23d f44f babd 5078 7a3e
000001c0: b301 9f3d 079d 1b3e 18d0 3e3d ce2a 45bd
000001d0: 5a43 fdbd 4c85 2bbe e844 2dbd 610c 2d3e
000001e0: 86b8 e3bd 318e bb3e 3dcb 12be 0bab d3bd
000001f0: cee0 27be 16b5 43bb 553d 9dbd 9127 09be
00000200: 3fca cebc af05 71be 358b a2bd 5764 98bd
00000210: 44f4 08be 9132 cc3d 8c7e 08be 29ef 64bd
00000220: 4b81 913d 75da 123e be35 be3d 611a d33d
00000230: c8a9 1abe 28d6 3cbe f01f cbbd 3513 a43d
00000240: 7fec 6e3e 13f6 0abe 3b25 ce3e 185f 013e
00000250: 173a 51bb 63ad 44be 680d a43c e135 b0b9
00000260: a5e3 253e a4bb 65bd 14cc 70be e724 5abd
00000270: e56a afbc 18a5 3abe 1c91 313e 5c1f 6b3d
00000280: bd72 ce3d c93f d8bc 109f 75bd 5248 053d
00000290: 6fdd 3e3d 9bfd 35bc b904 e7bc 1ee0 aa3d
000002a0: 0a8e 163e 8475 153e b94b be3d 9aee a2bd
000002b0: 1608 b7bd c5c4 bcbb b6a1 a8bd 70e6 d1bd
000002c0: 7b1f fbbc 4eb9 973d 8263 e8bb 2389 89bc
000002d0: b1a6 7bbd b168 7d3e d058 0ebd 083a 10bd
000002e0: 11a7 8bbd db2b a6bd 167d 623d 0447 40be
000002f0: 058e 71be ce5d 293e 92a4 993e 0863 44bd
00000300: a9c9 913d 518d f83d c13b 2a3e 18e1 17bc
00000310: 2eb1 85be d6da 88bb 8fb2 503e b1b2 4a3e
00000320: 69bb edbd 5769 59be e85e f5bd 19c9 21bd
00000330: 0cb3 973e 3d76 2abd ebe4 a6b9 7a9c 28be
00000340: 9fa2 84bd 1392 1a3d 4e4f d73d a48b 313e
00000350: a483 293e 1d7c 243e a40f 123e c0ac a73d
00000360: a07e 5f3e 65b0 c63e 9c99 c1bd 3e3c 0f3e
00000370: e444 db3d 46fb 03be b41b 543e 25c0 94be
00000380: ec06 543c cb2a 3f3e 14a3 c53c 4b00 8b3e
00000390: 99cf ea3d de2f 09be 19b7 903d 739c 473d
000003a0: 2060 a3be 9ff1 f2bc 7665 8fbd 34ce 78be
000003b0: c92a 1d3d 4c67 c03c c80e 66bb 3584 acbc
000003c0: 500d 813d b840 2abe 643e 123e 6dbe 1dbe
000003d0: 9d05 a7bd 91a3 623b b989 543d 5f86 813e
000003e0: f3e6 13bd e57c 4fbe 5cb1 abbd 060a fc3c
000003f0: e7d0 55bc d9e8 c1bd 0944 2e3e 0425 fd3d
-0.06831347 -0.30284908 0.13727579 0.022063604 0.13021836 0.005939331 -0.044523586 -0.048901178
-0.13033251 0.08527078 -0.08261046 0.28001094 -0.10739629 0.27614585 -0.07806033 0.23386279
-0.12518178 -0.19359747 0.1284688 0.231926 0.054839194 -0.12917289 -0.14274698 0.023290636
-0.12852564 -0.27773228 0.047862455 -0.06431046 -0.090615116 0.23092343 0.13458212 0.11066296
0.15393376 -0.1294601 0.19620639 -0.22138819 0.010440894 -0.010913793 0.17947024 0.11077769
0.10058746 -0.0852467 -0.20874667 0.05632577 -0.17656147 -0.105147645 -0.02580675 -0.39886236
0.09514163 -0.08244806 0.24760075 0.03214291 -0.15837076 0.01530655 -0.097081214 -0.06166792
0.08849479 0.17738585 0.17488478 0.10338428 -0.028793044 0.10203657 0.08221376 -0.25436628
0.2672415 -0.066103354 0.02664653 -0.08707686 -0.0843063 0.006584119 -0.11317678 -0.09667107
0.1326789 0.088479884 -0.14816426 0.06726949 0.022037093 -0.12510057 0.061734922 -0.11684099
-0.0125386575 0.049269482 -0.23979205 -0.123247296 -0.2241965 0.039134238 0.25840124 0.2495839
-0.3221577 0.05949797 -0.00023549696 0.069851026 0.1427677 -0.1031762 -0.08488286 0.110339835
-0.08072644 -0.12052006 0.10119173 0.17700593 0.10719293 0.07266744 0.12194222 0.18541788
-0.09890989 0.087897964 0.2475949 -0.08515806 -0.03308792 0.07945656 -0.09097281 0.24459958
0.07763996 0.1519662 0.046585172 -0.048136525 -0.12366362 -0.16750067 -0.042302042 0.16899253
-0.111191794 0.3663192 -0.14335342 -0.10335358 -0.1639435 -0.0029862574 -0.07677714 -0.13394
-0.025242923 -0.23537324 -0.07936708 -0.07441013 -0.1337443 0.09970582 -0.13329524 -0.055892143
0.07104739 0.14341147 0.09287594 0.10307766 -0.15103829 -0.18441069 -0.09918201 0.08011476
0.23332404 -0.13570432 0.4026278 0.12633932 -0.0031925493 -0.19206767 0.020025924 -0.0003360948
0.16200121 -0.05608715 -0.2351535 -0.05325785 -0.021413276 -0.18227041 0.17340511 0.057402954
0.10080478 -0.026397603 -0.059966147 0.032539673 0.046597894 -0.011107828 -0.028200494 0.08343528
0.14702621 0.1459561 0.09291787 -0.07955666 -0.08937089 -0.0057607614 -0.08233969 -0.102490306
-0.03065466 0.07408391 -0.0070919404 -0.016789025 -0.061438266 0.24746968 -0.034752667 -0.035211593
-0.06818975 -0.081138335 0.055295072 -0.1877709 -0.23589332 0.1653969 0.3000837 -0.047946006
0.07118542 0.12136329 0.16624357 -0.009269975 -0.2611174 -0.004176478 0.20380615 0.19794728
-0.11608011 -0.2123159 -0.119809926 -0.039498422 0.2962879 -0.041616667 -0.00031832544 -0.16465941
-0.0647633 0.037736963 0.10513173 0.17338425 0.16554123 0.1606297 0.14263779 0.08187246
0.21825647 0.38806453 -0.09453127 0.13987824 0.10706499 -0.12888822 0.20713693 -0.29052845
0.012941103 0.18668668 0.024125613 0.2714866 0.11465377 -0.13397166 0.07066173 0.048733186
-0.31909275 -0.02965623 -0.07001774 -0.2429741 0.03837088 0.023486756 -0.0035104025 -0.021059135
0.06301367 -0.1662625 0.14281613 -0.15404673 -0.081553675 0.0034582356 0.051889155 0.2529783
-0.036108922 -0.20262487 -0.08383438 0.030766498 -0.0130502945 -0.0946824 0.17018141 0.12360576

weight_hh_l0 f4 [128, 32]
00000000: f645 18be a3ae 123d 0f9b 803b 11ae 1d3c
00000010: f8c5 f0bb 52ab 1dbe 96bf d93d 9b0b 9fbe
00000020: 1fa1 bb3a 74d2 883c 2eb6 17be c8cb d73b
00000030: 95f6 763d 68a3 a4bc d11b 253d 1004 183e
00000040: 3e1d e93d 8347 8dbd be1b 7e3d e7a0 a4bd
00000050: 2e9d 803e 216d 04be 154c 1f3e 3b73 f03d
00000060: 60ef 3fbe dadb 1e3d 2b52 c43d f821 5d3d
00000070: 1f7e 873e 1fba c1ba ebb2 c2ba 90ab eb3d
00000080: e7c0 573d f501 3abe 32d3 66bc f5b7 7d3d
00000090: 98db 75be 1a38 66be 0d58 35be af3e d0bd
000000a0: e2e8 13be 5bf1 923d 23a0 473d f2b8 be3d
000000b0: eac7 cdbd 25da 243d 1339 943e f47e a93e
000000c0: 5612 acbc e7f0 d73d cd3e d83d d151 23bd
000000d0: 9e06 843e 0f3b 1b3e ef96 ee3d 33f1 14be
000000e0: c4c8 50be 2cce 9a3e 87fa 893e c367 42be
000000f0: d8c7 01bd 16ee 3abe 25fe 3bbd 0960 22bc
00000100: 1d9c 643d f745 dabd a1c0 833d 2bf2 50ba
00000110: 8555 4f3d 3c63 92bb 214e c53b 8b9a ac3d
00000120: efe9 ddbd ed87 a0bb 70c1 73bd 210d 8cbd
00000130: 88ae 63bc 31bc 063d 8ac5 a73e 65ec 83bd
00000140: d01b a6bd f51d 033d ca8b a6bc 31c9 393d
00000150: 4035 3a3e 1c83 8a3b 8b7e 4c3c ffb7 08be
00000160: 3cb9 85be 32bb 8e3c 58ea 503e 9649 bf3d
00000170: e21b 86bd 4b0b 2fbe 16d8 2c3d 2555 323e
00000180: 47fb 983d cb83 ab3d aa85 91bd 935a ecbd
00000190: 06dd b2be 2a4d 85be e1a8 c53d c7ad 8cbd
000001a0: 00f4 b1be 756f bcbd 17ef 1abc e02e cabd
000001b0: 9f10 4fbe c2f3 17bd 8b3f 8f3e ab70 a13e
000001c0: bcae 253e 00f0 a5bd b19f 9a3d fca4 c3bd
000001d0: f058 1a3e cad7 763d fa9e 4fbe 42e4 323d
000001e0: e318 43be 237f 643e 1321 533e 1231 c9bd
000001f0: 67d5 d2bd 0d39 02be 554d 02be 2f7d 273d
00000200: afb3 8a3e b8ef 013e c008 c3bd 9402 06bd
00000210: e242 97bd 65bf 88be 9b56 9d3e e619 023d
00000220: d674 16be c25c 783d e50d f73d 2b15 a9bd
00000230: 6842 25be 08ac 38be 0051 213e 47bd 923a
00000240: 7169 8f3d 0800 b93c d84f 1cbd 2351 a63d
00000250: 555d 42bc 50f0 153d 9c88 49bc b119 0ebe
00000260: 0bb9 013e 4e9c a03d ff0c ea3d f92d 14bd
00000270: 529a 103e 5bb6 a5bc 3ad7 2b3e 2a65 493e
00000280: 7568 bb3d 5d4d 91bd c844 48be 611c d2bd
00000290: 088d c8bc ec25 d3bd b860 f1bd 5e55 6cbe
000002a0: b26f d1bd 4797 5abd 74af 60bd 6c68 443e
000002b0: f465 7cbd b3e4 163e d8b4 4d3d d4e6 863e
000002c0: 4ec9 9e3c 13c6 4ebd dbe3 04be a058 293e
000002d0: dc1f dd3c 4479 b43d e1af 91bd f29f e83c
000002e0: 1ca9 5ebe bc5c 643e 8c54 323d 2a5e 0e3e
000002f0: 2d6a 0f3e 3e2f 2cbe 7d4d 11be 609b e83d
00000300: d21c 0fbd cbd8 e0bc da69 b3bd cbbd af3d
00000310: 7386 68be 527b 08be f100 b6bd bb50 1cbe
00000320: 39fa 463d 37a8 4bbc 44db ddbd 4bfa 823d
00000330: f4db 3bbe 0367 293e d601 853d edfb 183e
00000340: 8813 bf3d ddd1 c1bc a5bf c4bd 798d 90bb
00000350: 8ce5 2e3e c132 4b3d d7fc fabc fe4f 0dbe
00000360: 1fa6 5fbe ea79 5b3e ef46 323e 7790 003e
00000370: 5be2 263e a954 38be 3ef6 f5bc 409e 0dbe
00000380: 6509 bc3d 73aa 03be 9a66 c53d ec3b b5bd
00000390: ba1e 51be 6449 83bd 58c7 31bb c020 c5bd
000003a0: faef 8ebe e971 d23d cc7a c3bc c8e4 3ebe
000003b0: 4528 75be 8ee0 e6bd 5406 ac3d d33c 90bd
000003c0: f30a 0d3a 80c5 37be 8ffa 23bd c155 7fbd
000003d0: 22fc 3b3e 85b7 863e b4df 0fbe e6b4 61be
000003e0: 084a 21bd 0174 f03d 127a 8f3d 0713 a93c
000003f0: 702b ca3c 0f37 b43d a911 3b3d f73a 793d
-0.14870438 0.035811078 0.0039247344 0.00962402 -0.0073478185 -0.15397385 0.10632245 -0.31063542
0.0014314986 0.016701914 -0.1481559 0.006585572 0.060293753 -0.02009745 0.04030973 0.148453
0.11382531 -0.068984054 0.062038176 -0.08038502 0.2511992 -0.12932254 0.15556367 0.117407285
-0.18743658 0.038783886 0.09585985 0.053987473 0.2646341 -0.00147802 -0.0014854347 0.11507332
0.0526742 -0.18164809 -0.014088439 0.061943013 -0.2400955 -0.22482339 -0.1770937 -0.10168206
-0.14444306 0.07174941 0.048736703 0.09312619 -0.10047896 0.0402471 0.28949794 0.3310467
-0.021004837 0.10543995 0.10558853 -0.039872948 0.257863 0.15159248 0.11649882 -0.14545135
-0.20389086 0.30235422 0.2694895 -0.18984894 -0.031684726 -0.18254885 -0.045896668 -0.009910592
0.055812944 -0.10657876 0.064332254 -0.0007970656 0.050618667 -0.004467396 0.0060212766 0.08427914
-0.10835635 -0.004899016 -0.05951065 -0.06838442 -0.013896592 0.032894317 0.32767898 -0.06441573
-0.081107736 0.03201099 -0.020330328 0.045357887 0.18184376 0.0042270552 0.012481342 -0.13351439
-0.26117885 0.017423246 0.20401895 0.09340207 -0.06548287 -0.17094152 0.042198263 0.17415293
0.07469802 0.08374747 -0.071055725 -0.11540713 -0.34934253 -0.26035434 0.09651352 -0.06869083
-0.3475647 -0.09200946 -0.0094564175 -0.09872222 -0.20221184 -0.0370977 0.27978167 0.3153127
0.16179937 -0.08102417 0.0754999 -0.09552953 0.1507299 0.060264386 -0.20275488 0.043674715
-0.19052462 0.22314124 0.20618086 -0.098238125 -0.102946095 -0.12717076 -0.12724812 0.04089087
0.27090213 0.12689102 -0.09523153 -0.032717302 -0.07385804 -0.26708522 0.30730137 0.03176298
-0.14693007 0.060635336 0.12063197 -0.082559906 -0.16138613 -0.18034375 0.15753555 0.0011195325
0.07002533 0.022583023 -0.038162082 0.08120944 -0.011863072 0.036606133 -0.012300637 -0.13876988
0.12668245 0.07842313 0.1142826 -0.036176655 0.14121369 -0.020228555 0.16781321 0.19667497
0.09150783 -0.07094834 -0.19557488 -0.10259319 -0.024481311 -0.103099674 -0.11786026 -0.2307944
-0.10226382 -0.053366926 -0.054854825 0.19180459 -0.061620668 0.1473568 0.050221294 0.26347983
0.019383099 -0.050481867 -0.12977545 0.16537714 0.02699273 0.08812192 -0.07113624 0.02839658
-0.21744198 0.22301 0.04353766 0.13903108 0.14005347 -0.16814896 -0.14189716 0.113577604
-0.034939595 -0.027447125 -0.08760424 0.08581122 -0.22707538 -0.13328293 -0.08886898 -0.15265171
0.048578475 -0.012430242 -0.10832837 0.06395396 -0.18345624 0.16543202 0.06494491 0.14939852
0.09329897 -0.02365964 -0.09606866 -0.004411396 0.17079753 0.04960895 -0.030638142 -0.13800046
-0.21840714 0.21433225 0.17409872 0.12555109 0.16297285 -0.18001045 -0.030024644 -0.13829899
0.09181479 -0.1285799 0.0963871 -0.0884932 -0.20421878 -0.064104825 -0.0027126875 -0.09625387
-0.27917463 0.10275633 -0.023862265 -0.1864196 -0.23941143 -0.11273299 0.083996445 -0.07042851
0.00053803547 -0.17946434 -0.040033873 -0.06233764 0.183579 0.2631189 -0.1405018 -0.22041664
-0.039377242 0.11740876 0.07005705 0.020638956 0.024678916 0.08799564 0.04567114 0.06084725

bias_ih_l0 f4 [128]
00000000: 5dc7 bd3d 6f7d 1f3e b5dc 4f3e b037 b73d
00000010: 0142 2a3e b110 1b3e 3e49 b83d ebd9 823d
00000020: 837c 5ebd 9977 213e 35d2 283e 6708 333e
00000030: 890e 863d 6a41 bd3c dbba bbbd ab60 4e3e
00000040: 0d6d 663d 769d 0f3e 511c 85bc cdab 9dbd
00000050: 59ea 2a3e a082 c4bb 9e00 363e 6493 8f3d
00000060: 1eba d23c f6f1 fa3d 6ae3 a93c f314 80bd
00000070: b941 d83d 1cd6 e73d 118b 043d eff4 21be
00000080: aac9 df3d 6689 d9bc db3a bf3d 3e24 4bbc
00000090: 594b c53d e27c a8bd 5d47 513d ccb5 51bd
000000a0: b0c1 04be 1f55 6bbd b7f0 04be ee66 24be
000000b0: 76e5 32bd e83f 3d3e b5e7 4c3d 2335 293e
000000c0: 735b 193e 5c5c 043d 4030 863c 416f dbbd
000000d0: 981e 42bd db15 ce3b d944 ff3d 8eb1 fd3d
000000e0: 6439 553d 3340 883e 0320 193e 6e57 053e
000000f0: c3eb 453b fe17 92bd a071 d93d 2caa 03be
00000100: 83b5 00be 2616 2abe 359f 09be e916 5c3d
00000110: 890d 03be 82f4 e83c b1ac f7bd 7fb1 a6bd
00000120: 1b3d 8dbd 4368 1abe 2892 1ebd 6813 4fbc
00000130: 3359 bbbd 6491 753d 98f0 52be e736 9a3c
00000140: f7eb 3ebe c3c2 ecbc 8e5f 843d 21c7 5bbd
00000150: ad0b 333e eef8 063e 7d11 f63c eee4 a3bd
00000160: 37ab 48bc c65c aeba 51f2 643b b34b 2fbe
00000170: 2483 b13d 27d2 40be 181c 81bd efad 61bc
00000180: 7758 a53d 5ed1 c93d dc67 9ebd b06b 8ebd
00000190: 0266 c43d d15e 1dbd fb48 b4bc 7433 113e
000001a0: b265 6d3d f8f8 293e 6aa2 a3bd 7bb2 95bc
000001b0: 9211 a73d c0e1 3c3e b446 7f3e 928a 99bd
000001c0: 35e8 df3d 3bbb f23d 37fa 8a3e c9ca 953d
000001d0: 9754 2e3e e6d7 263e 7aa9 f83c 5fc8 193e
000001e0: 9ef0 593e 9c26 2eba 9f75 653e c32c 813e
000001f0: aef2 9c3d 45c3 dfba dd9a 513e d5a2 10be
0.09266541 0.15575193 0.20299037 0.089461684 0.16626741 0.15143086 0.08998345 0.06389221
-0.054317962 0.15768279 0.16486438 0.17483674 0.06545741 0.02310248 -0.09166499 0.20154063
0.056256343 0.1402491 -0.016248854 -0.07698784 0.16690959 -0.005997017 0.17773673 0.070105344
0.025723513 0.12253182 0.020738322 -0.06253996 0.105594106 0.11320135 0.032359187 -0.15816091
0.10927136 -0.026554774 0.09337398 -0.0123987775 0.09633512 -0.082269445 0.051093448 -0.051198766
-0.12964511 -0.057454225 -0.1298245 -0.1605489 -0.043675862 0.1848141 0.05002566 0.16524176
0.14976291 0.032314643 0.01638043 -0.107145794 -0.047392458 0.0062892265 0.124643035 0.123873815
0.052056685 0.2661148 0.14953618 0.13021633 0.003020034 -0.071334824 0.106173754 -0.12857884
-0.12569241 -0.16610011 -0.13439639 0.053732786 -0.12798132 0.028436903 -0.12093485 -0.081393234
-0.068964206 -0.15078835 -0.038713604 -0.012638904 -0.09147873 0.05995311 -0.20599592 0.018825008
-0.18644701 -0.028901463 0.06463538 -0.0536567 0.17484923 0.13180897 0.030037636 -0.08002649
-0.012247852 -0.0013302795 0.003493447 -0.1711872 0.08667591 -0.18830167 -0.063041866 -0.013774379
0.08073514 0.09854387 -0.07734653 -0.069541335 0.09589769 -0.038420502 -0.022007456 0.14179784
0.057958312 0.1659888 -0.079899624 -0.018273583 0.08157648 0.18445492 0.24929315 -0.07497133
0.10932962 0.11852118 0.27144024 0.07314069 0.17024456 0.16293296 0.03035425 0.15017842
0.21283194 -0.00066433265 0.2240815 0.25229463 0.07663475 -0.0017071745 0.20469232 -0.14124615

bias_hh_l0 f4 [128]
00000000: b0e9 133e 700b 593e 5304 81bd b76c 08be
00000010: c118 363e 9996 963d f96a c63d da53 ea3d
00000020: 13b4 503d c694 bcbc d97c ecbd 592a 413c
00000030: 23b1 f0bd c3d0 793e 253c babd e5e3 c93d
00000040: 2efc 0b3d 36be 5c3e dcd9 5dbd 4d0c 803e
00000050: 4b77 6a3e 9e24 c23d 4bee 9d3c 39eb cebc
00000060: 9b82 a8bd a992 2dbe b45a d73c 1fb7 ba3d
00000070: 8fad 873d b209 223e 7a88 70bd a7a2 193e
00000080: 6e5a c93c 7f5c 39bd 6260 743b c29c aabd
00000090: 7f78 583e 7bdb 80bd 4c24 c7bd a033 95bc
000000a0: cf20 03bc 746d 123e e411 02be 1634 bbbc
000000b0: ced8 723d da1d 8ebc 6b7e 543e dd41 623d
000000c0: 2294 eb3b e18c f33d 6d1f 143e e34e af3d
000000d0: fbef d0bc 866f 8b3d 3b14 1ebe 57dd d43d
000000e0: 38c8 823e 07d5 603e b151 d33d dcdb ea3c
000000f0: e55f 483e 6f18 9a3c 8864 513d 2e4a f53c
00000100: c811 15be bacb 55be a63d 92bd e2bf a03d
00000110: af63 88bb 56fa 2abd 8a26 283e 61f9 403d
00000120: bb42 84bd 8ac4 763c 4d38 19be ed91 9ebd
00000130: 22be da3d 6b34 adbd d7b7 9dbd ac9d 193e
00000140: 03fd 2dbc dbf3 22be dd60 dcbc 0921 823d
00000150: 45d4 6d3d 83e5 8dbd d8bd 6cbd b038 0fbd
00000160: 4b5f 04bd 92b2 e23c 2009 29bc 231e d73d
00000170: dd09 1f3e 56f5 4abe f196 2d3e a493 873c
00000180: ae8e de3d 52fb 903e f51c c3bd 51ce 52bd
00000190: c5f0 1d3d 71a7 c0bc f78d e43d c559 74bd
000001a0: 9898 453e cbb9 473c a045 02bd 17a7 8e3c
000001b0: f9e1 0f3e 47f9 d13d 5b86 52bd 4310 973d
000001c0: 63cc 2d3e f4e8 2e3e 4567 103e 5694 1e3e
000001d0: 7e86 db3d 0a59 1d3e 8a1f 08be df88 bf3d
000001e0: 953f 7fbd a5d4 65bd 9a79 8dbd 1aed 693e
000001f0: 623d 543c 9152 69bc 481d ca3d fc91 d23d
0.14444613 0.2119577 -0.06299653 -0.13322721 0.1778288 0.07352943 0.09688372 0.11441775
0.050952982 -0.02302016 -0.1154725 0.011789882 -0.11752536 0.24396043 -0.09093503 0.098579206
0.034176044 0.21556935 -0.054162845 0.25009385 0.22897069 0.094796404 0.019278666 -0.025258647
-0.08228036 -0.16950478 0.026288368 0.09116959 0.066249005 0.15824011 -0.058723904 0.15003453
0.024579253 -0.045254227 0.0037288894 -0.083306804 0.21139716 -0.062918626 -0.0972372 -0.018213093
-0.008003428 0.14299566 -0.12702137 -0.022851985 0.059288792 -0.017348219 0.2075135 0.055238593
0.0071892897 0.11892105 0.14465113 0.08559968 -0.025505057 0.06808381 -0.15437405 0.1039378
0.2554338 0.21956263 0.10318316 0.02866929 0.19567831 0.018810479 0.051121265 0.029942598
-0.14557564 -0.20878497 -0.07140665 0.07849099 -0.004162274 -0.041742645 0.16420951 0.047112826
-0.0645804 0.015061507 -0.14962883 -0.07742677 0.10680796 -0.084572636 -0.0770108 0.15001553
-0.010619405 -0.15913336 -0.026901657 0.06353957 0.058063764 -0.069285415 -0.057798237 -0.03496617
-0.03231744 0.02767304 -0.010317117 0.10503795 0.15531106 -0.1982015 0.16952111 0.016549893
0.10867058 0.28316742 -0.095270075 -0.05146629 0.038559694 -0.023517342 0.1115989 -0.059655923
0.19296491 0.012190293 -0.03180468 0.017413659 0.14051045 0.10252624 -0.051397663 0.073761486
0.16972499 0.17081052 0.14101894 0.15486273 0.10719012 0.15365997 -0.13293281 0.09352278
-0.062316496 -0.056110997 -0.06907959 0.22844353 0.012954088 -0.014240877 0.09868866 0.102817506

weight_ih_l0_reverse f4 [128, 16]
00000000: 7a30 723d 064c 16bd 3d8a 413e 658c 163e
00000010: 081a 26be b659 66be bf7b 853d 43a3 e7bd
00000020: 36f9 6d3b cff8 92be 2d16 b3bd cfbc c43d
00000030: 0f68 843d 3b64 babd 2000 a53d bd47 8bbc
00000040: e663 4f3c 63f9 76be 5bf0 2cbe a8ab d43d
00000050: f21b 1b3d 2ba2 07be c7ec fd3d ec51 633d
00000060: 1259 823d 58e5 88be 13d6 74bd 00d0 92be
00000070: abac 323c 4acd b9bd a0a7 593e 3a17 e8bd
00000080: 9cae 463e b760 1fbe fef5 9bbd d430 ab3d
00000090: d9b6 5abe 945d 45bd 0625 d53d bd5e 0f3e
000000a0: 9f00 f83c eb48 8dbe 5084 c43c 8a25 3a3e
000000b0: 5072 21be 341b c7bd 423c a6bd fb1a 8a3d
000000c0: 5235 373e 277f 76be 30b3 403d 5979 6b3d
000000d0: f67f 78bc a306 123d cece 7c3e 329a f03d
000000e0: b4a1 493d bbd1 9b3d d326 45be eacf 30bd
000000f0: 5ca8 dbbd 8357 f4bd 193c 06be e660 a1bd
00000100: a9b0 ea3d f402 8ebd 1f30 3cbd a2aa 0fbd
00000110: 0216 653d 5c11 4cbe c8c3 263e 9d17 193e
00000120: 2fb9 9b3d e1de 4fbe 2a28 22be c399 37be
00000130: ddd7 ac3d 1865 223d b44b 2f3e 4723 07be
00000140: dc64 68be e0a5 73be 2ceb e43d 7dee c7bd
00000150: a28d 18bd 93ef 1abe 1719 adbd 7597 f33d
00000160: 71f7 823c 2bb5 15be 63e4 053d a103 0ebd
00000170: bbc0 32bd b969 2b3e febc f2bd 0dca 6c3e
00000180: 146d 813e 8122 8a3d b0e4 3a3d b7c7 1e3e
00000190: 09ec 1e3d 3b83 7a3d 94a6 aabe 24d4 fbbd
000001a0: 817e 22be b9d4 37be c369 dbbc f84d 363d
000001b0: ad6d a8bd e9ef 0f3c 13de 053e 76ce 6abd
000001c0: eea2 fcbd 4e6d 95be bda0 773e ebb2 963d
000001d0: 75c6 56bb 57ad 30be a87d 27be 21d8 853e
000001e0: 6204 07be 1d0d 7fbe 81b6 b0be b6c6 cd3d
000001f0: 2881 323e e705 713c 7a60 d5bd 9735 9eba
00000200: cb41 64be 040e 2c3d 40bf 46be 2ac0 de3e
00000210: d5cb ddbd 1489 dc3d eb14 1cbd f66d 1d3d
00000220: e56c 19bc 70f2 8ebd d729 2f3e 6e2a ab3d
00000230: df96 013e d62e c13e 6534 143e 2408 c33c
00000240: 3435 573e be7f e2bd c21a 163e 164a 293e
00000250: a55b fb3d fb14 80be 79a8 4d3e 53fd 00be
00000260: dc01 22be 23ec 83be 204b 54be 4064 6a3d
00000270: 0fc8 273d 6a17 f4bd be37 33be c1b9 343e
00000280: 24f8 c4bd 0a59 10be 11bf 1abe e666 743e
00000290: 434d 2bbe 45e4 18be d979 003d 81ea c03d
000002a0: 07f7 56be ab04 03be 9b59 2f3e 3a72 493e
000002b0: e262 b23d 8402 0ebe 5234 9cbd 137c 673d
000002c0: 5773 463d 3bfa 503d 27f2 36be 3ede 9e3e
000002d0: a7d2 243e 003b bebd 893a 283c 1449 003e
000002e0: 29f8 eebd 7021 c0bd b10d 6bbe e3f5 09be
000002f0: 9c0f 01be af55 353e f8d3 c9bd 64b2 87be
00000300: 8b6a 573d 2c35 12be 6a22 2fbd f769 893d
00000310: ec00 873c e7c6 b9bd c810 dc3d 42da 40bd
00000320: 60f5 823d 6145 633d d276 963d 1be6 4d3d
00000330: 5e19 d83c 6e09 163e 7fd0 2e3e 1a53 4cbd
00000340: 3d29 ef3d a790 3e3d 8d78 95bd f244 883e
00000350: 1572 3b3e 6622 2fbd d006 8a3e 9007 563c
00000360: 7df1 df3b 12d9 f5bd e12d c4bd e4af 08bc
00000370: 98b6 6d3e 6665 dd3d 705f 9dbd 62ca eebd
00000380: 3ed8 c03d f909 4ebe c21f 393e 957b 59bd
00000390: dcc1 023e ef26 c93c 38e7 4e3d d383 973d
000003a0: 11e6 6abe 2329 b4be b405 72be 7ab9 143d
000003b0: 0664 ea3c fab1 c63d 07ac b2bd b053 12be
000003c0: f582 25bd 2857 b63d 90fe 58be d580 fe3d
000003d0: bff0 c63d 7c79 1cbd f6b0 d63d ae86 1dbe
000003e0: bc77 323e b285 8b3b a301 133e d38e 4abd
000003f0: 0969 9abd dc37 09be fe6f 4fbd 92fc 4cbc
0.059128262 -0.036693595 0.1890039 0.14701994 -0.16220868 -0.2249516 0.06517743 -0.113104366
0.0036311871 -0.2870545 -0.08744464 0.09606325 0.0646516 -0.09101149 0.080566645 -0.01700198
0.012658095 -0.24118571 -0.16888563 0.10384303 0.037868448 -0.13245456 0.12398677 0.05549805
0.06364645 -0.26737475 -0.05977447 -0.28674316 0.010905425 -0.09072359 0.2125535 -0.11332555
0.19402546 -0.15564238 -0.07615279 0.083589226 -0.21358813 -0.048184946 0.10407452 0.14000984
0.030273734 -0.27594694 0.023988873 0.18178383 -0.15766263 -0.097219855 -0.08116962 0.06743427
0.17891434 -0.24071942 0.047045887 0.057488773 -0.015167227 0.03565086 0.24688265 0.117481604
0.049226478 0.07608362 -0.19253092 -0.043167032 -0.107254714 -0.11930754 -0.13108863 -0.0787981
0.114594765 -0.06934157 -0.04594433 -0.035074838 0.05592919 -0.19928497 0.16285622 0.14950414
0.0760368 -0.20299865 -0.15835634 -0.17929749 0.0843961 0.03964719 0.17118722 -0.13197051
-0.22694725 -0.23793745 0.11177668 -0.09762285 -0.037244447 -0.15130453 -0.08452051 0.118941225
0.01598713 -0.14619891 0.03268851 -0.03467143 -0.043640833 0.16739549 -0.11852454 0.23123951
0.25278533 0.06744862 0.04562825 0.15505873 0.03879932 0.061160307 -0.33330214 -0.12296322
-0.1586857 -0.17952241 -0.02678383 0.04450795 -0.08224044 0.008785226 0.13072996 -0.057325803
-0.12335764 -0.29184955 0.2418241 0.07358345 -0.0032772098 -0.17253624 -0.16356528 0.26141456
-0.13185266 -0.24907346 -0.3451424 0.10047667 0.17432082 0.01471088 -0.10418792 -0.0012070414
-0.22290723 0.042005554 -0.19408894 0.43505985 -0.108298935 0.10768333 -0.038105886 0.038434945
-0.009364341 -0.06979835 0.17105804 0.08357702 0.12655209 0.37731045 0.14473112 0.023807593
0.21016389 -0.11059521 0.14658645 0.16532168 0.12273339 -0.25016007 0.20083798 -0.12596636
-0.15821022 -0.25766096 -0.20731783 0.057224512 0.040962275 -0.119185284 -0.17501733 0.17648984
-0.096176416 -0.14096466 -0.15111949 0.23867378 -0.16728692 -0.14930828 0.031366203 0.09419728
-0.20992671 -0.1279475 0.17124026 0.1967248 0.08710267 -0.13868147 -0.07627167 0.05651481
0.04844984 0.05101989 -0.17865811 0.31028932 0.16095982 -0.09288597 0.010267862 0.12527877
-0.116684265 -0.09381378 -0.22954442 -0.13472705 -0.12603611 0.17708467 -0.09854883 -0.2650329
0.05259184 -0.14278096 -0.04275743 0.06709664 0.016479932 -0.09071141 0.10745388 -0.047083147
0.06394458 0.055486087 0.07346882 0.050268274 0.026379284 0.14652035 0.17071722 -0.04988394
0.116777875 0.04652467 -0.07298384 0.266151 0.18305238 -0.042757414 0.26958323 0.0130633265
0.0068342076 -0.120042935 -0.09579063 -0.008342717 0.23214185 0.10810356 -0.07684219 -0.11659695
0.09416245 -0.20120992 0.18078521 -0.053096373 0.12769264 0.024554698 0.050513476 0.0739819
-0.22939326 -0.35187635 -0.23634988 0.036309697 0.028612148 0.09701915 -0.08724218 -0.14289737
-0.040408093 0.089033425 -0.21190858 0.124269165 0.097138874 -0.038201794 0.10482971 -0.15383407
0.17428488 0.004257881 0.14356093 -0.049452614 -0.07539565 -0.13400215 -0.050643913 -0.012511389

weight_hh_l0_reverse f4 [128, 32]
00000000: da7d 99bd 9b81 a13b 941d d43d 1db5 49be
00000010: ad23 423e 7469 7cbd d00b 773e 1a8a 91bd
00000020: 328a aa3d 646d 6cbc aa3d 8c3d 3936 113e
00000030: 7ffd 373e 6fcd 303e a476 a7bd dbde e7bd
00000040: 2e3f a33d 2375 cc3d 9572 133e ed99 87be
00000050: 9911 7abd b560 ac3c 1a55 1d3d 26b6 46be
00000060: 1059 22be ff83 783c 6d8c f73c 80f7 ab3d
00000070: b558 f6bd a3fc 8ebd a93c bf3d 6be8 4dbe
00000080: 3a2e 8a3d 78c7 693c c853 123e a108 90bd
00000090: b6d4 103e e3ff ea3c 13e8 5c3d 76a3 0d3d
000000a0: d025 4d3e 1d9c f63d 58fe 903e 34a0 023e
000000b0: 3898 04bc c041 903b 083b 0f3d b43a 34be
000000c0: 88c0 bd3d 56f6 b6bc 6317 abba b332 9dbe
000000d0: 7e9b 0bbd 7c16 86bd afcb b03d ba91 46be
000000e0: 10ec 7ebd aacf cf3b 48fa b4bc bc13 bb3d
000000f0: e481 4a3e a226 86be cef0 123d 36f3 f9bd
00000100: 55cd 81bd b379 8dbe a214 dd3d e530 50be
00000110: bec0 453e fccc f73c 1239 5abd 325c 043d
00000120: 3d3f e43d e52a 6c3e f90b e5bd 60ce c8bd
00000130: f9d0 3d3d 40f9 dd3c 7727 3d3e 9b06 8abd
00000140: 49d6 903e 65f7 5dbe 4876 333d cb97 e2bd
00000150: f7b3 5fbd ab50 8c3d d8ea 85be 2d8d 033e
00000160: 8590 e33d 0d9b 2fbe 7b1f 89bd 26c9 113e
00000170: 0e03 633e bd0b 5dbe 8416 7c3e ef4d 1abd
00000180: 6ddb a43e 85ef f9bd 0194 a03e 24d7 74be
00000190: a5a9 833e 515a 6c3d 7935 213d 4f28 cdbd
000001a0: dac4 3e3e 37d3 493e 82ed a73e c796 173d
000001b0: 2fdf c3bd a127 fe3d 5677 5a3d 7633 bdbd
000001c0: 91df dc3d 11ec 5dbe 667c 35bd b371 b3be
000001d0: 2345 2f3e 2b17 83be a894 eabd 4820 36bd
000001e0: 1543 a8bd 9371 28be 2249 8bbe 2597 093e
000001f0: ef76 a63e f5c0 75be d8a3 563d 2da1 6fbe
00000200: 4fea 3a3e 3ab0 07bc ec05 4a3e 9dc5 e23c
00000210: ad85 483e 550b d93d 27ab fe3d b98b 4fbd
00000220: 24ef 313e 0fc1 2a3d 95d0 b33c 9b80 373e
00000230: 6edf a73c c1b4 8a3d 9b7f eb3d 3787 e43d
00000240: cbe4 9cbc b263 4ebd ebcc adbd beb9 42be
00000250: cdc6 433d 33d5 debc 64b3 30bd 5440 96bd
00000260: 4544 453d 15af ce3d 5083 243d 9199 de3d
00000270: ba8f 503d 2b02 c9bd 3f74 aa3d c733 94be
00000280: d596 5cbd 480f f4bc fd8b 43bd 56f2 2fbd
00000290: 3c61 803e 422c 2e3e 35c9 0c3e a6ca b83c
000002a0: f8e5 7b3e 9b0a 8dbd 2fc1 34bd a3a2 593c
000002b0: 45bb d4bd fa62 733e 6531 90bd 4fef d3bd
000002c0: f584 883e b96d 9dbd 0e49 d8bd 87ae e3bd
000002d0: 94f7 c73d dd64 cbbb 2e49 b43c 0155 cf3c
000002e0: ffea 99bd 1789 c9bd 3415 de3d 638b 923d
000002f0: 0b93 99bd c9b2 b5bd dd3b e23c 668b 34be
00000300: 02cd e73d a16b 64bd f5ef f6bc 71ca 943b
00000310: 71d9 be3c 0f2c a23d b38b 873d 88eb 32be
00000320: 2eb7 083e 5cb1 953b c7ef e03d 0ddf 0b3e
00000330: 34de 0bbe 1be4 9bbc d458 7e3d f8e6 2ebd
00000340: 6e68 633e 80dd 1dbe 691b 27be 556d aebd
00000350: cac4 d23d 6f0b efbd ceeb 243d 8358 ac3d
00000360: 9f5a 31be 4891 4cbe ba51 84be 1740 c5bd
00000370: b085 7e3d 2e1c 04be 27b0 01be 580f 3bbe
00000380: 2dcb e8bd 8f85 9f3c ce6e e53c 32dd 22be
00000390: 616d 4b3e 805c 1d3e 08ef cabd 7070 57be
000003a0: 3c8b e03d 1e00 143e 987d e33d 839d a53c
000003b0: 8ac7 af3b c617 583e 2b35 323d 3095 523e
000003c0: 3042 663c 933a 723c 7e32 493d 6423 88be
000003d0: a193 14bd 868d 77bd 89d1 5fbe ad3f eabd
000003e0: fef0 323d 466e 453d 7d41 b83c a088 043e
000003f0: 8bfe e3bc f949 5abe 74e8 4f3e 2d33 3dbe
-0.074947074 0.0049287803 0.10357204 -0.19697995 0.18958922 -0.061624005 0.241256 -0.07106419
0.0832714 -0.014430378 0.06847699 0.1418084 0.17967795 0.17265867 -0.08176926 -0.11321803
0.07971035 0.099832796 0.14399178 -0.26484624 -0.06105194 0.021042207 0.038411237 -0.19405422
-0.15854287 0.015168189 0.030218327 0.08396816 -0.12028638 -0.069817804 0.09337742 -0.20108192
0.06747098 0.014268748 0.14289773 -0.07032896 0.14143643 0.02868647 0.05393226 0.034579717
0.20033956 0.12041495 0.2831905 0.12756425 -0.008092932 0.0044023693 0.034968406 -0.17600518
0.09265238 -0.022334259 -0.0013053234 -0.30702743 -0.034083836 -0.06547257 0.086325996 -0.19391528
-0.062236845 0.006341894 -0.022092 0.091346234 0.19776112 -0.2620135 0.03587418 -0.12204592
-0.06337992 -0.27631912 0.10794951 -0.20331152 0.19311807 0.030249111 -0.053277083 0.032314487
0.11144874 0.23063238 -0.11183924 -0.09804988 0.04634187 0.02709639 0.18472086 -0.06739541
0.28288487 -0.21676405 0.043813974 -0.110641085 -0.054614987 0.06851324 -0.26155734 0.12846823
0.11111549 -0.17148991 -0.066954575 0.14236888 0.22169134 -0.21586509 0.24617964 -0.03767198
0.3219866 -0.12203888 0.31362918 -0.23910195 0.25715366 0.05770332 0.039357636 -0.10017454
0.1862978 0.19709478 0.32798392 0.037009027 -0.09564053 0.12409902 0.053336464 -0.09238331
0.107848294 -0.21672083 -0.04430809 -0.35047683 0.17116217 -0.25603613 -0.11454135 -0.04446438
-0.0821592 -0.16449575 -0.27204233 0.13436563 0.32512614 -0.23999389 0.052402347 -0.23401327
0.18253444 -0.008281762 0.19728822 0.02768212 0.19582243 0.105978645 0.124349885 -0.05067036
0.17376381 0.04168802 0.021950046 0.17920153 0.020492282 0.06772757 0.11498948 0.11158603
-0.019152066 -0.050388046 -0.084863506 -0.19016168 0.047797013 -0.02720127 -0.04313983 -0.07336488
0.04816081 0.10091988 0.04016429 0.10869134 0.05091832 -0.09814867 0.083229534 -0.28945753
-0.053854782 -0.029792443 -0.047740925 -0.04295572 0.25074184 0.1700907 0.1374863 0.022557568
0.24599445 -0.068867885 -0.044129547 0.0132834045 -0.10387281 0.23768225 -0.07040671 -0.10348379
0.26663938 -0.076869436 -0.10560809 -0.11117273 0.09764019 -0.006207092 0.022007551 0.025309088
-0.07515525 -0.09840601 0.10843888 0.07155492 -0.07498749 -0.08871991 0.027616436 -0.17631301
0.11318399 -0.055766705 -0.030143717 0.0045407345 0.023297044 0.0791856 0.066184424 -0.1747266
0.13351128 0.004568262 0.10983234 0.13659306 -0.13658983 -0.019029668 0.06209643 -0.042700738
0.22207806 -0.15416527 -0.1631905 -0.08516947 0.10291441 -0.11672103 0.040263943 0.0841532
-0.17319725 -0.19977295 -0.25843602 -0.09631365 0.062139213 -0.12901375 -0.12664853 -0.18267572
-0.11366878 0.019472865 0.028006937 -0.15904692 0.19865943 0.15367317 -0.09908873 -0.21038985
0.10964057 0.1445317 0.111079395 0.020216709 0.005364363 0.21102819 0.043507736 0.20564723
0.014053866 0.014784473 0.04912042 -0.265895 -0.036273602 -0.0604377 -0.21857275 -0.114379264
0.04368686 0.048200868 0.022492165 0.12942743 -0.027831336 -0.21317281 0.20303518 -0.18476553

bias_ih_l0_reverse f4 [128]
00000000: 4f68 013e 9b3f 22bd bae0 303e cb1c 963d
00000010: 54d3 1a3d 8a31 afbd 4813 f83d 90e8 ad3d
00000020: 84c0 9c3d 3863 2f3e 42f4 c0bd 7565 163e
00000030: 7bad 6a3e 199a 04be 7c4b a4bd a44f 69bd
00000040: 79b2 2dbe cf2f 95bd bbe2 473e 9745 5cbd
00000050: dd32 5e3e ffe9 3a3d eac4 5f3e 2aca 15bc
00000060: 7d2f 113c d101 27bd 195b 113e 82ce 18bd
00000070: 373b 1ebd 7014 0c3d 5d9b 863d bbfa 7bbd
00000080: ce69 3b3e b6d9 903d 240e b73d 193a 0a3d
00000090: 4ad2 043e 73ff 033e f825 2a3e bf96 bbbd
000000a0: d673 b73d dda5 05bd 1078 0e3e b306 973d
000000b0: 060c 5d3d f116 e23c 455c a6bc 807b a73d
000000c0: 5f4d 5b3e 18f0 083e 1be8 853d 92f9 983e
000000d0: 0663 2d3c 125d 303e 3caa 493e ac0b c73d
000000e0: f620 1b3d 1cb6 0e3e e817 433e 506e 11be
000000f0: c964 0bbc b885 20bd c3cd 143e 155a df3d
00000100: 627b cb3d 494b 3d3e adcf 32be 6c5b b43d
00000110: 5f0a 1b3e a083 e6bd 8796 cd3d a044 71bc
00000120: 80d8 b7bc ef63 813c 9e2f a53d 5c82 52bc
00000130: dea3 2bbc 5677 6c3d 580e bd3c 3c0a 3cbe
00000140: 3246 a63d b7eb 39bd f1ee 4b3d 4846 18be
00000150: 6115 873d f473 88bd 99a4 e03d ca4f 25be
00000160: 347c 03be 3f85 0c3d d151 9bbd f552 e83d
00000170: 0fe9 c73d ebb3 3bbd 269b d0bd f92c e7bd
00000180: 3ad8 893d 05f8 7b3e 0dc3 353e 1990 533e
00000190: 9894 3c3e 3c26 3f3e 2cf7 623e f184 6dbd
000001a0: 988b 1d3e 8ff1 5c3d c645 b7bd 11df f73c
000001b0: 5f51 213d 5cc4 df3d 431a 243e 59c7 9a3d
000001c0: 1c93 3c3e c460 7bbd 7b10 6bbd a1a2 bf3d
000001d0: e8e8 203d 5a1e d1bd 595e 9c3d dfe7 60bd
000001e0: 60ee bbbd c23f 2cbd 8590 b13c 2340 073e
000001f0: a670 ebbd 8403 7abd bba1 243e c370 493e
0.12637447 -0.03961144 0.17273226 0.073297106 0.037799194 -0.08554371 0.121130526 0.084916234
0.07653907 0.17127693 -0.094215885 0.1468714 0.2291774 -0.12949409 -0.0802221 -0.056960717
-0.16962613 -0.072845094 0.19520085 -0.053777304 0.2169909 0.045633312 0.2185246 -0.009142438
0.00886142 -0.040773217 0.14194907 -0.037306316 -0.03863069 0.03419918 0.06572602 -0.061518412
0.1830208 0.07072775 0.08938244 0.033746812 0.12970844 0.12890415 0.16616046 -0.09159612
0.08957641 -0.032628883 0.13912988 0.07374325 0.053966545 0.02759883 -0.02030767 0.08177853
0.21416233 0.13372838 0.06538411 0.29877907 0.010582691 0.17223004 0.19693846 0.09719023
0.03787323 0.13936657 0.19052088 -0.14202237 -0.008507916 -0.039190024 0.14531617 0.10905854
0.09935643 0.1848575 -0.17462035 0.088065 0.15140675 -0.11255574 0.100384764 -0.014725834
-0.022442102 0.015794722 0.08065723 -0.012848463 -0.010476081 0.057730995 0.023078129 -0.18363279
0.081188574 -0.04539081 0.04978842 -0.1487056 0.065958746 -0.06662741 0.109688945 -0.16143718
-0.12840348 0.03430676 -0.075839646 0.11343948 0.09761249 -0.04582588 -0.10185842 -0.11287875
0.06730695 0.2460633 0.17750187 0.20660438 0.18416059 0.18666929 0.22164601 -0.05798811
0.15385282 0.053941306 -0.08948855 0.030257734 0.039384242 0.109261245 0.16025643 0.07557554
0.18415493 -0.06137158 -0.057388764 0.09357191 0.039284617 -0.10210867 0.07635183 -0.05490863
-0.09176326 -0.04205299 0.021675358 0.1320806 -0.11496095 -0.06103851 0.1607732 0.19671921

bias_hh_l0_reverse f4 [128]
00000000: b835 b3bd f670 473e 71b3 d5bd b5f6 923e
00000010: c643 923c 1ad8 10bd b171 93bb c0e2 a53d
00000020: 406c dc3d ac96 743d bd6b 2b3d e7b3 123e
00000030: aa73 723e fe16 033d 948a ae3d 6ce6 5cbd
00000040: f719 4a3d 747a 57bd fb90 603d 4b0b 683d
00000050: 383e e73d 8f13 a93d 6976 333b 8881 f33d
00000060: 4f79 b73d 9cae 383e 0f96 babd cf8d a4bd
00000070: 373b fd3d 29e6 ac3c 5f55 9d3d db9d 183e
00000080: 46f0 20bd dfb2 95bd 980e ac3d f07d 743d
00000090: 8644 92bd 2cee 523e a2f4 f7bd 086d 2b3e
000000a0: ee73 f73d b2ce 1cbe 2d6a e83d 29b2 9f3d
000000b0: 48b8 3b3e 1ddb 9fbd 9e55 40bd 7abc 193e
000000c0: 08b6 5abd f2da d13d 251c 5f3e 5a0e 9b3d
000000d0: c6a3 2f3e 0933 323e fc7d c73d b38c cb3c
000000e0: 5e15 4e3e 1494 1a3e 6eeb 6c3c 3888 e13d
000000f0: 2066 0cbe 0b6d a0bd 2add c1bc d069 ae3d
00000100: 0d79 003e 0cd6 efbd 290d f23d f160 fabc
00000110: a0f0 f43d aa26 093e c711 b83d 4212 c5bd
00000120: 8541 9c3d 4738 86bd 3415 82bc 0b8d 813d
00000130: d792 85bd 2731 b2bc 220c 80bd a5d2 b5bd
00000140: c1cd 67be 4154 183e c9c6 193c b603 163e
00000150: e20d 403e ee9d 0abe 9724 bebd 210b cdbd
00000160: a121 d9bd 015f bebd 31aa a83c bb46 7b3c
00000170: da6a c33d bbe9 e63d 8c1b eabd 9ba1 10be
00000180: 1dcd 3e3e b2cb 93bd 1f39 373e 00cb 93bc
00000190: 09ce 5d3d 6f78 b73d 1d32 fabd 4dcd c1bc
000001a0: 6d05 a63d 9260 da3d 8608 7a3c b41c dfbd
000001b0: 8f05 263d af94 0bbc a4cf babd 49fb 2a3e
000001c0: 37d1 303e cb53 9abd 4e8b 22bc 0fa0 b93d
000001d0: 2586 503e ebee 2b3d 52cf fa3d d856 e13d
000001e0: 00d6 123e 203c 243e da14 0f3d fb40 fdbc
000001f0: bdf0 c2bd 7e74 46bd 3f2b 273e 5562 7a3e
-0.087504804 0.19476685 -0.10434616 0.28703848 0.017854583 -0.03536234 -0.004499637 0.0809989
0.107628345 0.059714004 0.041850794 0.1432644 0.23676935 0.03200435 0.085225254 -0.053930685
0.04934117 -0.052607015 0.054825764 0.056651395 0.11291164 0.08255684 0.002738381 0.118899405
0.08958685 0.18035358 -0.09110653 -0.0803486 0.1236481 0.021105843 0.07682299 0.14903967
-0.039291643 -0.073095076 0.08401221 0.059690416 -0.07141976 0.20598668 -0.12107207 0.16740811
0.12082659 -0.15313223 0.113483764 0.07797653 0.18332016 -0.078054644 -0.04695665 0.15013304
-0.053396255 0.10246839 0.2178808 0.07571097 0.17152318 0.17402281 0.097408265 0.024847364
0.20125338 0.1509555 0.014460428 0.1101231 -0.13710833 -0.07833298 -0.02366503 0.08516276
0.12546177 -0.11710748 0.11818916 -0.030563803 0.11959958 0.13393655 0.08987766 -0.09622623
0.07629684 -0.06553703 -0.015879251 0.0632573 -0.06522148 -0.021751953 -0.06252314 -0.08878068
-0.22637083 0.1487589 0.009385773 0.14649853 0.18755296 -0.13536808 -0.09284323 -0.10011888
-0.10602117 -0.09295464 0.020588966 0.015336688 0.09541865 0.11275049 -0.114310354 -0.14124148
0.18632932 -0.07216586 0.17892884 -0.018041134 0.05415157 0.08958518 -0.122165896 -0.023657465
0.08106504 0.106629506 0.015260821 -0.108941466 0.040532645 -0.008519336 -0.091216356 0.1669742
0.17267309 -0.075355135 -0.009920908 0.09063732 0.20363672 0.041975897 0.122465745 0.11002892
0.14339447 0.16038561 0.034931995 -0.030914774 -0.095185734 -0.04845094 0.16325091 0.24451573

weight f4 [2, 64]
00000000: 83a3 b8be be9a d8bd 6699 3b3e 7ccf ab3e
00000010: 1eab 7a3e 539c ab3c 1f02 e73d 496f 533e
00000020: 4f35 0f3e dc92 56be f37c 49bb b480 1cbe
00000030: 2dd9 df3d f12a 0f3e 4a35 f5bd 78ec 84be
00000040: 3cdd a53e 6513 9d3e c1e6 5fbe 8c0f 863e
00000050: e71a 30be 1e31 57be 7702 b5bd 39d0 953e
00000060: 9293 913e 6f2d 8abe 3dc0 f5bd 3a60 e83e
00000070: 137e 013e 8637 2e3e 4ee1 90be 5d2c 063e
00000080: 0596 483d d7a2 4cbe 655b 1f3b 473e 82be
00000090: b025 aebc c76b 403e bd2c 19be f88e 16be
000000a0: bf65 fabd acac 2a3d 1eda 1b3e 1b22 2f3d
000000b0: 0d2c 613e ff4a b13d 8742 e9bc b008 d33d
000000c0: 4eb0 0cbe 4364 4ebe 91b1 99bd 3635 b93d
000000d0: 57a5 62be 939a 233e 2a7d 5abe 5135 953e
000000e0: 3358 18bd df77 19be a512 46be fad0 583e
000000f0: 1493 003e 87cf d13c a958 0ebd 5a2c 673e
00000100: 3343 ab3e 6e98 1b3e 55e4 82be 93a4 a3be
00000110: f14b aebd 25e5 5abe 3d6d 69be 4c48 21be
00000120: 48af b0bc 6497 a83d 778e c33d 345f 083b
00000130: 26d9 14be 48df a4be 8362 7e3e cf89 923e
00000140: 2095 adbe 942c 48be b470 a43e 239d 27be
00000150: a1c7 813e 2a8f c33e 1983 0d3e 38d6 a2be
00000160: d46c 76be 4296 e13d ef93 52bc 556d c2be
00000170: 4a9e 59bc 4be7 36be 23da 523e d3b3 afbd
00000180: d07e d43c 0f5f 8c3e f0ea 12be 147c 943e
00000190: 4157 713d 0b30 71be 35ff 91bc d6b1 b83d
000001a0: 5774 4a3e c4f6 14be 3af1 17be 174e 6bbd
000001b0: ba56 2ebe a57e d03d 0896 3ebe 9372 163d
000001c0: 3c80 133e 4448 ae3d 5467 163e 6f10 92be
000001d0: dbc8 d63d d599 7abe bf38 8d3d a959 a2be
000001e0: 63e9 ad3d b8d7 113e be5c 013e da8a 69be
000001f0: 6920 0abc 7a6f d13a 7127 4abe 91ba 61be
-0.3606225 -0.1057639 0.18320236 0.33556736 0.24479339 0.020948565 0.112797014 0.2064792
0.1398518 -0.2095446 -0.0030744642 -0.15283471 0.10930095 0.13981225 -0.11973055 -0.2596166
0.3239535 0.3067886 -0.2186537 0.26183736 -0.17197762 -0.2101483 -0.08838361 0.29260424
0.284329 -0.26987788 -0.11999557 0.45385915 0.1264575 0.17013368 -0.28296894 0.13102861
0.048971195 -0.19983993 0.002431595 -0.2543814 -0.021258205 0.18791114 -0.14958473 -0.14702976
-0.12226438 0.04166858 0.15219924 0.042757135 0.2198946 0.086568825 -0.028474106 0.103043914
-0.1373913 -0.20155434 -0.07504571 0.09043352 -0.22133385 0.15976934 -0.21336809 0.2914224
-0.03719349 -0.14987133 -0.1934305 0.21173468 0.12556106 0.025611652 -0.03475252 0.22575513
0.33449706 0.15194866 -0.2556483 -0.31961498 -0.085105784 -0.21376474 -0.22795577 -0.15750235
-0.021567956 0.082320005 0.095486574 0.0020808699 -0.1453596 -0.322016 0.24842267 0.28620765
-0.33902836 -0.19548255 0.32117236 -0.16368537 0.25347617 0.38195163 0.13819541 -0.3180406
-0.24064952 0.110149875 -0.012852653 -0.3797404 -0.013282368 -0.17861669 0.20591025 -0.085792206
0.025939375 0.27416274 -0.14347434 0.29000914 0.058921102 -0.23553483 -0.017821888 0.090182945
0.19770943 -0.14547259 -0.14838114 -0.05744752 -0.17025271 0.101804055 -0.1861192 0.03673036
0.14404386 0.08509877 0.14687854 -0.28528163 0.10487529 -0.24472745 0.06895589 -0.3170903
0.084917806 0.14242446 0.12633035 -0.22806874 -0.008430579 0.0015978657 -0.19741608 -0.22043826

bias f4 [2]
00000000: fa50 84bd 36d2 c23c
-0.064607576 0.023781877
