m6A_BERT_Stacking/Resnet/model_pth/h_b_bilstm.pth (torch, 69975 bytes, 13 tensors)

weight f4 [64, 16]
-0.42642784 -0.6134739 0.7278173 0.635074 -0.04540527 0.35861027 0.16533053 -0.41275048
0.2762158 -0.6936028 0.10252166 0.81935894 -0.91375184 0.810928 0.6151751 0.070308805
-0.42596856 -0.23007244 -0.3531677 0.51907814 -0.8059342 -0.647364 0.7874745 0.7927179
-0.76069134 0.5710431 0.82571167 -0.80219275 0.28466326 -0.5579389 0.056066513 0.67369545
0.1892845 0.42550963 0.6799346 0.3043814 0.49908406 -0.37864187 -0.92052436 0.34095168
0.73292303 -0.7079961 0.46628094 -0.038738947 0.7898373 0.11388034 -0.35806027 -0.16060783
0.27408397 0.20156057 -0.97655755 0.67631686 -0.760063 -0.800457 -0.14615524 0.0015259236
-0.40658912 -0.1669045 0.75802577 0.47708023 -1.0625354 -0.53103256 -0.83956826 -1.0161115
0.32142153 -0.59222525 0.6166132 0.49896193 -1.0687715 -0.94634736 -0.4002565 -0.23333037
-0.7175894 1.0796709 0.75884646 0.9071925 0.28451344 -0.5617343 0.8398297 0.9779957
-0.22569907 -1.030875 -0.33160207 -0.3839028 -0.01876277 -0.5094394 -0.6724564 0.4374747
0.091506205 -0.34666085 -0.2907485 -0.09365365 0.18376142 0.61591405 -0.66286606 0.45596498
0.7109559 -0.545818 -0.058644854 -0.35586193 -0.3371245 0.119051844 -0.6908937 -0.13408451
0.28936434 -0.59996533 0.7463437 -1.137484 0.38746575 -0.09100898 -0.3532408 1.5317274
0.6122108 -0.39811128 0.41859597 0.3827799 0.16214572 -0.6094632 0.5093443 0.32127607
0.07543251 -0.435818 -0.7570884 -0.43926644 0.8235093 -0.50528425 0.4178404 -0.8139799
0.4889885 0.54722714 -0.86743516 -0.0467149 0.34824014 -0.8242894 -0.8361432 0.902032
-0.8814453 -0.64653677 -0.48795947 0.9325346 -0.3341305 -0.11743943 1.0030173 0.8116554
-0.95159686 -0.3543217 0.59810483 0.65904444 0.48187917 -0.030427398 1.0011157 -0.73900384
-0.5634156 -0.35801208 -0.030592425 0.5921953 0.9765531 -0.5099859 0.021638876 0.2636685
-1.0225488 0.2597911 -0.5176291 1.0717559 -0.12305811 0.5626749 0.042003293 0.72471887
0.008443493 0.53967273 -0.067701116 0.5584168 0.09914659 1.2175629 -0.6605614 -1.3612127
-0.13064833 0.1047974 -0.30790645 0.65263987 0.85366976 0.49911016 -0.27248716 0.70390755
0.40573865 -0.8069633 -0.3593946 0.8922805 0.61406815 0.80423707 0.7399727 -0.13136066
-0.8171499 0.37077108 -0.37497234 -0.63793707 -0.05474353 -0.35704684 0.06484281 -0.97654784
-0.2276955 0.071012266 0.35624802 0.6386248 -0.40179157 0.9764774 -0.72458726 0.006363881
-0.9420986 0.2652269 -0.24072511 0.13305008 0.48050264 -0.6254581 0.7151539 0.6476528
-0.60525554 -0.26424474 -0.28246245 -0.012336893 0.17549069 -0.16856372 -0.19175142 0.26945153
0.16194807 0.07483991 0.3481959 -0.13439111 -0.39694497 0.5947449 0.8478442 -0.06559077
0.39132506 -0.08681554 -0.29674104 0.5277343 -0.4081034 -0.02130188 0.2675189 -0.5805321
-0.5821091 -0.15244567 0.7650116 0.59332055 0.25986066 -0.009095412 -0.88364947 0.46919572
1.0579904 -0.2070774 -0.76151115 0.8301558 0.81229025 -0.18226755 -0.059793465 -0.538158
00000000: c054 dabe a00c 1dbf 3c52 3a3f 3694 223f
00000010: e0fa 39bd c49b b73e 684c 293e 0854 d3be
00000020: 286c 8d3e f48f 31bf e0f6 d13d 82c1 513f
00000030: a4eb 69bf fa98 4f3f 1e7c 1d3f 10fe 8f3d
00000040: 8d18 dabe 1c98 6bbe 66d2 b4be 4ee2 043f
00000050: b451 4ebf a6b9 25bf ee97 493f 8fef 4a3f
00000060: abbc 42bf e12f 123f d761 533f 815c 4dbf
00000070: 62bf 913e 15d5 0ebf 00a6 653d 4e77 2c3f
00000080: ccd3 413e 66dc d93e 3210 2e3f e1d7 9b3e
00000090: f287 ff3e 59dd c1be 7ca7 6bbf 3891 ae3e
000000a0: d8a0 3b3f 3b3f 35bf 60bc ee3e bbac 1ebd
000000b0: c732 4a3f 183a e93d ad53 b7be 6176 24be
000000c0: bc54 8c3e e565 4e3e adff 79bf 1a23 2d3f
000000d0: 7d93 42bf c0ea 4cbf b8a9 15be 8001 c83a
000000e0: 732c d0be 03e9 2abe fa0d 423f dc43 f43e
000000f0: 2901 88bf c0f1 07bf f2ed 56bf f10f 82bf
00000100: 5d91 a43e 139c 17bf 5dda 1d3f f077 ff3e
00000110: 81cd 88bf d243 72bf 6cee ccbe 28ee 6ebe
00000120: f0b3 37bf a832 8a3f c343 423f c53d 683f
00000130: bfab 913e d2cd 0fbf 14ff 563f ed5d 7a3f
00000140: a81d 67be b6f3 83bf bfc7 a9be e88e c4be
00000150: 61b4 99bc 9f6a 02bf 1a26 2cbf affc df3e
00000160: 9b67 bb3d 887d b1be fddc 94be 7ccd bfbd
00000170: f42b 3c3e 8bac 1d3f 97b1 29bf 3e74 e93e
00000180: 3501 363f baba 0bbf 9635 70bd 8933 b6be
00000190: 959b acbe 74d1 f33d 69de 30bf 734d 09be
000001a0: 9027 943e 5497 19bf 6110 3f3f 1399 91bf
000001b0: e961 c63e eb62 babd fadb b4be a50f c43f
000001c0: d9b9 1c3f 3ed5 cbbe 3652 d63e bafb c33e
000001d0: 8709 263e c805 1cbf 6364 023f 4c7e a43e
000001e0: 5c7c 9a3d 8923 dfbe 8cd0 41bf 88e7 e0be
000001f0: 81d1 523f 4f5a 01bf 2def d53e fd60 50bf
00000200: b35c fa3e 1417 0c3f 3b10 5ebf 1f58 3fbd
00000210: 884c b23e a104 53bf 7b0d 56bf 92eb 663f
00000220: 66a6 61bf 6f83 25bf d3d5 f9be 96ba 6e3f
00000230: 2713 abbe 1584 f0bd df62 803f a6c8 4f3f
00000240: da9b 73bf a769 b5be 661d 193f 23b7 283f
00000250: deb8 f63e e142 f9bc 8f24 803f 5b2f 3dbf
00000260: 013c 10bf 5c4d b7be f79c fabc 1c9a 173f
00000270: 62ff 793f 708e 02bf 0344 b13c 8fff 863e
00000280: e1e2 82bf 5703 853e 5783 04bf 4c2f 893f
00000290: e405 fcbd 760b 103f a50b 2c3d 2d87 393f
000002a0: 9456 0a3c fe27 0a3f e2a6 8abd 67f4 0e3f
000002b0: 5e0d cb3d 1ad9 9b3f 8d1a 29bf 383c aebf
000002c0: adc8 05be 05a0 d63d eaa5 9dbe 6813 273f
000002d0: 1a8a 5a3f 5e8b ff3e 7083 8bbe 4933 343f
000002e0: fabc cf3e 2695 4ebf 9202 b8be 7f6c 643f
000002f0: 9233 1d3f 7be2 4d3f da6e 3d3f 6983 06be
00000300: bc30 51bf b5d5 bd3e 60fc bfbe d84f 23bf
00000310: c03a 60bd d8ce b6be 4fcc 843d 0aff 79bf
00000320: 0229 69be e16e 913d 2466 b63e ea7c 233f
00000330: a0b7 cdbe 6cfa 793f 8d7e 39bf 1a88 d03b
00000340: 602d 71bf d2cb 873e a580 76be 483e 083e
00000350: 7104 f63e 061e 20bf 5314 373f 93cc 253f
00000360: 07f2 1abf 164b 87be eb9e 90be ae20 4abc
00000370: d5b3 333e f89b 2cbe 7c5a 44be 8df5 893e
00000380: b7d5 253e ab45 993d bc46 b23e d39d 09be
00000390: 5f3c cbbe 3441 183f 510c 593f 7454 86bd
000003a0: c25b c83e 59cc b1bd 71ee 97be 9819 073f
000003b0: eef2 d0be 4881 aebc 3df8 883e c09d 14bf
000003c0: 1a05 15bf b81a 1cbe cdd7 433f dbe3 173f
000003d0: 750c 853e ec04 15bc da36 62bf 6c3a f03e
000003e0: 3b6c 873f 190c 54be 65f2 42bf 1785 543f
000003f0: 41f2 4f3f 58a4 3abe fee9 74bd b9c4 09bf

weight_ih_l0 f4 [128, 16]
0.12851302 -0.1139621 -0.041463286 0.22361147 -0.04563741 0.0063160467 -0.011999054 -0.10142681
-0.14876631 0.14263539 0.14237493 0.07497583 -0.14418799 -0.0034717238 -0.10010187 0.23730142
-0.24532476 -0.1647345 0.08990686 0.49392378 -0.009086935 -0.15796116 -0.034169782 -0.09602298
-0.25609708 -0.041412085 0.063439675 -0.020132653 0.042436033 0.14173222 0.062412098 0.14705534
0.1718039 -0.088754565 -0.046379764 -0.18493973 -0.1703332 0.057943195 0.24618496 -0.012978709
-0.05491866 -0.17883793 -0.32365283 0.059068203 -0.25025213 -0.17237085 -0.25461134 -0.21956745
0.1397664 -0.21550883 -0.0069663525 0.122454375 -0.45118207 -0.116090104 -0.09286031 -0.17234431
-0.000851392 0.25300595 0.1449313 0.21884404 0.09184377 -0.19711627 0.14835846 -0.13155971
0.1798446 -0.1794438 -0.34549183 -0.07515569 -0.31691772 0.18384749 -0.099252835 -0.24755372
0.14597759 0.050736472 -0.14810945 -0.09015935 0.039290223 -0.042590585 -0.16174743 0.015474792
-0.19072063 0.15891229 -0.03719221 0.06608623 -0.14466171 0.17263867 0.22212104 0.19459628
-0.2111896 0.14792983 -0.11396454 0.13834749 0.106936 -0.11167813 -0.19401325 0.09220481
-0.08392476 -0.21947512 0.06502059 0.25612527 -0.062468387 0.028694931 0.08335552 0.1312159
-0.075880185 0.112990364 0.018315181 0.07975964 0.022193467 -0.08207279 -0.11683636 0.15618385
-0.010980727 0.13930552 -0.106086485 0.030499462 -0.04913207 -0.09941739 0.061471306 0.15518649
-0.17538878 0.39982432 -0.33977103 -0.23908752 -0.15328713 -0.058423214 -0.030538473 -0.012915498
0.02077999 -0.18806879 -0.014285866 -0.13307707 -0.00728254 0.16279607 -0.18687432 0.05636658
0.049232617 0.16081502 -0.21728918 -0.10068594 0.084554926 -0.18293592 -0.08497563 0.12502936
0.016491415 -0.06481497 0.19886556 0.05893386 0.119271435 0.040908124 -0.031690087 0.07664354
0.11879799 0.1423692 -0.15075709 -0.041056216 0.07183934 -0.10823957 0.20091623 0.16668189
0.04472253 -0.12427745 -0.041255753 -0.02799843 0.13938978 -0.106215164 -0.096200846 0.13197002
0.09034935 -0.15166791 -0.090199105 -0.13668126 -0.1266161 0.0007359092 -0.06301613 0.03880602
-0.107223876 0.16875313 0.21421202 -0.1515154 -0.41379452 0.25879136 -0.09293718 -0.2273474
0.09647104 0.31842422 0.122146204 -0.01997396 -0.1934185 0.05800291 0.07178874 -0.019362807
0.021303203 0.100365356 0.18094085 -0.18502052 2.9770958e-06 0.029711567 0.037326097 -0.06793695
0.036553003 0.022858003 -0.3989862 -0.21077295 0.33961704 0.023261067 -0.075780526 -0.040904887
0.005064334 -0.3953959 0.17652781 0.10396153 0.075230874 0.07397808 -0.13588488 0.20543434
0.13088085 0.114425585 0.07096598 0.1236338 0.11381958 -0.00068258954 0.05344307 0.17677355
-0.123724215 -0.044795893 -0.06641548 0.39213684 -0.14172044 -0.14322995 0.051494207 -0.237573
-0.20545983 0.17207208 0.0057416037 -0.13978438 0.1741017 0.021290012 -0.14693315 0.1266665
-0.0218769 -0.13155426 0.060838245 -0.20633829 -0.20782925 0.06670576 0.10836981 0.128563
-0.21684596 0.025617624 -0.08985693 -0.06275167 0.27472576 0.007668342 0.23473336 0.23597968
00000000: eb98 033e f664 e9bd 68d5 29bd 68fa 643e
00000010: 4bee 3abd d7f6 ce3b ae97 44bc dcb8 cfbd
00000020: 3256 18be 030f 123e bcca 113e ee8c 993d
00000030: 04a6 13be dc85 63bb 3602 cdbd 25ff 723e
00000040: 6a36 7bbe 29b0 28be 1621 b83d 94e3 fc3e
00000050: 5ee1 14bc 92c0 21be 9df5 0bbd b2a7 c4bd
00000060: 281f 83be b89f 29bd a9ec 813d 3ced a4bc
00000070: 68d1 2d3d 4022 113e d4a3 7f3d ad95 163e
00000080: 5ded 2f3e f4c4 b5bd b5f8 3dbd d760 3dbe
00000090: d46b 2ebe d855 6d3d e917 7c3e a7a4 54bc
000000a0: 64f2 60bd 4a21 37be d3b5 a5be 80f1 713d
000000b0: 0c21 80be fc81 30be 6b5c 82be 4ad6 60be
000000c0: ec1e 0f3e 59ae 5cbe 0046 e4bb 5cc9 fa3d
000000d0: 5601 e7be a6c0 edbd 8c2d bebd 077b 30be
000000e0: f32f 5fba ff89 813e df68 143e a718 603e
000000f0: 9618 bc3d d9d8 49be 48eb 173e 97b7 06be
00000100: 2f29 383e 1ec0 37be 4ee4 b0be 3aeb 99bd
00000110: 0a43 a2be 8442 3c3e 1245 cbbd b97e 7dbe
00000120: 267b 153e 0cd1 4f3d 01aa 17be 77a5 b8bd
00000130: c9ee 203d 7773 2ebd 1ea1 25be fb89 7d3c
00000140: 454c 43be e7b9 223e dc56 18bd 3858 873d
00000150: 3322 14be 31c8 303e b373 633e 3f44 473e
00000160: 1642 58be eb7a 173e 3e66 e9bd f7aa 0d3e
00000170: 4301 db3d 81b7 e4bd 69ab 46be e0d5 bc3d
00000180: bfe0 abbd 16be 60be 8429 853d da22 833e
00000190: dade 7fbd a211 eb3c 4db6 aa3d 765d 063e
000001a0: 1267 9bbd 7e67 e73d b809 963c 0659 a33d
000001b0: 13cf b53c c715 a8bd e747 efbd a9ee 1f3e
000001c0: 82e8 33bc 1ba6 0e3e df43 d9bd 02da f93c
000001d0: b63e 49bd 589b cbbd 56c9 7b3d 35e9 1e3e
000001e0: 1e99 33be c6b5 cc3e 78f6 adbe 5cd3 74be
000001f0: 4df7 1cbe 2e4d 6fbd d22b fabc 869b 53bc
00000200: cc3a aa3c 1b95 40be 440f 6abc 5b45 08be
00000210: 60a2 eebb 03b4 263e fb5b 3fbe a5e0 663d
00000220: 24a8 493d b1ac 243e 0e81 5ebe 6e34 cebd
00000230: 222b ad3d 8e53 3bbe b407 aebd b207 003e
00000240: 0119 873c b6bd 84bd 6aa3 4b3e a264 713d
00000250: 9544 f43d 478f 273d 77cd 01bd 4af7 9c3d
00000260: 5c4c f33d 3bc9 113e 1160 1abe 902a 28bd
00000270: 8120 933d b5ac ddbd fcbc 4d3e a8ae 2a3e
00000280: f92e 373d 2d85 febd cbfb 28bd f75c e5bc
00000290: 32bc 0e3e 5687 d9bd f304 c5bd 2623 073e
000002a0: 1409 b93d d54e 1bbe 4fba b8bd 2cf6 0bbe
000002b0: a7a7 01be 08ea 403a 9a0e 81bd 10f3 1e3d
000002c0: 3198 dbbd 9fcd 2c3e 655a 5b3e da26 1bbe
000002d0: e0dc d3be 4d80 843e d955 bebd c2cd 68be
000002e0: 9c92 c53d 8008 a33e ca27 fa3d 6ea0 a3bc
000002f0: 800f 46be 7694 6d3d fa05 933d c09e 9ebc
00000300: 0e84 ae3c 5a8c cd3d 8f48 393e 0576 3dbe
00000310: 1eca 4736 ac65 f33c 40e3 183d 8722 8bbd
00000320: 9ab8 153d b540 bb3c eb47 ccbe ddd4 57be
00000330: 49e2 ad3e fe8d be3c d232 9bbd e28b 27bd
00000340: b6f2 a53b 5571 cabe b5c3 343e c8e9 d43d
00000350: a512 9a3d d281 973d 6825 0bbe 615d 523e
00000360: a105 063e f657 ea3d 9d56 913d b833 fd3d
00000370: 3d1a e93d cfef 32ba 1fe7 5a3d 2004 353e
00000380: 1f63 fdbd e67b 37bd d704 88bd 29c6 c83e
00000390: 2a1f 11be dfaa 12be 97eb 523d 5646 73be
000003a0: 1064 52be aa33 303e 1024 bc3b a323 0fbe
000003b0: b747 323e 6468 ae3c a575 16be ddb4 013e
000003c0: 2f37 b3bc 29b6 06be 8631 793d 584a 53be
000003d0: 31d1 54be 089d 883d fef0 dd3d 05a6 033e
000003e0: de0c 5ebe 0ddc d13c e906 b8bd f383 80bd
000003f0: dba8 8c3e b746 fb3b f15d 703e a8a4 713e

weight_hh_l0 f4 [128, 32]
-0.22693835 -0.00954248 0.054636758 0.12953429 0.02877577 0.013293261 0.072541535 -0.4356407
0.029344391 0.008652822 -0.12647173 -0.06842266 0.0748183 -0.07742895 -0.039404616 0.28721222
0.19201134 -0.11506878 0.09817076 -0.09986607 0.337353 -0.09621241 0.12575166 0.15019485
-0.0010941736 -0.0023592592 0.110617064 0.039698567 0.24102615 -0.113233626 0.06141633 0.15413524
-0.02861559 -0.15642066 0.13864265 0.13680352 -0.09497877 -0.088479355 -0.22234945 -0.05818444
-0.15340717 0.07317317 0.14810677 0.16381976 0.07386868 0.008946001 0.1711561 0.30912545
0.08735557 0.13718401 0.055973653 -0.024875015 0.19121955 -0.0010632524 0.18871227 -0.07579093
0.055151127 0.08297608 0.17536815 -0.20128806 -0.12643394 -0.086717896 -0.10596794 0.005060868
-0.0026505524 -0.14616829 0.100186445 -0.059327208 0.07334183 0.109967045 -0.10505766 0.1346831
-0.00793069 0.04948052 0.022180075 0.05995312 0.18902692 0.11034571 0.18117309 -0.14186363
-0.13395561 -0.028711904 0.03233678 -0.02319679 0.2004808 -0.11768763 0.25247842 -0.046380352
-0.17703827 -0.30223426 -0.015273712 0.20293558 -0.23834859 -0.12155914 0.08197917 0.15275565
0.0060845264 -0.0070357136 0.10495403 -0.06726683 -0.17493875 -0.14881386 0.021913024 -0.19359688
-0.24183361 -0.019112166 0.10301627 -0.07778847 -0.069524206 -0.19350502 0.13958022 0.3883916
0.2639684 -0.18270035 0.18150534 -0.12177377 0.19092003 -0.07064045 -0.04205181 0.08187129
0.13505076 0.059774626 0.19013835 -0.21790206 -0.13799416 -0.1910768 -0.15621181 0.041257225
0.102130085 0.070187025 -0.044734657 0.09040604 0.009603072 -0.046374664 0.07297851 0.17926247
0.058221586 -0.1030966 0.11521101 -0.13563016 -0.027487097 -0.2463277 0.06344958 -0.13899101
0.19624875 0.14445145 -0.10219763 0.0446828 -0.056217793 -0.037100684 0.07860792 0.00028237115
0.46192175 -0.0950741 0.028153304 0.1807365 0.18089512 0.090021394 0.27163428 0.20416424
-0.06293431 -0.23937234 -0.3044509 -0.04194574 0.022989796 0.05796114 -0.16952978 -0.3695539
0.03820066 -0.13162853 -0.124313705 0.06644166 -0.10257301 0.026692633 -0.07041128 0.30811277
0.13872018 -0.059730597 -0.034204744 0.07461956 0.26014215 0.09198416 -0.055882834 0.045461047
-0.10829296 0.23009616 0.0843644 0.13197708 0.23757014 -0.28531542 -0.066903226 0.1477943
-0.13280784 -0.15235128 -0.0494034 0.24430908 -0.22068124 -0.076746024 -0.056314785 -0.37571508
0.101442 -0.058993388 -0.10394729 -0.08722753 -0.15208313 0.12298828 -0.09738065 0.32173797
0.21235919 -0.021347571 0.05880196 -0.038945705 0.32781625 0.1954189 -0.034264553 -0.106728375
-0.06962483 0.33906493 0.281047 0.14080454 0.24330218 -0.34093085 0.009622055 -0.038558546
0.038825944 -0.12603898 0.06353992 -0.058221746 -0.20346306 -0.070366204 0.070204824 -0.09947228
-0.23274238 0.18866183 0.04545197 -0.067059614 -0.14293207 -0.05340651 0.012982313 -0.15060636
-0.037245434 -0.26972774 -0.2231457 -0.14394379 0.16576788 0.055532344 0.015504805 -0.1998602
-0.019921679 -0.11197301 -0.10093825 0.09504738 -0.103189036 0.08907581 -0.104418874 -0.1093338
00000000: 8762 68be 1058 1cbc cbca 5f3d a3a4 043e
00000010: 2abb eb3c facb 593c a890 943d 4c0c dfbe
00000020: a663 f03c 91c4 0d3c ce81 01be 2e21 8cbd
00000030: 563a 993d 1293 9ebd bc66 21bd 7b0d 933e
00000040: 9f9e 443e 2ea9 ebbd c00d c93d 9586 ccbd
00000050: 88b9 ac3e 030b c5bd 0bc5 003e aecc 193e
00000060: 606a 8fba cd9d 1abb 338b e23d f79a 223d
00000070: 8fcf 763e 08e7 e7bd b18f 7b3d a1d5 1d3e
00000080: 3e6b eabc bd2c 20be 57f8 0d3e 3916 0c3e
00000090: 3b84 c2bd aa34 b5bd 93af 63be cf52 6ebd
000000a0: c516 1dbe d1db 953d 4da9 173e 5ec0 273e
000000b0: 7648 973d 3f92 123c 8b43 2f3e b145 9e3e
000000c0: 7ae7 b23d f779 0c3e a144 653d b0c6 cbbc
000000d0: 0fcf 433e d55c 8bba ca3d 413e 4638 9bbd
000000e0: 26e6 613d 5def a93d b593 333e 751e 4ebe
000000f0: e677 01be 2799 b1bd b805 d9bd a3d5 a53b
00000100: e4b4 2dbb 24ad 15be 8d2e cd3d 1601 73bd
00000110: 3e34 963d 6736 e13d 7828 d7bd 5eea 093e
00000120: baef 01bc 16ac 4a3d fdb2 b53c 6791 753d
00000130: 4690 413e eefc e13d 7085 393e b344 11be
00000140: a92b 09be 3a35 ebbc 9273 043d 3207 bebc
00000150: d74a 4d3e 3606 f1bd da44 813e 53f9 3dbd
00000160: 8549 35be 73be 9abe 973e 7abc 58ce 4f3e
00000170: a711 74be 00f4 f8bd b2e4 a73d fa6b 1c3e
00000180: b560 c73b d88b e6bb 23f2 d63d 31c3 89bd
00000190: 2523 33be a962 18be f182 b33c 433e 46be
000001a0: 3ba3 77be 1e91 9cbc 32fa d23d 904f 9fbd
000001b0: b562 8ebd 2e26 46be 1eee 0e3e 44db c63e
000001c0: de26 873e cd15 3bbe 89dc 393e 8764 f9bd
000001d0: 8a80 433e f1ab 90bd 853e 2cbd 23ac a73d
000001e0: bf4a 0a3e 3dd6 743d a1b3 423e b821 5fbe
000001f0: 574e 0dbe a3a9 43be fdf5 1fbe 56fd 283d
00000200: 9429 d13d 37be 8f3d b03b 37bd cd26 b93d
00000210: 3456 1d3c 5cf3 3dbd c275 953d 9590 373e
00000220: c279 6e3d 4f24 d3bd c0f3 eb3d a2e2 0abe
00000230: 9f2c e1bc 543d 7cbe daf1 813d a953 0ebe
00000240: 6ff5 483e 15eb 133e fe4c d1bd 5005 373d
00000250: a144 66bd e3f6 17bd 30fd a03d 370b 9439
00000260: 0281 ec3e 36b6 c2bd c2a1 e63c fd12 393e
00000270: 923c 393e 235d b83d a613 8b3e 6e10 513e
00000280: b4e3 80bd 061e 75be fde0 9bbe 4ccf 2bbd
00000290: 1955 bc3c a968 6d3d 3799 2dbe 2b36 bdbe
000002a0: 4c78 1c3d a1c9 06be 2f98 febd 9112 883d
000002b0: cc11 d2bd 82aa da3c ca33 90bd f5c0 9d3e
000002c0: aa0c 0e3e 12a8 74bd 461a 0cbd 24d2 983d
000002d0: 5a31 853e 3162 bc3d 66e5 64bd 5d35 3a3d
000002e0: b3c8 ddbd 549e 6b3e 3ec7 ac3d 0025 073e
000002f0: 9645 733e dd14 92be 8f04 89bd 6457 173e
00000300: c7fe 07be f901 1cbe 385b 4abd 292c 7a3e
00000310: 43fa 61be 052d 9dbd 55aa 66bd ba5d c0be
00000320: d3c0 cf3d 0da3 71bd 51e2 d4bd 59a4 b2bd
00000330: aebb 1bbe 48e1 fb3d 826f c7bd d7ba a43e
00000340: b074 593e 1ae1 aebc 53da 703d 8885 1fbd
00000350: 88d7 a73e e41b 483e fd58 0cbd 6894 dabd
00000360: 7697 8ebd eb99 ad3e 64e5 8f3e 112f 103e
00000370: 3524 793e 7d8e aebe d3a5 1d3c 91ef 1dbd
00000380: f407 1f3d 5d10 01be 3821 823d ed79 6ebd
00000390: 9f58 50be 281c 90bd 8cc7 8f3d 1fb8 cbbd
000003a0: 0554 6ebe 9130 413e d82b 3a3d 8d56 89bd
000003b0: c95c 12be c9c0 5abd c4b3 543c 8e38 1abe
000003c0: ab8e 18bd c119 8abe 4e80 64be 0066 13be
000003d0: 0ebf 293e e275 633d de07 7e3c 27a8 4cbe
000003e0: ca32 a3bc 1b52 e5bd b7b8 cebd 33a8 c23d
000003f0: c654 d3bd 616d b63d 90d9 d5bd 66ea dfbd

bias_ih_l0 f4 [128]
0.007051539 0.00030625533 0.21401991 -0.022975544 0.08984966 0.21066442 0.03703768 0.16043587
-0.040939055 0.08214265 0.157376 0.24706538 0.022022922 -0.055547476 -0.17778575 0.21209423
-0.05063978 0.1611842 -0.1024142 -0.21252939 0.16432758 -0.03445593 0.24003068 -0.018022044
-0.024840903 0.17438635 -0.04191204 -0.14083809 0.06783266 0.13124852 -0.045167744 -0.1678974
0.0357352 -0.03720644 0.05602357 -0.033183306 0.051484082 -0.07114205 0.06957644 0.02802478
-0.088045284 -0.071166694 -0.16418266 0.034392826 -0.15543531 0.1552944 -0.048714254 0.21949087
0.09051406 0.089038484 0.022918103 -0.15321623 -0.0087412065 -0.011050297 0.19888784 0.12645967
-0.027634887 0.15893337 0.11379813 0.049845785 -0.0054349485 -0.0082992725 0.07147573 -0.12687303
-0.0059760604 -0.05827275 -0.034641758 0.035339907 -0.108465254 -0.031310022 -0.085216165 -0.086102284
-0.18418019 -0.05681598 0.071067296 0.057360914 -0.09485231 0.14338562 -0.12058231 0.0015279284
-0.19740266 -0.030052325 0.06659359 -0.056566346 0.11517024 0.118019916 0.055900335 -0.10728877
-0.08622776 -0.0195986 -0.047921732 -0.18886113 -0.0440271 -0.112003446 -0.14470485 -0.03312183
0.005398328 -0.04563282 -0.061924838 -0.15363763 0.08265832 -0.039567973 -0.052333225 0.20893317
0.013168648 0.11590353 -0.06689663 0.020728396 -0.0039349417 0.16363193 0.15375441 -0.042474624
0.03820745 0.11811519 0.20055257 -0.0736637 0.14697812 0.11816379 0.08557429 0.10465258
0.18879893 -0.061651744 0.18357785 0.13129227 0.06710525 0.019959547 0.13173908 -0.15686634
00000000: 9910 e73b e590 a039 0928 5b3e 3537 bcbc
00000010: 1903 b83d 6ab8 573e d3b4 173d 4d49 243e
00000020: b6af 27bd 683a a83d 2d27 213e b5fe 7c3e
00000030: 6a69 b43c c085 63bd 780d 36be 3b2f 593e
00000040: a86b 4fbd 790d 253e 89be d1bd 4ea1 59be
00000050: 7d45 283e a921 0dbd 9aca 753e f7a2 93bc
00000060: 267f cbbc 5692 323e f6ab 2bbd dc37 10be
00000070: daeb 8a3d 0366 063e d001 39bd 4ced 2bbe
00000080: 135f 123d c865 18bd f978 653d 38eb 07bd
00000090: f9e0 523d ecb2 91bd 187e 8e3d 3994 e53c
000000a0: 1651 b4bd d8bf 91bd 801f 28be 7edf 0c3d
000000b0: 6f2a 1fbe 7f05 1f3e 9988 47bd 37c2 603e
000000c0: 6f5f b93d cf59 b63d bfbe bb3c b7e4 1cbe
000000d0: 4737 0fbc 4e0c 35bc 41a9 4b3e a57e 013e
000000e0: 8f62 e2bc 6ebf 223e fe0e e93d 182b 4c3d
000000f0: a717 b2bb acf9 07bc de61 923d 01eb 01be
00000100: d4d2 c3bb 68af 6ebd 84e4 0dbd 94c0 103d
00000110: 0823 debd f03e 00bd d085 aebd 6556 b0bd
00000120: bb99 3cbe dfb7 68bd bb8b 913d 47f3 6a3d
00000130: ee41 c2bd aed3 123e dcf3 f6bd c544 c83a
00000140: ec23 4abe 4b30 f6bc 3862 883d 1db2 67bd
00000150: 60de eb3d 6db4 f13d c0f7 643d 37ba dbbd
00000160: 2e98 b0bd 3e8d a0bc 9449 44bd d064 41be
00000170: c355 34bd 1062 e5bd 822d 14be c2aa 07bd
00000180: 75e4 b03b 7be9 3abd e6a4 7dbd 2f53 1dbe
00000190: c448 a93d 0712 22bd 5d5b 56bd 94f2 553e
000001a0: 50c1 573c d45e ed3d 1a01 89bd 99ce a93c
000001b0: aff0 80bb 218f 273e cc71 1d3e dff9 2dbd
000001c0: 6a7f 1c3d 60e6 f13d a75d 4d3e fedc 96bd
000001d0: 6f81 163e dbff f13d 9341 af3d 1854 d63d
000001e0: 8254 413e 8a86 7cbd d5fb 3b3e 7b71 063e
000001f0: 7a6e 893d 3482 a33c 9ce6 063e 92a1 20be

bias_hh_l0 f4 [128]
0.05883225 0.05651244 -0.051967166 -0.24566443 0.10141114 0.13276315 0.04393805 0.2109613
0.06433171 -0.098560534 -0.122960396 0.08401811 -0.16096002 0.16531043 -0.17705579 0.10913287
-0.07272 0.23650454 -0.14032818 0.11455197 0.22638853 0.06633729 0.0815726 -0.11338615
-0.13284501 -0.11765048 -0.03636197 0.012871276 0.028487353 0.17628689 -0.13625084 0.14029795
-0.04895681 -0.0559058 -0.033621423 -0.10409137 0.16654603 -0.05179115 -0.07875411 0.061010536
0.033596326 0.1292828 -0.16137953 0.17208955 -0.052470263 -0.04686778 0.10877363 0.10948764
-0.05205967 0.1756454 0.15118869 0.039528735 0.013146318 0.050744157 -0.080129124 0.10652393
0.17574221 0.11238098 0.06744511 -0.05170141 0.18722366 0.08184604 0.016423644 0.031648356
-0.025859173 -0.10095773 0.028348027 0.060098194 0.015353593 -0.101489566 0.19992822 0.04240375
-0.17979637 0.10903401 -0.03984752 -0.0074270996 0.10343454 -0.001139948 0.008402516 0.13271844
-0.021574736 -0.16028394 -0.024943374 0.060629867 -0.0016152681 -0.083074115 -0.031935547 -0.062228363
-0.1062974 0.009404723 -0.061732326 0.08736469 0.02460817 -0.12190305 0.08785876 -0.002797534
0.03333375 0.13899079 -0.079848096 -0.13556257 0.025320211 -0.024664748 0.08127298 0.007479472
0.14817546 -0.037895005 -0.018801734 0.05641562 0.05499916 0.08170348 -0.14693655 0.106258325
0.09860248 0.17040455 0.070130594 0.008058135 0.083923414 0.10889085 -0.07771305 0.047996975
-0.08634987 -0.117098086 -0.109583616 0.10744143 0.0034248068 0.007425886 0.025734961 0.08719775
00000000: 16fa 703d 9779 673d 86db 54bd 758f 7bbe
00000010: a5b0 cf3d 10f3 073e 62f8 333d 3d06 583e
00000020: 58c0 833d 1bda c9bd a9d2 fbbd b011 ac3d
00000030: b4d2 24be 2347 293e 1d4e 35be 0e81 df3d
00000040: 39ee 94bd 3f2e 723e 31b2 0fbe 399a ea3d
00000050: 65d2 673e d8db 873d 890f a73d ff36 e8bd
00000060: 8608 08be bcf2 f0bd 4af0 14bd 0be2 523c
00000070: 4f5e e93c 8d84 343e 5785 0bbe 44aa 0f3e
00000080: f086 48bd 7bfd 64bd 9eb6 09bd db2d d5bd
00000090: 0b8b 2a3e f522 54bd d649 a1bd 2fe6 793d
000000a0: 4d9c 093d b662 043e ad40 25be 3e38 303e
000000b0: 0feb 56bd 6ef8 3fbd b5c4 de3d 0e3b e03d
000000c0: 853c 55bd 63dc 333e 35d1 1a3e e2e8 213d
000000d0: a763 573c 1bd9 4f3d bd1a a4bd 3829 da3d
000000e0: c4f5 333e 0028 e63d a920 8a3d dcc4 53bd
000000f0: 8fb7 3f3e e69e a73d e18a 863c b5a1 013d
00000100: 9ed6 d3bc edc2 cebd 1f3a e83c 8629 763d
00000110: a38d 7b3c c3d9 cfbd fcb9 4c3e 8eaf 2d3d
00000120: 8a1c 38be 394d df3d 2737 23bd 075f f3bb
00000130: 7dd5 d33d 4f6a 95ba b5aa 093c 58e7 073e
00000140: 80bd b0bc 7921 24be 0c56 ccbc 0657 783d
00000150: 67b7 d3ba c322 aabd d9ce 02bd 2be3 7ebd
00000160: 74b2 d9bd 4416 1a3c 09db 7cbd 42ec b23d
00000170: 1397 c93c 4ea8 f9bd 4bef b33d d556 37bb
00000180: f888 083d 9a53 0e3e 6687 a3bd ead0 0abe
00000190: 556c cf3c ba0d cabc 7372 a63d 5c16 f53b
000001a0: 4fbb 173e cb37 1bbd 1806 9abc 1114 673d
000001b0: cd46 613d 2754 a73d 8976 16be f79d d93d
000001c0: 19f0 c93d 887e 2e3e a1a0 8f3d 4506 043c
000001d0: 0ae0 ab3d 2a02 df3d 0528 9fbd 7a98 443d
000001e0: 33d8 b0bd 1fd1 efbd 606d e0bd 410a dc3d
000001f0: b972 603b d954 f33b 20d2 d23c bc94 b23d

weight_ih_l0_reverse f4 [128, 16]
0.24086377 0.0004931451 0.048209738 -0.020271009 -0.14649534 -0.19362335 -0.0536966 -0.24391969
0.0817788 -0.12390542 0.2033131 0.20135586 -0.2047895 -0.270674 0.27415022 0.15858327
0.052895777 -0.2169822 -0.027999055 0.13412076 -0.03841893 -0.13658002 0.20244925 -0.20164801
0.11251646 -0.12382551 0.11921782 -0.1724024 0.06462427 -0.21849526 0.15410753 0.121897735
0.32186165 -0.14069569 -0.0150933135 0.08579379 -0.30492288 -0.029245539 0.10860021 0.019506712
0.06827989 -0.18673064 0.18237811 0.16769733 -0.23047134 -0.2194533 0.16386683 0.14896207
0.29774246 -0.12299274 0.13314326 -0.07242652 -0.010932897 0.11623749 0.28305897 0.047774203
0.15548259 0.065977484 -0.5232557 -0.1282066 -0.049743425 -0.3693451 -0.42784673 0.105944134
0.27121964 -0.085505225 -0.34444678 0.17153041 -0.20309037 -0.17663977 0.10989818 -0.04911016
-0.1540443 0.06134607 0.22488825 -0.094376095 0.0099729765 -0.1607842 0.41427383 0.030306062
-0.25692862 -0.27059817 0.15715988 -0.22219476 -0.033929482 -0.22352846 0.17821573 0.18062475
-0.03550751 -0.058016893 0.079490535 -0.05735425 -0.031980928 0.10121428 0.102795444 0.114757776
0.21321197 0.095054954 0.02856907 0.25297654 -0.039996076 -0.013088911 -0.23751973 -0.2815446
-0.19762103 0.10024792 -0.17620517 0.029263297 -0.03335294 -0.021895371 0.1678474 0.13151732
-0.06247773 -0.16206777 0.201731 0.05617995 0.015132026 -0.20308147 0.005994489 0.11769198
-0.09410173 -0.18013678 -0.06834822 0.09615444 0.12222143 0.022070283 0.069363914 -0.013800944
0.040579405 0.15434939 -0.40338197 0.3281399 -0.16063744 0.118272625 -0.09343136 -0.08534837
-0.056000195 0.35142794 0.07808108 0.1635704 0.18733792 -0.07885635 0.19631727 0.13257244
0.22702152 -0.094375 0.055617213 0.32486492 0.07652349 -0.052643914 0.17193031 -0.09415238
-0.17051426 -0.16434793 -0.29249015 -0.014566895 -0.011054298 -0.14772275 -0.27304453 -0.0013670642
-0.095316984 -0.042636707 -0.34660158 0.09238476 0.065487154 -0.050218858 -0.15377232 -0.00071764586
-0.18239743 0.05294305 0.098523304 0.22657445 -0.07879495 -0.10963075 -0.09933611 0.019846655
0.12256955 -0.035716683 -0.15049517 0.2787742 0.04953589 0.0357779 -0.16115963 0.21620996
-0.00259528 0.1770947 -0.23231174 0.0036041003 -0.09590522 -0.014143232 -0.14987046 -0.17614949
0.03996905 -0.10238647 -0.100505725 -0.0686039 0.10405986 -0.082989275 0.07043988 -0.17923893
0.1395794 0.13666557 -0.059789047 -0.04157618 -0.04139883 0.11850421 0.07578897 -0.051219083
0.10002539 0.10038391 -0.09580957 0.28950498 -0.09797357 -0.012942291 0.14631304 -0.070037626
0.0434464 0.19716428 0.23815992 0.082259886 0.065295376 -0.18696791 -0.21643211 0.10235238
0.009607682 -0.107636966 0.08902844 -0.05112143 0.18198156 0.1532522 0.06162321 0.009567481
-0.00613254 -0.14029372 -0.0513035 0.13288511 -0.06814414 0.079889946 0.08391973 -0.07772022
-0.03121834 0.14525424 -0.35693446 0.4196601 -0.3038077 -0.27117795 0.10404348 -0.23575169
-0.04161929 0.085240625 0.13469712 0.044497784 0.040204868 -0.26355073 0.07052388 -0.06542196
00000000: fea4 763e 6846 013a 9377 453d 630f a6bc
00000010: e002 16be 3345 46be f7f0 5bbd 15c6 79be
00000020: a57b a73d 20c2 fdbd 4f31 503e 3b30 4e3e
00000030: 57b4 51be c895 8abe 6b5d 8c3e a763 223e
00000040: 3ea9 583d 9530 5ebe 465e e5bc f456 093e
00000050: 2b5d 1dbd a2db 0bbe db4e 4f3e d17c 4ebe
00000060: 086f e63d 3b98 fdbd 7928 f43d 418a 30be
00000070: bb59 843d 39bd 5fbe 5dce 1d3e 85a5 f93d
00000080: 0dcb a43e 8812 10be f249 77bc a8b4 af3d
00000090: da1e 9cbe 5794 efbc c969 de3d 8acc 9f3c
000000a0: 54d6 8b3d 5136 3fbe 54c1 3a3e d9b8 2b3e
000000b0: ae00 6cbe 5eb8 60be b5cc 273e 8389 183e
000000c0: b371 983e 9ee3 fbbd b556 083e 5b54 94bd
000000d0: e51f 33bc ec0d ee3d 1bed 903e e2ae 433d
000000e0: d436 1f3e 341f 873d 16f4 05bf 9748 03be
000000f0: c3bf 4bbd cd1a bdbe ba0e dbbe 3df9 d83d
00000100: 4ddd 8a3e 5d1d afbd 545b b0be aba5 2f3e
00000110: ecf6 4fbe 0ee1 34be 4c12 e13d bc27 49bd
00000120: cabd 1dbe 0446 7b3d 1b49 663e 4148 c1bd
00000130: b265 233c 9da4 24be b31b d43e 6b44 f83c
00000140: 268c 83be d88b 8abe 85ee 203e 0687 63be
00000150: a4f9 0abd a5e4 64be 2f7e 363e b2f5 383e
00000160: 5370 11bd 1fa3 6dbd efcb a23d 4aec 6abd
00000170: 6ffe 02bd 6f49 cf3d 6b86 d23d 2006 eb3d
00000180: 3d54 5a3e 2cac c23d af09 ea3c 2486 813e
00000190: edd2 23bd df72 56bc 5f38 73be 9d26 90be
000001a0: 2b5d 4abe c84e cd3d 216f 34be 95b9 ef3c
000001b0: 189d 08bd ec5d b3bc 30e0 2b3e 7aac 063e
000001c0: a6e8 7fbd 18f5 25be 9292 4e3e f21c 663d
000001d0: 51ec 773c 97f4 4fbe 6b6d c43b 7e08 f13d
000001e0: 68b8 c0bd c775 38be 27fa 8bbd 9eec c43d
000001f0: 3b4f fa3d bdcc b43c ab0e 8e3d 5b1d 62bc
00000200: 9736 263d c40d 1e3e 1588 cebe f401 a83e
00000210: 247e 24be eb38 f23d f158 bfbd 20cb aebd
00000220: 7660 65bd 5dee b33e f9e8 9f3d 007f 273e
00000230: 83d5 3f3e 707f a1bd 6507 493e 12c1 073e
00000240: 5478 683e ae47 c1bd e0ce 633d b254 a63e
00000250: 59b8 9c3d 25a1 57bd 800e 303e f7d2 c0bd
00000260: 4a9b 2ebe d34a 28be 45c1 95be fca9 6ebc
00000270: 161d 35bc a244 17be 7ecc 8bbe 102f b3ba
00000280: 8d35 c3bd d4a3 2ebd c375 b1be 3934 bd3d
00000290: 211e 863d 4ab2 4dbd 7e76 1dbe 6620 3cba
000002a0: 64c6 3abe d0da 583d 96c6 c93d 2203 683e
000002b0: 3f5f a1bd 1686 e0bd bb70 cbbd 7495 a23c
000002c0: bf05 fb3d a84b 12bd 681b 1abe 7ebb 8e3e
000002d0: 25e6 4a3d d98b 123d 0807 25be 2566 5d3e
000002e0: 9315 2abb 5058 353e 21e3 6dbe c532 6c3b
000002f0: f569 c4bd 04b9 67bc a477 19be 8860 34be
00000300: 96b6 233d ffaf d1bd f2d5 cdbd 3480 8cbd
00000310: 561d d53d 48f6 a9bd c942 903d 698a 37be
00000320: e7ed 0e3e 0ff2 0b3e 5ce5 74bd c94b 2abd
00000330: d291 29bd 56b2 f23d 3f37 9b3d 1acb 51bd
00000340: 1dda cc3d 1496 cd3d cf37 c4bd ff39 943e
00000350: 5ea6 c8bd e70b 54bc 16d3 153e e36f 8fbd
00000360: daf4 313d 6fe5 493e 32e0 733e df77 a83d
00000370: 95b9 853d 8474 3fbe 61a0 5dbe 209e d13d
00000380: 8a69 1d3c c570 dcbd 8b54 b63d b464 51bd
00000390: 6059 3a3e 25ee 1c3e 9e68 7c3d edc0 1c3c
000003a0: 79f3 c8bb 28a9 0fbe 9e23 52bd 0913 083e
000003b0: 288f 8bbd 579d a33d 1bde ab3d c72b 9fbd
000003c0: 9bbd ffbc 87bd 143e 1dc0 b6be b0dd d63e
000003d0: af8c 9bbe d6d7 8abe bf14 d53d e468 71be
000003e0: fd78 2abd a392 ae3d 0bee 093e 4f43 363d
000003f0: dcad 243d 1ff0 86be d36e 903d f3fb 85bd

weight_hh_l0_reverse f4 [128, 32]
-0.11880953 -0.0634384 0.062190216 -0.09744798 0.18677701 0.027997995 0.027749667 -0.03158592
0.036857273 -0.053472154 -0.028380167 0.11184194 0.1751925 0.12783805 -0.08653354 -0.11715054
0.032956704 0.12498517 0.07916568 -0.1962238 -0.098210536 0.123925574 0.04201738 -0.1391799
-0.1008557 0.037441388 0.06587586 0.060064536 -0.19001646 0.112411015 0.05538942 -0.07446573
0.1143055 0.050460055 0.1670828 0.32215172 0.3446192 0.08371704 -0.052688938 0.07475559
0.38458192 -0.07895139 0.1995951 0.16644241 0.062736906 -0.03885008 0.03836408 -0.36472657
0.09530504 0.2810937 -0.18088882 -0.03866672 0.042156447 -0.09891036 0.50051636 -0.17574802
-0.099512905 -0.2298834 0.030465193 0.08721703 0.19731936 -0.21621083 -0.11727614 -0.1390611
-0.10352135 -0.20797229 0.043638196 0.19813915 0.21456149 0.0949782 -0.07424959 0.13554756
0.14051954 0.14816116 -0.19218773 -0.13989215 -0.043008238 -0.03769926 0.12082317 -0.19153303
0.32690814 -0.14145803 0.043461457 -0.0007643039 0.042405233 0.026739804 -0.09701087 0.03121572
0.13731857 -0.12397615 0.02215684 0.09108934 0.15863143 0.06665206 0.08281524 -0.005481052
0.23680678 -0.068004176 0.35620686 -0.166075 0.1849592 0.06375054 -0.07315136 0.0011499769
0.0077298023 0.07532568 0.30289322 0.014224294 -0.1012039 -0.03950218 -0.0748702 -0.11630289
-0.116711855 -0.19649288 -0.09797406 -0.010756057 0.06839526 -0.066476606 -0.06306449 0.10198361
-0.11874296 -0.11959739 -0.3521774 0.16981728 0.26583806 0.009171261 -0.1157895 -0.0011859463
0.16088678 0.027039582 0.09123793 0.18335317 0.1785219 0.12499538 0.08040535 -0.057190713
0.26200032 -0.0021330782 -0.07717616 0.17858101 -0.10772844 -0.01727992 0.18139744 0.011347186
-0.06415324 -0.005060723 -0.031019105 -0.19258952 0.10643722 -0.11909348 0.0103905015 -0.16845554
0.14792337 0.10457342 0.023979606 0.07993253 0.062000968 0.1299385 0.0039370307 -0.28450045
0.0014487301 -0.03310387 -0.046417616 0.37606186 0.3510749 0.31088883 -0.117752306 0.07719175
0.23887181 -0.09656602 -0.065209866 0.06477078 -0.112169735 0.25174254 -0.09968787 -0.1873371
0.27498615 0.00446764 -0.07210187 0.25331286 0.19177029 -0.07284166 0.2602253 -0.07274831
-0.14063403 -0.2473867 0.09994647 0.096544005 -0.018426843 0.13604538 -0.07144718 -0.12903544
-0.08746246 -0.04022074 -0.2239087 -0.21045667 -0.29409617 -0.043298084 0.08730785 0.08603982
-0.1252738 -0.118734546 -0.085923664 -0.052609224 -0.1770746 -0.22747923 -0.07465528 0.1616228
0.11953376 -0.083779596 -0.11504061 0.089239724 0.04887763 0.018873459 -0.03392421 0.16405003
0.07884053 0.018722065 -0.05378755 -0.18677618 -0.1965651 0.0033897588 -0.20766106 -0.0627653
-0.09388108 -0.06156744 0.026455345 0.10659103 0.2719368 0.20765103 -0.21693592 -0.17099994
0.19573508 0.121204786 0.023895664 0.017732257 -0.0134328585 0.2664611 0.0072372537 0.11549958
0.090295464 0.04504505 0.04923126 -0.14522743 -0.03382448 -0.11363375 -0.040708743 -0.20062943
0.0461991 0.03351116 0.07162251 0.11341318 -0.03861052 0.0036708813 0.13612956 -0.15761024
00000000: 6952 f3bd feeb 81bd 2bbb 7e3d ce92 c7bd
00000010: 7942 3f3e 0d5c e53c 4553 e33c 3d60 01bd
00000020: a7f7 163d 9e05 5bbd 867d e8bc 630d e53d
00000030: aa65 333e fae7 023e 7f38 b1bd 9fec efbd
00000040: 9cfd 063d 3af8 ff3d 9e21 a23d e4ee 48be
00000050: 9b22 c9bd b1cc fd3d 6b1a 2c3d 2d85 0ebe
00000060: 6f8d cebd 245c 193d ece9 863d 3b06 763d
00000070: ad93 42be bf37 e63d 04e0 623d 7d81 98bd
00000080: 0119 ea3d 34af 4e3d c117 2b3e 12f1 a43e
00000090: ee71 b03e d773 ab3d 5bd0 57bd 7519 993d
000000a0: ece7 c43e 44b1 a1bd a862 4c3e e16f 2a3e
000000b0: 357c 803d 4321 1fbd a723 1d3d 71bd babe
000000c0: 4a2f c33d 83eb 8f3e eb3a 39be ff60 1ebd
000000d0: 3dac 2c3d 8491 cabd d721 003f 4af7 33be
000000e0: 6ccd cbbd 8e66 6bbe 2492 f93c d89e b23d
000000f0: 160e 4a3e 5f66 5dbe 792e f0bd 0866 0ebe
00000100: 0003 d4bd b0f6 54be f7bd 323d fde4 4a3e
00000110: 02b6 5b3e ee83 c23d 2b10 98bd fbcc 0a3e
00000120: 5be4 0f3e 8fb7 173e dccc 44be e33f 0fbe
00000130: 6829 30bd 8a6a 1abd 2372 f73d 3c21 44be
00000140: 8160 a73e 60da 10be a404 323d 915b 48ba
00000150: 1cb1 2d3d 6f0d db3c a3ad c6bd 1cb8 ff3c
00000160: 3d9d 0c3e 35e7 fdbd 4382 b53c 0c8d ba3d
00000170: 4770 223e e080 883d 099b a93d 669a b3bb
00000180: 7a7d 723e c645 8bbd bf60 b63e 910f 2abe
00000190: f265 3d3e a58f 823d 61d0 95bd d2ba 963a
000001a0: 484a fd3b 5a44 9a3d d214 9b3e 030d 693c
000001b0: fe43 cfbd 0acd 21bd 8c55 99bd 3630 eebd
000001c0: a006 efbd 6e35 49be a0a6 c8bd 2c3a 30bc
000001d0: d012 8c3d e324 88bd f527 81bd c8dc d03d
000001e0: 822f f3bd 7aef f4bd 9950 b4be 95e4 2d3e
000001f0: ed1b 883e 0f43 163c 0c23 edbd c171 9bba
00000200: 81bf 243e 1d82 dd3c f4da ba3d efc0 3b3e
00000210: 72ce 363e 94fd ff3d 8fab a43d cf40 6abd
00000220: e824 863e 1dcb 0bbb 890e 9ebd f1dd 363e
00000230: baa0 dcbd 9e8e 8dbc 40c0 393e 8ce9 393c
00000240: c662 83bd 6cd4 a5bb c71b febc 3036 45be
00000250: c2fb d93d 48e7 f3bd ec3c 2a3c 9c7f 2cbe
00000260: 3979 173e 972a d63d e170 c43c abb3 a33d
00000270: baf4 7d3d 990e 053e 3502 813b 0baa 91be
00000280: 51e3 bd3a ec97 07bd 6620 3ebd 2e8b c03e
00000290: 17c0 b33e d22c 9f3e 1f28 f1bd b516 9e3d
000002a0: d09a 743e 68c4 c5bd c08c 85bd 8ba6 843d
000002b0: 3fb9 e5bd 66e4 803e 2729 ccbd 4cd5 3fbe
000002c0: fcca 8c3e 4865 923b 25aa 93bd 39b2 813e
000002d0: 6e5f 443e 022e 95bd 403c 853e 11fd 94bd
000002e0: 5e02 10be f052 7dbe bcb0 cc3d ddb8 c53d
000002f0: e4f3 96bc 7b4f 0b3e e652 92bd de21 04be
00000300: 851f b3bd 81be 24bd 5248 65be f481 57be
00000310: c693 96be 5559 31bd 75ce b23d a535 b03d
00000320: c647 00be 192b f3bd bff8 afbd c57c 57bd
00000330: 0b53 35be 51f0 68be dee4 98bd 7380 253e
00000340: 1ece f43d a394 abbd 699a ebbd 51c3 b63d
00000350: e933 483d 839c 9a3c 1df4 0abd bbfc 273e
00000360: 2577 a13d 045f 993c 5650 5cbd 4142 3fbe
00000370: 5d48 49be b726 5e3b 1aa5 54be 188b 80bd
00000380: b944 c0bd 242e 7cbd e1b8 d83c 664c da3d
00000390: 4d3b 8b3e 79a2 543e 7324 5ebe 9c1a 2fbe
000003a0: c76e 483e 373a f83d d7c0 c33c 3d43 913c
000003b0: 7e15 5cbc 976d 883e 7c26 ed3b 0b8b ec3d
000003c0: d4ec b83d 2981 383d b8a6 493d 80b6 14be
000003d0: 8a8b 0abd d0b8 e8bd 36be 26bd cd71 4dbe
000003e0: 443b 3d3d 0043 093d d3ae 923d 2b45 e83d
000003f0: 1126 1ebd 2b93 703b 8c65 0b3e 9464 21be

bias_ih_l0_reverse f4 [128]
0.08184537 -0.0936975 0.14206135 0.04049706 0.11563548 -0.060120676 0.02675085 0.08605035
0.16256243 0.18386863 -0.14243595 0.113767385 0.14852606 -0.15718332 -0.1363047 -0.11033151
-0.1274733 -0.03355485 0.14555337 -0.1046831 0.1502001 0.029589836 0.3012256 -0.047159713
-0.07034251 -0.006974104 0.18067278 -0.002096444 -0.05435299 0.0939254 0.044814203 -0.04771232
0.11807958 0.064010195 0.060216766 0.01213913 0.13672209 0.2179023 0.104089305 -0.13495502
0.048584726 -0.036339086 0.08762626 0.061803795 0.019898513 -0.004341504 -0.09770254 0.051271174
0.16319726 0.17895617 0.0036054952 0.12791461 -0.042602222 0.11537295 0.17602308 0.0747559
-0.07647983 0.2195649 0.20535393 -0.12214926 -0.033286203 0.0023471024 0.14424618 0.062384676
0.07216582 0.18146898 -0.16387692 0.050384182 0.03481465 -0.106945395 0.024047153 -0.028709374
-0.037322566 0.03744188 0.10006273 -0.0123472 -0.009481576 0.010641721 0.05751773 -0.097837314
0.14208911 -0.06436805 0.052943397 -0.15466435 0.03372116 -0.07711052 0.09568149 -0.12862687
-0.086570084 0.047065955 -0.083886445 0.1136268 0.0998227 -0.10680799 -0.06978277 -0.12518516
0.010990719 0.21033153 0.13454373 0.19228823 0.24447577 0.22369523 0.12339233 -0.09986545
0.23739293 0.054606475 -0.15527293 -0.018665744 -0.03888094 0.09076683 0.08598886 0.046758376
0.17957751 -0.047087718 -0.12475188 -0.0145668825 -0.01538133 -0.12965335 0.15220965 -0.112671345
-0.16950203 -0.027799113 0.041436095 0.14754578 -0.16274212 -0.0223889 0.15400767 0.16177793
00000000: 8c9e a73d 7ae4 bfbd 8878 113e 3fe0 253d
00000010: 4bd2 ec3d 1941 76bd 9924 db3c 2a3b b03d
00000020: c476 263e 0f48 3c3e bbda 11be e0fe e83d
00000030: 3717 183e aaf4 20be 7693 0bbe 7df5 e1bd
00000040: 5c88 02be cf70 09bd f10b 153e 1864 d6bd
00000050: 0ece 193e 6266 f23c 3e3a 9a3e 8b2a 41bd
00000060: bc0f 90bd 0687 e4bb 4902 393e 7e64 09bb
00000070: 3ea1 5ebd f65b c03d 198f 373d fe6d 43bd
00000080: b5d3 f13d c717 833d dba5 763d 34e3 463c
00000090: e000 0c3e c821 5f3e c62c d53d a631 0abe
000000a0: c700 473d 4bd8 14bd 6675 b33d fa25 7d3d
000000b0: 3502 a33c 2d43 8ebb 4518 c8bd b901 523d
000000c0: 2f1d 273e 4940 373e 2c4a 6c3b 0cfc 023e
000000d0: ab7f 2ebd a748 ec3d 653f 343e 9f19 993d
000000e0: 75a1 9cbd 9fd5 603e 4d48 523e 6429 fabd
000000f0: 1d57 08bd d8d1 193b 45b5 133e 1387 7f3d
00000100: accb 933d 01d3 393e 5acf 27be a55f 4e3d
00000110: ce99 0e3d 3006 dbbd 89fe c43c ec2f ebbc
00000120: 8cdf 18bd a85c 193d b0ed cc3d e94b 4abc
00000130: 9d58 1bbc 9d5a 2e3c b697 6b3d ee5e c8bd
00000140: cf7f 113e 65d3 83bd 2ddb 583d 5560 1ebe
00000150: 331f 0a3d 1fec 9dbd a8f4 c33d c3b6 03be
00000160: a84b b1bd 3bc8 403d a8cc abbd 2bb5 e83d
00000170: d86f cc3d 26be dabd 45ea 8ebd 8a30 00be
00000180: 6b12 343c 2661 573e d5c5 093e 35e7 443e
00000190: db57 7a3e 5d10 653e 1eb5 fc3d 4286 ccbd
000001a0: 2217 733e 0aab 5f3d deff 1ebe e7e8 98bc
000001b0: 9f41 1fbd f6e3 b93d ed1a b03d b685 3f3d
000001c0: 2be3 373e 0ddf 40bd ea7d ffbd efa9 6ebc
000001d0: f901 7cbc d9c3 04be d9dc 1b3e 3cc0 e6bd
000001e0: f191 2dbe f7ba e3bc e5b8 293d 3e16 173e
000001f0: dfa5 26be ed68 b7bc 30b4 1d3e 1da9 253e

bias_hh_l0_reverse f4 [128]
-0.13203357 0.1406809 -0.13501738 0.2542389 0.09569091 -0.0099392 -0.098879546 0.08213301
0.19365141 0.07230564 -0.0063694175 0.11016035 0.15611793 0.0043155556 0.029142022 -0.10730145
0.09149347 -0.013316766 0.0051785847 0.005745535 0.04612094 0.06651317 0.08543892 0.08088207
0.01038263 0.21415244 -0.052382987 -0.045138735 0.107925326 0.08083191 0.05591101 0.16284625
-0.104232825 -0.07981272 0.0548466 0.0380827 -0.064405784 0.29498553 -0.18314305 0.124048926
0.07983502 -0.15684241 0.06198031 0.06603702 0.14925265 -0.10999514 -0.12435166 0.11962558
-0.10436135 0.1476959 0.15610267 -0.09515444 0.11833836 0.117165625 0.07649276 0.0024128698
0.08690032 0.23115374 0.029293505 0.1299964 -0.16188692 -0.03679574 -0.024735102 0.0384888
0.09827131 -0.12049636 0.1289328 -0.068244435 0.0030070469 0.13954742 0.01353991 -0.11021015
0.06141627 -0.043889847 0.0035262113 0.06375828 -0.064227045 -0.06884118 -0.028083622 -0.0029847724
-0.16547021 0.1297823 0.012540728 0.14053969 0.15531556 -0.14585184 -0.106850885 -0.06730847
-0.06418771 -0.08019551 0.012542244 0.01552389 0.097628936 0.051768344 -0.082234755 -0.15354793
0.13001359 -0.10789746 0.1359707 -0.03235744 0.11446741 0.12661098 -0.22041948 -0.06553471
0.16460498 0.10729436 -0.050523423 -0.15786485 -0.037732556 -0.027013792 -0.16548383 0.13815747
0.16809566 -0.061071213 -0.077283815 -0.017501442 0.14897092 0.0144311795 0.19832368 0.052266326
0.065655984 0.17463891 0.05469266 -0.0154500455 -0.14296694 -0.0098013645 0.1564854 0.20957434
00000000: cf33 07be a70e 103e ff41 0abe 9a2b 823e
00000010: 99f9 c33d 07d8 22bc 5c81 cabd 5a35 a83d
00000020: 8e4c 463e fb14 943d 8cb6 d0bb c09b e13d
00000030: 61dd 1f3e 8169 8d3b 40bb ee3c ddc0 dbbd
00000040: ee60 bb3d 912e 5abc 1eb1 a93b 0a45 bc3b
00000050: 50e9 3c3d 0f38 883d 9afa ae3d 80a5 a53d
00000060: e81b 2a3c c74a 5b3e 8b8f 56bd 65e3 38bd
00000070: f407 dd3d 338b a53d f102 653d 2bc1 263e
00000080: 0578 d5bd da74 a3bd d4a6 603d 9bfc 1b3d
00000090: 2ee7 83bd 5808 973e da89 3bbe 5d0d fe3d
000000a0: 8b80 a33d 4c9b 20be 11df 7d3d 6b3e 873d
000000b0: b0d5 183e 2245 e1bd 15ac febd 42fe f43d
000000c0: 67bb d5bd 983d 173e 61d9 1f3e 55e0 c2bd
000000d0: 625b f23d 88f4 ef3d 3ca8 9c3d 3d21 1e3b
000000e0: ccf8 b13d 91b3 6c3e eff8 ef3c c71d 053e
000000f0: afc5 25be 21b7 16bd 45a1 cabc 6fa6 1d3d
00000100: 7842 c93d ccc6 f6bd f606 043e bdc3 8bbd
00000110: e011 453b 85e5 0e3e 80d6 5d3c dcb5 e1bd
00000120: a08f 7b3d d7c5 33bd 0218 673b b393 823d
00000130: 7889 83bd 9bfc 8cbd a00f e6bc 2c9c 43bb
00000140: 0671 29be a7e5 043e a077 4d3c a3e9 0f3e
00000150: 0b0b 1f3e 2f5a 15be a3d4 dabd 06d9 89bd
00000160: d974 83bd 8b3d a4bd fc7d 4d3c ea57 7e3c
00000170: aef1 c73d 0b0b 543d b26a a8bd ab3b 1dbe
00000180: 4822 053e 58f9 dcbd e73b 0b3e 3c89 04bd
00000190: e46d ea3d 4fa6 013e a5b5 61be 1037 86bd
000001a0: 358e 283e 25bd db3d a6f1 4ebd 53a7 21be
000001b0: 748d 1abd 074c ddbc 9874 29be 2779 0d3e
000001c0: 4521 2c3e cf25 7abd fa46 9ebd 2f5f 8fbc
000001d0: d58b 183e c170 6c3c 5d15 4b3e 3715 563d
000001e0: a576 863d 8bd4 323e 6905 603d 3022 7dbc
000001f0: ed65 12be e795 20bc b53d 203e a89a 563e

weight f4 [2, 64]
-0.20621985 -0.052348882 0.124841675 0.16751845 0.2925961 0.13535972 -0.22425862 0.252913
0.16973251 -0.17697653 -0.06858484 0.0050942013 0.13476123 -0.28490907 -0.0991794 -0.17379236
0.13736026 0.26366562 -0.12406201 0.18942443 -0.19327174 -0.12790729 -0.07198726 0.16756564
0.2509926 -0.19020465 -0.06922013 0.29271168 0.13535696 0.15071373 0.09055769 0.16518681
0.04261701 -0.16145799 -0.05252055 -0.26773372 -0.03956722 0.14918667 -0.09066623 -0.129208
-0.1543223 0.08592908 0.09281861 0.01301456 0.13431749 0.14561725 -0.07610751 0.081271574
-0.13002178 -0.26684082 0.11137098 0.02975176 -0.16333759 0.09226527 -0.24656019 0.14853741
-0.010766368 0.026375003 -0.22723043 0.20897146 0.11489612 0.20985554 -0.029309936 0.16236871
0.18009461 0.09853353 -0.19728787 -0.15156643 -0.13290823 -0.32817572 0.10909937 -0.20393577
-0.051449094 0.049752127 0.16099699 -0.15584823 -0.17081964 0.10270586 0.22787137 0.20038328
-0.1524351 -0.15235975 0.22658028 -0.09127258 0.27477086 0.2997097 0.12179893 -0.1930018
-0.20731361 0.030477073 -0.06362819 -0.21859272 -0.022181518 -0.15919672 -0.16761711 -0.11995038
0.03229348 0.23578072 -0.088521875 0.3033615 0.077230126 -0.19681014 -0.07674044 0.07236084
0.2297673 -0.18973316 -0.08900067 -0.027704982 -0.084675856 0.042755872 -0.13848601 0.058502804
0.13667461 0.1503855 -0.03953797 -0.22460012 0.046878424 -0.1772232 0.102148056 -0.17420496
0.058490716 -0.033821877 0.1601305 -0.22530562 0.0022344904 -0.18264605 -0.20285836 -0.15705203
00000000: 4c2b 53be c86b 56bd feac ff3d f589 2b3e
00000010: 28cf 953e bd9b 0a3e 0da4 65be d07d 813e
00000020: 5cce 2d3e 5639 35be 3576 8cbd 42ed a63b
00000030: d9fe 093e 9adf 91be 921e cbbd a0f6 31be
00000040: 2ba8 0c3e 2eff 863e 3914 febd 7af8 413e
00000050: 07e9 45be 21fa 02be 0e6e 93bd 5496 2b3e
00000060: 1a82 803e 02c5 42be 49c3 8dbd 4ede 953e
00000070: 049b 0a3e b354 1a3e 4f76 b93d bb26 293e
00000080: 2d8f 2e3d 3e55 25be ca1f 57bd 6514 89be
00000090: 3d11 22bd 64c4 183e 37af b9bd 1a4f 04be
000000a0: aa06 1ebe 96fb af3d af17 be3d 053b 553c
000000b0: 868a 093e b01c 153e 41de 9bbd b671 a63d
000000c0: 6e24 05be 5c9f 88be 7816 e43d f7b9 f33c
000000d0: f841 27be 93f5 bc3d 467a 7cbe 311a 183e
000000e0: 6c65 30bc 6410 d83c 18af 68be 9dfc 553e
000000f0: a84e eb3d 5fe4 563e 641b f0bc fc43 263e
00000100: b96a 383e f3cb c93d d505 4abe 3b34 1bbe
00000110: 1819 08be a606 a8be 7e6f df3d 8ad4 50be
00000120: 49bc 52bd e3c8 4b3d 65dc 243e ae96 1fbe
00000130: 58eb 2ebe 7357 d23d 1d57 693e 4631 4d3e
00000140: f217 1cbe 3204 1cbe a904 683e 1eed babd
00000150: c4ae 8c3e 8d73 993e b871 f93d 44a2 45be
00000160: 054a 54be 0eab f93c 7f4f 82bd c5d6 5fbe
00000170: 04b6 b5bc 7704 23be d2a3 2bbe 8ba8 f5bd
00000180: 2b46 043d 8070 713e f54a b5bd 3352 9b3e
00000190: d42a 9e3d 9988 49be 182a 9dbd ec31 943d
000001a0: 1e48 6b3e 6949 42be fc45 b6bd 8ff5 e2bc
000001b0: 896a adbd c820 2f3d 47cf 0dbe a3a0 6f3d
000001c0: 6ef4 0b3e a8fe 193e 91f2 21bd 93fd 65be
000001d0: 9703 403d 007a 35be 0033 d13d c962 32be
000001e0: f693 6f3d cf88 0abd 40f9 233e 84b6 66be
000001f0: 8770 123b 9107 3bbe 1aba 4fbe 3fd2 20be

bias f4 [2]
-0.036419407 -0.0044063334
00000000: 842c 15bd 0163 90bb
