m6A_BERT_Stacking/Resnet/model_pth/h_k_new_bilstm.pth (torch, 234071 bytes, 13 tensors)

weight f4 [64, 32]
00000000: c888 393e 4c6d 29bf 9860 2cbe a0fc 12bd
00000010: 68d2 a83e 94b1 86be 503c df3d 8823 1bbe
00000020: b2b4 00bf 7611 553f 00f2 b53c 8802 e93e
00000030: 5289 29bf c44d 9c3e 4479 a9be 4c7e ce3e
00000040: 4a8a 67bf 2880 67bf 5071 213e fad8 4f3f
00000050: 2687 003f 08d1 6fbe 8a2c 4bbf 40db 43bd
00000060: 2818 8ebe 86c0 52bf fc15 ca3e 24f8 dbbe
00000070: d8c9 e0be 6cbb 723f c41d 0d3f 72d5 683f
00000080: 1ffc 563f f88f 42bf 8ff3 6b3f ab0a 76bf
00000090: 9d37 e0bd bb6b e4be 54d8 473f 5079 1c3f
000000a0: e9aa 9abe 1229 39bf 0628 5abf de99 333f
000000b0: f7dc 47bf 80e0 dbbe 172a 933d 1f02 6bbf
000000c0: 7e9c 183f 6eef ebbe d694 173f 6f5c b7bc
000000d0: 657d 6ebf dd5b b0bd c00d 33bf fd01 68bf
000000e0: 2070 4b3e fdf4 163f 5d8b 063f 27ac 633f
000000f0: ff16 3cbf 2d09 643e a7ee 233f 85e1 6ebf
00000100: 12cf 6c3f 8c9a 88be ba8c 28be c29e 03bd
00000110: dc51 adbe 35ec 213e 505a a6be 4d49 80bf
00000120: 3100 c23e b876 183f d3ea a1be 3722 9c3e
00000130: 2c28 6abe 430f 883d 8316 5c3e f2a1 d0be
00000140: 9c15 13bf 954c 983e f17b 2fbf 8b1c 75bf
00000150: ab79 f5be 4ea6 2e3f 0c4c 443f bb77 5a3f
00000160: 2238 54bf fd6c 413e fd10 743e e583 593f
00000170: 5808 9c3d 142d 0fbe 35bb 46bf 5f7f 903e
00000180: 37de 0cbe 9b80 f2be 334b 193f 70ce 853f
00000190: 18c8 6f3f c4c9 9bbd 03f9 4b3f e12d 793f
000001a0: 3bae 30bf ace4 063f 8ef8 e43e b7d8 8abe
000001b0: 90a7 d4be dacc a03e 961d 43be 596c 333f
000001c0: 5c6c 4b3e 0081 403f e808 5a3e cec3 5d3e
000001d0: 7ec2 18bf b86a 34bf ec91 97be c5ff 1c3f
000001e0: f866 193e db22 233f 93a2 68bf a825 0bbf
000001f0: cfdf 6dbf 5be6 103f 616a e4be 93b5 69bf
00000200: 3993 c43e 81f5 93bf dd42 b63d b1c0 2fbf
00000210: 63ee 0cbc 35f2 103f d480 6fbf e5d3 a4be
00000220: c660 d23e 72ac 0e3f 3a19 3f3e 9020 1d3f
00000230: f494 09bf f8fe 44bf d44a 2dbf 1725 053f
00000240: 2f76 7e3e 9ccd 05bf 5d68 2a3f 0433 113f
00000250: fa1d 1cbd 1c26 fcbe a50a fabe eca0 b4bd
00000260: acbb 603f d1d2 3a3e 0d39 febe 8b28 e3bd
00000270: 3628 09bf 2f6c 56bf a711 4a3d 06ec 5c3f
00000280: 54b7 153f 42e8 cfbd c677 0dbf d691 2b3e
00000290: aaa1 a03e 59c3 93be 211d 1fbe adfd d13e
000002a0: 56f7 033f f6f4 bb3e a037 a83e dcd5 7bbf
000002b0: ed7d 74bf 3a37 8c3e 87c2 c1be 3a65 06bf
000002c0: 3827 da3e 5a7d 693f 53f8 52bf 1edf 14bf
000002d0: d464 2dbf 4336 1d3f 7a02 523e 1d1f 42bf
000002e0: 146d b63e 65d5 c13e d39c 8e3e 3d85 cebe
000002f0: 5cdf 32bf 95b2 71be 49c1 4b3f 074f 413f
00000300: 4b80 c9be 62b9 953f f2fc f63e 6ec2 d2be
00000310: 3d58 51bf 9a18 3d3f ad5c 353f e6ba 923d
00000320: 9800 e33e c40a 2bbf 8e0a 163f c682 adbe
00000330: b17c 943f 548c a83d ca5b fabe 62d2 77bf
00000340: e996 54bd 7ad7 0fbf bf23 0e3f 65cb f1bb
00000350: 7047 933f 65cd 483f e89c 16bf 1500 0e3f
00000360: daa6 5b3f 0ddd bb3e fcf3 ba3e 6b1f 6f3f
00000370: 94ac 133f 160e e1be a601 0c3e b1c6 863d
00000380: d8ba a7be 5f45 543f 8fae 2fbf d1e4 6c3f
00000390: e404 193e 559f febe e0cb ba3c 1ffa 28bf
000003a0: d874 0cbf be63 123e a3bb b33e dc8e 76bf
000003b0: 6690 ac3e a41d 843e a643 46bf 2262 073e
000003c0: 43ec 1c3e 4e30 ffbe 5373 8a3e 3127 62bf
000003d0: c43d d8bc 5bc3 0b3f 79fc f5bd 59a8 693f
000003e0: 9c18 f1bd 0a39 86bf e017 4abf 0c73 343e
000003f0: 020b cfbd 2ae3 293e dda8 503f d001 5c3f
0.18118584 -0.661824 -0.16833723 -0.035885453 0.32973027 -0.26307356 0.109001756 -0.15150273
-0.5027572 0.8322977 0.022210121 0.45509744 -0.6622516 0.3052808 -0.3310033 0.40330732
-0.9044539 -0.90429926 0.15765882 0.81190455 0.5020622 -0.23419583 -0.79364836 -0.047816515
-0.27752805 -0.8232502 0.39469898 -0.42962754 -0.43903995 0.94817233 0.55123544 0.9095069
0.83978456 -0.7600093 0.92168516 -0.9611003 -0.109481074 -0.44613442 0.78064466 0.6112261
-0.3020852 -0.72328293 -0.8521732 0.7015666 -0.7807154 -0.42944717 0.071857624 -0.9180011
0.5961379 -0.46081108 0.5921148 -0.022382943 -0.93160087 -0.086112715 -0.69942856 -0.90628034
0.19866991 0.5896757 0.525564 0.8893456 -0.7347259 0.22269125 0.6403603 -0.93312865
0.92503464 -0.2668041 -0.16459933 -0.032133825 -0.33851516 0.15812762 -0.32490778 -1.002237
0.3789077 0.5955615 -0.3162447 0.30494854 -0.22866887 0.06643536 0.21492963 -0.40748554
-0.5745485 0.29745927 -0.68548495 -0.9574668 -0.47944388 0.6822251 0.7667854 0.85338944
-0.8289815 0.18889232 0.23834606 0.8496688 0.07618779 -0.1398204 -0.77629405 0.28222176
-0.13756643 -0.47363743 0.5988037 1.0453625 0.93664694 -0.07606843 0.79676837 0.9733563
-0.69015855 0.52692676 0.44720882 -0.27118465 -0.4153409 0.3140629 -0.19054255 0.700872
0.19865555 0.7519684 0.2129246 0.21656725 -0.5967177 -0.7047534 -0.29603517 0.61327773
0.14980686 0.6372506 -0.9087307 -0.54354334 -0.9291963 0.56601495 -0.4461241 -0.91292685
0.38393572 -1.1559297 0.08899472 -0.686534 -0.008601758 0.5661958 -0.9355595 -0.32192913
0.41089457 0.5573188 0.18661967 0.6137781 -0.5374291 -0.7695155 -0.67692304 0.5200972
0.24849771 -0.5226686 0.66565496 0.5671847 -0.038114525 -0.49247825 -0.48836246 -0.08819756
0.87786365 0.18244483 -0.496529 -0.11091717 -0.5357698 -0.83758825 0.04933324 0.86297643
0.5848286 -0.101517215 -0.55260885 0.16754851 0.3137334 -0.28859976 -0.15538456 0.41013852
0.5154928 0.36710328 0.32854939 -0.983732 -0.9550465 0.27385885 -0.37843725 -0.5249821
0.42608047 0.91206896 -0.8241016 -0.5815295 -0.67731977 0.6141092 0.20508757 -0.75828725
0.35630095 0.3785812 0.27854022 -0.40336028 -0.6987207 -0.2360328 0.79591805 0.7551121
-0.39355692 1.1697199 0.48239857 -0.41163963 -0.81775266 0.73865664 0.70844537 0.07164554
0.4433639 -0.668133 0.58609855 -0.33888835 1.1600553 0.082298905 -0.48898154 -0.96805394
-0.05190173 -0.56188166 0.55523294 -0.007378983 1.1506176 0.7843841 -0.5883317 0.55468875
0.8580147 0.36692086 0.3651427 0.93407315 0.5768521 -0.4395606 0.13672504 0.06580866
-0.32759738 0.8291835 -0.6862573 0.92536646 0.14943272 -0.49730936 0.022802293 -0.66006655
-0.5486579 0.14295861 0.35104093 -0.96311736 0.33703917 0.25803864 -0.77446973 0.13221028
0.15324502 -0.4984154 0.2704111 -0.8834105 -0.02639664 0.54594964 -0.12011046 0.91272503
-0.11772272 -1.0486157 -0.7894268 0.17622012 -0.101095214 0.16590562 0.81507665 0.85940266

weight_ih_l0 f4 [256, 32]
00000000: a42e c4be cbd9 423e 509f 8c3d c109 f73d
00000010: 6f7f 2abc c992 093d 7657 1c3e a623 52be
00000020: 05a9 80bd 0e99 5f3c b589 9bbc 4de3 10bc
00000030: 6ce2 a03e 69de 833d 5b80 163e 9faa 163d
00000040: 2841 9b3d ae89 3fbe cf01 863d 3692 cbbd
00000050: c4b4 903e 1782 8b3c f8da 8a3c beb9 c33a
00000060: 2d30 bcbd 41f4 9abd 3d84 1abd 740a 133d
00000070: ead5 de3d 4dda 6a3d ad15 9dbd f552 573d
00000080: a39c b7bc c671 fabd 1391 fb3c 1003 a83d
00000090: 61ee 41bc 44ee 8bbe 6b22 fe3c f1a3 5e3e
000000a0: 0cae 35be d07b 613d b675 e53c 4a83 e33c
000000b0: fe16 163e f8ca 683d 92a4 a53c 7f10 1f3b
000000c0: ffa1 0c3d 5e61 6e3d 56dc e4bc 5cfa 90bd
000000d0: 0227 073e 96ff b4bd a591 85bc b2d8 2ebe
000000e0: 3ca2 c5bd cd48 c0bc ea82 c13d 659c 8cbd
000000f0: 5bdb 573b a2a4 dc3c 2eda 993c 479a 58bd
00000100: cc57 a03b 9a73 22bd 2740 063e bd51 e3bd
00000110: 02a2 2a3e 7875 da3d 6461 f9bd 0626 2f3d
00000120: 517f d53d 5a90 ee3c 6307 82ba c3fd 813d
00000130: f0ff bc3d 1a94 2ebd ddeb 053e 211a dbbd
00000140: beaa 783d 9cdf 9bba c7c8 46bc 4aab 1a3c
00000150: d07f be3d de52 86bd db7f 073e 6093 0cbd
00000160: 46f9 51bc 7087 84bd 347b 1fbd 40cb fa3d
00000170: 618b 15bd 2997 babd e88d f4bc c33a 99bc
00000180: 2a6d 483d 5499 f7bc 4b8b 3b3e 8346 26be
00000190: 341b a63c 1ecd e0bd 791e c83d e80e 7f3d
000001a0: d83b e3bd 4cf2 81be 6da8 20bd 3d91 ccbc
000001b0: 08a7 3ebb cf39 04be c48a 8e3a 99ff d73d
000001c0: ba11 4d3e ff84 86bd c932 173e 42fe 11be
000001d0: 704d e03d 5e15 a0be b197 29be 3f6e 0e3d
000001e0: 62cf d43d 4168 a83c 0b4e a6bd af81 20be
000001f0: 85a8 babd 1075 f13c 6f76 9cbd b432 c53c
00000200: 3918 4a3e 2957 d0bd 1c19 94bd 02bf 15be
00000210: 3bd6 d83c fde8 5c3c 3d7e 0e3e 50a7 ff3d
00000220: e404 8ebd e0de 203e c75c 103e b61e c93c
00000230: 4762 37be 18af d1bd 5df4 2c3c 9751 87bd
00000240: 78b9 993d fc67 4b3d 4e10 f0bc f536 633e
00000250: e397 ff3d acda d13b c2d8 793d e184 0ebe
00000260: dfd1 6d3e f4b8 88bd 7e0e e4bd f1a7 0e3d
00000270: 3425 213d f591 11bd 85a3 e3bb e494 223e
00000280: 510e be3c 4280 c3bc 8060 a9bc 45be 59bd
00000290: 027e 3e3d 8f89 19be c51a 00be e53c 74be
000002a0: b0e8 e53d 5c86 203d 938a e2bb 64d2 3b3e
000002b0: 95e2 173e 35d5 d93d b967 94bd b8d7 f83d
000002c0: 573b 143e 91f7 77be 0b59 b1bd 4964 a93b
000002d0: dc8d 20bd e9c7 8c3b 7fdd 83bc 44ca 1cbd
000002e0: 1ae6 ffbd 00db 743d 00c9 b3bd d327 a33d
000002f0: d06f ca3d 8b4a 0bbe e917 d7bd 2c7f c3bd
00000300: 9799 cfbd 6b06 0abd 3707 8cbc a3b8 bb3c
00000310: 72f7 5ebd 6268 b4bd 52af 62bd 3932 19be
00000320: c775 4dbb 2a2b 3ebd b8fe 82bd 6c28 e93c
00000330: b42a 66bc a5ce 573e 60a2 8bbd 4d88 893d
00000340: e132 9d3d f4de cabd 8850 23be 738d c8bd
00000350: c83b c13d 9040 c73c e869 053c 8529 c9bd
00000360: daf3 3dbd a5a3 da3d df6c 8e3d 0ba3 fa3d
00000370: 94c1 1f3e 6c48 c7bd 9038 14b9 d3c7 ddbd
00000380: c04a 85bd e297 41bd dbf8 3c3d 21f7 8abd
00000390: 8294 1bbe 84b9 8e3d 51ca 90bc 0e88 82bb
000003a0: f74b 5dbd 8809 103e 9039 9e3d 1acf cdbd
000003b0: 7bdd 01be 36dc 08be 4c5b 633d 5ebd e3bd
000003c0: a52e df3d 9f93 09bc 6665 1fbd d73b 12bd
000003d0: c562 483e 60c0 ff3d 95cd 053d 6a4b 19be
000003e0: 7e30 8cbc f9b0 05bd 4d66 853d fad3 303d
000003f0: b999 59bd f96d 4a3d a265 8fbd feae 92bc
-0.38316834 0.19028394 0.06866324 0.12062407 -0.010406359 0.03358725 0.15267739 -0.20521411
-0.06282238 0.013647331 -0.018986562 -0.008843255 0.31422746 0.06438906 0.14697401 0.03678381
0.07580787 -0.18704864 0.06543314 -0.09939997 0.28262913 0.017029805 0.016950116 0.0014932675
-0.09188876 -0.07566119 -0.03772377 0.03589864 0.108806446 0.057337094 -0.0767015 0.05256935
-0.022413557 -0.12228732 0.030708825 0.08203709 -0.011836619 -0.2733022 0.031022271 0.21742226
-0.17742175 0.055049717 0.02801023 0.027772564 0.14657208 0.05683419 0.020220075 0.0024271307
0.03433418 0.058198325 -0.027937096 -0.07079002 0.13198474 -0.08837812 -0.0163048 -0.1707485
-0.096500844 -0.023472214 0.09448798 -0.068657674 0.0032937143 0.026933972 0.018780794 -0.052881505
0.0048932787 -0.039661027 0.1311041 -0.11099575 0.16663364 0.10666937 -0.12176779 0.04276087
0.10424674 0.029121567 -0.0009920414 0.06347229 0.09228504 -0.04262171 0.13078256 -0.10698343
0.060709707 -0.0011892202 -0.01213283 0.009440253 0.09301722 -0.065587744 0.13232367 -0.034320235
-0.012815779 -0.06471145 -0.038935855 0.12245798 -0.036509875 -0.09110863 -0.029852822 -0.018704778
0.048932232 -0.03022448 0.18314855 -0.16237836 0.020276643 -0.10976623 0.09771437 0.062270075
-0.11095399 -0.2538017 -0.039223123 -0.024971599 -0.0029091258 -0.12912677 0.0010875096 0.10546798
0.20026293 -0.06568336 0.14765467 -0.14257148 0.1095227 -0.31266302 -0.16561772 0.034773108
0.10391118 0.020557525 -0.08120354 -0.1567447 -0.09114174 0.029474765 -0.07639777 0.024072029
0.19735803 -0.101728745 -0.07231352 -0.14623645 0.02646934 0.013483283 0.13915344 0.12483084
-0.069345266 0.1571002 0.14097892 0.024550777 -0.17908584 -0.102384746 0.010556308 -0.06607359
0.075060785 0.049659714 -0.02930465 0.22188933 0.12480142 0.0064042415 0.060997732 -0.13917877
0.2322459 -0.06675902 -0.11135577 0.03482813 0.03934212 -0.035539586 -0.0069469833 0.1587711
0.023200186 -0.023864869 -0.020675898 -0.05315997 0.04650689 -0.1499388 -0.12510212 -0.23851354
0.11226022 0.039190635 -0.006913492 0.18341976 0.14832528 0.10636369 -0.07246346 0.1215052
0.14475761 -0.24215533 -0.08659562 0.0051694256 -0.039197788 0.004296292 -0.016096829 -0.038278833
-0.1249506 0.059779167 -0.08778572 0.0796658 0.09884608 -0.13602655 -0.105026074 -0.095457405
-0.10136717 -0.033697527 -0.017093284 0.02291519 -0.0544352 -0.08808972 -0.05534298 -0.14960565
-0.0031350718 -0.046427883 -0.0639624 0.028461657 -0.014048267 0.21074922 -0.0681808 0.067154504
0.0767572 -0.09905806 -0.15948689 -0.09792604 0.094352305 0.024322778 0.008142926 -0.09822372
-0.046375133 0.10675744 0.06954359 0.12238129 0.15601188 -0.0973061 -0.00014135451 -0.10829129
-0.06508398 -0.047263987 0.046135765 -0.06785417 -0.1519337 0.06968978 -0.017674597 -0.003983504
-0.054027524 0.14066136 0.07725823 -0.10049267 -0.12682144 -0.13365254 0.05550699 -0.11120103
0.108975686 -0.008397012 -0.03891506 -0.0357016 0.19568928 0.124878645 0.03266676 -0.14970174
-0.017112967 -0.032639477 0.06513653 0.043170907 -0.053125117 0.049421284 -0.07001807 -0.017905708

weight_hh_l0 f4 [256, 64]
00000000: ef18 b13d e769 043e 765a 843d 6d67 0dbe
00000010: 46dc a63d 15fe c53d 36a3 b63d cb15 e53d
00000020: 9d7b 2fbe 4e5d ad3d b3a7 e0bb 2233 a33d
00000030: 96bb f7bd 2415 363d 198a 17bd f50d 4bbd
00000040: e473 33bd c536 ba3d 3588 793c 16d9 b1bc
00000050: 008d 08be 9110 9c3d d597 e83d 5b1f 85bd
00000060: 484a 2fbd 45f6 c13b 0be2 67bd 9534 d2bd
00000070: b6fc ab3d 6713 5c3d 9367 2c3d 878e 773c
00000080: 376f 00bc b404 c4bd ea4a 143e 4478 f23b
00000090: 63a3 50bd cff1 d6bd 5e9a e33d 984c 9ebb
000000a0: 4c4a eb3c 7a3a 963d 00cc 1f3e 40cc dabc
000000b0: 5800 0f3d a311 b23d a72a f33d 14b3 2e3d
000000c0: 0ad5 a0bc 8c60 adbc 05ec e1bc ff5e e2bd
000000d0: ae9c c6bb 04eb 97bd c324 b53d 4314 13bd
000000e0: 05f6 fcbb 394d f13d 5a3f 0a3e 203a 173e
000000f0: 60f1 19bd b5c8 82bd f6e8 71bd 9280 79bd
00000100: fefc 89bb d4ee 7ebd 60f9 d73d 994a a8bc
00000110: 5f13 b5bc e193 1ebd fdc2 cfbd 771d d73c
00000120: bcaa 8f3d 6fde c63d f338 03bd a348 dbbd
00000130: 0729 163e 8c2d c33c 0abe 8fbc a2d6 4f3d
00000140: d2ec a93d a34f 6fbd d7cb 74bd aede 21be
00000150: d099 123e 7325 ac3d a62e 0abe 8cf2 14bd
00000160: 4a19 833d 16f5 eabc 0d6f 44bd 1928 9d3d
00000170: ca52 7c3b b580 b63d 0ff5 f83d df19 09be
00000180: 0d00 d5bd 2e26 d8bd 2853 19bd 0de8 1bbd
00000190: 4cf6 403d d339 fdbc 4bfe aabd b3de 45bc
000001a0: c891 c13d 4d4c 753d 9d0c e1bd 83be 0abd
000001b0: bd80 a43d cee3 6ebb 6bb2 593d 1aaa 903d
000001c0: 822c 9dbd e892 d4bc 61a1 cb3d 0aab 69bc
000001d0: 2ae8 153e c51f 00be 7cc5 4abd 6d60 09be
000001e0: 7059 67bd 6fff 2d3d 4994 093d b83a c4bd
000001f0: eaae 0e3d 3597 c53a ce5f 0ebe 5d16 a53d
00000200: 2a7c 04be 4411 3b3e 0660 2f3d f5d1 183d
00000210: 6fe6 ea3c 4d10 a83c d21d 24bd a3ae 153c
00000220: d2af 083d d28a e23d 8c24 c03d 587c c53d
00000230: 47c2 c6bc 3828 0d3e ffd6 27bd cf6b 873d
00000240: fd21 9cbc e35f 6c3d e787 c7bd eab7 033e
00000250: 0fea 16be 121d 84bd 04ab 363d e856 dfbd
00000260: 76f4 1dbe 7f38 ae3b d799 83bd 7f57 6cbd
00000270: 983d 3dbe 87c7 0ebd e20c a7bd d3fb e03d
00000280: ba99 04be 078d 2d3e f15f 853c 2375 d83c
00000290: 64f6 b2bc 75ab 6fbd 2585 31bd 66c3 b8bd
000002a0: 9a86 0cbe 1913 3a3d ed7d 1f3d 7ab2 793d
000002b0: c5db 9bbd 1f79 473e 71b9 6d3d 3dcc 66be
000002c0: 1168 863d 078a 1b3e b59f e13d 229b 43bc
000002d0: 3b31 933d 2a3f d13c 78a2 c23d 5954 2f3e
000002e0: c376 da3c d6c9 7e3c 9c48 df3d 9307 d83c
000002f0: 4c47 c93c 6f5d 4bbd b2ce c4bc e383 45bc
00000300: 1df1 793d 5371 65bd 7398 4e3b 9b3c bcbd
00000310: 45ab 05be 5890 d73d 7c35 abbc a8f2 b7bd
00000320: 9936 11bd 9c13 01bd b299 253c 58f4 b33d
00000330: 8f29 05be 4634 8a3d 3003 07be 42e0 0cbd
00000340: 4f08 103e c3e0 4c3d cfea c33d 7cd8 393d
00000350: c742 a03d 4d46 f03d fd75 853d f1a3 903c
00000360: 943d f1bd 56ac b7bd 5324 4dbd f442 fdbd
00000370: 58f0 4e3c cd1d a63d 8acd 563d 25ab 00be
00000380: dbdb d2bd 652b 43bd 6f5c 003e 4bc3 da3d
00000390: 622f ce3c bdf0 2dbe b836 2d3c 79e1 44bd
000003a0: 90a9 b63d 4357 fbbc 4ef7 873c 135d 1b3e
000003b0: 126d 003e 764b 39be 0ecd 7fbd 3b80 23bd
000003c0: 2384 0bbe fe72 773d c3b4 853d 172e 88be
000003d0: 9400 ac3d 4449 0abd eb90 a1bc 6dc1 c9bd
000003e0: bbf4 babd ef03 cfbc 266d 873c 3d74 c3bd
000003f0: 14a1 6cbd dadf edbb 3887 88bc f987 453c
0.08647334 0.12931024 0.064625666 -0.13808985 0.081474826 0.09667603 0.08917849 0.11185797
-0.17136998 0.08465062 -0.006855929 0.07968737 -0.12096326 0.044453755 -0.036996935 -0.049573857
-0.043811694 0.09092478 0.015230228 -0.02170996 -0.13335037 0.07620347 0.11357085 -0.06500121
-0.04279545 0.00591925 -0.056612056 -0.102639355 0.0839781 0.05372944 0.042090964 0.015109665
-0.007839016 -0.095712095 0.14481702 0.0073995907 -0.050937068 -0.1049534 0.111134276 -0.004830908
0.028721951 0.07335372 0.15605164 -0.026708722 0.034912437 0.0869477 0.1187337 0.04265125
-0.019632835 -0.021164201 -0.027578363 -0.11053275 -0.006061158 -0.074178725 0.08844902 -0.035907995
-0.0077197575 0.11782307 0.13500729 0.14768267 -0.03758371 -0.06385938 -0.05906006 -0.06091363
-0.004211067 -0.062239483 0.105456114 -0.020543383 -0.022103963 -0.038715247 -0.10144613 0.026259167
0.07014987 0.097103946 -0.032036733 -0.10707214 0.14664088 0.02382543 -0.017546672 0.0507418
0.08297123 -0.058425557 -0.05976471 -0.15807602 0.14316487 0.0840558 -0.13494357 -0.036364123
0.06401308 -0.02868132 -0.04795747 0.07673664 0.0038501495 0.08911268 0.12156116 -0.13388775
-0.104004 -0.10554157 -0.03743282 -0.038063098 0.047109887 -0.030911362 -0.08349284 -0.012077021
0.09451634 0.05988722 -0.10988734 -0.033873092 0.080323674 -0.00364517 0.05314867 0.07063694
-0.07674505 -0.025948957 0.0994289 -0.01426197 0.14639345 -0.12512119 -0.049504742 -0.1341569
-0.05648178 0.04247993 0.03358868 -0.09581512 0.03483478 0.001507497 -0.13903734 0.08060906
-0.1293799 0.18268305 0.042816184 0.037309606 0.028674332 0.020515585 -0.0400675 0.009135875
0.0333708 0.11061634 0.09381971 0.09642857 -0.02426256 0.13784873 -0.04097652 0.0661236
-0.019059176 0.057708632 -0.09742718 0.12863126 -0.14737724 -0.06450857 0.044596687 -0.10905248
-0.15425286 0.0053167935 -0.06425827 -0.05770063 -0.18480527 -0.034858253 -0.08156754 0.10985532
-0.12949267 0.16948329 0.0162811 0.026423043 -0.021846004 -0.058513124 -0.043339867 -0.09021644
-0.13723221 0.04542837 0.03893845 0.060961224 -0.07610277 0.19479798 0.05803818 -0.22538848
0.06562818 0.15189372 0.1101679 -0.011938842 0.07187124 0.025542814 0.09503645 0.1712202
0.026667958 0.015551051 0.10902521 0.0263708 0.02457013 -0.049649652 -0.024024341 -0.01205537
0.06102096 -0.056016278 0.0031523972 -0.09191247 -0.13053615 0.10525578 -0.020899527 -0.0898183
-0.03545246 -0.03151284 0.010107445 0.08786839 -0.13004135 0.067482516 -0.1318481 -0.034393556
0.1406567 0.050019037 0.095662706 0.04537247 0.07825237 0.11732159 0.06516645 0.017656298
-0.11779323 -0.08968417 -0.05008347 -0.12366286 0.012630545 0.08111153 0.05244211 -0.12565286
-0.1029584 -0.047648806 0.1253526 0.106817804 0.025169078 -0.16986366 0.010572128 -0.04806659
0.0891906 -0.030681258 0.016597416 0.15172224 0.12541607 -0.18095192 -0.062451415 -0.039917212
-0.13624625 0.0604124 0.06528618 -0.26597664 0.08398548 -0.033761278 -0.019722423 -0.09851346
-0.0912871 -0.02527043 0.016531538 -0.09543655 -0.057770804 -0.007259351 -0.01666604 0.012056344

bias_ih_l0 f4 [256]
00000000: 2387 bb3c 6384 c63d 8cff 173d f823 1e3d
00000010: 19f6 f03b bd30 f33d 89b3 ac3d 9cbe c03d
00000020: e2ed d8bd 7cd6 3b3d f3bf c4bd 80c8 a23c
00000030: 18f7 9abd 27d3 0ebe 905b 073e db4d 63bd
00000040: ffbf 8d3d 14aa a83d 68d5 9dbd a858 9a3d
00000050: 6273 aebd 43f6 7bbd 4ec4 123e 0d64 e5bb
00000060: 2b2e 263e 7f09 a0bc a155 f73b 6984 a53d
00000070: 8e41 c3bb fb7f 95bd f25f 02be bba4 713d
00000080: b2d8 ab3b 613c cdbd a5d4 873d 789f 5c3c
00000090: f953 7dbd 6f2d 9e3d 0126 633d bac1 213a
000000a0: 8d99 063e fa81 103e 0cb1 e13d de90 d93d
000000b0: 754b c4bd d8d9 e5bb 23c1 c13d d2b0 243b
000000c0: 88ad abbd 2938 d7bc 8974 443d 35a9 4c3d
000000d0: cb08 f9bc 9ada c7ba b61b eb3c ba33 7fbd
000000e0: b230 d93d 925d 4bbd cfca 2e3e b824 883d
000000f0: b715 3ebd cbb8 aabb 2256 6bbc 36cd 70bc
00000100: 1b97 7a3d b7e7 fd3b 80c4 12bd 1b81 e1bc
00000110: 18e3 e1bc f763 e4bc b6bc b6bd fddd c8bd
00000120: 5539 06be c699 2a3d fe66 03be d169 3e3e
00000130: dbfc 0abd e9e0 5ebd 23bc eb3c b035 40bd
00000140: 8834 94bb a606 3ebd e359 063e 59d1 813d
00000150: 88dc c8bd db83 923d d6b1 173e eecb 90bd
00000160: e67a 1d3e 820a 8d3c eb04 453d bc87 833d
00000170: 7f6c 613d 3c05 c0bd 4bfd b8bd d3d7 5b3d
00000180: 8147 f2bc f993 e2bc 4cd3 aabd 0a7d de3d
00000190: 071b e2bd 7766 083e 1ddf ab3d 6c65 ebbd
000001a0: 5f02 8c3d 3353 ea3d 020c b93d 3b9d 683d
000001b0: ae0f 53bc 38d3 ca3d 56a9 8dbd acac 5f3e
000001c0: c029 10bc a2af 29be 9f36 763d 43ab fdbd
000001d0: 3bbd 9fbd 24a9 313e 0f03 10bd 08cd f2bd
000001e0: 1ddb 1c3e 72cf 51bd e167 343d 1ef1 873d
000001f0: 1da6 45bd 863b a03c a10c 9abb 4b21 003d
00000200: 475a 8abc 736f b5bc 56a0 413d 8b0e 213d
00000210: 0482 d2bc a134 593d c2b4 57bd 52fc 59bd
00000220: 9a24 293c 0c8e 103d a1a6 05bd a8a2 e6b9
00000230: 1fcc 7c3d fbde 28bc e5d0 b33d 71a4 2cba
00000240: 7c07 f0bc f106 79bd b1fc b3bd 2833 d8bd
00000250: a115 f0bb a1d1 933d ccf9 d53b 23b1 a43d
00000260: 7a11 f53d 160a d2bd 8f6d 2c3c 9ee2 92bd
00000270: e3b5 8bbd d039 253d 8ae4 17bc 0415 93bd
00000280: 4633 ebbd c62e c83c 6947 65bc 7e95 e53d
00000290: 0f4d ffbc ab06 d93d faea 17bd aa1d 48bc
000002a0: 7181 06bd 0c49 91bc d45b 80bd 0157 7abd
000002b0: 6651 fd3c 3cbb 67bc 8541 5f3d 593f a9bd
000002c0: 1fc1 ef3c ce56 1f3c cf40 83bd a8f6 0e3d
000002d0: ab91 0bbd bdd5 8cbd 85ff babd 6691 893d
000002e0: 4f4e 133d d9f2 583d 0786 d3bd 5047 673d
000002f0: 1c63 8a3c 1663 84bc af76 e5bd 9560 c63d
00000300: 5b59 bb3d e280 b83c d83e 873d a2bc b93d
00000310: 35d9 e6bd 4098 f03c 250e f4bd a1c7 253d
00000320: 2bd3 c3bd 6344 89bd ed9c 0f3c 54ff 6ebd
00000330: f508 303d b517 26bd dd63 883d 306d de3d
00000340: b78a 223c bde8 b9bd 0173 c7bc 1e3a bc3d
00000350: 549c e43c 61e5 1c3e 37a0 283e 8b83 1d3d
00000360: d0a0 043e 8378 b3bb f70a cf3c 8a9d c03d
00000370: daee bcbd f278 d9bd f2bb 0bbe c5fa 8c3d
00000380: bd58 6d3d 95a6 c33c b9c8 aebc 8fdb d43d
00000390: bc3d 8f3d 5bb7 33bc 06d7 fa3d 91a1 f53c
000003a0: 22be 3cbd 823b 64bd 8502 a23d 51d8 543d
000003b0: e218 003d 45a5 80bd 2f88 8d3d be89 0b3e
000003c0: 8388 963c 5ee0 02be 4061 4cbc 19ad b5bd
000003d0: 3a10 d9bd 4222 f0bc f044 ff3d a2b4 69bd
000003e0: 12f7 e13d a187 f33d 8dbe fc3d d749 d8bd
000003f0: a4cb 103d 6555 0e3e 8743 a03c 4944 093e
0.022891587 0.096932195 0.037108943 0.03860852 0.007353556 0.118745305 0.08432681 0.09411356
-0.105922475 0.045858845 -0.09606924 0.019870996 -0.07566661 -0.13947736 0.13218522 -0.05549417
0.06921386 0.08235565 -0.0770672 0.07536441 -0.08518101 -0.06151415 0.14332697 -0.0070004524
0.16228549 -0.019535778 0.0075480496 0.08081896 -0.0059587425 -0.07299801 -0.12731913 0.05899499
0.005244338 -0.10021282 0.066323556 0.013465755 -0.06184766 0.077235095 0.055456165 0.000617053
0.13144512 0.14112082 0.11020097 0.10623334 -0.09584705 -0.0070144944 0.09460666 0.0025129807
-0.08382708 -0.026271896 0.0479627 0.049966056 -0.0303997 -0.0015247643 0.028699737 -0.06230519
0.10604991 -0.049649782 0.17069553 0.066476285 -0.046407428 -0.0052100173 -0.014363797 -0.014697364
0.06117926 0.00774857 -0.03583193 -0.027527383 -0.027574107 -0.027879698 -0.089227125 -0.09807966
-0.13107808 0.041650556 -0.12832257 0.18595053 -0.033932548 -0.05441371 0.028776234 -0.0469262
-0.004522864 -0.04639306 0.13120227 0.06338758 -0.09807688 0.07154056 0.14813933 -0.070701465
0.15378913 0.017216925 0.048100393 0.06422374 0.05503511 -0.093759984 -0.09032687 0.053672623
-0.029575111 -0.02765845 -0.08341083 0.10863693 -0.11040311 0.13320337 0.08392165 -0.11493954
0.0683639 0.1144165 0.090354934 0.05679057 -0.012882156 0.09903568 -0.06917064 0.21843213
-0.0087990165 -0.16570905 0.060110684 -0.12386181 -0.07799765 0.17349678 -0.035159167 -0.11855513
0.1531796 -0.051223226 0.04404438 0.06637786 -0.04825412 0.019559633 -0.0047012125 0.03128175
-0.01688875 -0.02214787 0.04727205 0.03932051 -0.025696762 0.053028706 -0.05266262 -0.053219147
0.010323668 0.035291716 -0.032629613 -0.00043990207 0.061718103 -0.010307069 0.08780078 -0.0006585783
-0.029300444 -0.060797635 -0.087884314 -0.10556632 -0.007326797 0.07217718 0.0065300222 0.08041599
0.11966224 -0.1025583 0.010524168 -0.0717213 -0.068218015 0.040338337 -0.009270797 -0.07181743
-0.11484389 0.024436366 -0.013994076 0.11210154 -0.031164674 0.10596975 -0.037089325 -0.012214104
-0.03283829 -0.017735027 -0.06267515 -0.06111813 0.030922603 -0.014143761 0.054505844 -0.08264036
0.029266892 0.009725286 -0.06408846 0.0349032 -0.034074467 -0.06876705 -0.09130768 0.06717186
0.035963353 0.052965973 -0.10328298 0.056464493 0.016892962 -0.01616053 -0.11204278 0.0968639
0.091479026 0.022522394 0.06603783 0.09069182 -0.11271898 0.029369473 -0.1191676 0.040473584
-0.095617615 -0.06702497 0.008765441 -0.05834897 0.042977292 -0.040549953 0.066596724 0.108606696
0.0099207675 -0.090775944 -0.02434683 0.091907725 0.027906574 0.15321876 0.16467367 0.038455527
0.1295197 -0.0054770126 0.025273783 0.09405048 -0.09225245 -0.106187716 -0.13645914 0.06883768
0.057945956 0.023883143 -0.021335946 0.1039344 0.06994197 -0.010969008 0.12248044 0.029984267
-0.046079762 -0.055720814 0.07910637 0.051964108 0.03127373 -0.06281523 0.069107406 0.13626763
0.01837564 -0.12780902 -0.012474358 -0.088709064 -0.10598798 -0.02931321 0.12464321 -0.05705703
0.11033453 0.118911035 0.12341032 -0.10560959 0.035350457 0.13899763 0.01956345 0.13404955

bias_hh_l0 f4 [256]
00000000: ed20 4b3d a004 02bd 29b8 ad3c fc5f c5bd
00000010: cc29 00be 6db5 843d bf7c 5ebb ce05 e2bc
00000020: 0ff8 eb3a 894f cf3c 8819 8dbd 82b9 053d
00000030: 1c7e f83d 0b1d a73d 9bd6 94bd 3e92 093e
00000040: d8c4 0dbd f2c8 d43b 01b6 2c3e a0d0 e8bc
00000050: b24d 6f3d 03f7 f63d 8173 173d 8948 bf3d
00000060: 709d e43c 57c4 e23c 717a 87bd 1581 a83d
00000070: aa18 fb3d 758b 203d 57d8 12be d287 d3bc
00000080: f068 2abd b6a3 c03c 7df3 3b3d 64b5 a33a
00000090: 422b fa3c 26f7 823d ec40 e83d bfb6 8d3d
000000a0: 924b b9bd ec67 11bd d7c2 1d3d 70a7 7e3d
000000b0: 3746 e1bd ae79 d1bd e55a 10be b320 be3c
000000c0: 8691 463c 792f 433b 3432 3ebd 4c8f 093d
000000d0: d56d fe3d fc14 a2bd ccc8 66bd 0f7f 513d
000000e0: 0b29 a1ba 8853 3bbd 48a3 503d 2ed9 ec3b
000000f0: 02f0 bebc 86af 67bd fd9f 5c3d 21c6 8cbc
00000100: 4c16 8a3d c436 dfbd 6665 ac3b a57e 5cbd
00000110: a10c 41bd 65b7 2f3d c0c1 3239 251d 3ebd
00000120: d27b 14be 300d 943d 9953 e8bd 209f dfba
00000130: b23f d73d 30a6 5fbd b374 3a3e edaa 81bd
00000140: e494 9ebd 7f1e 8ebd 6360 853b ce46 493e
00000150: d394 95bd fd0c ff3c be08 6bbd 34bc b43d
00000160: f21b ef3d 84e3 53ba 50f2 6f3d 59d2 563d
00000170: 6111 19bd ca79 1c3d 942c e3bd a9cf d73d
00000180: 440a f83d af2f 9dbd f401 ac3c 0043 20bd
00000190: 5efc 163d 5cd7 053d e7c1 053e 8904 ec3d
000001a0: 5e16 043e da83 80bb 5306 2f3d 831e 1c3e
000001b0: bec6 64bd c64b ca3d 1fd1 583d 3aab 0e3e
000001c0: f57d c83d d5f5 31be 02a6 0abd 3913 893d
000001d0: fe27 d63d 445e 453e 3c41 71bb cee3 c2bd
000001e0: 85cd 2abd f5fb 533d 4b8f 88bd eb7d c6bc
000001f0: abf0 e4bc 59e7 0bbd af8f 2dbd d4eb 27bd
00000200: 247f acbd c239 ad3d 4326 0b3d 6c50 de3c
00000210: ec59 efbb faec 05bd 494d 253c dbdb b4bd
00000220: 409e a43d 38f6 d33c 0329 2b3d 8f9c d2bd
00000230: f1dc c1bd 8d95 4fbd 4c53 abba 7fd3 453d
00000240: 1923 d4bd 941a 5b3c 8ef5 063e 501b 103d
00000250: 608c 863d feee ee3b 4d9b 1dbe ec22 f3bd
00000260: 6210 1bbd 2f38 6cbd 124c 6cbd 7ce1 033d
00000270: 8614 12bd c23b 6b3d e680 4cbd a542 923d
00000280: facb bebd f7e1 843d c0a9 04be 5828 b13d
00000290: 091a 8fbd b588 a1bd 48bb e1bd a208 123d
000002a0: 9b04 103e df68 9abd d57e 69bb ec6a 13bd
000002b0: 923e 26bd cfbf 313d a1bf 93bd 8e0e 9abc
000002c0: e916 eabd 87e7 573a c035 193c 5880 933d
000002d0: 2f34 973d a947 f63c 5d45 9a3d 1d80 a8bc
000002e0: cf8f f5bc e2d7 b6bd 0fa9 0cbb 2e20 1fbd
000002f0: 0bb0 aebc 7c0c 29bd 2a47 7cbd 1044 b33c
00000300: fbda a8bd cbcc 0bbd 6647 0dbd b9c1 9e3d
00000310: 8962 b63d f16b f73d 7c73 07be e488 943d
00000320: 36d2 13be 4bc9 473d 6acd b1bd aef5 a93d
00000330: 62b7 093e cd7e 943d b30d 8d3d 65d9 a33d
00000340: fdbe 893d efa7 c53d 9679 953d e2af 353e
00000350: a1f5 7a3d f0ea f03d 0641 8b3d a7e4 a6bd
00000360: f71f 42bc 33aa f93d 2073 333d 5d32 0a3e
00000370: 5ce8 3dbc 05e6 a0bd 07b0 643c 8dda c13c
00000380: 900f 1abc 5f99 cabd d2d6 2e3d 43d4 523d
00000390: 810b d23c 565b 86bd 8f5a ce3d 9052 6e3d
000003a0: 27be b23d 2584 d33d 7d92 be3d 9b9d adbc
000003b0: 2c1a 5abd 7426 f0bd 91b9 b93a f11d 893c
000003c0: 178b 9d3c b534 0cbe 0cc9 3cbc ebd1 003e
000003d0: d7c5 c83d ffae 80bd 4ce8 463c dad3 d53d
000003e0: 52c3 7f3d 710d 5fbc 5505 a63d c908 e73d
000003f0: c7e4 33bd 8856 173e 8f95 0d3d 8d47 953d
0.049591947 -0.031742692 0.021205978 -0.09637448 -0.12515944 0.06479917 -0.0033948866 -0.027590659
0.0018003004 0.02530648 -0.06889635 0.032647617 0.121334285 0.081598364 -0.07267495 0.13434693
-0.034611553 0.006493681 0.16866304 -0.028419793 0.058423705 0.120588325 0.036975387 0.09340007
0.027907103 0.027681513 -0.06615151 0.082277454 0.12260564 0.039195497 -0.1434034 -0.0258216
-0.041603982 0.023515563 0.045886505 0.0012489972 0.030538205 0.06394796 0.11340508 0.06919622
-0.09047617 -0.0354995 0.038515892 0.0621714 -0.109997205 -0.10228287 -0.14097174 0.023208952
0.012119656 0.0029782935 -0.046434596 0.033583924 0.124232925 -0.07914159 -0.05634384 0.051146563
-0.0012295557 -0.04573396 0.050936967 0.0072280383 -0.023307804 -0.056563877 0.053863514 -0.017184319
0.06742534 -0.108991176 0.005261111 -0.053831715 -0.047131184 0.042899508 0.0001704758 -0.046414513
-0.14500359 0.07229078 -0.1134407 -0.0017060973 0.10510196 -0.054601848 0.1820858 -0.0633143
-0.077432424 -0.069394104 0.004070328 0.19655916 -0.073037766 0.031134123 -0.057381384 0.088249594
0.11675252 -0.00080829137 0.058580697 0.052446697 -0.03737009 0.038202085 -0.11092487 0.10537655
0.12111333 -0.076751105 0.020997025 -0.039126396 0.03686177 0.032676086 0.13062249 0.115243025
0.12899157 -0.003921968 0.04273064 0.15246014 -0.055853598 0.09877734 0.05293381 0.13932505
0.097896494 -0.17378934 -0.033849724 0.066931196 0.10456847 0.1927424 -0.0036812564 -0.095161065
-0.041699905 0.051753957 -0.06667956 -0.024229964 -0.02794679 -0.034156177 -0.042373355 -0.040996388
-0.08422688 0.08458282 0.033972036 0.027137958 -0.0073044207 -0.0326967 0.010089227 -0.088309966
0.08037996 0.025874242 0.04178716 -0.102837674 -0.09465969 -0.050679732 -0.0013071089 0.0482974
-0.10358257 0.013373036 0.13179609 0.035182297 0.06569743 0.0072916737 -0.15391274 -0.11871895
-0.03785742 -0.05767077 -0.057689734 0.03219746 -0.035664104 0.057430036 -0.049927615 0.07141618
-0.09316249 0.06488412 -0.1295538 0.08650273 -0.06987388 -0.07887403 -0.11022049 0.035652764
0.14064257 -0.07539534 -0.0035628576 -0.03599064 -0.040587015 0.043395814 -0.07214285 -0.018805768
-0.11430151 0.00082360994 0.009351194 0.07202214 0.07383 0.030063467 0.07532761 -0.020568902
-0.0299758 -0.08927895 -0.0021463071 -0.03884905 -0.021324178 -0.04127167 -0.061591305 0.02188304
-0.08244892 -0.034130853 -0.03449192 0.077517934 0.08905513 0.12081135 -0.13227648 0.07252672
-0.14435658 0.048775952 -0.08681758 0.08298813 0.13448861 0.07250748 0.068873785 0.08000449
0.06725881 0.096511714 0.07298581 0.17742875 0.061269406 0.11763561 0.067995116 -0.08149081
-0.011848441 0.12190666 0.043810964 0.13495775 -0.011591043 -0.07856373 0.013957984 0.023663783
-0.009403124 -0.098925345 0.042685337 0.05147196 0.025640251 -0.0656039 0.100758664 0.058184206
0.08727675 0.10327939 0.09305284 -0.021193316 -0.053247616 -0.11726084 0.0014169683 0.01673791
0.019231362 -0.13691981 -0.011522543 0.12580077 0.0980336 -0.06283378 0.012140345 0.10440798
0.06244213 -0.0136140445 0.08106486 0.112809725 -0.04391935 0.14779103 0.03456646 0.07289038

weight_ih_l0_reverse f4 [256, 32]
00000000: 74fa cc3d 02a1 663d b411 a73c 632c 913c
00000010: 4de6 c4bc 139d 04be 9dc6 24be b876 143e
00000020: cbdf 0abe 0ac9 023e e75e 2ebe e197 07bd
00000030: 15bc 393c 017e 4d3e b623 2c3e dde6 8f3d
00000040: a85a 053e 7af1 b33d 5e53 583d 482d 60bb
00000050: fc51 a1bc df4b fe3d 9863 1ebe 9d71 f4bc
00000060: dbb4 0cbc 5f37 093d 1e81 1fbe a293 033c
00000070: 07f7 7fbd 0ccc 92bd d5cb 933d 607a cf3d
00000080: 5dee 8a3e 2209 b23d 84ec 083e d635 8abe
00000090: 3609 683d 1bb4 173d e39d 203e 72d4 f03c
000000a0: 9680 ea3c a2b7 153e 1b6b a2bd 3856 9c3d
000000b0: e1cd 9dbc d38a 24be 43ed b8bd 21e2 953d
000000c0: 63cc 2e3d e2f7 4e3e bebf 123e b0c5 3fbd
000000d0: a04a 21be 8202 1abe e172 31bd 2892 15be
000000e0: 117e 413d 4872 5d3d 30de 02be 10e3 03bd
000000f0: ce63 883e b9ee f7bd a1e0 1cbd 51e8 153d
00000100: 6e1b 3abe 064e 013e 1d79 8b3d dcad cb3d
00000110: d974 443e d05c 6abc 6d6f 4abc 6605 cd3c
00000120: 6f50 01be fe67 f23d 8b1a c2bb cbef dc3d
00000130: 0c40 c83c 9095 8cbd 0313 e2bd c448 e3bd
00000140: 3175 c63d d3df 56bd f83c 9f3b 2e93 9bbd
00000150: 7473 bb3d 4d69 9ebd 13b8 0cbd 9acc e8bd
00000160: 0853 d83c 5506 48bd f6b1 8e3d f003 383d
00000170: 11d3 59bd 0c44 183d 68b5 65be 50f7 8cbd
00000180: cb2d 9bbd e13b 253e 6102 d4bd faa3 60bd
00000190: fbc1 753b 30eb 573e c279 f53c 0f2c 6a3e
000001a0: f4b8 713e 9c93 2f3c 1693 e3bc 3518 833d
000001b0: 1050 993d b5c1 cbbd 1fc2 b53d 6456 e2bd
000001c0: 4432 1d3e 474e 863e a541 2bbd 7a25 693d
000001d0: 3cf8 003e 1af0 b03c 98be 72bc c78b 8a3d
000001e0: 097f af3c 7564 35bd 5ed7 0a3e f1d6 863d
000001f0: 7879 d03d 74c5 08bd 93da 22be 0840 02bd
00000200: 6415 e6bd 0b46 273b db0f c4bc e6f0 9bbd
00000210: 681e 4b3d 88a3 253e 9d3b a9bc 35cc 9dbd
00000220: 9509 03be e85f 5fbe d151 fcbc 02c5 ae3d
00000230: e854 2abe f8e1 1f3d d6e7 833d 82d5 193e
00000240: 420b 0cbd e22d a2bb 5ebf 933d d8e9 543d
00000250: 869a 9dbd 2a38 543d a90e 18bd dba5 bfbd
00000260: 717c 8d3d da03 423d d3a5 30bd 58cb b13d
00000270: 0dae 8bbd d504 e73d c4c1 74bd 30cf a7bd
00000280: b815 c53d 8750 acbc 8fd6 863d 90e3 9dbc
00000290: 054e 203e 8ff8 42bd 1854 233e b58f a9bc
000002a0: a056 f1bd 3f8a f13d 26e5 afbd 38e9 4a3e
000002b0: 4f99 833c 4ec4 193e 6829 1abd 7893 00bd
000002c0: 3b6b 223d b381 7fbc 3edf 30bd a754 7b3d
000002d0: 480a 8ebd dc41 61bd c288 c0bc 10c1 463d
000002e0: 4196 823d 5128 39bd d593 45be c304 2fbd
000002f0: a943 85bc 3913 ebbc 6b0e 31be d9e7 3abc
00000300: 661c cb3b 2fd2 69be 1d07 8cbd 4ab6 9dbd
00000310: 8a9d 7c3d d500 163d 311b a9bc 8805 073e
00000320: 7a98 65be 95ce 0abe 1fd2 d3bd d673 a53d
00000330: d6a4 e8bd 3ad6 d83d a211 b2bd 59bc a1bc
00000340: 3925 f7bc 8953 53bd 4a96 153d 10f0 913c
00000350: c19c 8c3e 6ca1 9a3c 651b a7bd ae74 b9bd
00000360: b1ce 053e 5ba9 3dbc 5e1d 9fbd ce90 ca3b
00000370: 346b 0cbd 258f aa3c a48f 4d3e ed7b 1c3c
00000380: ccfa 32be cf73 1fbe 3a43 a33d 6d02 01be
00000390: f7df 883c 18a2 243e a80a 2f3e 2f54 c53d
000003a0: 766d c2bb 1288 90bd e668 c13d b9f7 9fbd
000003b0: 69a1 0dbe ac24 d0bd f141 aebd f11c e9bd
000003c0: 2682 da3d cb9f 31be 48ee 513d f2e0 8abd
000003d0: 5bee b83e ab75 74bd f38f 853d acce f8bd
000003e0: 9d5b 563e 361b d3bb ae55 693c 2074 433d
000003f0: 2ffd 95bd c4e0 1f3d fa6f b4bd db22 90bd
0.10008708 0.056305893 0.020394184 0.01772136 -0.024035597 -0.12950544 -0.1609139 0.14498413
-0.13561933 0.12772003 -0.1702839 -0.033103827 0.011336346 0.20067598 0.16810498 0.070264556
0.13022864 0.087862924 0.05281388 -0.0034206677 -0.019692414 0.12416815 -0.1546768 -0.029839331
-0.008588041 0.03350007 -0.15576598 0.008030804 -0.062491443 -0.07167825 0.07216612 0.10130763
0.27134982 0.08693148 0.13371474 -0.269942 0.05664941 0.037036996 0.15685229 0.029398177
0.028625768 0.14620832 -0.07930585 0.076336324 -0.01926321 -0.16068582 -0.09029629 0.07318521
0.042675387 0.20211747 0.14330956 -0.04681939 -0.15751123 -0.15040019 -0.043322448 -0.14606535
0.047239367 0.054064065 -0.1278007 -0.032198966 0.26638645 -0.121060796 -0.03830016 0.036598507
-0.18174526 0.1262742 0.0681021 0.099452704 0.19185199 -0.014304355 -0.012355668 0.025026988
-0.12628339 0.11836241 -0.0059235743 0.107879244 0.024444602 -0.06864464 -0.110387824 -0.11097863
0.09690321 -0.05245955 0.004859563 -0.07596432 0.0915288 -0.07734928 -0.034355234 -0.1136715
0.02640678 -0.048834164 0.06967537 0.04492563 -0.053179804 0.03717427 -0.22432482 -0.068831086
-0.07577094 0.16136123 -0.10352016 -0.05484388 0.0037499655 0.2108581 0.029965285 0.2286837
0.2360571 0.010716345 -0.027780097 0.064011015 0.07485974 -0.09949056 0.08874916 -0.11051634
0.15351206 0.26231596 -0.04181065 0.056920506 0.12594694 0.021598864 -0.014815949 0.06764942
0.02142288 -0.044285256 0.13558719 0.065839656 0.10179418 -0.03339143 -0.15903692 -0.031799346
-0.11234549 0.0025523927 -0.023933342 -0.07614307 0.049589545 0.16175663 -0.020658309 -0.07704965
-0.12796624 -0.21813929 -0.030800732 0.0853367 -0.16633952 0.03903386 0.064407036 0.15022853
-0.034190424 -0.0049493173 0.07214235 0.051980823 -0.07695489 0.051811375 -0.037123356 -0.09357806
0.06908501 0.047366954 -0.043126892 0.08681363 -0.06820307 0.112802185 -0.0597551 -0.08193815
0.09623283 -0.021034492 0.065838926 -0.01927355 0.15654762 -0.047600325 0.15950048 -0.020698408
-0.117841005 0.117939465 -0.085886285 0.19815528 0.016064314 0.1501629 -0.037637144 -0.031390637
0.039653044 -0.015594888 -0.04318165 0.061360028 -0.06935555 -0.05499445 -0.023502711 0.048523962
0.06376315 -0.045204464 -0.19294675 -0.04272915 -0.016267614 -0.02869569 -0.17290656 -0.011407816
0.0061984537 -0.22834085 -0.06837294 -0.077007845 0.06167368 0.036621887 -0.020642849 0.13185704
-0.22421446 -0.13555367 -0.10342812 0.080787346 -0.11359565 0.105877355 -0.086947694 -0.019743131
-0.030169116 -0.051593337 0.03652028 0.017814666 0.27463344 0.0188758 -0.08159522 -0.09055458
0.13067128 -0.011576022 -0.07769273 0.006181813 -0.034281924 0.02082021 0.20074326 0.009551031
-0.17478484 -0.15571521 0.07971807 -0.12598582 0.016708357 0.16077459 0.17093909 0.09635197
-0.005933459 -0.07057203 0.09443836 -0.07810921 -0.13831104 -0.101632446 -0.08508671 -0.11382473
0.10669355 -0.17346112 0.051252633 -0.06781186 0.3611935 -0.05968253 0.06521597 -0.121487945
0.20933385 -0.006442453 0.014241619 0.047718167 -0.073236816 0.039032713 -0.0881042 -0.07037898

weight_hh_l0_reverse f4 [256, 64]
00000000: d2ed 8c3d bdc7 1fbd 0cc5 613b b291 41bd
00000010: 0e08 293e 6d98 413e 0544 09be 9f1d 9bbd
00000020: cfba 1bbe 1c83 203d 1fe4 0d3e 38bc 9e3d
00000030: 0006 263e ad3f 20be 30e4 083e 2525 613d
00000040: bd01 9d3e 7db4 03be 3abc fcbd d68a 293d
00000050: 1a60 163d 6e55 b1bd 0e79 c1bd 60d5 c23d
00000060: a692 d93d c044 f03d 30e8 c8bc 9a97 fdbd
00000070: 0a4d cabd 0413 7fbd eaf8 9bbd 073e 333e
00000080: d976 703d 2a66 3b3d 5f8e 083e 8844 0fbe
00000090: 9e6c 103c 894c 033e 20cf 343e 4bf9 3d3d
000000a0: bcb3 923d 8fb5 07be d2a2 613e 8bcd bbbd
000000b0: 729b 8b3c cfc1 283d a347 6b3e 5d29 4f3d
000000c0: 7c74 c03d 6602 8abd c17c b2bd ab0c ac3c
000000d0: 0ed4 b1bd 5b29 0b3e 0ed7 f0bc 37f3 0bbe
000000e0: a263 f43d 7c8b 593b 45d7 3f3d fb07 65bd
000000f0: 9fb6 4fbd 0925 6bbe 7af0 95bd 3d5b 9ebd
00000100: 093e 463d 98f6 173e 3c3d 183b b157 ce3d
00000110: 0101 25bc 5b98 07be bf11 92bd 1193 adbd
00000120: 90a9 2cbe 47de d9bd c72f a83c 1d20 0e3c
00000130: dc26 0b3e 22e8 253d dcd4 e7bb 6787 a6bc
00000140: 2dc7 89bd c414 58be 778a aabd 735c 073e
00000150: f80f 27bd 3f3e 043e 5798 d93b 10c7 8bbd
00000160: adcc 183c f296 04be 5117 c9bd b5b7 febd
00000170: 0a89 bb3d 57c3 4dbe cf30 36bc b8d4 863d
00000180: a8cf e0bd ff2f 66bb c046 d13d 31eb aebd
00000190: 14ed e2bb 6a71 7c3d 0502 6d3d 3a38 783c
000001a0: 70af b83d 669a f7bc 2d1b c63a f5bb 1cbe
000001b0: 91c1 33be 1fbf 1f3d 1a7a edb9 9125 3a3c
000001c0: cdca 063e 7f62 5f3d 2442 a63d 5de6 4abe
000001d0: 287d 69bd fe6f 1d3d d834 26bd e4e8 2f3e
000001e0: c720 803b efd5 cabd f696 2abd 07ef 07bc
000001f0: 92c0 d83c 16a6 29be 29e6 023e 71e1 70bd
00000200: 9a72 b6bd 92b1 0dbe 094a 3d3a 86cb a0bd
00000210: 31a8 2e3c 5537 e5bc 8988 2abe fbe0 4d3d
00000220: e441 b9bd ff89 f23d 5cc1 ee3d d114 1bbd
00000230: 8ba8 d23d 4100 41bd 7f63 dcbd 6537 933b
00000240: 9756 0a3d 5aa9 e0bd 226d d3bd 97f7 71bd
00000250: b990 d23d d785 a53d 6711 bdbc 625b 333c
00000260: f632 c43c 081b fabd 902e 693d 43ac 6e3d
00000270: 6a6f 35bb 0b8e 1c3e 3719 943d d077 a13d
00000280: 678a eb3d bd9c 993b 8059 aabd f757 22bd
00000290: 6dc4 f7ba bf46 673d ee21 2f3e 25d0 ecbd
000002a0: 36e3 863b 4245 4f3d 941e 353e b97f 273d
000002b0: a34d 85bd e14e a43d 8445 033e e900 97bc
000002c0: 3619 9e3d 4914 ea3d ed7f e0bd 45fb a3bd
000002d0: cdbb 423d e8d1 0f3b f071 d03c 35c6 c73c
000002e0: 8468 333d 09bd 7f3d 39f1 923d c747 8d3d
000002f0: 5b28 a83d 045a 69be 8f36 533d 1c3c 96bd
00000300: 4de8 1a3e 7be5 613d 2fe6 bbbd f77c 0dbd
00000310: fd72 08bd 358d adbd d2be 8fbd 2db3 7ebd
00000320: 6224 4abe bfc7 96bd e990 4a3d a17b 8c3d
00000330: 2be7 e03c 5ccc 2abe 3fc2 633d 7eed 683d
00000340: 599c 653d 7ba4 06be 5a6d f9bd 2781 a93d
00000350: 268b c3bd 4dc5 85bd 7a2c e1bd 38cf dabd
00000360: d222 b13c 00eb 113d 64e2 74ba 8b24 d4ba
00000370: 7831 c137 59db 6ebd 3296 dfbd cf05 bf3d
00000380: 6e58 96bd 767b 05bc c357 e33d eba3 7b3d
00000390: 398f 8e3d 68b7 733d 268d 913e f477 723d
000003a0: fc03 343d 2f83 fb3d 297c e83d 2895 64bd
000003b0: ef0f 3a3d 5494 b73d b4f6 073e 3b2b a0bd
000003c0: 9702 f5bd c73b ae3c a9d0 7b3d 2b62 83bd
000003d0: 42a7 4ebd 179d ba3c c1eb 9a3d fcdb 63bd
000003e0: f6a4 abbd 98f9 003e eef2 d8bc deb1 20bd
000003f0: a401 c2bc 8d92 5abe 7f97 07be b0f9 b4bd
0.06881298 -0.039008845 0.0034449724 -0.047258087 0.16506979 0.18905802 -0.13404854 -0.07574009
-0.1520798 0.039187536 0.13856553 0.07750744 0.16213226 -0.1564929 0.13368297 0.054967064
0.3066539 -0.1286182 -0.12340589 0.04139217 0.036712743 -0.086588725 -0.094469175 0.09513354
0.10623674 0.11731863 -0.024524778 -0.12382431 -0.09877975 -0.062273994 -0.07615836 0.1750413
0.058707092 0.045751728 0.1333556 -0.13990986 0.008814959 0.12822165 0.17657137 0.046380322
0.07163188 -0.13252853 0.22034767 -0.091700636 0.017041896 0.041200455 0.22976546 0.050576556
0.09397218 -0.06738739 -0.08715201 0.021002134 -0.08683024 0.13589995 -0.029399421 -0.13666998
0.11933066 0.0033194711 0.046836156 -0.055915814 -0.05071127 -0.22963347 -0.07321258 -0.07732246
0.048399005 0.14840162 0.0023229858 0.100753196 -0.01007104 -0.13241713 -0.07132291 -0.08475316
-0.16861558 -0.10638099 0.020530595 0.008674649 0.13589042 0.040504582 -0.0070749354 -0.020328237
-0.06727443 -0.21101671 -0.08327191 0.1321886 -0.040786713 0.1291437 0.006640475 -0.068250775
0.009326142 -0.12948206 -0.098189004 -0.12437383 0.091569975 -0.20094047 -0.011120035 0.06583542
-0.10977107 -0.0035123823 0.102185726 -0.08540953 -0.0069252346 0.061631598 0.057863254 0.015150124
0.09017837 -0.03022499 0.00151143 -0.15306075 -0.17554308 0.039000627 -0.00045295135 0.011361496
0.131633 0.054537293 0.08118084 -0.19814439 -0.057004124 0.038436882 -0.04057774 0.17178684
0.0039101574 -0.09904086 -0.041647874 -0.008296735 0.026459012 -0.16567263 0.12783112 -0.058808748
-0.08908577 -0.13837269 0.000722081 -0.07851319 0.010660217 -0.027980486 -0.16653647 0.050263386
-0.09045771 0.11842727 0.11657974 -0.03786165 0.10286053 -0.047119383 -0.10761165 0.0044926875
0.033773985 -0.10969801 -0.1032355 -0.05907401 0.1028151 0.080821685 -0.023079587 0.01094708
0.023950081 -0.12212187 0.05692917 0.05826975 -0.0027684816 0.1528856 0.07231372 0.078841805
0.115010075 0.004687874 -0.08317852 -0.03963467 -0.0018903144 0.056463953 0.17102787 -0.11563138
0.004116441 0.05060316 0.17687446 0.04089329 -0.06508949 0.080228575 0.12819487 -0.018433051
0.07719652 0.1142965 -0.109619 -0.0800691 0.047542382 0.0021945182 0.025444955 0.024386505
0.043800846 0.062436137 0.07174916 0.06898456 0.08210822 -0.22788244 0.051565703 -0.07335684
0.15127678 0.05515049 -0.091747634 -0.034543004 -0.033312786 -0.08474199 -0.07018818 -0.062182594
-0.19740441 -0.07362317 0.049454603 0.06859518 0.02745398 -0.1667952 0.05560517 0.056867115
0.056057308 -0.13148682 -0.1217906 0.08276587 -0.09548025 -0.06531773 -0.10994811 -0.10684055
0.021623049 0.035624504 -0.0009341596 -0.0016185207 2.3030429e-05 -0.058314655 -0.10917319 0.0932728
-0.073410854 -0.008147111 0.111007236 0.06143562 0.06960911 0.05950108 0.28428 0.059196427
0.043949112 0.12280881 0.11351807 -0.05580631 0.04542535 0.08963838 0.13277704 -0.078207456
-0.119633846 0.021268738 0.06147829 -0.064152084 -0.05045248 0.022779984 0.07564498 -0.055629715
-0.08381073 0.12595212 -0.026483025 -0.039232127 -0.023682423 -0.21344967 -0.13241385 -0.088366866

bias_ih_l0_reverse f4 [256]
00000000: 30ad 0abd 8f31 bbbd f366 e4bd a6eb 4dbc
00000010: 5256 d4bd b3f9 0e3c 13a1 90bd 747a bfbd
00000020: 822d 22bd 4392 863d f777 77bd 82a5 963b
00000030: 7e66 1ebd 4464 9a3d 9b0d 04bd 3823 02bc
00000040: e440 5ebc 84a5 63bd b7da 2c3d 8c36 d23d
00000050: 270e 233e f8f1 d8bb 4bc3 bdbd afb7 3b3d
00000060: bd95 8d3d 08d1 853d daab 223d 771d f0bc
00000070: 14cc c13d 411a aebd 12f8 c33d 03df 5bbd
00000080: bdab ac3d b339 86bd 9f6f 4fbd 332d 0e3e
00000090: 6c14 c8bd adec bdbd 3dd0 533d 09e2 c73d
000000a0: 42b9 f8bd 2ed6 e73d 172e 103e 49f3 a73d
000000b0: 921d fcbd 359d 89bd 8e2f 483d 5af3 edbd
000000c0: 5323 b0bc 8930 8639 da90 ef3d b265 253d
000000d0: 42d6 1a3c 1afc 59bd 0e7a 3cbb e8fb 9fbd
000000e0: 10c0 69bd 69c3 01bd c3c4 55bd e559 0f3e
000000f0: ea03 093d c0c7 06be c7a4 ba3d a4be 193e
00000100: 7d7e 1d3e 7f87 b0bd 7e73 ac3d 2269 90bc
00000110: dafc 993d 7e7f eebc 5378 bc3d 27b8 a4bc
00000120: 9255 f5bc bfee 803d 96b4 893d 2096 c13d
00000130: c1ba 27bd ce9b e0bd 9468 c53d 49b6 33bd
00000140: 9b4d 59bc 5c1c 02be fead 03be 5529 d23d
00000150: 5931 ab3d 3e15 713d 0ed9 a6bc 939a b23d
00000160: 9322 343d 351d d7bc acea a83d 9fa7 f03d
00000170: 76e4 c83d 4124 e5bd 9b1e bd3d ec0c c2bd
00000180: 9535 f8bd bebb 3fbd 196b 89bd 74f6 e53d
00000190: d0e0 993d 46d5 f1bd 9ed9 37bd 0699 cc3d
000001a0: 7387 b23d bb64 d9b9 2ee9 15bc bdd0 613b
000001b0: bb62 c93c 1e7d a4bd adb9 2cbd 16ff 4b3d
000001c0: b295 083c 6d06 903d c496 8b3d 103c 273d
000001d0: f559 88bc 8df6 de3c 8d84 90bd b833 453e
000001e0: 2393 b03b 7951 063d e3c0 983d 070e 1d3e
000001f0: f2aa f63d df93 6d3c c0a2 9a3c d9e0 913d
00000200: 6a26 4d3c 685f ccbd ff67 8cbd 83a8 00be
00000210: 15f5 25bc 1363 173d c838 483d aa18 513d
00000220: 9ae7 a8bc ab82 c93d fc78 8d3d 2cb5 a3bc
00000230: 8969 3cbb a3a7 78bd 6d75 0ebd a96b 07bd
00000240: 93a8 373d ad25 cb3d d9a3 223b 13aa 77bd
00000250: 0144 2d3b 1c44 74bd 6e23 a53d 9602 9dbd
00000260: 40d1 acbb de43 13bd bbce efbd d047 a53d
00000270: 8f03 be3c 2986 13bd 59c4 373d e597 08bd
00000280: bb67 c03d 95d0 b33d 7adc 85bd 6b6f 073e
00000290: 2674 b2bc d2ba 1cbd 6cab b23d c584 8abd
000002a0: 5c5d 503d 0020 c53d 20e4 d93d 692b 533d
000002b0: 38a8 d63d de66 d93b 7fee 8e3d ed22 853d
000002c0: 9152 bbbd 2a76 8cbd a209 da3d 9317 9f3d
000002d0: 4d02 f3bc 0e0d 2c3d 87be 0abd cdb4 12be
000002e0: e470 633d d84d 0fbd 788f f13d 083e a8bd
000002f0: 92d4 f7bd 7ea2 ca3c 5943 0cbd 35ef 943c
00000300: 17b3 8bbd bef8 e93b 285f 8bbd a30c 56bd
00000310: 913b 87bd 3d38 0a3d d4fc 24bd c509 213e
00000320: 06e4 38bd 6326 a73d 8a4c 93bd 4949 e4bc
00000330: 842a 023e 1e3d b3bd 2973 283d 3ef5 19bd
00000340: 3394 073e 021d a1bd 5090 993d afbd 833b
00000350: b7dc e03d 3702 82bd b00e bc3d 2f99 cf3d
00000360: ea4f d23d 71a3 bcbd 769d a83d cfff c7bb
00000370: 629d ee3d 1661 f63d 9853 80bb 0c7b b2bc
00000380: 14e3 29bc 645c f1bd 4305 063e b656 80ba
00000390: ee08 05bd b4c5 95bd af3e bd3c 10ae ef3d
000003a0: e070 8ebc 336e bd3d 3d03 343e f4df 853d
000003b0: 562e d4bd 0d63 ecbd 6b99 de3c e99e 31bd
000003c0: 200a dc3d 2874 84bc 7237 e93c 37fb 8c3c
000003d0: 2a98 43bd 6dc8 123c 63e0 f3bc 150f 393e
000003e0: d1cf 0f3d 2584 ea3d 54a7 05bd 29e6 0c3e
000003f0: f83d be3d 6be5 0d3c 36b5 fd3d da77 2f3e
-0.03385657 -0.09140312 -0.111524485 -0.01256839 -0.10368027 0.008726525 -0.070619725 -0.09349528
-0.03959418 0.06570866 -0.06041714 0.004597367 -0.038671963 0.075386554 -0.032239538 -0.007942967
-0.013565276 -0.05557777 0.04220077 0.1026431 0.15923367 -0.006620642 -0.09265765 0.04582947
0.06913326 0.0653401 0.03971467 -0.029310925 0.09462753 -0.08501101 0.095688 -0.053679477
0.08431194 -0.06553974 -0.05064356 0.1388443 -0.0976952 -0.09273658 0.051712263 0.0975991
-0.1214471 0.113201484 0.14080082 0.082007 -0.123103276 -0.06719438 0.048873477 -0.11618681
-0.021501219 0.00025594633 0.1169755 0.040380187 0.009450497 -0.05321894 -0.0028759274 -0.07811719
-0.05706793 -0.0316805 -0.0521896 0.13999136 0.033451 -0.13162136 0.0911346 0.1501413
0.15380283 -0.08619594 0.08420466 -0.017628256 0.07518931 -0.029113527 0.092026375 -0.020107342
-0.02994803 0.06295537 0.06723897 0.09452462 -0.040949587 -0.109672174 0.09639087 -0.043875013
-0.0132631315 -0.1270613 -0.12859342 0.1026179 0.08359022 0.05885815 -0.020367172 0.08720889
0.043978285 -0.026259044 0.08247885 0.11750721 0.098092005 -0.111885555 0.09234353 -0.09475121
-0.12119595 -0.046809904 -0.067098804 0.11228648 0.07513583 -0.11808257 -0.04488527 0.099901244
0.08717241 -0.00041464515 -0.009149833 0.0034456693 0.024583211 -0.08031677 -0.04216926 0.049803816
0.008336471 0.070324756 0.06815866 0.040828764 -0.016644457 0.027217174 -0.07056532 0.1925801
0.005388634 0.032792542 0.07458665 0.15337382 0.12044324 0.014500587 0.018876433 0.071229644
0.012521366 -0.09979135 -0.06855773 -0.12564282 -0.010129233 0.03695972 0.048882276 0.051048912
-0.020618249 0.09839376 0.069078416 -0.01998385 -0.0028749427 -0.060706746 -0.034779955 -0.033061657
0.0448385 0.099192955 0.00248169 -0.06046493 0.0026438239 -0.059635267 0.08063398 -0.07666509
-0.005273968 -0.035953395 -0.117093526 0.08070338 0.023195056 -0.036016617 0.044864986 -0.033347983
0.09394785 0.08780018 -0.06536193 0.13226096 -0.0217839 -0.038264103 0.087241024 -0.06763605
0.050870284 0.09625244 0.106392145 0.05155507 0.10481304 0.006634577 0.06979083 0.06500802
-0.09146608 -0.068584755 0.106463686 0.07768168 -0.029664183 0.042004637 -0.033873107 -0.14326783
0.055527583 -0.034986347 0.117949426 -0.082149565 -0.121010914 0.024735685 -0.034243915 0.018180469
-0.06821268 0.007140248 -0.06805259 -0.052258145 -0.06603158 0.03374504 -0.04028018 0.15726383
-0.045139335 0.081616186 -0.07192333 -0.027866976 0.12711531 -0.087518916 0.04112545 -0.037587397
0.13240127 -0.07866861 0.074982285 0.004020415 0.10979598 -0.06348079 0.09182489 0.10136639
0.10269149 -0.092108615 0.08233158 -0.006103493 0.11651112 0.120302364 -0.003916215 -0.021787189
-0.010369081 -0.117852 0.13087945 -0.0009791467 -0.03247922 -0.073130995 0.023101179 0.11703122
-0.017387807 0.092495345 0.1757936 0.06536856 -0.103604004 -0.1154233 0.027172765 -0.04336444
0.10744119 -0.016168669 0.028468821 0.017209632 -0.047752537 0.008958918 -0.029770082 0.1807216
0.0351103 0.11450986 -0.03263028 0.13759674 0.09289163 0.008660655 0.12388079 0.17135563
