m6A_BERT_Stacking/Resnet/model_pth/h_k_bilstm.pth (torch, 69975 bytes, 13 tensors)

weight f4 [64, 16]
00000000: c054 dabe a00c 1dbf 3c52 3a3f 3694 223f
00000010: e0fa 39bd c49b b73e 684c 293e 0854 d3be
00000020: 286c 8d3e f48f 31bf e0f6 d13d 82c1 513f
00000030: a4eb 69bf fa98 4f3f 1e7c 1d3f 10fe 8f3d
00000040: bf22 c4be 18ad 1cbe 291a 9fbe a33f 143f
00000050: 04a6 4fbf b65b 29bf 032c 433f 474c 803f
00000060: 81f0 50bf 56dd 123f b117 653f 283a 3cbf
00000070: de8d 8f3e e827 c1be 0cbf 2a3c 73dc 2d3f
00000080: 0a81 9b3d de4a c53e f818 343f da38 7d3e
00000090: 7379 0e3f c011 c1be 9410 63bf 0ab3 993e
000000a0: 0fcd 3c3f 49c3 3bbf af63 b23e ff6f 15bd
000000b0: da2b 443f 471c 153e 5950 c2be e19a 3bbe
000000c0: 4485 573e 28bf 1e3d 2dae 6abf 2abd 4c3f
000000d0: db68 53bf ae8b 54bf 8eaf 88be 5ad8 13be
000000e0: b012 0fbf c9b5 0cbe 8165 393f fb2c 023f
000000f0: f655 8dbf 928e d7be d2c3 4abf 64b0 72bf
00000100: eda5 d83e 6e40 d9be 05db 1d3f 4ae0 d93e
00000110: 035e 85bf a853 6abf b312 b0be f331 fa3d
00000120: 8c84 1fbf 68d5 853f 75cd 133f 0b25 663f
00000130: d6ea bd3e fe94 0abf 760c 583f e49e 5e3f
00000140: fcc3 81be 833a 89bf 7b6d a7be 8b8d b4be
00000150: 7119 e9bd df3b 11bf ef2d 3abf 7954 a43e
00000160: c2d7 3e3d c52c 90be e5dd 43be eebb 55bd
00000170: 7537 453e 702f 1d3f c6b5 00bf aac1 093f
00000180: 3bc8 c13e 8026 c3be ac34 b63c e4b1 ccbe
00000190: b97a 29be 41f9 e13d 36cc 3ebf 7781 a9be
000001a0: 4c8d 013f aec1 40bf f940 7d3f 8245 89bf
000001b0: 4438 b63e 1cb9 063d dc19 e5be a157 a83f
000001c0: f6f1 eb3e 7e20 01bf ef2d a23e 956d aa3e
000001d0: 2a8d 4f3e 9609 0fbf a102 133f ab80 3a3e
000001e0: 8727 cb3d 433a ecbe b094 31bf 0aa5 07bf
000001f0: 7577 663f 2302 2abf e109 d43e 8859 54bf
00000200: b307 8e3e b5b6 f93e 9079 5ebf e4f8 6abc
00000210: c5af d63e a2b5 4cbf 998f 51bf ccc9 6d3f
00000220: 653d 43bf 80bf 35bf 836f f6be 5bd6 6c3f
00000230: 12d8 93be 5d36 07be ca49 6d3f 3ae0 3f3f
00000240: bf67 72bf 212c ecbe 2c9e 173f 815a 213f
00000250: 51ab ec3e fc8c 1abd f6fe 813f 2768 83bf
00000260: 7430 06bf dc1a abbe 6ed1 823e a8ec 183f
00000270: f708 753f ca88 12bf 8c56 c03d ab29 c43e
00000280: 78c3 7abf 4689 e0bd ca51 24bf a018 7d3f
00000290: 570b 0abe d338 2d3f 2ac6 413e 8ab0 c53e
000002a0: a8d8 bfbd e0f4 0f3f cd57 4fbe 0b1c d73e
000002b0: f7d2 313e 4e5d 883f 9cea 3cbf ae13 94bf
000002c0: eda0 163e ba3a a73c c7ae b2be 704e 0e3f
000002d0: 7961 543f 43da 043f 9b93 77be dd3c 5a3f
000002e0: 1605 ef3e 1809 46bf 2f59 21bf 7815 5d3f
000002f0: fbac 283f 71d1 413f 4ef5 403f bc49 e8bc
00000300: a056 30bf dc33 b53e d343 92be 3f4b 17bf
00000310: 4f73 f0bd 27d1 e0be 6099 4dbd 65f5 2bbf
00000320: c1d7 a9be 6f0e 113e 46e0 873e 6223 343f
00000330: 78e2 e6be baf4 813f 0cc2 27bf 77ec 563d
00000340: 0c7b 72bf bd97 bf3e 5e1b 54be e538 183e
00000350: 20e0 f23e 91ca 1fbf 2d6f 203f 6aef ba3e
00000360: da47 1ebf 6942 95be 2d99 7fbe 7fa2 16bc
00000370: 9a6f 923d 5423 1abd b452 64be 7da0 623e
00000380: e148 203e c07c a73d cce3 c03e 3baa 47be
00000390: fc62 d7be c2f0 213f 7df6 653f 129a 71be
000003a0: 677e ad3e ccfb 7bbd 5cb0 9dbe 5632 063f
000003b0: 92a3 e8be 3da5 7fbd 6128 a23e 6892 1abf
000003c0: ef02 20bf 88c4 b7be bfc9 473f 8a6e 313f
000003d0: 1a90 5d3e c7c7 44bd d530 70bf c546 ed3e
000003e0: 2fd1 6c3f 756d 26be f104 37bf 737a 5d3f
000003f0: 9e06 4b3f 1652 10be fc84 ef3c e153 dfbe
-0.42642784 -0.6134739 0.7278173 0.635074 -0.04540527 0.35861027 0.16533053 -0.41275048
0.2762158 -0.6936028 0.10252166 0.81935894 -0.91375184 0.810928 0.6151751 0.070308805
-0.3830776 -0.15300405 -0.31074646 0.579096 -0.81112695 -0.66155565 0.7623903 1.0023278
-0.8161698 0.5736898 0.89489275 -0.7352624 0.28037924 -0.3772576 0.010421526 0.67914504
0.075929716 0.38533682 0.703506 0.24728718 0.55654067 -0.37708855 -0.8869717 0.30019408
0.73750395 -0.73344857 0.34841678 -0.03648376 0.7662941 0.14561568 -0.37951925 -0.183208
0.2104693 0.03875652 -0.9167202 0.7997614 -0.8258187 -0.83025634 -0.26696438 -0.14438
-0.5588789 -0.1374122 0.7242051 0.50849885 -1.1041858 -0.4210096 -0.7920505 -0.948004
0.4231409 -0.42431968 0.6166232 0.4255393 -1.0419315 -0.915339 -0.34389266 0.12216558
-0.62311625 1.0455751 0.5773538 0.89900273 0.37093228 -0.54133594 0.84394014 0.869612
-0.25344837 -1.0720981 -0.32700714 -0.3526424 -0.11381806 -0.5673198 -0.7272634 0.32095698
0.04659248 -0.28159156 -0.19127615 -0.052181177 0.19259436 0.6140051 -0.50277364 0.5381113
0.37848076 -0.3811531 0.022241913 -0.3997947 -0.16550721 0.110338695 -0.7453035 -0.33106586
0.50606227 -0.7529553 0.98927265 -1.0724337 0.35589802 0.032891378 -0.44746292 1.3151742
0.4608304 -0.50440204 0.3167567 0.3328673 0.20268694 -0.55874 0.57425886 0.18213145
0.099196486 -0.461382 -0.69367504 -0.52986205 0.90026027 -0.6640951 0.41413787 -0.82949114
0.2774025 0.48772207 -0.8690424 -0.014341567 0.41930977 -0.7996465 -0.8185974 0.9288604
-0.76265556 -0.7099533 -0.48131952 0.9251458 -0.28875786 -0.13204332 0.9269072 0.7495152
-0.94689554 -0.46127418 0.59225726 0.63028723 0.46224454 -0.03773211 1.0155933 -1.026616
-0.52417684 -0.3341893 0.25550407 0.5973611 0.95716804 -0.57239974 0.093915075 0.3831304
-0.9795451 -0.10963683 -0.641873 0.988657 -0.13480888 0.6766483 0.1892325 0.3861125
-0.09367496 0.56233025 -0.20248337 0.42013583 0.17365633 1.0653474 -0.73795485 -1.1568506
0.14709826 0.020413745 -0.3489897 0.55588436 0.8296123 0.5189554 -0.24177401 0.8524912
0.46683568 -0.77357626 -0.6302671 0.86360884 0.6588895 0.7571021 0.75374305 -0.028355472
-0.6888218 0.35391128 -0.2856737 -0.5909919 -0.11740743 -0.4390957 -0.050195098 -0.6717132
-0.3317242 0.14165662 0.26538295 0.7036649 -0.45094657 1.015281 -0.6553047 0.052471604
-0.94719005 0.37420455 -0.20713565 0.14865454 0.4743662 -0.62418467 0.6266964 0.36510783
-0.61828387 -0.2915223 -0.24960776 -0.0091940155 0.071501926 -0.037631348 -0.22297174 0.22131534
0.15652801 0.08178091 0.37673795 -0.19498532 -0.42067707 0.6325799 0.89829236 -0.2359393
0.338855 -0.06151943 -0.30798614 0.52420557 -0.45437294 -0.062413443 0.31671432 -0.6037965
-0.62504476 -0.3589213 0.78042215 0.69309294 0.21637002 -0.048042085 -0.9382451 0.46343055
0.9250669 -0.16252692 -0.71491915 0.8651497 0.7930697 -0.14093813 0.029238217 -0.43618682

weight_ih_l0 f4 [128, 16]
00000000: a7ba 133e 74cd 66bd 6181 6fbd b1ee 553e
00000010: cde2 e5bc 7472 81bd f4d4 193d 1f78 52be
00000020: cb7f 19be 3c33 d93d 7567 f33d 9910 d13d
00000030: 7334 9dbd a194 acbd e913 37bd 3968 333e
00000040: beb2 49be 803f a7bd 49af 4e3d 9655 c73e
00000050: c763 58bc d76e eebd 2226 f2bd 6436 e1bc
00000060: ab0a 86be e586 11bc 5234 3cbc 74ce afbc
00000070: 797c 9f3d d4ac ba3d d3a6 203e 3269 133e
00000080: 38ee 03bd 9664 12be 4eea c63d 9103 30be
00000090: 63e9 0fbe 364e 38be 6e2f c43e 1da0 193e
000000a0: afdc 63bd 02d5 03bd cd29 33be 12ab 9bbc
000000b0: b46c c3bc 95a1 80bd 78d5 c9bd 90cf 68be
000000c0: af2b c53d 58dd eabd 68b0 2cbd 7040 133e
000000d0: 27b6 dcbe 10b1 a8bd 9595 a8bc 40f5 06be
000000e0: cf72 23bc 2e6d 823e 406a 9f3d c212 913e
000000f0: 1a78 e63d 42d5 27be 5b60 383e aec2 37be
00000100: 3c65 333e 9f78 9bbd 5152 1f3c 1393 c8bd
00000110: 05ab 8ebe b974 af3e 39e9 fdbd 0fc3 6fbe
00000120: 3ab5 3b3e 19da 963e 6267 11bd f00d 6bbd
00000130: 6098 31bc 1c91 6dbd 22d1 08be e61e a6bd
00000140: da3a 39be 5e9c 043e d15e f1bd ac1c 5cbd
00000150: 66b2 13bd 5815 143e d83c 8c3e bc5b e03d
00000160: 8777 1fbe 4919 0cbd f955 b7bc 55de 8e3d
00000170: 876e 4b3e e1f2 92bd 7811 5cbe 864c 243c
00000180: 271f 98bd 6af2 16be cb0f 9e3c 58bd 323e
00000190: c4ab 0f3b 91a0 633d c736 2d3e a1b0 393e
000001a0: 1353 5fbd 274b cf3d d246 e13d c11e 573c
000001b0: d0a4 a53d 72a2 32be ca78 debd f6cb 113e
000001c0: 5551 a1bd 4515 cc3d d878 1dbd f441 523d
000001d0: 73cf f5bd bf21 80be 9291 b0bd f5fa 983b
000001e0: 7187 8abd 8eb5 ed3e a1d1 57be e461 0e3c
000001f0: 7ccc 103d 880c 01be dad4 a83d 28f4 28bd
00000200: 87c5 16bd ccec 52be 64cc acbd 0939 8fbe
00000210: c8a7 173d f888 1d3e c0d2 42be fcd4 b83d
00000220: b236 f8bc 000a 023e c5b7 733d 71d4 99bd
00000230: 807e d83d 5894 4ebe 6a8e bbbd 7d48 253e
00000240: 7d09 1c3e fdd9 e43c ed29 033e a8b8 1cbd
00000250: 48b4 a73d 3b01 bebd 900c 84bd 6b25 2a3e
00000260: 1902 e43d 979b 153e 6133 1bbd 9150 1d3d
00000270: 0a71 2fbd 614b 6abe d2d8 473e b82e 2f3e
00000280: 6c43 e33d 68c8 34be a66d b1bd 1d4e 5ebd
00000290: 1d51 df3d 6c82 993d 21f0 5f3d b8da 5d3c
000002a0: 5090 c73d e713 3bbd 04a4 353d db79 f1bd
000002b0: c694 093e d3fe 4b3d 0b47 b7be b58d 2dbe
000002c0: f950 833c 65f5 813e 8b98 68be 8ca5 51be
000002d0: 7a52 2fbe 441b 3f3e c05e 143e fec1 adbd
000002e0: 4032 463e 0835 953c c794 ae3d cfa9 c0bd
000002f0: c1ba 94bc c2d6 63be 4b1a 9a3e e522 2d3e
00000300: 16d1 883d 942f d8bd 7e63 893e 6676 a1be
00000310: 8cac 323d 45e6 c33d 4a52 033e 163c 3fb9
00000320: f0d8 a2bd a8e7 ee3d 6e77 3ebe 73ff 99bd
00000330: a110 013f 230d e83a 1533 28be 8a3b a7bd
00000340: 81bd b03d 9d34 88be 495d 733d c2d9 ea3c
00000350: 795b fc3d b0d3 c33c 0994 16be 6cf4 c73d
00000360: 2c35 293e 9aee bb3c 749f 9c3d 467b d53d
00000370: 15ba 713d d710 39bd ab64 e03d 0b87 103e
00000380: 461e 04be 31ae b93d ffba a5bd f892 ba3e
00000390: 345d 46be f6e3 1bbe 08b0 c33d 3cc5 36be
000003a0: 1fb4 23be ae1d 0f3e 1588 c43c cb50 11be
000003b0: bc01 1e3e 795d b03c fd8e 29be 9bd0 f03c
000003c0: 19e0 48be a100 59be b0f4 0f3e 26cb afbe
000003d0: 417e fbbc 6f3f 5e3e dbc7 133e 9dc4 0d3c
000003e0: bfbb ddbd bf42 c2bd 750c f4bc 9c14 3e3d
000003f0: adf5 c53d 715c 103e e838 9c3d f13c 5d3d
0.14426671 -0.05634828 -0.058472995 0.20891835 -0.028062249 -0.06320658 0.037556604 -0.20553635
-0.14990155 0.10605475 0.11884967 0.10208244 -0.076760195 -0.08426786 -0.044696722 0.17520227
-0.19697091 -0.081664085 0.050460134 0.38932484 -0.0132073825 -0.11642235 -0.118236795 -0.027491756
-0.26180014 -0.008882259 -0.0114870835 -0.02146075 0.07787413 0.091149956 0.15688638 0.14395598
-0.032209605 -0.14296183 0.09712659 -0.1718886 -0.14053874 -0.17998585 0.38317436 0.15002485
-0.055630382 -0.032185562 -0.17496414 -0.019002471 -0.023855545 -0.06280819 -0.09855169 -0.22735429
0.096274726 -0.11467999 -0.04216042 0.1438005 -0.4310772 -0.08236897 -0.020579139 -0.13179493
-0.009976103 0.25473922 0.077839375 0.28334624 0.11253376 -0.16389945 0.18005507 -0.17945358
0.17519087 -0.07591366 0.009724216 -0.09793677 -0.27864853 0.3426874 -0.12397999 -0.23414253
0.18330851 0.2946327 -0.035498984 -0.05738634 -0.010839552 -0.057999715 -0.13361028 -0.08111362
-0.18088856 0.12950274 -0.11785663 -0.05373828 -0.036058806 0.14461267 0.2739017 0.10954997
-0.1557294 -0.0342038 -0.022379862 0.06976 0.19866382 -0.07175232 -0.21491039 0.01002801
-0.07427817 -0.14740911 0.01929464 0.17455041 0.0021922449 0.05557305 0.16915427 0.18133785
-0.054522585 0.10121756 0.10999836 0.013129891 0.08088076 -0.1744478 -0.108628824 0.14237961
-0.07876841 0.09964994 -0.038445324 0.05133243 -0.120024584 -0.25025746 -0.08621515 0.0046685883
-0.06764115 0.46427578 -0.21076061 0.008690331 0.03535126 -0.12602437 0.08243723 -0.04124847
-0.03680947 -0.20598143 -0.08437422 -0.27973202 0.037025243 0.1538428 -0.19025707 0.090249985
-0.030299518 0.12699127 0.05950143 -0.07511223 0.10571003 -0.20173776 -0.09158023 0.16140933
0.15237994 0.027935976 0.12808962 -0.03826204 0.08188683 -0.092775784 -0.064477086 0.16615836
0.111332126 0.14610134 -0.037890796 0.038406912 -0.04283241 -0.22880317 0.19516304 0.17107666
0.11096844 -0.17654574 -0.08663492 -0.054273713 0.10904143 0.07495579 0.054672364 0.013540916
0.09744322 -0.045673277 0.04434587 -0.1179082 0.13435659 0.049803566 -0.3579639 -0.16948588
0.016029822 0.25382534 -0.2271444 -0.20473307 -0.17121306 0.18662745 0.1448927 -0.08484267
0.19355106 0.018213764 0.08524471 -0.094073884 -0.018155457 -0.22249892 0.30098185 0.16907842
0.06680505 -0.1055595 0.2683372 -0.31535643 0.043621585 0.09565405 0.1282436 -0.00018237563
-0.07951534 0.11665279 -0.18600246 -0.07519426 0.50416 0.001770411 -0.16425736 -0.08165653
0.08629895 -0.2660264 0.059415136 0.028668288 0.123221345 0.023904651 -0.14704908 0.09763417
0.1652419 0.022940923 0.07647601 0.10423903 0.059015352 -0.045182075 0.10956701 0.14114015
-0.12902173 0.090664275 -0.08092307 0.36440253 -0.19371492 -0.15223679 0.0955506 -0.17848676
-0.1598668 0.13976166 0.02399067 -0.14190976 0.15430349 0.021528946 -0.16558452 0.029396346
-0.19616736 -0.21191646 0.14058185 -0.34334677 -0.030699851 0.21703885 0.14431708 0.008652833
-0.10826825 -0.09485387 -0.029791096 0.046406373 0.096659996 0.14097764 0.076280415 0.054013196

weight_hh_l0 f4 [128, 32]
00000000: 67cb 63be 1937 1a3c c670 edbd 2359 dc3d
00000010: 7562 953d 378a 92bc 66c4 dd3d 62ce fbbe
00000020: 5929 d93b 57a0 62bc 63b2 29be 0aec dcbb
00000030: d355 27bc fe55 a0bd 5b0d 31bd 8815 5b3e
00000040: 8477 023e 0cb1 f7bc a854 a43c a5d6 22be
00000050: 2a17 6b3e 2095 5ebe 6776 c23b be24 073e
00000060: d778 c2bd c06d f03d 96fd 433d 6548 4d3d
00000070: 8803 823e f3d3 21bd 89e3 473d 6187 093e
00000080: 6741 5fbd f243 3fbe 9a95 0f3d db14 133e
00000090: bd8a 5dbe d151 b2bd 9fa0 6abe dc9b debd
000000a0: ac48 3dbe ccf7 1f3d 2e08 263e c0f4 443e
000000b0: 69d0 993d 626f 2f3c 92c4 003e d88d ac3e
000000c0: c9de 8b3d d484 303e 1f01 b0bc 9f18 85bc
000000d0: b29b 433e fe2b c6bd 8c0c 2f3d 25b0 c8bd
000000e0: bd84 07bd c746 593e 09f2 283e 2cbc 13be
000000f0: 0830 a4bd d107 6cbd 2039 c3bd 601c 813c
00000100: c3bc 11be a972 92be 3203 e03d a65c 113e
00000110: a22d 273e c1cb 7a3d abd2 1fbd eb33 473e
00000120: 42f6 27bd fd33 023e c138 e7bd 6650 f93c
00000130: 513f 113e a3db fb3d 8cda ed3b 9f7d 1dbe
00000140: 552f ddbd c7c6 a23d e459 eebd 7e49 e2bc
00000150: 2d84 573d 89c8 37be e25e d73d aa06 8cbd
00000160: 3284 54be b425 fcbd b6d6 243e d7a6 413e
00000170: dc52 27be 2ccc c2bd df4d 053e f143 103e
00000180: c929 9fbd c84f a7bd 01f9 3d3d 6123 91bd
00000190: fbb6 73be e001 a2bd a1b6 e9bc 4512 52be
000001a0: 35ba 2cbe c18e e3bd 9b10 9d3d fc57 92bd
000001b0: 8af2 87bc 37f9 6bbe 9b42 a93d 474c 933e
000001c0: 3729 853e 5def dcbd e1d7 ad3d 96cf 29be
000001d0: 5f8c 9aba 72ce 49be 580b 54be ace6 8b3d
000001e0: a0e3 603d cb6a db3d 44f1 f23d 50ea b0bd
000001f0: 49e6 44bd c06c bfbd ea3d d9bd 2e74 7c3d
00000200: 2409 a83c cfaf 0abe a7e9 8dbd 048f 0c3d
00000210: d120 823c 87a7 dfbd 676b 203e 2423 173e
00000220: 049c 63bd 864c e6bd 297c a93c 80bf 763c
00000230: ca22 693d 116d 85be de66 bf3d 2d38 0dbe
00000240: 6ca9 d03d d29b 303e 0c47 15be 6605 5f3d
00000250: c443 88bc 26d4 f1bd a306 b7bd 3ff5 8abd
00000260: 2a75 a53e a88b 9abd 1441 5dbc ca0f 5d3e
00000270: 9cb1 0f3e 4cca 143e 5983 4d3e ccd1 633e
00000280: 6f41 7bbd 82d6 87be 5f0b aebe 12f0 59bb
00000290: a658 b93c 4514 8ebd 46d1 91bd c495 14bf
000002a0: 90d6 19bc a020 0dbe 7776 0abe 7c0d 343d
000002b0: d22f 53be b0c2 f43d 0077 55bd c0ac a93e
000002c0: 6c7c 10bc c655 bb3c 4aae 7d3c e01d 2b3d
000002d0: 0ba2 6d3e 4b29 3a3e 45ae acbd ba97 683c
000002e0: 952a 50be 35cb f53e 2bdd ee3d ef75 d33d
000002f0: d1e9 593e b90e 99be a47f 6cbd 2987 173e
00000300: 0692 0dbe e2ae 15be 1110 6dbd 8860 553e
00000310: 0a76 3bbe b230 a2bd 2861 c0bd adce dbbe
00000320: d6cd be3d c89f 9abd 3fab ccbd 89ce 1f3e
00000330: fa34 35be bc51 183e efef 8fbd 93fa 503e
00000340: f60d 053e 851d f53d 8072 a6bd 3fc7 75bd
00000350: 3ecf 503e a00f 033b 8064 e1bd 004a f8bd
00000360: 3bf2 ffbd db04 ba3e 552e 513e 4e32 393e
00000370: 0f78 353e 89e9 6bbe 41f3 de3c 7a4d 14bd
00000380: 194b fb3d 1df2 16be b695 e3bc ddcf d7bd
00000390: 8d45 d2be c33e 05be 9b6c cb3d 43bf 1bbe
000003a0: 4c49 aebe 091a 663e de7a 143e 2ef8 98be
000003b0: 5475 a2be f5ec 313d e21e 6e3d 515e e63d
000003c0: 60f5 1bbe d858 90be 3bc3 613c ac13 2abe
000003d0: 3e20 863e 1403 013e f1be 61be 3e99 8dbe
000003e0: e32f 19be fb72 9dbc b8dc 16bc aad0 4fbd
000003f0: 3c22 06be 8214 b7bd bac5 1cbe 2f37 1dbe
-0.2224556 0.00941255 -0.115937755 0.10759189 0.0729417 -0.017888172 0.10828476 -0.49180895
0.0066272435 -0.013832173 -0.16571955 -0.0067420052 -0.010213333 -0.07828902 -0.043225627 0.21394932
0.12740904 -0.03023579 0.020059898 -0.15902193 0.22958055 -0.21736574 0.005934525 0.1319761
-0.094957046 0.11739683 0.04784926 0.05011787 0.2539332 -0.03950877 0.04880098 0.13430549
-0.054505732 -0.18678263 0.03505478 0.14363424 -0.21634956 -0.087070115 -0.22912835 -0.108695716
-0.18484753 0.039054677 0.16214058 0.1923399 0.07510454 0.010707708 0.12574986 0.33701968
0.06829602 0.1723817 -0.02148491 -0.016247092 0.19102362 -0.096763596 0.042736575 -0.09799222
-0.033085573 0.21218406 0.16498579 -0.1442725 -0.08016974 -0.05762464 -0.0953238 0.0157606
-0.14232163 -0.28603104 0.109381095 0.14195499 0.16326001 0.06122947 -0.039019268 0.19453399
-0.041006334 0.12715144 -0.11290122 0.030433845 0.1418431 0.12297752 0.007258719 -0.15379952
-0.108000435 0.0794807 -0.11638239 -0.027622934 0.052616287 -0.17947592 0.10516144 -0.068372086
-0.20753554 -0.12311879 0.1609753 0.189113 -0.16340202 -0.09511599 0.13017987 0.14088418
-0.07771642 -0.08169514 0.046380047 -0.07086826 -0.2380027 -0.07910514 -0.028529467 -0.20514782
-0.16867907 -0.111112125 0.07669183 -0.07145688 -0.016595144 -0.23044287 0.08264657 0.28769132
0.26008007 -0.107878424 0.08488441 -0.16583094 -0.0011791101 -0.19707659 -0.20707452 0.068311065
0.05490458 0.107137285 0.11862424 -0.086384416 -0.04807118 -0.09346914 -0.10607512 0.061634235
0.020512171 -0.13543628 -0.06929331 0.034316078 0.015884789 -0.10920625 0.1566597 0.14759499
-0.05556871 -0.112450644 0.020689087 0.015060306 0.056917943 -0.26059774 0.09345792 -0.1379096
0.10188565 0.1724694 -0.14577883 0.054448508 -0.016633876 -0.11808042 -0.08936813 -0.06785058
0.32315952 -0.075461686 -0.013504285 0.21588054 0.14032596 0.14530295 0.20069636 0.22248
-0.0613417 -0.26530844 -0.3399305 -0.0033254665 0.022625279 -0.0693746 -0.07119994 -0.58041024
-0.009389535 -0.13781977 -0.13521753 0.043958172 -0.20623711 0.11951196 -0.05211544 0.3313961
-0.008818727 0.022868048 0.015483448 0.041776538 0.23206346 0.18179815 -0.08431677 0.014196331
-0.20328744 0.48006597 0.11663278 0.103252284 0.212806 -0.29894045 -0.057738915 0.14797653
-0.13825235 -0.14617494 -0.05787665 0.20837605 -0.18306747 -0.07919444 -0.09393531 -0.4293112
0.09316604 -0.07550007 -0.099936 0.1560613 -0.1769599 0.14874929 -0.070281856 0.20408086
0.12993607 0.11968521 -0.08127308 -0.06000447 0.20391557 0.0019998327 -0.11005497 -0.121234894
-0.12497374 0.3633183 0.2042783 0.18085596 0.1772158 -0.23038305 0.027215602 -0.0362067
0.12270183 -0.14740796 -0.027781349 -0.10537694 -0.41068688 -0.13012223 0.09932824 -0.1520968
-0.34040296 0.22470869 0.14499995 -0.29876846 -0.3173014 0.04343887 0.05813492 0.11248458
-0.15230322 -0.28192782 0.013779457 -0.16609067 0.26196474 0.1259883 -0.22045495 -0.27655977
-0.14959674 -0.019219866 -0.009207897 -0.050736107 -0.13098997 -0.089394584 -0.15309802 -0.15353082

bias_ih_l0 f4 [128]
00000000: fcce 023d 24d5 f73c b899 783e 9d26 083d
00000010: 9f01 6d3e 323e 693e 784b 183c 6650 0d3e
00000020: 681b 95bb 0a90 bc3d f9e2 633e 4a6a 083e
00000030: 7586 d23d affc 97bc 7848 2bbe db5e 963e
00000040: 7115 fabc 654e b43d 8c7a cebc e454 1ebe
00000050: b13d 4d3e 5051 4dba a3cc 5d3e 87f4 de3b
00000060: 993f 373d 2941 163e cd36 c33c 785d ecbd
00000070: 1ba2 633d 6568 e73d 6508 40bd d8cf 32be
00000080: d310 5c3d 3c0c 933b 0eea 2d3e 0388 fe3c
00000090: 6500 4e3e d545 97bd e914 6c3d b2f7 fdbc
000000a0: 320e 26bd 91a3 42bd 7402 e7bc 8288 bbbd
000000b0: 7aae f9bd 3b6c 333e 048c 59bd f718 943e
000000c0: fd03 ce3d e645 813d 07d7 d33d 41c1 b8bd
000000d0: e2a2 0b3d 1d8b 033d 0486 0f3e 2fd0 d53d
000000e0: bba6 083d d363 583e cfd9 133e 1524 843d
000000f0: b176 49bd 8b3c e0bc b872 723d 8290 e8bd
00000100: ee5a 4dbb d3c7 8fbd d3f0 b9bd fced 1c3d
00000110: 6c5d 00be ee3e 21bd fbc0 acbd 1193 e4bc
00000120: c414 3bbe d3b3 85bd b339 b1bb b33f 58bd
00000130: 81ac d0bd 1e26 0f3e e2a1 febd 3e92 ff3c
00000140: 8797 4bbe b4a7 03bd f823 973d 99c6 48bd
00000150: d83f 093e ff90 f73d e7e7 cc3c c41e cfbd
00000160: 99df 9cbd 4853 b4bc b29e 07bd d240 3fbe
00000170: d46b 1fbd e919 04be e474 0cbe fe7e 07bd
00000180: 840e 083d 197d aabc 735f 58bd 7a05 f3bd
00000190: 0184 603e 813e eb3b 36b2 8dbd a5e5 543e
000001a0: 8d03 733d c354 083e 93ec f3bb 983a 75bd
000001b0: f7fd 993d d4d9 463e a526 293e c9bb 0d3d
000001c0: 964e 8f3d 709b 9d3d a224 8c3e acd6 1b3a
000001d0: f356 403e 4c07 2e3e 8a4b ff3d 0b96 fd3d
000001e0: 1060 563e 5280 e93b 9c43 5e3e 6ba5 263e
000001f0: efc6 593d 8add 523c fffb 063e 2813 17be
0.031935677 0.030253 0.24277389 0.03323995 0.2314515 0.22777632 0.009295337 0.13800201
-0.004550386 0.09207161 0.22254552 0.13321796 0.10279552 -0.018553106 -0.16726863 0.29369244
-0.030527802 0.08804015 -0.02520492 -0.1546207 0.20043065 -0.0007832246 0.21660094 0.0068040523
0.044738386 0.14673294 0.023829842 -0.11541265 0.055574518 0.112992086 -0.046883006 -0.17462099
0.053726982 0.0044875424 0.16983816 0.031070715 0.20117338 -0.07386366 0.05763713 -0.0310019
-0.04054088 -0.04751927 -0.028199412 -0.09156896 -0.12191482 0.17521755 -0.053112045 0.28925297
0.100593545 0.0631216 0.103437476 -0.09021235 0.034090884 0.03211509 0.14015967 0.104400985
0.03336213 0.2113183 0.14438556 0.064521946 -0.04918546 -0.02737262 0.059191436 -0.11355688
-0.0031334716 -0.07020535 -0.09079137 0.038312897 -0.12535638 -0.039366655 -0.084352456 -0.027902158
-0.1826964 -0.065284394 -0.0054084896 -0.052795123 -0.101891525 0.13979384 -0.124332204 0.031197663
-0.19882022 -0.032142356 0.07379907 -0.049017522 0.1340326 0.12088203 0.025012923 -0.1011329
-0.07659835 -0.022012368 -0.033110328 -0.1867707 -0.038921192 -0.12900509 -0.13716465 -0.033080094
0.03321697 -0.020811604 -0.052825402 -0.11866279 0.21925355 0.007179082 -0.06918757 0.20790727
0.05932956 0.13313584 -0.0074439733 -0.059870332 0.07519143 0.19419032 0.16518648 0.034602914
0.06997411 0.07695663 0.273717 0.00059447694 0.18783168 0.16994971 0.1246558 0.12382134
0.20935082 0.0071258927 0.21705478 0.1627404 0.053168233 0.012870202 0.13182066 -0.14753401

bias_hh_l0 f4 [128]
00000000: 7f73 ab3d 3811 b13d 6729 bebc d9fe 41be
00000010: 5bd8 783e d378 193e d5ac 843c 5e0d 413e
00000020: 7946 ce3d 6184 b5bd 10b7 6cbd 765c f4bc
00000030: 3639 a4bd ea28 4f3e 1b89 2abe 5e4f 433e
00000040: 717b 57bd d747 273e 7244 81bd 9a99 303e
00000050: 5665 863e 23d2 cc3d 4e27 6e3d f05e b5bd
00000060: 7291 81bd 7bca 14be 2aae f03c 16dd 1c3d
00000070: bdf3 843c c3d2 213e e746 0dbe c5c7 083e
00000080: afaa fdbc 29d9 68bc 573c a43d af2c 23bd
00000090: 84e9 a13e dd48 5fbd 75bd b9bd 2e03 023b
000000a0: f417 a63d f799 1c3e f50b d0bc 83f0 3c3d
000000b0: 563d 9bbc 84ba dcbc 0ec3 d53d 518d 373e
000000c0: 58f3 2bbd 5e52 193e 0545 6d3e dcfc d13d
000000d0: bf49 653d b753 c03d a430 0ebe 14fc ac3d
000000e0: ce6b 723e 68b8 283e 24c5 c83d caa7 17bd
000000f0: b5ea 123e da8e 803d 8ca1 873b ca2c 383d
00000100: af8d bcbc fb32 e7bd e3bf e3bc 582b 813d
00000110: 8f7b c9ba a359 e0bd 579c 4d3e 4e09 ce3d
00000120: 9397 36be 50f5 cd3d d23a eebd 41cf f0bd
00000130: a86a c53d d10f 9bbb 7b79 983b 0849 263e
00000140: 625a bcbc 4345 26be 534f 91bc 4ca1 8b3d
00000150: 174a 8d3c 2446 a4bd 4ba9 80bd 47ac 65bd
00000160: ecf9 c5bd 9614 e53b 2030 40bd 2134 b73d
00000170: cc6a f33c 163d 0ebe 8f60 c33d 729b 34bb
00000180: c67a 7a3d 60be 273e c1e4 90bd ea00 cebd
00000190: 18cd 253e d0e5 b43c f6ed 833d 7375 d33b
000001a0: 0200 473e bb43 a9bc ef81 263d fd1b c6bc
000001b0: 3458 093e 74e9 e53d a7c1 0abe 70bc 3b3e
000001c0: 8d7f 053e 0159 043e a9bb 123e 8c95 a83d
000001d0: fc8a ff3d 7488 243e 2f3c 1ebd 248e 893d
000001e0: e4c0 86bd fdeb 45bd 9add 9bbd 1b39 0e3e
000001f0: 653c 2cbc 4c70 b039 9c7d d33c 6cb1 c53d
0.083716385 0.08645862 -0.023213102 -0.18944873 0.24301283 0.14987497 0.016195694 0.18852755
0.10072035 -0.0886314 -0.05779177 -0.029829245 -0.080187246 0.20230451 -0.16653864 0.19073245
-0.052607957 0.16335998 -0.06311883 0.17246094 0.26249188 0.10001018 0.058142953 -0.088559985
-0.063265696 -0.14530365 0.029379923 0.03829678 0.016229505 0.15803055 -0.13796578 0.13357456
-0.030965177 -0.014211931 0.080193214 -0.039837535 0.3162347 -0.054512847 -0.09069339 0.001983832
0.081100374 0.15293108 -0.025396327 0.046127807 -0.018950146 -0.026944406 0.10437594 0.17925002
-0.041980118 0.14972827 0.2317086 0.10253307 0.055978533 0.09390967 -0.13885742 0.084465176
0.23673937 0.16476595 0.098032266 -0.03702525 0.14347346 0.06277247 0.004139131 0.04496459
-0.023016779 -0.11289021 -0.02780146 0.06307095 -0.0015371906 -0.10954597 0.2007917 0.100603685
-0.17831258 0.10056555 -0.11632313 -0.117582805 0.09639484 -0.00473211 0.0046531535 0.16238797
-0.022992317 -0.16237359 -0.01773802 0.06817874 0.017247243 -0.08021191 -0.0628229 -0.0560725
-0.096668094 0.0069909794 -0.046920896 0.0894549 0.02971401 -0.1389049 0.095399015 -0.0027558473
0.061152242 0.16381216 -0.07074881 -0.10058768 0.16191518 0.02208224 0.06441872 0.00645321
0.19433597 -0.02066218 0.040651258 -0.024183268 0.13412553 0.11226168 -0.13550435 0.18333602
0.13036938 0.12924577 0.14329399 0.08231649 0.12477681 0.16067678 -0.038631614 0.06716564
-0.0657976 -0.04832076 -0.076106265 0.13888972 -0.010512446 0.00033653004 0.025816731 0.09652981

weight_ih_l0_reverse f4 [128, 16]
00000000: d03d ae3e bf7a 19bd 44da 553e 878b e8bc
00000010: 4bb2 363d f170 e2bd c46b 66bd 7445 02be
00000020: 8712 4c3e 29fa 68be ef23 14bd 9b0b 293e
00000030: 32ff c5bd 97eb 8fbe 76ff a73e cada 213d
00000040: 7730 433d 1e1a 5abe 32cf 09be 0c37 633e
00000050: d84c 95bc 761d 06be daa0 303d bfcc 9ebe
00000060: 878c ed3d 21c1 eabd 98fd e43c 7f4b 2fbe
00000070: df6d 40bd a668 52be a08b 1e3e 5c2f 8abc
00000080: 3f30 863e 6b78 7cbd bbed 123c 5888 c23d
00000090: b7f2 58be 1a88 303d d712 703d 29f4 0c3d
000000a0: 2c27 b13d b436 6bbe 460d 043e ebbb 323e
000000b0: 7b7b 86be 25bb c6bd 72a0 063e bfc9 bd3d
000000c0: c1c0 f23d 4330 97bd 46b6 473d cfcf 923d
000000d0: e2ce f53c 5d83 f63d a29d 583e 180b 203c
000000e0: 1f6d 623e 6043 863c ab46 9ebe 3a8f 15be
000000f0: 6c67 26be 9c7c 5bbe 7447 81be db25 173e
00000100: ebb0 d83e 23ec 7cbe 2ddc 7cbe c00c af3d
00000110: d41a 07bd 196d 523d 527c 223e ee2a 4bbe
00000120: 8ee4 013e e9c7 ddbc e8c2 223e 7d5c 7bbe
00000130: 1090 1bbc 39e6 7cbb 5185 dc3e 46c9 6abd
00000140: adb7 adbe 235d 20be 9489 d23c 438e 1dbe
00000150: 8b69 bcbd 2772 7abe 9df1 863d fc13 483e
00000160: cfa3 13bd f4d8 81bd 8de7 1f3e 3c91 06bd
00000170: 04bc a8bd 6163 a83d ff1b 733a 0d4f 923d
00000180: d1dd 393e e482 153e 483f e93d 468e 8b3e
00000190: aae4 bc3c e644 853e 9ea9 e9bd 8cca ccbd
000001a0: dd8f 533d ee93 ffbc d2c4 b5bd c532 203d
000001b0: fec7 a7bd 045d 06be dfc4 f33d 1fae 2f3e
000001c0: 19f0 e7bd 9c8f e2bd 0f72 8b3e 2f87 973d
000001d0: 528f 113d bf70 16be d635 d8bd 3e40 e0bc
000001e0: d690 e8bd 940f 0cbe f610 77bd 59d4 bf3d
000001f0: a709 45bd 3644 9b3d ec59 873d 909a aabc
00000200: 5997 aabd 6c08 2f3e 0aad 56be ddb2 ec3d
00000210: df8a 2abe 93b5 993e bf3d b33d f947 04bc
00000220: c6b9 1e3d 5b3c 5e3e c298 6c3e 5867 003e
00000230: 027a 2a3d 3f43 513d 4976 113e 04a4 163e
00000240: 59db 3c3e 0e02 41bd 117b c33d 9a9b da3e
00000250: 0a4a 673c 7480 273d d391 bc3d 447d 8cbe
00000260: 04ec c8bd 5e33 2bbe 66c6 4cbe ffbc b03b
00000270: a979 2fbd f049 14be 906b 93be 3591 9a3d
00000280: 8e4a 0fbe 1f68 153d c975 91be 7afb 323d
00000290: 2315 ae3d 43e1 043d 216e 85be e446 e8bc
000002a0: 6c18 16be c616 983c f436 3d3e d1e7 1a3e
000002b0: d808 b9bd a384 85bd a68b 44be 0949 3f3d
000002c0: d438 5d3c 4e07 f2bd ec9e 99bd da0f ad3e
000002d0: 057e 8f3b 96ad a43d 9998 26be 7144 0f3e
000002e0: 84de 97bc c0d7 5d3e f09f a3be 2674 903c
000002f0: dbfb 923c abdb 283d 552d 27be adf9 84be
00000300: 761c b13d 999d d1bd 139d bcbd c073 053d
00000310: d9ba a13d 16c8 01be 05b0 85bd ffd9 1cbe
00000320: 33de 053e e109 203e 7ba9 053d 8faf d4bd
00000330: a248 92bd bd16 1f3d f36c b93c fbe3 453e
00000340: 2d4f e33d 3f18 e73c 88cd 81bd 2992 a33e
00000350: 2b4f dcbd 979b d0bc f9f1 c63d ef69 43bd
00000360: 126d 133d eff5 323e 0798 103e d63f f23d
00000370: 6ed1 553d 3619 17be 5a6e 62be 36df 73bd
00000380: 524c 2b3e 0acf efbd 60a6 8a3e 8c40 7dbe
00000390: fa00 ae3e 449d 863e e637 9dbc fb66 183e
000003a0: f318 8abb 9552 49be acd0 fcbd 3eb6 583d
000003b0: d1af 05be dbc4 92bd db0a a13d 4af0 04be
000003c0: e5a8 64bd 7cef 3b3d efc3 8cbe 4ac5 b23e
000003d0: 6ea5 49be 4006 48be a6d1 0d3d 0790 30be
000003e0: bc01 d03d dec5 733d 1391 e03c dd13 a63c
000003f0: 9e6f 433d 44d3 f7bd 0ac7 113e 2ff8 ebba
0.34031534 -0.037470575 0.20884043 -0.028386844 0.044603627 -0.11056698 -0.056255117 -0.12721807
0.19928943 -0.22751679 -0.03616708 0.16508333 -0.09667815 -0.28109428 0.3281209 0.039515294
0.04765364 -0.21299025 -0.13457945 0.22188967 -0.018225119 -0.13097176 0.04312215 -0.31015584
0.11599069 -0.11462618 0.027952954 -0.17118643 -0.04697978 -0.20547733 0.1548295 -0.016868286
0.26208684 -0.061638277 0.008967812 0.09498662 -0.21186338 0.043098547 0.058611717 0.034412537
0.086500496 -0.22970086 0.12895688 0.17454498 -0.26266083 -0.09703664 0.13147143 0.09266996
0.11853171 -0.07382252 0.048757814 0.071685426 0.030005876 0.12036774 0.21153882 0.00976827
0.22111939 0.016389549 -0.3091329 -0.14605418 -0.1625039 -0.21434253 -0.25249827 0.14760534
0.42322478 -0.24699454 -0.24693365 0.08547354 -0.03298457 0.051373575 0.15867737 -0.19840595
0.12684843 -0.027072864 0.15894663 -0.24547 -0.009494796 -0.0038589372 0.43070462 -0.057320856
-0.33929196 -0.15660529 0.025700368 -0.153863 -0.09199818 -0.24457608 0.06589053 0.19538873
-0.036044892 -0.06340209 0.15615673 -0.03285335 -0.08238986 0.0822208 0.0009273886 0.07143984
0.18151022 0.14600712 0.11389023 0.27256984 0.023058254 0.26029128 -0.11409305 -0.0999957
0.05165087 -0.031198468 -0.08875431 0.039110918 -0.08192442 -0.1312142 0.119027846 0.17156266
-0.11325092 -0.110625476 0.27235457 0.07398831 0.03553707 -0.14691447 -0.105571434 -0.027374383
-0.1135575 -0.13677818 -0.06031891 0.09366674 -0.04810491 0.075813696 0.06608948 -0.020825654
-0.083296485 0.17093056 -0.20964447 0.11557553 -0.16654538 0.30021343 0.087520115 -0.0080738
0.038751386 0.21702711 0.23105147 0.12539423 0.041620262 0.05108952 0.14205278 0.14711004
0.1844305 -0.0471211 0.095449574 0.4269684 0.014116773 0.040893987 0.09207501 -0.2743932
-0.098106414 -0.16718814 -0.19997558 0.005393624 -0.042840634 -0.1448133 -0.28793 0.07547227
-0.13993284 0.03647625 -0.28410175 0.043696858 0.08500125 0.03244139 -0.26060584 -0.028354116
-0.14657754 0.018565547 0.18477994 0.15127493 -0.0903489 -0.06519439 -0.19193897 0.04670051
0.013502318 -0.118177995 -0.07501015 0.33801156 0.0043790364 0.080409214 -0.16269149 0.13990952
-0.01853872 0.21664333 -0.3195796 0.017633509 0.01794236 0.041225117 -0.16325887 -0.25971738
0.086480066 -0.102351375 -0.09209647 0.03258109 0.078969665 -0.12673983 -0.06527714 -0.15317534
0.13073044 0.15628769 0.032632332 -0.10385048 -0.0714276 0.038840044 0.022634959 0.19325249
0.11099086 0.028209804 -0.0633803 0.3194745 -0.107572876 -0.025464816 0.09714121 -0.047708448
0.03599269 0.17476629 0.14120494 0.11828582 0.05220168 -0.14755711 -0.22112408 -0.059539042
0.16728333 -0.117094114 0.2708006 -0.24731654 0.3398512 0.2629186 -0.019191694 0.14883034
-0.0042144 -0.19660409 -0.123444885 0.052908175 -0.1305535 -0.071664535 0.07863399 -0.12982288
-0.055825133 0.045882687 -0.27493235 0.34916145 -0.19692013 -0.19533634 0.034623764 -0.17242442
0.10156581 0.059514873 0.027412927 0.020273143 0.04771387 -0.121008426 0.14236084 -0.0018003042

weight_hh_l0_reverse f4 [128, 32]
00000000: c2b0 1bbd 80fd ccbd 0a91 0a3e 0537 d3bd
00000010: 20e5 af3e b99d 363d 486f 773d d67e f7bd
00000020: a0ec 7d3d b34c 29bd 10b8 643d 89df f93d
00000030: 976a 703e 4ffc 063e 2029 ee3d 26d8 05be
00000040: c89e a1bd 2b79 f03d 9b04 bbbc daeb 21be
00000050: 54a9 56bd de3c 1f3e bff2 463d 22ca 1ebd
00000060: ee7f 23be fd18 043c dd79 7c3d 372d 943d
00000070: c3ac 00bd e6a2 093e e9d9 9c3d 46aa 2abd
00000080: 3844 043e ef47 d23d 5d13 df3d a779 223e
00000090: 9578 dc3e 2a39 a3bb b671 0a3d 4ba1 a93d
000000a0: c6a2 953e ddd1 19be 4786 583e 3e8f 873d
000000b0: bc6f 7d3b 394d 4bbe 163c 403e ffb6 a3be
000000c0: 9207 c63d b9f0 313e e22e 1bbe 220d f3bd
000000d0: 94d1 743d 2b24 9ebd f4d4 b63e 0665 39be
000000e0: 287d babc d758 64bd 2f7c 493d 8d11 653d
000000f0: a07d 973e af3a 3dbe 261a 29be 698f 08be
00000100: 67ad bebd 0cd5 69be 505a aa3d 467c df3c
00000110: db3c 9b3e 3e21 133d fffa 7bbc 35e4 f63d
00000120: af29 6c3e 1bdf fb3d 6123 4bbe 8663 12be
00000130: fcae 98bd 2a80 48bd e086 8a3e 3fbb 27be
00000140: 7056 a33e 7b29 1fbe a9ca e03c ead8 0b3c
00000150: ee28 603d 66f9 d6bc 6c88 38be efa0 c8bc
00000160: 8f6a 243e 622e d1bd 6447 ac3c cb38 8b3d
00000170: 7fcd 2f3e 0f82 233d 743c 5a3d c4fc ba3c
00000180: 1a6b 813e 2a49 d735 9679 aa3e e68a 98bd
00000190: 4245 de3e a4a0 703c 5239 febb 76ea 033c
000001a0: 704d 2f3d 1d21 67bd a4d2 723e 6cf5 e9bd
000001b0: b6c0 fcbd 50ae 39be da86 c0bd facf 3ebe
000001c0: 86ea 3bbd 0478 06be 4891 b9bc e212 e7bc
000001d0: 73d3 1c3e b1db 11be 1e88 83bc 3cb9 a53c
000001e0: ebf6 5a3d 107d 36be bf20 68be 2b79 533d
000001f0: 6ebc ef3e aaa7 36bd fdc2 19be b27b aabd
00000200: 4eb7 963e 5525 c7bc 5d68 953e 1075 bb3d
00000210: 6731 8e3e ebf4 c53e 34e3 42bb 5cb0 9cbe
00000220: 4a65 c83c ae21 8c3e 82cd 063e 1e03 573e
00000230: 29e0 c03d 9a1c 023e 2383 8c3e 7281 ca3b
00000240: 02f1 05bf 083b 64be 5f62 45bb e2b9 47bc
00000250: 74f4 cf3c a157 193e a252 1abe e3bf 173e
00000260: 9b1f e7bd d14b 8c3d 416e 90bd f2e3 853e
00000270: c518 8a3e 64ba ad3e ceaf ac3d 3f7b cebd
00000280: c2b4 6abd fb50 29bd 9618 19bd 9b53 373e
00000290: 85cb c03e 3363 563e 337a 01bc 130a 513c
000002a0: 874f 5f3e e48a b5bd be1c 84bd 1907 92bb
000002b0: 1a07 14be 32bf 363e 4156 2b3c c80c 17be
000002c0: 7761 353e 2ef1 75bd aaaf 48be 11ce 113e
000002d0: 1143 003e a4b6 d13d 2bce fa3d 0c02 533c
000002e0: 0b65 9fbd 81ba 8abd e4b7 d23c 8468 a23d
000002f0: 3451 47bd 8832 3c3e 912a c0bd 683d 6b3a
00000300: 649d a03d 2619 f8bc d60c 8cbd 4a71 b4bc
00000310: 7a02 9ebc dcfe b4b7 12b4 033d 474f 10be
00000320: 9554 183d 93a9 3bbe dbc3 863c b394 1bbd
00000330: d8ea 1bbe e549 58be 9cc0 463d 93c3 173c
00000340: 63ac e53d aeeb acbd e930 14be f0bd 84bc
00000350: dcc7 d53d cfb0 debd 2ddb 3d3e eff8 bc3d
00000360: 6501 94bd eac0 d2bd 3309 d1bd 5e04 61be
00000370: ffb3 6d3d 97f7 ca3c 575b 6dbe 5f81 28be
00000380: 9f1f dfbd eb3b 0d3c 0abe f43c a6b7 ab3c
00000390: 27a5 963e a2c1 0c3e b31f fbbd 86a3 52be
000003a0: 705d 263e 81c7 dd3d 933f 5f3d a973 5abb
000003b0: 8f11 62bd f80b 4f3e f5ff 123e ed7a 203e
000003c0: 92c9 7c3d 4ac1 253d 4b9b 813d f648 0fbe
000003d0: 5c46 863c dd71 e8bd 8c05 2abe e99b 53be
000003e0: 8c22 8f3d 2e16 e13d 4645 793d 0d96 c43d
000003f0: ec8a 083c 8a19 d13c 6959 463d 2b2d e0bd
-0.038010366 -0.10009289 0.1353189 -0.103132285 0.34354496 0.04458401 0.06040886 -0.12084739
0.06199324 -0.04133291 0.0558396 0.12200839 0.23478161 0.13182186 0.11628938 -0.13070735
-0.07891613 0.11741861 -0.022829344 -0.15812626 -0.052407578 0.15550563 0.048571344 -0.038766988
-0.1596677 0.008062598 0.061639655 0.072351865 -0.03141476 0.13441047 0.076587506 -0.04166629
0.12916648 0.102676265 0.10892365 0.15866719 0.43060747 -0.0049811797 0.03379985 0.08282717
0.2922575 -0.15021463 0.21144973 0.06619118 0.0038671335 -0.19853677 0.18772921 -0.31975552
0.09669413 0.17376985 -0.15154603 -0.11867739 0.05977018 -0.07721742 0.35709345 -0.18104944
-0.022764757 -0.055748787 0.049190696 0.05592494 0.29588032 -0.18479417 -0.16513881 -0.13335957
-0.093104176 -0.22835177 0.08318007 0.027280938 0.30319867 0.035920374 -0.015379666 0.12055246
0.23062776 0.12298413 -0.19837715 -0.14295778 -0.074552506 -0.04895035 0.27056026 -0.16380022
0.31901884 -0.15543167 0.027440386 0.008535603 0.054726534 -0.02624197 -0.18020791 -0.024490802
0.16056274 -0.10213925 0.021030135 0.06797942 0.17168234 0.039918955 0.05328031 0.022825606
0.25277025 1.6040042e-06 0.33295888 -0.07448368 0.43412215 0.014686737 -0.007758298 0.008051505
0.04279846 -0.056428064 0.23713166 -0.11423764 -0.12341444 -0.18132901 -0.09400721 -0.18634024
-0.045877956 -0.1313172 -0.022652283 -0.028207246 0.15315036 -0.14243962 -0.016056117 0.020229928
0.053458136 -0.17821145 -0.22668742 0.051629227 0.46823448 -0.04459349 -0.15015788 -0.08324374
0.29436725 -0.024309793 0.29181185 0.09153187 0.27772066 0.3866342 -0.0029737474 -0.30603302
0.02446236 0.27369446 0.13164333 0.20997283 0.09417755 0.12706223 0.274438 0.006179982
-0.52320874 -0.22288144 -0.0030118448 -0.012190314 0.025385119 0.14974834 -0.15070584 0.14819293
-0.11285325 0.06850398 -0.07052279 0.2615047 0.26972023 0.33931267 0.084319696 -0.10082101
-0.05730129 -0.041336995 -0.037376963 0.17902987 0.37655273 0.20936279 -0.00790267 0.01275875
0.21807681 -0.08864382 -0.06450795 -0.0044564125 -0.14455834 0.17846373 0.010457576 -0.1475097
0.17712961 -0.06004446 -0.1959826 0.14238764 0.12525584 0.10239914 0.12246355 0.012878906
-0.07782944 -0.06773854 0.025722452 0.07930091 -0.048661426 0.18378651 -0.09383119 0.0008973689
0.0784252 -0.03028543 -0.06838386 -0.022026677 -0.01928829 -2.157635e-05 0.03215415 -0.14092742
0.03719004 -0.18326406 0.016450813 -0.037983608 -0.15226305 -0.21121939 0.04852353 0.009262937
0.11214521 -0.0844339 -0.14471783 -0.01620385 0.10438511 -0.10873567 0.1854064 0.09227168
-0.072268285 -0.10290702 -0.10206833 -0.21974322 0.058032986 0.024776263 -0.23179375 -0.16455601
-0.10894703 0.008620243 0.029875774 0.020961594 0.29422876 0.1374574 -0.122619055 -0.20570192
0.16246581 0.10829068 0.05450399 -0.00333331 -0.055192526 0.2021941 0.14355452 0.15671892
0.06171567 0.040467538 0.06328448 -0.13992676 0.016390972 -0.11349843 -0.16603678 -0.20664944
0.06989011 0.109905586 0.06085708 0.095989324 0.008333903 0.025524873 0.048425112 -0.10946115

bias_ih_l0_reverse f4 [128]
00000000: cf13 f93d f708 18bd dfc9 2b3e 43f7 933b
00000010: cd1a 393e 116a b3bd 79a0 e03d fc03 df3d
00000020: 046b 753e 99fd 5a3e 4a32 c8bd f355 1b3e
00000030: 2a4d 533e 29d8 f7bd a61d 86bd 9d1b 85bd
00000040: 1868 e7bc e296 62bd 55dd 973d 1ea8 1abd
00000050: ce0a 3a3e fe98 503d aef2 703e e42b 57bd
00000060: 6980 11bd 3186 09bd a6a8 2e3e a031 043d
00000070: db79 a63d 2582 cc3d 9428 a53c 3ee4 1dbd
00000080: a82b 373e 3bbe d03d f018 a43d 0f89 2cbd
00000090: a94c 803e d48d 243e 597f 1e3e 9429 c5bd
000000a0: 067a f83d 2b5f 1dbc 2e05 0e3e 529f aa3d
000000b0: fc83 2d3d 7f86 183b ccea d03d 6b7f 4f3d
000000c0: daf4 803e f64c 2d3e 98de e9b9 57d1 433e
000000d0: b2e5 f0bb e186 1b3e 7001 203e ab66 b93d
000000e0: 504a 00bd 582a f53d e562 503e e1cc a8bd
000000f0: eaa5 033e a309 e13c 883c b83d 6d3b b23d
00000100: 4bf9 cc3d ee8e 243e c83d 0cbe 3ef9 4f3d
00000110: c65d 5f3d fc91 babd 4e2d 7b3d 2bce 37bd
00000120: 07d2 c63c d47a 5b3d 0662 f83d ba89 d73c
00000130: 5c92 103c 55fe 863d 285b 5a3d 7114 01be
00000140: d157 083e c8a2 9fbd 9d57 843d 6c57 1cbe
00000150: ce9c 233c da2a 9ebd a168 9b3d 7e47 f4bd
00000160: 2bd8 f7bd 44e2 393d 9674 ccbd bce0 0b3e
00000170: bc33 da3d 0be0 c0bd 3ed4 70bd c002 debd
00000180: c1f9 6f3d b270 803e 997f 1b3e e3f0 023e
00000190: 0e17 aa3e 8df7 3a3e 2265 363e 2e0b 9dbd
000001a0: 3e94 8f3e 3259 a83d dafa 00be c8fb ad3c
000001b0: 3429 193b 9f7f d83d 1c08 4a3e 9485 1f3d
000001c0: 6464 9f3e 6871 19bd 82ea 1abe 9261 2a3d
000001d0: 632b 9b3c 6d8f edbd 3452 893d c1dd d9bd
000001e0: 9364 14be 4c6c 86bd b5b7 cf3c 3380 2f3e
000001f0: 8a6f 39bc 9187 c5b6 4087 013e d358 493e
0.12161981 -0.037117925 0.16776226 0.00451556 0.1807663 -0.08760465 0.10968108 0.10889432
0.23966604 0.21385802 -0.09775217 0.15169506 0.20634905 -0.12101776 -0.06548624 -0.064994074
-0.028247878 -0.055319674 0.074152626 -0.037757985 0.18168184 0.050927155 0.23530075 -0.05253209
-0.035522852 -0.03357524 0.17056522 0.03227389 0.08128711 0.099857606 0.02016095 -0.038547747
0.17887747 0.101925336 0.08012569 -0.042122897 0.25058487 0.16069728 0.15478267 -0.09627071
0.12132649 -0.009605209 0.13869163 0.08331169 0.0423622 0.0023273525 0.10201034 0.050658625
0.25186807 0.1692389 -0.00044607068 0.19122826 -0.0073516006 0.15188171 0.15625548 0.090527855
-0.03132087 0.11970967 0.20350225 -0.082422026 0.1285626 0.027470415 0.089959204 0.08702741
0.10008486 0.16070148 -0.13695443 0.050774805 0.05453279 -0.091098756 0.061322503 -0.04487435
0.02427007 0.053583935 0.121280715 0.02631079 0.008823957 0.06591479 0.05330959 -0.12605454
0.1331475 -0.0779472 0.064620234 -0.15267724 0.009986116 -0.07723017 0.07588316 -0.119276986
-0.12101778 0.0453818 -0.099831745 0.13659948 0.10654399 -0.09417733 -0.05879616 -0.10840368
0.058587793 0.2508598 0.15185393 0.12787203 0.33220714 0.18258496 0.17812017 -0.07668148
0.28042787 0.08220138 -0.12595692 0.021238223 0.0023370506 0.10571217 0.19729656 0.03894575
0.3113128 -0.03746167 -0.1512852 0.041596957 0.018941587 -0.11599622 0.06705132 -0.10637999
-0.14491491 -0.06563625 0.025356153 0.17138748 -0.011318097 -5.8868395e-06 0.1264925 0.1966279

bias_hh_l0_reverse f4 [128]
00000000: 64f2 bcbd c7fe 493e d4e0 dfbd b47e 5f3e
00000010: 7cae 243e e048 19bd 93a7 82bc 2cfe d63d
00000020: 6da0 8a3e ef7f d13d a0ef 1c3d 65a4 173e
00000030: 5413 5b3e 9dcf 253d 67b8 cc3d 03ce 7dbd
00000040: 094c 433e cab1 0fbd 799f 87bd 58d4 943d
00000050: 6dee 9e3d daea b33d 84dc 9f3c dfa4 9a3d
00000060: 2826 393d 390d 403e fff5 7fbd 516d 30bc
00000070: 4969 793e 7fb1 b13d 6e08 003d 6823 303e
00000080: 05e9 31bd 1d9d 2bbd 6419 993d 6e8a 84bc
00000090: b993 4a3d 967c 733e f3a0 07be b3a3 263e
000000a0: 153d 1c3e 343b 05be 8f84 e73d c84a b33d
000000b0: 5dd6 2f3e d29c d3bd 3657 9a3d 38bd f33d
000000c0: 8e89 80bc 494a 0d3e 4bb3 1b3e f86a 02bd
000000d0: 6046 1d3e d65c 1d3e 4758 683d 09f9 943c
000000e0: b03a 073e 3d73 063e 2fcc e03c 0dcc 2d3e
000000f0: daaf 20b8 d63d 3fbc 58d6 a1bd 274b 813d
00000100: fe37 013e 5fa7 10be 8898 1f3e 09f7 8abd
00000110: e02a ba3c 841f 1f3e c323 503d 5068 01be
00000120: 10ec fb3d 2b4f e3bc 4bb4 ca3c a2bf d13d
00000130: 2718 3cbd b24c 5ebc 5244 04bd e79b ffbc
00000140: 0399 32be 5cfb ed3d 8363 c63c 89f2 113e
00000150: 1dbd 063e 9779 15be 73b0 01be c966 6dbd
00000160: 5a01 cabd aeb0 a7bd f508 5fbb d6ae 1d3d
00000170: 88b5 d53d 91e3 833d 89ea 91bd 7a0c 0cbe
00000180: 94df 353e d6f8 89bd abf5 1c3e 4531 c6bd
00000190: c30c 4f3e 5e1a af3d 08ab 29be e077 2dbd
000001a0: 529f 543e 6e20 0a3e cfbb adbc 9b95 f1bd
000001b0: 886b 643b eaba 45bc 14e8 5dbd f378 053e
000001c0: 7383 993e 2fb8 52bd 049e d4bd 765c 1e3d
000001d0: 59b1 3b3e 3319 e63c 30c3 e73d 58da 6f3d
000001e0: 2ad1 b83d d215 0c3e 6028 1e3d 3b7e 093c
000001f0: 338f 0a3c d522 4e3c c210 043e 644a 7a3e
-0.0922592 0.19726096 -0.109315544 0.21825677 0.16082186 -0.037423015 -0.015949046 0.10497698
0.2707552 0.102294795 0.03831446 0.14808805 0.21394092 0.0404812 0.099961095 -0.061964046
0.19071974 -0.035081662 -0.06622214 0.07267064 0.0776032 0.08785029 0.01951433 0.07550978
0.045202404 0.18755044 -0.06249046 -0.010768251 0.2435657 0.08676433 0.03125804 0.17201006
-0.043435115 -0.04189788 0.07475546 -0.01617929 0.049457286 0.23777995 -0.13244991 0.16273384
0.15257676 -0.13010865 0.113045804 0.08754498 0.17171617 -0.103326455 0.075361654 0.11901325
-0.015690591 0.13797869 0.15205114 -0.031840295 0.15358877 0.15367445 0.056724813 0.018185155
0.13205981 0.13129897 0.027441112 0.1697237 -3.8310747e-05 -0.011672458 -0.07902211 0.06313162
0.12619016 -0.14126347 0.1558553 -0.067853995 0.022725523 0.15539366 0.050815355 -0.12637448
0.12300885 -0.027747711 0.024744174 0.10241629 -0.04592147 -0.01356809 -0.032291718 -0.03120227
-0.17441182 0.116202086 0.024217373 0.14252676 0.13158078 -0.14597164 -0.12664966 -0.05795935
-0.09863539 -0.08187996 -0.0034032438 0.038496815 0.10435015 0.06439889 -0.07124812 -0.13676634
0.1776107 -0.06736915 0.1532809 -0.09677366 0.20219712 0.08549951 -0.1656915 -0.04235065
0.20763901 0.13488933 -0.021207718 -0.11796113 0.0034854133 -0.01206849 -0.054176405 0.1303442
0.299831 -0.051445182 -0.103817016 0.038662396 0.18329372 0.028088188 0.11316526 0.05855784
0.0902427 0.13680199 0.038612723 0.008391912 0.008456993 0.012581547 0.12897018 0.2444244

weight f4 [2, 64]
00000000: f2cb 81be adfc c6bd 8ce1 1b3e d858 4e3e
00000010: b34d 913e aa0d 143e 4e19 4bbe 236a 463e
00000020: 6ec1 493e 0aa4 46be 0f6f 98bd bd41 113e
00000030: 5ab8 fa3d ba78 a9be 52e0 eebd 5c2e 73be
00000040: f507 5e3e 279a 643e d81a 88be 4862 553e
00000050: c75a 68be 4943 69be e8b9 68bd 609e 443e
00000060: 5f1d 863e f010 1cbe 5d98 19bd 72e8 a83e
00000070: adba 4b3e 202d 183e c9f6 bd3d 3bc9 2d3e
00000080: 476f 903d 823a 41be e5bf 693c 5402 45be
00000090: 22f7 e63c ade0 2f3e 5c86 0cbe ad2a 1bbe
000000a0: d2f6 0dbe fc43 c13d e7cf 0b3e a152 313d
000000b0: 0bd6 2f3e 14a4 323e 81c3 b5bd 2a1b 083d
000000c0: cd1e edbd ca4e 73be 04f0 873d 5b11 9c3d
000000d0: 2db5 2ebe 064f c33d 582a 70be c021 273e
000000e0: f9f1 73bd 5c9a 6abd e66c 56be 4464 683e
000000f0: 548d de3d e761 623e cdc1 7c3c 0f7d 3b3e
00000100: 51d7 683e 5fc9 123e b110 66be 1f03 3ebe
00000110: 502c febd a4bf acbe 4c5a aa3d 2043 14be
00000120: 1d44 a1bd 99b9 883d f3d8 2a3e 66d0 95be
00000130: de48 22be b95d 183e e737 7b3e 7b34 873e
00000140: bc77 6dbe a53f e5bd 3a98 bc3e e3c0 e1bd
00000150: 65e7 9d3e 0398 cc3e a360 da3d 59aa 5ebe
00000160: 8280 5fbe 31dd efbb 9046 c3bd 6af5 82be
00000170: f8ac afbd d4dc 20be ece3 2dbe 9ded febd
00000180: c1b6 8f3b e5aa 863e 3109 1fbe de7d 693e
00000190: 5123 1b3c f1a4 60be a332 f7bc 35e9 c13d
000001a0: 5338 5b3e beed 4abe 13e7 07be 897e 6dbd
000001b0: 4f01 fabd d009 643c a3dc 00be 5134 da3d
000001c0: bdbe fa3d 531d f83d 40d1 b23b 8ac7 8abe
000001d0: dad0 5d3d 96a6 38be 5693 b83d 5a6a 41be
000001e0: 4db6 db3d d619 4c3d e2b6 113e 331e 79be
000001f0: 3aa7 0a3c 1e85 46be 5089 7dbe 4a0b 36be
-0.2535091 -0.09716163 0.15222758 0.20151079 0.28379592 0.14458337 -0.19833872 0.19376425
0.19702694 -0.19398513 -0.07443058 0.14185233 0.122421935 -0.3309992 -0.116638795 -0.23748153
0.21682723 0.2232443 -0.2658298 0.20838273 -0.22690879 -0.22779574 -0.05681792 0.1920104
0.26194283 -0.15240836 -0.03749882 0.32989842 0.1989543 0.14860964 0.09275586 0.16971295
0.070524745 -0.18869975 0.014266943 -0.1923917 0.028194014 0.17175551 -0.13723129 -0.15152998
-0.13863686 0.09436795 0.13653527 0.04329169 0.17171495 0.17445403 -0.0887518 0.03322903
-0.115781404 -0.23760524 0.06637576 0.07620498 -0.170613 0.09536557 -0.23453653 0.16321468
-0.059556935 -0.057276115 -0.20939979 0.22694498 0.108668 0.2210766 0.015427065 0.18309425
0.22738387 0.1433463 -0.22467305 -0.18555878 -0.12410796 -0.3373996 0.08318004 -0.14478731
-0.0787432 0.06676025 0.16684322 -0.29260558 -0.15848109 0.14879502 0.24533044 0.26407227
-0.23190206 -0.1119378 0.3683489 -0.11023118 0.30840603 0.39959726 0.10662963 -0.2174467
-0.21826366 -0.0073200692 -0.09534943 -0.2557786 -0.08577913 -0.15709239 -0.16981477 -0.12447665
0.0043857996 0.26302257 -0.1553085 0.22801921 0.009468869 -0.2193792 -0.030175513 0.09468309
0.21408205 -0.19817254 -0.13271742 -0.057982 -0.12207281 0.013918355 -0.12584166 0.1065451
0.12243412 0.12114968 0.0054570735 -0.2710536 0.054154254 -0.18032297 0.09012477 -0.18888226
0.107281305 0.049829327 0.1422992 -0.24327926 0.0084627215 -0.19386718 -0.24759412 -0.17777744

bias f4 [2]
00000000: ba0f 29bd ec50 eb39
-0.041274764 0.00044882984
