m6A_BERT_Stacking/Resnet/model_pth/h_l_bilstm.pth (torch, 69975 bytes, 13 tensors)

weight f4 [64, 16]
00000000: c054 dabe a00c 1dbf 3c52 3a3f 3694 223f
00000010: e0fa 39bd c49b b73e 684c 293e 0854 d3be
00000020: 286c 8d3e f48f 31bf e0f6 d13d 82c1 513f
00000030: a4eb 69bf fa98 4f3f 1e7c 1d3f 10fe 8f3d
00000040: 9a99 a4be f06f 05be c375 8dbe a78a 203f
00000050: 515b 53bf 4b8e 2fbf 6939 3b3f 3429 5c3f
00000060: fd4a 50bf 398c 193f 7aa4 5e3f b257 34bf
00000070: 386e 863e 305e cdbe 74f9 963d 599d 1a3f
00000080: 61e8 1f3e d07c a43e c858 3e3f 1472 a13e
00000090: 35ec 123f 8508 cdbe a1c0 72bf c9d3 db3e
000000a0: 1579 323f 7b17 2fbf 809d 123f 6707 6bbd
000000b0: 2526 503f 3949 563c 51eb b9be bd3f 77be
000000c0: 9e80 813e e950 583e da90 62bf 60a9 3f3f
000000d0: 1f6f 60bf 8ae0 6bbf 487b 60be 4702 a9bc
000000e0: 4c39 1abf b0f8 dcbd 7fe1 413f e619 0d3f
000000f0: fcfe 92bf dfe4 c2be 7ae3 37bf 9b1f 60bf
00000100: 7839 003f 6d49 c2be adb2 253f 3d54 ea3e
00000110: b5d3 82bf b2f6 69bf 1348 c4be 3337 02be
00000120: c3ba 23bf 602c 823f d09a 2d3f cc4d 6b3f
00000130: 51d1 a33e e62d 11bf a46b 3b3f ff71 2f3f
00000140: 174b 98be 5721 84bf 9fc3 97be d49e 96be
00000150: 59d7 f0bd 25af 1abf d4b7 41bf 0e0d 673e
00000160: 451b 053d ec94 43be 2d56 91bd fdae 3abd
00000170: c552 063e b593 e33e 40a5 edbe ccf9 053f
00000180: ddb6 d63e aca0 cabe 0412 163d bbfa bebe
00000190: 4bb7 a7bd c4be b63d b1f3 3fbf 9843 96be
000001a0: 412f 063f fd89 40bf 4027 943f fe65 89bf
000001b0: 458b cd3e 25b1 6e3c d761 1bbf 6f5c 983f
000001c0: 00b5 123f 03c9 c3be a7d0 de3e 2362 f13e
000001d0: b69a e33d 7309 2bbf 9919 f03e ce78 c43e
000001e0: abdf 63bd edb0 b0be 8214 34bf 9b4d dbbe
000001f0: c592 583f 0d43 19bf ba78 003f f0d7 4ebf
00000200: 6522 a53e defe bb3e aa55 6abf 844c c0bc
00000210: d4ff d53e 800a 41bf 3b3d 4dbf d3fb 673f
00000220: b4da 37bf 8ff4 2fbf 859e 11bf 4c56 5a3f
00000230: a75c 66be ed8d 7bbe 7b27 653f df13 633f
00000240: e0f2 85bf 40f9 c2be 5235 2f3f 3711 3f3f
00000250: 0370 d33e ea41 aabd cb1d 723f ab85 6abf
00000260: f955 14bf 3d60 b3be e769 023e 2dd6 313f
00000270: 4b30 653f 7e7d a9be 2163 b43d 344c 9c3e
00000280: 1a0d 85bf d580 4abe a5ba 34bf f58b 3e3f
00000290: c728 adbc 4da0 4b3f 562c 973e bc5f ae3e
000002a0: d734 fa3b 1411 d93e 2d0b b3be e4d5 b13e
000002b0: a808 8d3e 3726 883f 1fcf 3ebf 7c44 69bf
000002c0: 0c17 fcbd 0a9a 433e 60d6 93be 8ffe 0e3f
000002d0: 6e7a 7a3f 88dd 113f e1de 4fbe aca8 a33f
000002e0: ed14 fd3e 1bfd 82bf 13c4 40bf 7106 603f
000002f0: a9ed 273f 3bb0 7e3f e783 0f3f ef80 93be
00000300: a190 2dbf 3138 bd3e b65e bcbe cbd1 42bf
00000310: 41c8 a83b 878d a7be 96cc f53d f333 41bf
00000320: 19ee 73be 9299 97bb a6ae 883e b126 1e3f
00000330: ec6b cbbe 2c54 8e3f de95 3fbf 2a34 75b9
00000340: 7d43 79bf f430 d03e 3786 65be 368e 543e
00000350: 8de6 ee3e f7f5 2ebf c7fa 1f3f aea5 1d3f
00000360: a965 29bf d013 81be 83cb 84be 76e6 303b
00000370: b799 0a3e 8b5e dcbd b322 43be b310 463e
00000380: c3d2 0a3e 617a 853d 55e7 e13e 0255 07be
00000390: b846 efbe a539 183f 6543 553f 1ef5 cfbc
000003a0: e7ab a03e c4e3 91bd 6814 a3be c16e 153f
000003b0: 0cbd fabe b666 3f3c d3ce aa3e ce9a 29bf
000003c0: d8a8 fdbe 3a01 ddbe 1d73 443f e689 113f
000003d0: 7e39 1b3e 7875 8ebd a734 74bf e2b7 bc3e
000003e0: 526b 6e3f e0d7 07be 51e1 49bf ba06 5c3f
000003f0: ecc7 4a3f 4927 09be b3f4 153e c119 33be
-0.42642784 -0.6134739 0.7278173 0.635074 -0.04540527 0.35861027 0.16533053 -0.41275048
0.2762158 -0.6936028 0.10252166 0.81935894 -0.91375184 0.810928 0.6151751 0.070308805
-0.3214844 -0.13030982 -0.27628908 0.62711567 -0.8256121 -0.68576497 0.73134476 0.8600037
-0.81364423 0.5997959 0.8696972 -0.7044631 0.26255965 -0.40110922 0.07371798 0.60396343
0.1561599 0.32126474 0.7435422 0.31532347 0.57391673 -0.40045562 -0.9482518 0.42935017
0.69716007 -0.68395203 0.57271576 -0.057380106 0.81308204 0.013078981 -0.36312345 -0.24145408
0.2529344 0.21124615 -0.88502276 0.7486782 -0.8766956 -0.92139494 -0.21922028 -0.020630969
-0.6024368 -0.10789621 0.75734705 0.5511764 -1.1484065 -0.3806524 -0.71831477 -0.87548226
0.5008769 -0.37946644 0.6472576 0.45767394 -1.0220858 -0.9139205 -0.38336238 -0.1271637
-0.6395685 1.0169792 0.6781435 0.91915584 0.31995633 -0.5671066 0.7321112 0.6853332
-0.2974479 -1.0322675 -0.29641435 -0.2941805 -0.11759824 -0.604235 -0.75671124 0.22563574
0.03249671 -0.19099778 -0.07096515 -0.045577038 0.13117512 0.4444863 -0.46415138 0.52334285
0.4193639 -0.39575708 0.036638275 -0.37300667 -0.08189257 0.089231044 -0.7498122 -0.29348445
0.52415854 -0.75210553 1.1574478 -1.073425 0.40145317 0.014568602 -0.60696167 1.1903208
0.57307434 -0.38239297 0.43518564 0.47145185 0.11113493 -0.66811293 0.4689453 0.38373417
-0.05563323 -0.34509984 -0.7034379 -0.42832646 0.8459895 -0.59867936 0.50184214 -0.80798244
0.32252803 0.36717886 -0.91536963 -0.023473985 0.41796744 -0.75406647 -0.80171555 0.9061863
-0.7181809 -0.6873254 -0.56882507 0.8528793 -0.22496282 -0.24565859 0.8951337 0.88702196
-1.0464745 -0.38080788 0.68440735 0.7463564 0.41296396 -0.08313353 0.9457671 -0.9161021
-0.57943684 -0.3503436 0.12735711 0.6946743 0.89526814 -0.33103555 0.0880797 0.30526888
-1.0394623 -0.19775708 -0.70597297 0.7443231 -0.021137608 0.79541475 0.29526013 0.34057415
0.0076356935 0.42395842 -0.34969464 0.34733498 0.27545667 1.0636662 -0.7453479 -0.91120124
-0.12309083 0.1910173 -0.28874493 0.55857176 0.9784306 0.56978655 -0.20299865 1.278585
0.49430028 -1.0233492 -0.75299186 0.8750983 0.65597016 0.99487656 0.5606064 -0.28809306
-0.6779881 0.36956933 -0.3679101 -0.7610137 0.0051508253 -0.32725164 0.12001912 -0.75469893
-0.23821296 -0.0046264613 0.26695746 0.6177779 -0.39730775 1.1119437 -0.74838054 -0.00023384453
-0.97368604 0.40662348 -0.2241448 0.20757374 0.4666027 -0.6834406 0.6249203 0.6158093
-0.66170746 -0.25210428 -0.25936517 0.0026992834 0.135352 -0.1076022 -0.19056205 0.19342308
0.13556962 0.065174825 0.44121805 -0.13216022 -0.46733642 0.5946296 0.8330596 -0.025385436
0.3138115 -0.07123521 -0.31851506 0.5837212 -0.48972356 0.011682203 0.3336092 -0.6625184
-0.4954288 -0.43164998 0.7673815 0.5685104 0.1515865 -0.06955999 -0.9539284 0.3685904
0.9313251 -0.13265944 -0.7885943 0.85947764 0.79211307 -0.13393892 0.14644127 -0.17490293

weight_ih_l0 f4 [128, 16]
00000000: 66d4 fc3d 951e fcbd 87fc 85bd 2b33 993e
00000010: ce2c 833d ed81 dbbd dc35 6cbd 9d47 3cbd
00000020: 7a57 20be d902 a23d 39d2 323e 0403 eb3c
00000030: 29e9 f1bd 37a6 863c 2175 9abd 10d1 4d3e
00000040: bd9d 83be 1414 e5bd 0ec4 0b3d d10e ed3e
00000050: 8ab0 003d c089 1abe 2be2 22be 315d c33c
00000060: 2c05 92be f1d4 73bd 99a7 203d e439 873b
00000070: 1971 69bd cf42 653e 3d0c 963d 52b8 8c3d
00000080: f0a2 143c b0a6 14be 0fd8 023e a3eb b3be
00000090: 170a 893d 3542 6dbd 708e 3d3e 0168 583d
000000a0: 56eb adbd eff7 92bd 732d 53be 7a9e d33d
000000b0: 4a0e 03be 5330 a6bc f63a 183d 7932 28be
000000c0: b79f 093e bc0c b2bd 6874 73bd 1d0d fd3d
000000d0: ef74 9cbe d9da eebd de5b 55bd b794 a7bd
000000e0: 872f 08bd 3eeb 793e b23c 0f3e 792f fd3d
000000f0: 6361 b53c 66cd cebd 1ec3 d83d b35e 4dbe
00000100: e9ec 463e a45f 6a3d 7283 2fbd a825 b13a
00000110: 9e48 33be b8cf 30be 1350 38be 2c6e 9bbd
00000120: 6410 9abd b95f 073e c43a 4fbd 8ddb 20bd
00000130: 22de 96bd 7149 c4bd 44cf 073c e5a5 cb3d
00000140: f9cf 80be f0a2 393e 59f4 aebd 79ee c93d
00000150: 6154 16be ce87 b83d 8250 aa3e f564 28bd
00000160: 6b3b 70be d980 213e 9f4e 063e 5cb6 b53d
00000170: e452 83bc 8005 dbbd 4496 6dbe 0e78 28bd
00000180: 2129 5cbd 38fe fbbd bdb8 183d c452 a33e
00000190: bc1d ac3d b5f9 fabc a62b f83d 9362 8a3d
000001a0: 2911 e4bd 9a79 f03d b418 523e fb6f 073d
000001b0: 826a cebd b766 69bd 678b c0bb 2109 013e
000001c0: 1ccf fe3d 1995 163d ac5b 07be 9f39 07bd
000001d0: a584 ccbd 5771 3cbe 4208 1ebe 48dd 373e
000001e0: 2d65 cabc 81d7 bb3e 22b8 68be 3db3 13bd
000001f0: 0019 723e 5d8e e4bd 29bc ed3d 9268 35bd
00000200: 3bf2 77bd 7869 4bbe da2a 4dbe 3507 6abe
00000210: b777 19bc d73d 82bd ae71 7dbe d24e 7cbd
00000220: 3ab4 b4bc fd41 503e 14c0 d83d f700 38be
00000230: cc3b 25bd 299a 6cbe 52c1 2abd 24d2 ca3d
00000240: d9d1 663d 5330 50bd 1b9a 003e 05f0 2f3d
00000250: c3f6 bcbd 37bc 8ebe a224 06bd 70fb 2fbd
00000260: 02df 963d 06ad 133e 49b2 0c3e 1444 8a3d
00000270: 9389 52be e1e1 afbe d2e8 383e 6498 a43d
00000280: f68b 6c3d 4a3b 40bd cb66 b9bc 173d 6fbd
00000290: ec8d 203e ef1b 843d 6022 c9bc bc8b 043d
000002a0: 7381 003e 77ae e0bc de19 193d 4d0d 42be
000002b0: 1730 b8bd 300e 343e 61b6 5fbe a8a8 e53b
000002c0: cc70 833d 89a4 743d c191 3fbe ed85 b1be
000002d0: 1ee1 9c3d 3d09 503e ed2e 6e3d dc53 91be
000002e0: 5dfe c5bd f23e 1f3e a215 443d 50eb f8bc
000002f0: fbd6 523d 204a bebd dff7 1f3e 6390 ae3e
00000300: 4851 09bd f1cd 38bd d797 f03d b9b2 aabe
00000310: 1b25 5bbd a9d7 ab3d b77f a83c d9f4 a9bd
00000320: bc09 79bd 7e57 0d3e 9ab1 d5bc eb9c e6bc
00000330: 4a8e 173f 82bb 7a3d 6080 f0bc e762 babd
00000340: f6f4 0d3d 314a 84be ceaf 053e 7c2e b03d
00000350: c6bb f43d f13e aabd ce2c 7abe da3c 2e3e
00000360: ccbe 273e 1d32 233d 6488 e03d f26e e73d
00000370: 9b30 d23c f8e6 efbd d42e dd3d 1032 bd3d
00000380: 46b1 17be 69dd 373d 4375 74bd 6fe4 073f
00000390: b9f4 1ebe db80 09be 07d2 cf3d 4b67 96be
000003a0: 3dff 3ebe 9ddd 333e 0113 463d 5b3c f1bd
000003b0: 6555 443d 28fa ba3d fb5b 3cbe 3830 f0bb
000003c0: 89dd 603b 6124 8dbe b58b 0b3e ec51 51be
000003d0: 92ac e7bc a5d4 7b3d 80ac bd3d 8807 043e
000003e0: b985 19be 5489 ecbd c841 183d f4ce 413d
000003f0: c407 743e 90bd d83d 2189 893e 6532 b83d
0.12345199 -0.123105206 -0.065423064 0.2992185 0.0640503 -0.10718141 -0.05766855 -0.045966733
-0.1565837 0.079106994 0.17463006 0.028687961 -0.1181205 0.01643668 -0.07541872 0.20099282
-0.25706282 -0.1118547 0.03412252 0.46300367 0.03141836 -0.1509161 -0.15906589 0.023848148
-0.2851957 -0.05952925 0.039222334 0.004126774 -0.056992624 0.22388767 0.07326553 0.06871094
0.00907205 -0.14516711 0.12777732 -0.35140714 0.066913776 -0.057924468 0.18511367 0.05283356
-0.084921524 -0.07176196 -0.20622806 0.103329614 -0.1279842 -0.020286715 0.037165605 -0.16425504
0.13439833 -0.08693835 -0.059437186 0.12356017 -0.30557963 -0.11662836 -0.052089565 -0.08182662
-0.03324845 0.24406144 0.13987997 0.1236257 0.022141164 -0.100977704 0.10584091 -0.20055656
0.19426312 0.057220116 -0.042849965 0.0013515251 -0.1750817 -0.17266738 -0.17999296 -0.07589373
-0.075226575 0.13220109 -0.050593153 -0.03927188 -0.07366587 -0.0958432 0.008289162 0.09943751
-0.2515867 0.18128562 -0.08542699 0.09859938 -0.14680625 0.09010278 0.33264548 -0.041111905
-0.23460166 0.15771808 0.13115929 0.08872673 -0.016030736 -0.106944084 -0.23201853 -0.041130118
-0.05375016 -0.12304348 0.037285555 0.31899083 0.08404109 -0.030636648 0.121177 0.06757083
-0.111360855 0.11741944 0.20517236 0.033065777 -0.100789085 -0.056982722 -0.005875993 0.12601139
0.12441847 0.036763284 -0.13218564 -0.033013936 -0.099862374 -0.1840261 -0.15432838 0.17955506
-0.024706447 0.36687854 -0.22726491 -0.036059607 0.23642349 -0.11159966 0.11608154 -0.04428918
-0.060533743 -0.19864452 -0.20035878 -0.22854312 -0.009366921 -0.06359451 -0.24750397 -0.061598606
-0.022058595 0.20337673 0.10583511 -0.17969118 -0.04034023 -0.23105682 -0.04168827 0.099033624
0.05635247 -0.050827336 0.12558787 0.04295351 -0.092267536 -0.27877972 -0.03274978 -0.0429644
0.07366754 0.14421472 0.13739885 0.06751266 -0.20560293 -0.3435202 0.18057564 0.08036879
0.057750665 -0.046931542 -0.022632023 -0.05840787 0.15679139 0.064506404 -0.024552524 0.032359824
0.12549381 -0.027426941 0.037378184 -0.18950386 -0.089935474 0.17583537 -0.21846916 0.007008631
0.06417999 0.059727225 -0.18707944 -0.3467249 0.07660125 0.20316024 0.05815022 -0.28384292
-0.096676566 0.15551355 0.047872193 -0.030385643 0.051474553 -0.09291482 0.15621899 0.34094533
-0.03352478 -0.045118276 0.11747711 -0.3333948 -0.053502183 0.08390743 0.020568712 -0.08298654
-0.0608003 0.13802907 -0.026085664 -0.028150996 0.5920149 0.061213978 -0.029358089 -0.091008954
0.03465744 -0.25837854 0.13055345 0.08602616 0.119498774 -0.08312786 -0.24431154 0.170154
0.16381377 0.039842714 0.109635144 0.11300458 0.025657943 -0.11713976 0.107999474 0.09238064
-0.14813718 0.044888888 -0.059682142 0.53082937 -0.15523042 -0.1342806 0.101474814 -0.2937568
-0.18652053 0.17565008 0.048357967 -0.1177909 0.047933 0.09129745 -0.18394463 -0.007329967
0.0034311733 -0.27566817 0.13627513 -0.20441407 -0.02828053 0.06148209 0.092614174 0.12893498
-0.14992417 -0.11549631 0.03717211 0.047316507 0.23831087 0.10583031 0.26862434 0.08993987

weight_hh_l0 f4 [128, 32]
00000000: 35c0 81be 5fad 61bd 1560 753c 66f6 f23d
00000010: 86b9 323b 1c6b 183c 94ec 9a3d 6053 cfbe
00000020: 24e0 03bd a38a 8ebc fb34 2cbe ee96 27be
00000030: 8837 0bbd 9de7 b0bd c521 5abd 6f63 a43e
00000040: 61ab c73d 9efa 6a3c c085 863d 5ba5 e2bd
00000050: 646d d53e b845 24be 918c c63d 50ed 083e
00000060: 63e6 21bd 53ac 283d 1433 623d ce60 113d
00000070: 496c 813e cfbf d0bd 9550 883d 1b82 1d3e
00000080: 099b 37bd b7eb 3dbe 7270 9e3c 2c79 123e
00000090: 5217 fabd ea1d 1bbd f04c 60be 4b8b 1ebd
000000a0: f531 31be 98ed db3c 4db5 dc3d b390 0d3d
000000b0: 0eff dcbb 60a7 82bb 4655 f43d ff73 b43e
000000c0: aaaa d6bc f4a0 793e ddb7 283d 119f c9bc
000000d0: bf92 7f3e 86dd 81bb 380d cd3d ee76 afbd
000000e0: 68bd aa3c 2d9b d83d 16c1 233e ccdc 37be
000000f0: 6109 adbd 56d4 bcbd 149b c3bd af62 4c3c
00000100: 5c64 c4bd 8cad 50be 1914 bc3c a50f 0c3e
00000110: 62a9 233e ad01 6f3d c250 8ebd ae3f f63d
00000120: 1a34 0ebd 10f8 e53b 2d88 06bd 697b 39bd
00000130: 4cc9 a73d 9551 f23c 9616 0b3e a5b6 aebd
00000140: 14a2 1ebd 8e1d 2bbe 5827 07bc a20a 5c3d
00000150: 71fc 4c3e f2d5 4e3d 66aa 063e 2e1f 7dbd
00000160: 221f 00be 6019 4fbe da88 723e 47b3 123e
00000170: bfcb 3bbe eff8 6cbe f3e8 a53d 7463 d23d
00000180: 7388 efbd 701a adbd 6f31 0ebd 1902 4ebc
00000190: a58e 1cbe 0a21 263c 95f4 61bd 1f91 c8bd
000001a0: 1fb0 1dbe 6fdc 1abe 39d8 f33b 9298 0abe
000001b0: 31b4 e1bd 33dc 79be 5948 363d 0d8e 8d3e
000001c0: 5e45 463e 7bc3 44bd 0131 c63d 2858 b7bd
000001d0: 7268 353e 48e6 e0bd 6516 3bbe 8871 003e
000001e0: 5857 283e 9dba 593d 5645 593e 3f8e 8dbd
000001f0: 8b8d 49bd 9665 26be 57c2 38bd aebd 0e3e
00000200: 6d5d df3d 1ac3 7dbd d76b 52be ea4f 09bd
00000210: ce0a e8bc b240 24be 6e90 f23d dcca 533d
00000220: 9e81 08be 26ca 4cbd 51c8 aa3d 9dee a3bd
00000230: a34a 02be 60f6 15be 61bb 243b a16a e33c
00000240: 753a 443e c55a c4bc 4ed0 c4bd 5612 8f3d
00000250: 7fc1 b63d edb4 183c 3ae8 5f3d b14d cbbd
00000260: 57d8 153e 5657 ecbd 5c6d 593c adc0 d5ba
00000270: afbf 303e d935 a0bd f160 fa3d 71a7 643e
00000280: f6f0 bdbd 404e 8abe a06c 95be 370e 28bc
00000290: e3cf 163e fbd2 503c 0bb0 16be a05d adbe
000002a0: 1514 f33a 518d 05be d624 43be 0cab 71bc
000002b0: ea45 24be 9f1c 5dbc 265d cbbd c68d b63e
000002c0: 9faa ea3c fc47 78bd f475 b4bd 8519 0d3e
000002d0: 40b4 3d3e c33a 6d3d a3a4 36be 1dd6 213d
000002e0: 7da9 e6bd 0207 963e 9226 c73d d118 c13d
000002f0: 1954 4e3e 1296 9ebe ad1e 04bd 9576 173e
00000300: 36c6 46be 7080 2ebe 9344 ddbc 4131 6c3e
00000310: 5941 4fbe 35c4 8fbc 1785 1bbe 79b5 6ebe
00000320: b888 093e 06c7 cfbd 3a77 04be a27a b7bc
00000330: a727 04be 5776 873d 2337 dbbd 40a9 873e
00000340: 5b81 213e 484a aa3d 181d 0cbd c904 943c
00000350: cf8c 923e 045c aa3d 2c2c 05be 4fd7 b6bd
00000360: a89b 6dbd 88c3 8e3e ecd3 6e3e 6b55 523e
00000370: 1696 743e c076 68be 2731 663d 2633 ecbc
00000380: 0835 053d 28fb fdbd df09 cf3d dd09 26bd
00000390: a708 73be 2b69 a9bd 1175 a03d 8769 3dbd
000003a0: cf06 86be 6a7c 2a3e e041 f43c b64a b6bd
000003b0: e0c0 05be 9c3d f4bd 585b 343d 3fb3 7cbd
000003c0: bbe9 05bd 5e97 a1be 27b0 63bd ae56 21be
000003d0: 65be 313e 4db5 183e 5d40 11be 6628 51be
000003e0: fc2f 31bc 116a abbc 06f3 5d3d 31c3 c03d
000003f0: 0313 bbbd b365 a13d aa2e cfbd 1498 0dbe
-0.25341955 -0.05509698 0.014976521 0.11863403 0.0027271225 0.009302881 0.07564655 -0.40493298
-0.03219618 -0.017400092 -0.16817085 -0.16366169 -0.033988506 -0.08637927 -0.05325486 0.32107112
0.09749485 0.014341978 0.065684795 -0.11066695 0.4168502 -0.1604222 0.0969478 0.13371778
-0.039526355 0.041179966 0.055224493 0.03549271 0.25277928 -0.101928346 0.06655995 0.15381663
-0.044825587 -0.1854695 0.019340727 0.14304036 -0.12211479 -0.037870325 -0.2190435 -0.03870706
-0.17304213 0.026846692 0.10776768 0.034561824 -0.006744272 -0.003987238 0.11930327 0.35244748
-0.026204426 0.24377805 0.04119097 -0.024611982 0.24958323 -0.003963175 0.10012287 -0.08567606
0.020842269 0.105764724 0.15991625 -0.17955321 -0.084490545 -0.09220187 -0.09551063 0.0124747
-0.095894545 -0.20378703 0.022958802 0.13677843 0.15982583 0.058351208 -0.06948997 0.12023865
-0.034717657 0.0070180967 -0.03284471 -0.04528371 0.08192691 0.029579917 0.13582835 -0.085309304
-0.03872879 -0.16710493 -0.008249126 0.053721078 0.20018174 0.050497003 0.1315094 -0.061797313
-0.12511876 -0.20224524 0.23685017 0.14326201 -0.18339442 -0.23141836 0.08101072 0.102728754
-0.116959475 -0.08452308 -0.034715112 -0.012573742 -0.1528879 0.010139713 -0.055164892 -0.09793305
-0.15399216 -0.15123151 0.0074415472 -0.13534763 -0.11020697 -0.24400406 0.04450259 0.2764744
0.19362399 -0.048037987 0.096773155 -0.08952361 0.17715624 -0.10981423 -0.18270262 0.12543309
0.16439569 0.053156484 0.21217856 -0.06911897 -0.04920725 -0.1624969 -0.045107212 0.13939545
0.109064914 -0.06195364 -0.2054895 -0.033523478 -0.028325465 -0.16040304 0.11843954 0.051707134
-0.13330695 -0.04999747 0.083389886 -0.08004496 -0.12723784 -0.14644766 0.00251361 0.027760806
0.19162925 -0.023969064 -0.096100435 0.06985919 0.08923625 0.00932048 0.054664828 -0.09926928
0.14633308 -0.115400955 0.013270702 -0.0016308032 0.17260621 -0.078227706 0.12225521 0.22329499
-0.09274475 -0.27012825 -0.29184437 -0.010257295 0.1472774 0.012745614 -0.14715593 -0.33860493
0.0018545414 -0.13042189 -0.1905702 -0.014750253 -0.16042295 -0.013495593 -0.09929876 0.3565504
0.028645812 -0.060615525 -0.0881156 0.13779266 0.18525791 0.057917368 -0.17836241 0.039510835
-0.11262796 0.29302222 0.097241536 0.094285615 0.20149268 -0.3097387 -0.032255817 0.14791329
-0.19411549 -0.17041183 -0.027010238 0.23065664 -0.20239772 -0.017549613 -0.15187488 -0.23311414
0.1343106 -0.101453826 -0.12936106 -0.022397343 -0.12905751 0.066143684 -0.10703876 0.26496315
0.15772001 0.08314949 -0.034207433 0.018068688 0.28623053 0.08318332 -0.13005131 -0.089277856
-0.058009773 0.27883554 0.2332303 0.20540397 0.23885378 -0.2270155 0.05619922 -0.028832983
0.032521278 -0.1240142 0.10109305 -0.04053675 -0.2373377 -0.08272012 0.07834829 -0.046243217
-0.2617707 0.16649023 0.029816568 -0.08900969 -0.13061857 -0.119258136 0.044032425 -0.06169438
-0.032693606 -0.31560796 -0.055587914 -0.15755722 0.17357786 0.14912911 -0.14184709 -0.20425567
-0.010814663 -0.0209246 0.054186843 0.0941223 -0.091344856 0.07880726 -0.10116322 -0.13827544

bias_ih_l0 f4 [128]
00000000: 4192 723d f468 1d3d 9507 553e ac3a 6e3d
00000010: 7c53 9c3e 40ff 8c3e 4560 5b3d 6824 073e
00000020: a38f 0ebd 3e7c 043e d6da 133e f703 5f3e
00000030: 72d0 a33d 2c70 e53c f1e4 07be a9a0 c73e
00000040: dfe5 2e3c 846a 033e 374a 91bd 4af9 11be
00000050: 5b33 713e 036d b43c d6c2 503e ea56 763c
00000060: 117a 2abc 1b6c 633e fe1e 7e3d 34fe f1bd
00000070: f5b6 e13d 0dd3 033e a685 90bc 702f 1abe
00000080: 01a6 e23d 9c80 70bc d025 e73d ff06 b33b
00000090: e230 e53d 4680 15bd a297 513d 2832 95bd
000000a0: 528d b8bd 03a1 27bd 214d 20be 9ba0 cabc
000000b0: 7e06 f2bd df7f 683e 2a33 42bd 424c 663e
000000c0: 3884 c43d 3ab8 503d 359b 9d3c dc2c cbbd
000000d0: 75ce 8e3c 22a4 21bb 391e 283e 5820 f33d
000000e0: 6e8f 1dbd 9f9e 523e bf13 1c3e c3b7 c63d
000000f0: 28f3 a6bc 7d02 0cbd d354 7c3d 7438 e5bd
00000100: 52ae 15bb ea87 92bd 6385 71bd 592b 533d
00000110: b977 b7bd 63a0 b3bc 408f c3bd e8a5 7cbd
00000120: c1d8 27be d65f abbd 6c61 063d a0cd 81bc
00000130: e19a b8bd 2759 f63d b6da 0abe 20fb 43bd
00000140: e86f 2ebe 2b7c 13bd 4063 693d 28db 3dbd
00000150: 2ad6 ed3d a8f0 db3d 50eb 403d 3915 a0bd
00000160: 2141 94bd 3aa1 0cbd b027 dcbc 666c 2fbe
00000170: 3b16 81bc 8ca6 f9bd 0291 03be f27e b1bc
00000180: 5147 683d 500d 40bc b580 95bd 1dc2 ecbd
00000190: 85e8 6f3e 7703 f83c dcb1 52bd b54a 253e
000001a0: 8dc5 953c 3a0c 0f3e 01f5 9abd 252f 643b
000001b0: 0409 6c3d 7cf4 463e 48b1 503e 01e3 023d
000001c0: fb77 303d a19a c63d cbe2 5c3e d936 1a3b
000001d0: 483f 643e d268 2c3e fa9d 873d fb4b f13d
000001e0: 2488 1d3e 0ee3 963c ef20 7b3e f629 253e
000001f0: be16 913d 7cfc 2a3d 5731 193e 465b 14be
0.05922151 0.03843017 0.20803674 0.058161423 0.30532444 0.2753849 0.053558607 0.13197482
-0.03480495 0.1293802 0.14438948 0.21778856 0.07998742 0.02800759 -0.13270928 0.3898976
0.010674923 0.12833601 -0.070942335 -0.14255252 0.23554747 0.022024637 0.20386824 0.01503537
-0.010405079 0.22209208 0.062041275 -0.118160635 0.110212244 0.12873478 -0.017641854 -0.15057158
0.11066819 -0.0146791 0.11286509 0.0054634805 0.11190964 -0.036499284 0.05117 -0.07284957
-0.0901133 -0.040925037 -0.15654422 -0.024734786 -0.118176445 0.22705029 -0.047412075 0.22490028
0.09595531 0.050956942 0.019239048 -0.099206656 0.01743243 -0.0024664481 0.16417779 0.118714035
-0.038466863 0.20568322 0.15241908 0.097030185 -0.020379618 -0.03418206 0.061604332 -0.11192408
-0.0022839499 -0.0715483 -0.058965098 0.05155501 -0.08958382 -0.021927064 -0.09548807 -0.061681658
-0.16391279 -0.08367889 0.032807752 -0.01584512 -0.09013916 0.12028723 -0.13559994 -0.047846913
-0.17034876 -0.036007088 0.056979418 -0.04635158 0.11613114 0.10739261 0.04709941 -0.07816548
-0.07238985 -0.034333445 -0.026874393 -0.17131194 -0.01575767 -0.121899694 -0.12848285 -0.021666978
0.056708638 -0.011721924 -0.072999395 -0.11560462 0.23428543 0.03027509 -0.05143915 0.1614178
0.018282676 0.13969508 -0.07566262 0.003481814 0.057625785 0.19429201 0.20380127 0.03195477
0.043083172 0.09697462 0.2157089 0.0023531227 0.22289765 0.16836861 0.066219285 0.1178207
0.15383965 0.018418815 0.24524282 0.16129288 0.07084416 0.041744694 0.14960228 -0.14487943

bias_hh_l0 f4 [128]
00000000: 2455 e33d 70d0 c13d 0b5d 6dbd e279 28be
00000010: da3e a23e 3f39 4a3e b7a3 773d 5de1 3a3e
00000020: 8150 903d 6638 52bd bc35 0bbe de38 603d
00000030: 41ef d2bd c2d6 7e3e 8d25 07be 47e9 923e
00000040: 4cdd 3abc 338b 503e 00f0 debd 1df5 3c3e
00000050: 0860 983e 0788 fb3d 5f00 3a3d 3783 a4bd
00000060: 7a80 f2bd 423f 8fbd 4c6d 8a3d 8d9b 113d
00000070: cd22 913d 94f1 313e 2aab debd 2268 213e
00000080: 21cc d43c bfb7 08bd 6538 be3c d007 86bd
00000090: 346b 683e a17a 8cbc 23fc c6bd 0948 23bd
000000a0: f723 013d 7c5a 233e 4e6e 1dbe 9f58 e73d
000000b0: a33a 79bc 1ae2 cb3c 696f e13d e24e eb3d
000000c0: d8f2 3ebd 59dd 0c3e d30c 173e 5891 bf3d
000000d0: 160e 213d ce01 733d ae30 ebbd 0c4c ca3d
000000e0: 3dde 283e 36f3 223e 2039 d93d ec03 94bb
000000f0: d369 303e 7a39 653d deb3 d63b a6dc 3e3d
00000100: d697 b5bc 22f3 e9bd 20e1 833b 224a 9c3d
00000110: 4a3a 0c3d 62a2 bcbd 3235 423e 23db 883d
00000120: 905b 23be 3e49 a83d 8df6 9fbd e322 a5bd
00000130: 7b7c dd3d 828f c6bc 20c3 d8bb e3af aa3d
00000140: 8786 b33b 7f3a 2abe 508c 0dbd ec16 913d
00000150: ad7f 2bba 96e6 bfbd 69db 26bd 1d99 07bd
00000160: 5e5b bdbd 65aa aebb 35a5 26bd 04dd d63d
00000170: 6596 583d 75f6 06be ff27 d53d 6ad7 0d3c
00000180: e459 ad3d 0f0d 313e d435 babd 8fbd c7bd
00000190: 9431 353e c20c 393d 3247 a83d 87fc 23bd
000001a0: fef7 1c3e 6810 67bc 31d5 e1bc b46f 203d
000001b0: 07b7 ee3d 2d1f e63d 096e c6bd 4206 393e
000001c0: 58ec d33d ced8 183e a8aa ae3d 842f ac3d
000001d0: 01ae 233e fae9 223e bdcb c6bd 7188 7a3d
000001e0: 0171 f8bd 68aa 17bd a245 44bd aabd 0c3e
000001f0: 35be ea3b fc4b ef3c f394 323d 3321 cb3d
0.11100224 0.094635844 -0.05795006 -0.16452745 0.31688577 0.197484 0.060458865 0.18250032
0.07046605 -0.051323317 -0.13594717 0.054741733 -0.1029954 0.24886611 -0.13197918 0.286936
-0.0114053 0.203656 -0.1088562 0.18452878 0.29760766 0.122818045 0.04541051 -0.0803284
-0.11840911 -0.06994487 0.06759128 0.035548735 0.07086716 0.17377311 -0.10872491 0.1576238
0.025976242 -0.03337836 0.02322025 -0.06544459 0.22697145 -0.017148318 -0.0971606 -0.03986362
0.03152844 0.15952486 -0.15374109 0.112962 -0.015211734 0.024888087 0.11007578 0.11489655
-0.046618313 0.13756312 0.14750986 0.09353894 0.039320074 0.059327893 -0.11483894 0.09877786
0.16491027 0.1591309 0.10606599 -0.004517069 0.17227869 0.055963017 0.0065522036 0.046597145
-0.022167128 -0.11423327 0.0040246397 0.07631327 0.034235276 -0.092106596 0.18965605 0.06682422
-0.15952897 0.08217095 -0.07810698 -0.08063295 0.108147584 -0.024238352 -0.0066150576 0.08334329
0.0054786834 -0.16623877 -0.03455764 0.0708445 -0.00065421575 -0.09370153 -0.04073659 -0.033105005
-0.092459425 -0.005330371 -0.040684897 0.10491374 0.052877802 -0.13179953 0.10408019 0.008657316
0.08464411 0.17290138 -0.09092298 -0.09752952 0.17694694 0.045178182 0.082167044 -0.04003575
0.15328977 -0.014103033 -0.027567478 0.03916903 0.116560034 0.11236415 -0.09688956 0.18068793
0.10347813 0.14926454 0.08528644 0.084075004 0.15984346 0.15909567 -0.09706829 0.061165277
-0.12130929 -0.037027746 -0.04791797 0.13744226 0.0071637877 0.029211037 0.04359908 0.099184416

weight_ih_l0_reverse f4 [128, 16]
00000000: 39ad 2e3e 7f5d 9abd 04d9 fa3d c3f8 933d
00000010: 0dac a5bd e906 15be d7b9 e5bd aeb4 2e3d
00000020: 6068 343e 7cc5 1bbe 8f85 9ebd 31a7 1f3e
00000030: fc27 813d 7b69 68be 008f 9b3e 1d82 ec3d
00000040: f793 f63c 0db0 6dbe e5eb 4abe 829a 8e3e
00000050: 7fd8 003c 8c0e bebd d641 883e 164a 95be
00000060: 2099 0f3e dd67 1fbe f880 f93d 6454 1bbe
00000070: 3c09 44bd dae4 28be bae7 003e bfad 333c
00000080: 2c82 d23e bd61 17be 6556 1d3c 5d7c a03d
00000090: 7602 2fbe c05e 293d 7113 093e fdbb 62bc
000000a0: 3191 b93d 515b 86be b7f2 0a3e 1494 033e
000000b0: dfa9 4dbe 1f9f ffbd 49ab 9e3e 8edb 193e
000000c0: 7767 ab3d f1aa 10be 9e50 2e3d dfc9 9c3d
000000d0: 9bf0 a53d b6c2 203e c620 883e 7e48 1e3d
000000e0: 736b ba3e 530b fc3d a06b 77be b777 2abe
000000f0: 8da4 0bbe f554 05be eb88 82be 9350 42bc
00000100: a6fd c73e b44f 21be c502 26be 27f6 90bd
00000110: 8b3e 463d 937b 25be 74b7 e5bd c740 f73d
00000120: 7db7 8b3d 8759 a0bd f94c dd3c bc56 d0bd
00000130: 666a fc3d e807 3cbd 5910 fd3e dacd 953c
00000140: ddfe 50be e4ac 88be ca70 033e 169e 43be
00000150: cae8 e6bc 3743 50be 6c0a fc3d f28e 9b3d
00000160: 8be7 2c3b 580d c9bd c111 283e 5da6 95bd
00000170: 4337 71bd b15a 523d 48c0 8f3d 47cc b03d
00000180: 9965 d63d 079f 2dbd 64ca 683e 8656 8c3e
00000190: ebb7 3f3e 483b f93d f72c 6dbe 89ea babd
000001a0: 85fc fa3d d3c7 54bb 8ff3 4bbe 69c6 5f3d
000001b0: 84ff 3bbc f166 273e 0a4e ef3d 995b 193e
000001c0: 394a 053d a41e d7be 2e73 f83e 88de ee3c
000001d0: 5a58 c33d 672e 62bd c731 b5bd 3361 32bc
000001e0: 15d7 49bd d3bd 42be 8b07 85bd 3319 623c
000001f0: 2357 223e 2bdc 683d 452a 343e 14dd bb3d
00000200: 7b6f 213d 639c a53c 283f 97be d059 783e
00000210: eddc 613d fd2b 1c3e eb32 debd 8271 943e
00000220: 55b5 073e 0767 493e e371 033c 2280 9a3d
00000230: affd a33e b432 12bc 3ffb 833d 9937 44bd
00000240: aa9f 803d 0517 54be f0b4 323e 377e a13e
00000250: a712 0f3e 09aa 633c f3f9 493e 5816 2bbe
00000260: fb77 99bb 9bf2 00be 5224 5bbe d404 6fbd
00000270: 49b1 1b3d e624 82be 3b7d 8abe ae40 773e
00000280: e7ed adbd 3698 b4bd 8556 57be 6db4 e33d
00000290: 5bfb 923d 9c7c 20bd 3c02 dabd e4e7 b4bd
000002a0: 1dc8 aebd 61e0 73bc 5c57 7e3e e91d 7d3e
000002b0: 94de cabd 98af ecbd 6b2e 40bd 1808 c93d
000002c0: 51a1 673d a696 3bbe a2cc 06be 343b 413e
000002d0: 371b bf3d dc6d a33d df6c 42be 0873 793d
000002e0: f261 eaba 0a0d 2d3e 29ed 7dbe ed24 9d3d
000002f0: 10ba 26bd 58b7 643d d338 28be a996 39be
00000300: 960b 48bb 20fa dbbd a640 a0bd ba8e 6e3d
00000310: fedb 9d3d 76db 02be 720d 383d ede0 83be
00000320: 8670 193e 38bd 2d3e 5a65 f43d d440 9fbb
00000330: 0ae1 b2bd 2e24 c03d 7a14 033c 5c58 433e
00000340: 37ca 843d de2f 2a3d f2e0 9dbd 6f34 863e
00000350: 6523 afbd e30c 61bb b157 cb3d 1ead d1bc
00000360: 85fa 253d ead9 213e bfd2 db3d 15c6 0e3e
00000370: 0e26 713d 3c25 e6bd 7952 5abe cd07 6bbd
00000380: b83c 93be c82d b6bd 0032 9ebd f550 09be
00000390: e114 3dbd eb82 b63d d7dc c93c 184e 65bd
000003a0: 1e27 93bd a6fe ecbd b625 babd 5fd0 d8bc
000003b0: d5ef 01be fda0 253e c7bf 63be 6a94 80bd
000003c0: 57f9 b2bd c067 d53d 14a4 80be 4687 ad3e
000003d0: 499f f4bd 5dcf 0abe d5ff 43bd e6da 39be
000003e0: 1479 b03d 137d b43b 4fd7 ee3c 9c18 fd3d
000003f0: 7987 e23d 2bf6 58bc 458a c2bd a582 b7bd
0.17058267 -0.07537364 0.12248424 0.07225182 -0.08089457 -0.14553417 -0.11217087 0.04265278
0.17617941 -0.15212053 -0.07740318 0.15591122 0.063064545 -0.22696488 0.30382538 0.11548255
0.030099852 -0.2321169 -0.19816549 0.27852255 0.007864117 -0.09280118 0.2661273 -0.29158086
0.14023256 -0.15566964 0.12182802 -0.15168911 -0.04786037 -0.1649355 0.12588397 0.010966717
0.41114938 -0.14783378 0.009603118 0.078362204 -0.17090783 0.041350126 0.13386323 -0.013838765
0.09060896 -0.26241544 0.13569151 0.12849456 -0.20084332 -0.12481522 0.30990055 0.1502516
0.08369344 -0.14127709 0.04255735 0.07655691 0.081025325 0.15699276 0.26587504 0.038643353
0.36410102 0.123068474 -0.2416215 -0.1664723 -0.1363699 -0.1302069 -0.25495085 -0.011860031
0.39060706 -0.1575306 -0.16211994 -0.070782 0.04839949 -0.16160421 -0.112166315 0.12072902
0.06822107 -0.07829576 0.027014242 -0.10172793 0.123249814 -0.045905977 0.49426535 0.018286634
-0.20409723 -0.26694405 0.12835994 -0.19103274 -0.028187174 -0.2033814 0.12306675 0.07595624
0.0026383128 -0.09816998 0.16413023 -0.07307122 -0.058890592 0.05135602 0.070190966 0.08632713
0.10468597 -0.04238799 0.22733456 0.27409762 0.18722503 0.1216951 -0.23161684 -0.09126765
0.122551955 -0.0032467737 -0.19917129 0.054632578 -0.011474494 0.16347863 0.11684807 0.14976348
0.032541487 -0.42015564 0.48525375 0.029158846 0.09538336 -0.055220034 -0.08847385 -0.010887432
-0.049277384 -0.19017725 -0.06495579 0.013799953 0.15853553 0.056850594 0.1759425 0.09173027
0.039412957 0.020216173 -0.29540372 0.24253011 0.055142332 0.15251155 -0.108495556 0.2899285
0.13252766 0.19668208 0.008022758 0.07543971 0.32029483 -0.008923221 0.06444406 -0.047904585
0.062804535 -0.20711906 0.17451835 0.31541607 0.13971959 0.01389552 0.19724254 -0.16707742
-0.0046834922 -0.12592547 -0.21400574 -0.058354214 0.03801087 -0.25418776 -0.27048668 0.24145767
-0.08492642 -0.088180944 -0.21029098 0.11118398 0.071768485 -0.039181337 -0.106449574 -0.08833292
-0.08534262 -0.014885039 0.24838012 0.24718441 -0.09905735 -0.11556929 -0.046919268 0.09815997
0.056550328 -0.18319187 -0.13163999 0.1887024 0.09331363 0.079799384 -0.18986844 0.060900718
-0.0017881973 0.16899505 -0.247975 0.07673059 -0.040704787 0.055838913 -0.16427927 -0.18123879
-0.0030524484 -0.10741067 -0.07824831 0.058241583 0.07707976 -0.1277903 0.044934697 -0.25757542
0.1498433 0.16966712 0.11933394 -0.004860023 -0.08734329 0.09381901 0.008000487 0.19076675
0.06483882 0.041549556 -0.077089205 0.2621188 -0.08551673 -0.0034339956 0.09928835 -0.025595244
0.040522117 0.15805784 0.10733556 0.1394275 0.058874182 -0.11237571 -0.21320523 -0.057380486
-0.28757262 -0.08895451 -0.077243805 -0.13409789 -0.04616249 0.08911689 0.024641437 -0.05598268
-0.071851954 -0.11572008 -0.09089224 -0.026466547 -0.12689145 0.16174693 -0.22241126 -0.06278308
-0.08738964 0.10420179 -0.25125182 0.33892268 -0.11944444 -0.13555665 -0.047851402 -0.1814991
0.08616844 0.005508074 0.029155402 0.123582095 0.110609956 -0.013242285 -0.09499029 -0.08960465

weight_hh_l0_reverse f4 [128, 32]
00000000: fdc3 cebd 0f82 a3bc 54ce 8b3d 8e9b c7bd
00000010: b9e0 4c3e c5f8 193b 0a33 9d3d 9d92 76bb
00000020: 37e1 fd3d 1626 e5bd 642b a83c 429b 103e
00000030: ea1b 2a3e 6d6b 053e 03cb c3bd 3c8a 0cbe
00000040: 89b6 003e a5d5 003e 3f40 003d ead8 0abe
00000050: 0df4 8fbc 8928 ce3d 58bb ab3d e35f 78be
00000060: 36ba cbbd a02d e8bb cba1 2b3d ba1d 7c3d
00000070: ad2e 32be 7422 5b3d f6f1 203d 97ed 04be
00000080: 9c27 473e ee92 773d a757 7a3e 9adf 823e
00000090: e59a b93e 530e babc 60b0 2fbe ffac 1abe
000000a0: 0a83 0d3f a58a a3bd bd69 7e3e b316 923e
000000b0: 4e0d bb3d a75f d5bd 7e95 5a3e 5c72 93be
000000c0: 2e27 9b3e d1db 6c3e 168e 97bd cad7 edbd
000000d0: 27a5 963d 4392 81be 49cd e23e 412a b2be
000000e0: db82 3abc cce5 5ebe 6382 dc3b 2f97 133e
000000f0: 8ec4 003d 7069 1dbe ac8b ccbd 2c0d 07be
00000100: c631 c5bd a15a 97be ad96 ce3d cc3b c93c
00000110: b391 6e3e 18d6 7d3d fa21 b1bd b002 d33d
00000120: 30c1 543e 51d0 f83d 3e45 34be 91d1 cbbd
00000130: dbb1 87bb c981 56bd c7cc c33d b87b 36be
00000140: 9c77 bd3e fd18 33be 7cee fe3c efbd 7e3d
00000150: db5e 6a3c 2718 143d eae7 1fbe 22a9 a5bd
00000160: 8e92 203e 97a7 12be d7d4 0dbd 6a8e d43d
00000170: e902 3c3e e5b6 413d d329 763d 0875 6c3d
00000180: ceee 8a3e 2513 063c 2a41 9d3e d487 62bc
00000190: 270c 423e 2097 5fbd 147f c43c 8fba 15bd
000001a0: 0347 373e 9891 d43c 0789 623e 8367 a4bb
000001b0: 86d0 2fbe 4287 78bc 790a d5bd b8cf f5bd
000001c0: a3a5 ddba c784 fdbd 33ab bd3d f0b4 c6bd
000001d0: 9c42 2d3e e03c 49be 1e46 7d3d 2399 35bd
000001e0: ee6a a73c fb38 07be 2920 72be bf18 ff3c
000001f0: 63c8 583e 27de b2bd 960e bbbd 4175 ecbd
00000200: 2760 493e 017f 573d a31d 0c3e 7633 183e
00000210: 3aed 773e 9517 143e 1361 af3d 201f 34bd
00000220: 1e6d a63e cacf 65bd 788c 04be a010 4a3e
00000230: e16b dcbd f5b2 5a3b 96e0 3d3e 8d91 a53d
00000240: 04bb 293e 9112 243c e43d d6bc b3c8 2dbe
00000250: b8ba 643e f490 1ebe 3d3b 353d 88ee 9fbe
00000260: 108a 3a3e 9671 023e 02db 4f3c c143 9f3d
00000270: bcb6 5b3a f6e1 343d 29a2 56bd d0cb c3be
00000280: 0904 443c a564 07be 28e4 243d ed97 d43d
00000290: 630b bd3e f667 903e 9f8c abbb 242f cbbd
000002a0: 1ba4 993e 930d 7dbd 2553 eb3c ed06 043e
000002b0: c448 8cbc 93a9 683e 6aa4 d4bd 3b3c 40be
000002c0: 9b20 563e fb34 babd f230 89bd 5640 683e
000002d0: 5566 c13d 0e7c 6e3a 1742 b43d 4e8b 22be
000002e0: 7a80 dfbd 910b 80be 7e2d 8abc b7e3 2b3e
000002f0: 2f0c 2d3b fb76 463e d12c f43c 0025 283c
00000300: 3010 f23c 6786 97bd b93d fdbd 566f 0abd
00000310: ff0e 5dbd 1184 8b3d c389 823d d8fa 00bd
00000320: 2cfc ec3d 3768 d5bd d170 b5bc 5c8d 513d
00000330: 7bf1 95bd 3c36 d5bd 9c2f 233c 4973 16be
00000340: c755 183e 6c66 2fbe 5655 0fbe 805d 4a3d
00000350: a2a9 88bc e6bb e1bd 66fa 153e d4f4 a33d
00000360: 58db 43bd 7be0 3bbe d1f7 3abe 502f 11be
00000370: 81bc 16bc 953f f03d ece3 64be a0f0 0abe
00000380: 72a3 cebd 7317 67bd f896 623d ee30 b5bd
00000390: 09b8 8a3e fc0a 073e 2775 42be 58d1 51be
000003a0: 7f3b 713e 049b b63d d107 8b3d 89ea c03d
000003b0: a8ce 383c b140 563e 4d12 62bc 857d ed3d
000003c0: 6f73 403e 74e2 823d dd14 793d 4827 fcbd
000003d0: bd85 ab3c 3f43 f1bd 9c26 2abe 6334 c1be
000003e0: 4226 b73d acae a83c 1d78 82bb 7210 f33d
000003f0: 3388 aabb 7603 b1bc f3bb af3d 50e1 d2bd
-0.100959755 -0.019959478 0.06826463 -0.097464666 0.200076 0.0023494225 0.076757506 -0.003762401
0.12396472 -0.11188905 0.020528503 0.14121726 0.16612211 0.13029261 -0.09560206 -0.13724607
0.12569632 0.12581499 0.03131127 -0.13559309 -0.017572427 0.10066325 0.08385342 -0.24255328
-0.09947626 -0.007085517 0.041902345 0.061551787 -0.17400618 0.053499654 0.039293252 -0.12981258
0.19448704 0.060442857 0.24447499 0.2556122 0.36250988 -0.022711908 -0.17157125 -0.15105055
0.55278075 -0.07985429 0.24845023 0.28532943 0.09133397 -0.10418635 0.21346089 -0.28798187
0.3030333 0.23130728 -0.074001476 -0.11613424 0.07355719 -0.253069 0.44297245 -0.34797862
-0.011383737 -0.21767348 0.0067294105 0.1441314 0.03143745 -0.15372252 -0.09987578 -0.13188618
-0.09628634 -0.29561332 0.10087333 0.024564646 0.23297767 0.061971754 -0.08649059 0.10303247
0.2077682 0.12149108 -0.17604539 -0.09952081 -0.004141075 -0.052369867 0.095605426 -0.17820632
0.37005317 -0.17490001 0.031119578 0.062192854 0.014304842 0.036155846 -0.15615812 -0.080889
0.15680906 -0.14321743 -0.034626808 0.10378726 0.18360485 0.047293562 0.06009848 0.057728797
0.2713532 0.008183275 0.3071378 -0.013826329 0.18949948 -0.054587483 0.023986377 -0.03655487
0.17898183 0.02594833 0.22122584 -0.0050172224 -0.17169389 -0.015168967 -0.10402388 -0.1200251
-0.0016910326 -0.12378841 0.09261169 -0.0970248 0.1691994 -0.19652128 0.061834447 -0.044335496
0.02043673 -0.1320533 -0.2364508 0.03113973 0.21170191 -0.087337784 -0.091336414 -0.11545802
0.19665585 0.052611355 0.1368318 0.14863381 0.24211589 0.14462121 0.08563437 -0.043974996
0.32505125 -0.056106366 -0.1294421 0.19732904 -0.10762764 0.0033370827 0.18542704 0.08084402
0.16575247 0.010014192 -0.026152559 -0.16971092 0.22336853 -0.15484983 0.044245947 -0.31236672
0.18216729 0.12738642 0.012686493 0.07776595 0.00083814166 0.044160806 -0.05240074 -0.38241434
0.011963853 -0.13221987 0.04025665 0.1038054 0.3692275 0.28204316 -0.005235269 -0.09921101
0.30008015 -0.061780524 0.02872617 0.12893267 -0.017124541 0.22720937 -0.10382922 -0.18772976
0.20910875 -0.090921365 -0.06698789 0.22680792 0.094433464 0.0009097465 0.08801668 -0.15873453
-0.10913177 -0.25008824 -0.016867395 0.16786085 0.0026404967 0.19381325 0.029806526 0.010262728
0.029548734 -0.07398682 -0.12365288 -0.033797584 -0.05396938 0.06812299 0.06373932 -0.031489223
0.115715355 -0.10420268 -0.022148522 0.0511602 -0.07321449 -0.10410735 0.009960081 -0.14692415
0.14876471 -0.17128915 -0.13997397 0.049405575 -0.01668245 -0.11022167 0.146463 0.08005682
-0.047816604 -0.18347351 -0.18258597 -0.14178205 -0.009200216 0.11730877 -0.2235257 -0.13568354
-0.100897685 -0.056418847 0.055319756 -0.08847223 0.27093533 0.13187784 -0.18990003 -0.20490015
0.23557852 0.08916286 0.067886 0.09419734 0.011279739 0.20923115 -0.013798309 0.115962066
0.18794034 0.06390849 0.060810912 -0.1231218 0.020937795 -0.11780404 -0.16616291 -0.3773528
0.08942844 0.020591103 -0.003981604 0.11868371 -0.0052042245 -0.021608096 0.0858077 -0.10296881

bias_ih_l0_reverse f4 [128]
00000000: 34a4 e43d e89e 05be 1da1 1b3e 8fb8 0c3d
00000010: 1f39 2f3e 5997 93bd 6d9a 063e 058a 083e
00000020: f946 073e c3ec 883e 1144 d8bd 08ed 2b3e
00000030: 0af8 333e 003b 0ebe 45f0 12bd 2743 8ebd
00000040: b929 c0bd 7611 49bd 9d3a 873d 4236 97bd
00000050: 6441 303e 9647 733d 1fba b73e 531d 7a39
00000060: 4543 a6bc 04a7 18bd 8224 323e b629 5a3b
00000070: a79a 483d 1996 573d 27ff 4a3d f072 3abd
00000080: 2a09 253e 3f41 9d3d 870b 203d db58 d43a
00000090: ceca 343e 5714 fb3d b0eb 393e 3dbc c7bd
000000a0: ead1 b63d d57d 343d d2b3 fa3d 51ca bc3d
000000b0: be3b 683c 83e9 0aba cd19 afbc c1e6 c13d
000000c0: cf30 4c3e d2dc 293e d7cb a0bc a8c1 223e
000000d0: 75f1 1ebc ad07 003e eb56 753e 6362 f93d
000000e0: 3694 90bd c513 7b3e 28f3 663e 3b95 24be
000000f0: 61d2 9b3d 85c8 1abd fe6d 2b3e 8976 a03d
00000100: de0a f43d 4844 433e a111 25be be01 723d
00000110: c2b5 7e3d 47d3 f4bd 9fda 2e3d f473 0bbd
00000120: afb0 b9bc 1b5e 473d ed87 bf3d 048a f23a
00000130: 760d f8ba 98bc 7b3d 95cf 333d 4488 06be
00000140: 772d f93d eeb9 3bbd e870 373d b3ff 2dbe
00000150: f2d7 643d aa13 f9bc 9537 6e3d 8b34 cbbd
00000160: 0232 cabd 2bd0 bb3c 3309 c7bd fd8c ee3d
00000170: 5cf5 103e 35e5 05be 7df2 b8bd d742 12be
00000180: f1d1 373d 19dd 6e3e 48de 1a3e 0e0d 2b3e
00000190: a509 a53e 9e27 463e a032 703e f309 3cbd
000001a0: 7e06 513e d551 383e b1f3 03be ff80 493d
000001b0: a7d8 a3bc 1e6a b33d b0e3 483e a31e 9c3d
000001c0: 655c 6e3e dd0f 1cbd 976d 11be db50 d93c
000001d0: ec7e fc3b 6007 b3bd 4ab7 693e 2f22 63bd
000001e0: 0c91 06be 079e d9bc 016b 023d 701a 253e
000001f0: 5bb1 99bd d30a f3bc 7c67 373e f079 413e
0.11164132 -0.13048899 0.15198179 0.034355696 0.17111634 -0.07206602 0.13144846 0.133339
0.13210668 0.26743135 -0.10559858 0.16789639 0.17575088 -0.13889694 -0.03587367 -0.06946402
-0.09382958 -0.049088918 0.066029765 -0.07383396 0.17212445 0.05939444 0.35884187 0.00023852782
-0.020295748 -0.037268654 0.17396739 0.0033289022 0.048975613 0.05263338 0.04955974 -0.04551977
0.16116777 0.0767846 0.039073493 0.0016200797 0.17655489 0.12259739 0.18156314 -0.097527005
0.08926757 0.044065315 0.12241329 0.09218276 0.0141744 -0.0005299078 -0.021374607 0.09467841
0.19940494 0.16588143 -0.019628448 0.15894186 -0.0097011225 0.12502928 0.23958938 0.12176969
-0.07059519 0.2451926 0.22553694 -0.16072552 0.07608486 -0.037788887 0.16741177 0.07835109
0.11916135 0.19069016 -0.16120006 0.059083693 0.062185057 -0.119543605 0.042688962 -0.03404613
-0.022667257 0.04867373 0.09352098 0.0018504267 -0.001892491 0.061459154 0.043899138 -0.13137919
0.12166875 -0.045831613 0.04478541 -0.16992073 0.055870004 -0.030404884 0.058158476 -0.09922131
-0.098728195 0.02292641 -0.097185515 0.11647985 0.14156097 -0.13075717 -0.09030626 -0.1428331
0.04487795 0.2332653 0.15123856 0.16704199 0.3223392 0.1935105 0.23456812 -0.045907926
0.20412633 0.17999966 -0.1288593 0.049195286 -0.020000769 0.087604746 0.19618106 0.07623031
0.23277433 -0.038101066 -0.14201961 0.026527813 0.00770556 -0.08741641 0.22823825 -0.055452522
-0.13141268 -0.026564611 0.031840328 0.16123366 -0.07504531 -0.029668247 0.1791057 0.18894172

bias_hh_l0_reverse f4 [128]
00000000: 1262 d1bd d1c3 d43d 5419 00be 250d 7e3e
00000010: c5cc 1a3e 7047 b3bc b3a6 be3b 1987 043e
00000020: c21c 273e 2a9c 1f3e fa97 f93c 7a3b 283e
00000030: 34be 3b3e f927 b93c f4ae 043e 880e 88bd
00000040: 3424 003e a958 ecbc 3642 98bd 13e4 153d
00000050: 9b5b 8b3d 5e42 c53d d47c 123e f15b 033e
00000060: f384 773d 3e45 3c3e 9606 72bd 71aa 22bd
00000070: fd52 583e c5f4 213d 3373 783d c4ff 283e
00000080: bd72 7abd 484b 89bd 680c 0a3d fecc e13c
00000090: eb4c c9bc f178 4c3e 3c69 d8bd 775a 253e
000000a0: 07d2 f63d 9e8b 9cbd ca2d c63d c775 c53d
000000b0: 22f9 123e ab76 d9bd 5bb4 44bd 4ef2 263e
000000c0: e293 8bbd 24da 093e b20e 083e a354 83bd
000000d0: 84de 1a3e a1dd 013e 9a6b 0f3e 9873 4a3d
000000e0: 0d06 be3d d878 833e 87a7 4a3d 983a bb3d
000000f0: ff1a 57bd 8a8e 9dbd adad cdba a40c 5f3d
00000100: bcc0 143e d6e3 e3bd afc4 063e 6be5 73bd
00000110: dada f83c d6fe 013e 39d1 033d c6a3 ecbd
00000120: 6bcb 9b3d 68c4 05bd bba1 45bb 5aa7 9f3d
00000130: 1cfd 67bd 83a6 93bc 09d0 2abd 299d 15bd
00000140: 195a 3ebe bce0 173e 079d 8f3b 354a 003e
00000150: 58b9 353e f50c cbbd d3d6 13be c840 1bbd
00000160: 345b 9cbd a3ad d5bd e46b 46ba f58a 963c
00000170: 57b6 0e3e 3ee5 e33c ec72 d2bd f54d 2fbe
00000180: 8bd5 273e 1401 aebd 5a54 1c3e 36f1 6bbd
00000190: 21f2 443e 557b c53d 22bb dfbd 44ae 3dbc
000001a0: 827d 063e b545 6e3e 2683 c5bc 0354 b8bd
000001b0: 4e70 9abc d133 f7bc 7979 62bd 00a7 2b3e
000001c0: 7f9a 623e aa56 55bd 1fa4 c1bd a146 c13c
000001d0: e62f 303e f61c 683d cc77 8c3e c339 e03d
000001e0: 8b78 d43d 4e18 343e 90b7 383d c4f0 e6ba
000001f0: 2763 62bd e2ec 8bbc 01f1 393e 836b 723e
-0.102237836 0.103889115 -0.12509662 0.24809702 0.15117176 -0.02188465 0.005818212 0.1294216
0.16319564 0.15586916 0.030467976 0.16428939 0.18334275 0.022602068 0.12957364 -0.066433966
0.1251381 -0.02885087 -0.07434504 0.03659446 0.06804582 0.09631799 0.1430543 0.12828042
0.060429525 0.18385789 -0.059088312 -0.039713327 0.21125408 0.03954007 0.060656738 0.16503817
-0.06114458 -0.06703812 0.033703238 0.027563568 -0.02457281 0.1996801 -0.10566947 0.16147791
0.12051778 -0.07643817 0.09676702 0.09641605 0.14352849 -0.10618337 -0.048023563 0.1630337
-0.06815316 0.1346212 0.13286856 -0.064126275 0.15123945 0.12682201 0.1400589 0.049426645
0.09278498 0.25678134 0.049476173 0.09142035 -0.05251598 -0.07693203 -0.0015692018 0.054455414
0.14526647 -0.11127441 0.13160966 -0.059544962 0.030377794 0.12694868 0.032181952 -0.11554675
0.07607158 -0.03265801 -0.0030156213 0.07795592 -0.05663787 -0.018023735 -0.041702304 -0.036526833
-0.18589057 0.14831823 0.004382733 0.12528308 0.17746484 -0.09914581 -0.14437418 -0.037903577
-0.07634583 -0.10433509 -0.00075691775 0.018376807 0.13936745 0.027819272 -0.10275826 -0.17119582
0.16390054 -0.084962994 0.15266553 -0.057603084 0.1923299 0.09642664 -0.109243646 -0.011577193
0.13133815 0.23268779 -0.024110388 -0.09000399 -0.01885238 -0.030176075 -0.055291627 0.16762924
0.22129248 -0.052084602 -0.09455132 0.023593249 0.17205772 0.056668244 0.27435148 0.10948517
0.10374554 0.17587397 0.045096934 -0.0017619361 -0.05527034 -0.017080728 0.18158342 0.23673825

weight f4 [2, 64]
00000000: 774a 56be 558c a2bd 1fee e53d 6b8f 2e3e
00000010: fd07 6c3e b9b4 193e cc3a 50be 4e84 703e
00000020: 6a79 463e 5db4 01be 082d cabc 0eb4 fe3d
00000030: 27f6 bb3d 3bbb 90be 4cdc e8bd 27d3 5abe
00000040: 0cd9 233e 065d 5e3e f7ff cfbd 5f5f 183e
00000050: 7c3b 36be 06d5 54be 5bca d63d ae9d 2e3e
00000060: 840d 603e 6ef4 19be 9aa1 70bd 6714 903e
00000070: c93e 303e cde1 2e3e 7628 9e3d 97ac 173e
00000080: 1254 643d d122 23be ad6e aebc 466d 6abe
00000090: e1a6 bd3b be5d 613e 322c 55bd 8e3d 9ebd
000000a0: 5379 86bd f02f dd3d 877a 0e3e ec14 323d
000000b0: a539 1e3e ca7a 323e df5c 84be 1955 fb3c
000000c0: b79d c4bd 9dff 89be 2670 bd3d a52c df3d
000000d0: a9d6 1ebe eadc d33d da6a 99be 7bec 163e
000000e0: 72eb 2bbd 2a10 75bd c701 5fbe 8dc6 6d3e
000000f0: e116 073e ec8e 483e 8f12 fc3c 7187 2c3e
00000100: e589 3b3e 3491 003e 3c26 3dbe b539 1ebe
00000110: bb05 91bd 3593 afbe 369d b43d 6a5d 3ebe
00000120: eab3 9abd a4d1 12ba f5cd ef3d 89dc 8cbe
00000130: a2e7 02be 72c6 cd3d 0436 783e d20d 763e
00000140: d348 33be aec5 d8bd a7fa 503e 4e76 4fbd
00000150: ded7 843e 1461 c23e 5b8d 61bd 9ea9 48be
00000160: 3d53 33be 9eb3 19bc ccc1 97bd 2f43 54be
00000170: 086a 71bd 8d91 37be e4fc 1dbe feb3 d2bd
00000180: 4202 9d3c 023e 6f3e 513f f5bd 6974 873e
00000190: 8b8f 023d ce10 89be 2643 ecbd 0845 a73c
000001a0: 0a7e 103e 98e3 58be a891 0abe d140 6ebd
000001b0: f0c8 d6bd 28a1 663c 54ed 333d e56c df3d
000001c0: 8c3d d23d eebe 1c3e c34c a9bc 528e 9bbe
000001d0: a356 1e3d c7ed 40be eff4 1e3e 1935 31be
000001e0: 10b3 b73d 9f8f 563d ca4b 1a3e 2d80 7ebe
000001f0: 865c 72bc 23b2 2cbe ef9f 86be ae15 27be
-0.20926844 -0.079369225 0.112270586 0.17046897 0.23049922 0.15010346 -0.20334929 0.2348797
0.19382253 -0.1266646 -0.024679676 0.124366865 0.09177809 -0.28267846 -0.11370143 -0.2136961
0.16000766 0.21715173 -0.10156243 0.14880131 -0.17796129 -0.20784387 0.10487815 0.17052338
0.21880156 -0.15034649 -0.058747865 0.28140566 0.1721145 0.17078324 0.07722561 0.14811932
0.05574424 -0.1593125 -0.021293009 -0.22893247 0.005787716 0.22008416 -0.0520441 -0.077265844
-0.065661095 0.10800159 0.13913928 0.043476984 0.15451677 0.17429653 -0.25852105 0.030680226
-0.09600394 -0.2695283 0.09249906 0.10897187 -0.15511574 0.103448704 -0.29964334 0.14738648
-0.041972585 -0.05982987 -0.21778022 0.23220272 0.13192321 0.1958577 0.030770568 0.16848542
0.18314321 0.1255539 -0.18471617 -0.15451701 -0.07081171 -0.34291998 0.08819048 -0.18590322
-0.07553847 -0.0005600697 0.11709205 -0.27512005 -0.12783673 0.10047616 0.24239355 0.2402871
-0.17508249 -0.105845794 0.20408116 -0.050649934 0.25945944 0.3796469 -0.055066448 -0.19595954
-0.17512222 -0.009381203 -0.07410011 -0.20728754 -0.05893901 -0.17926617 -0.15428501 -0.10288237
0.019166116 0.23363498 -0.11974967 0.26456 0.031875174 -0.26770633 -0.11536245 0.020418659
0.1411058 -0.2118057 -0.13532126 -0.058167282 -0.104875445 0.014076509 0.043927506 0.10909442
0.102656454 0.15307209 -0.020666486 -0.3038202 0.038656842 -0.18840705 0.15523122 -0.17305411
0.089697 0.05238306 0.15067974 -0.24853583 -0.014792567 -0.16864829 -0.26293895 -0.16316864

bias f4 [2]
00000000: e517 1ebd 0c11 12bb
-0.038597006 -0.0022287993
