m6A_BERT_Stacking/Resnet/model_pth/m_b_bilstm.pth (torch, 69975 bytes, 13 tensors)

weight f4 [64, 16]
-0.42642784 -0.6134739 0.7278173 0.635074 -0.04540527 0.35861027 0.16533053 -0.41275048
0.2762158 -0.6936028 0.10252166 0.81935894 -0.91375184 0.810928 0.6151751 0.070308805
-0.33374697 -0.175874 -0.30106536 0.53384656 -0.82036066 -0.6906167 0.721897 0.99932534
-0.8082703 0.5918606 0.8131481 -0.70171356 0.2577035 -0.36505556 -0.024031395 0.61149657
0.14712667 0.3695072 0.76337403 0.32294068 0.59400064 -0.3668141 -0.87847686 0.47474018
0.73959047 -0.8031012 0.515638 -0.034356885 0.7948645 0.21695204 -0.42377993 -0.23898757
0.40794662 0.10736852 -0.9492865 0.5583145 -0.84608185 -0.8852666 -0.2143732 -0.11224496
-0.5439763 -0.09199101 0.7213815 0.538358 -1.0260434 -0.51222825 -0.7984995 -0.9088939
0.49352178 -0.48586917 0.6532135 0.5397964 -1.0700635 -0.9463651 -0.40934232 0.30862814
-0.6780006 1.0642532 0.7007415 0.9508639 0.25926697 -0.49021214 0.7891897 0.91217875
-0.38286936 -1.0628383 -0.38209724 -0.3924989 -0.0018961156 -0.49904788 -0.6657866 0.29413593
0.10352937 -0.35711223 -0.24860334 -0.13678198 0.24089184 0.5861659 -0.5942402 0.4534272
0.42328703 -0.35680827 0.13921605 -0.27376387 -0.12032391 0.04346033 -0.77482295 -0.17872241
0.43234047 -0.7221272 1.071179 -0.9997781 0.27491546 0.17343515 -0.47920218 1.160952
0.6399978 -0.2842883 0.51500326 0.48473608 0.044548303 -0.7310522 0.36996207 0.284566
-0.09153603 -0.3073274 -0.76470983 -0.3419715 0.7191186 -0.4070831 0.5188939 -0.9166091
0.3713489 0.40218368 -0.88653046 -0.08742075 0.41481325 -0.7918924 -0.79551226 0.90814036
-0.7817747 -0.70965546 -0.5589616 0.8864195 -0.2672669 -0.15140162 0.8566598 0.7630027
-1.0268456 -0.42892215 0.6748064 0.700423 0.38358027 -0.0976859 0.9389094 -0.9979255
-0.58602965 -0.25136787 0.16414744 0.67423075 0.911418 -0.48383537 0.17544101 0.3714959
-0.96956784 -0.119319476 -0.64698285 0.9822152 -0.18050875 0.6701758 0.18205068 0.220382
-0.06435705 0.6014006 -0.22257099 0.3831582 0.20835544 0.9717184 -0.58383876 -0.9950391
0.002950635 0.14527908 -0.28388909 0.6150862 0.83022654 0.48023027 -0.27441502 1.074766
0.44886872 -0.85188913 -0.5051824 0.94032264 0.56558216 0.8850415 0.6363264 -0.2546134
-0.55157846 0.47573084 -0.31354922 -0.7929031 -0.078109644 -0.42204005 0.016917747 -0.57211125
-0.2929342 0.06177297 0.28959975 0.70129186 -0.4352781 1.1320509 -0.8014853 -0.013035876
-0.98423266 0.38439262 -0.2542602 0.11395091 0.50784373 -0.6429063 0.71073693 0.4904148
-0.62705004 -0.3141888 -0.27156672 0.008922062 0.15743543 -0.059474614 -0.27864832 0.119427204
0.11646159 0.07928303 0.36738703 -0.16839814 -0.4042456 0.6537613 0.8674525 -0.1488891
0.3756271 -0.12279783 -0.38230976 0.53622663 -0.4076263 -0.03772805 0.2876085 -0.64384824
-0.40076634 -0.31358388 0.751384 0.60321313 0.14006712 -0.119241245 -0.9836863 0.32837296
0.85776484 -0.08428456 -0.68627745 0.87605035 0.7589559 -0.20882769 0.07845487 -0.3029798
00000000: c054 dabe a00c 1dbf 3c52 3a3f 3694 223f
00000010: e0fa 39bd c49b b73e 684c 293e 0854 d3be
00000020: 286c 8d3e f48f 31bf e0f6 d13d 82c1 513f
00000030: a4eb 69bf fa98 4f3f 1e7c 1d3f 10fe 8f3d
00000040: e2e0 aabe 5018 34be 3d25 9abe 2baa 083f
00000050: 2803 52bf 42cc 30bf 3ece 383f c9d3 7f3f
00000060: cdea 4ebf 2d84 173f 792a 503f 80a3 33bf
00000070: b7f1 833e 90e8 babe 7ddd c4bc 0a8b 1c3f
00000080: 60a8 163e 0c30 bd3e 7b6c 433f 7b58 a53e
00000090: 6d10 183f 0fcf bbbe dce3 60bf 2511 f33e
000000a0: cd55 3d3f 0a98 4dbf da00 043f ceb9 0cbd
000000b0: 3d7c 4b3f ad28 5e3e aff9 d8be 28b9 74be
000000c0: 61de d03e 07e4 db3d 7104 73bf b3ed 0e3f
000000d0: d298 58bf d5a0 62bf a684 5bbe b0e0 e5bd
000000e0: 0842 0bbf c865 bcbd 75ac 383f d4d1 093f
000000f0: 6455 83bf 6421 03bf 776a 4cbf 45ad 68bf
00000100: e3ae fc3e d8c3 f8be 0039 273f 1930 0a3f
00000110: d7f7 88bf fc44 72bf 5195 d1be 8204 9e3e
00000120: 7391 2dbf 7339 883f cc63 333f d16b 733f
00000130: a4be 843e 16fd fabe 5608 4a3f 8c84 693f
00000140: 7407 c4be 160b 88bf 40a2 c3be 9ef5 c8be
00000150: 1587 f8ba 3483 ffbe fe70 2abf fc98 963e
00000160: 3507 d43d 6ad7 b6be e091 7ebe 9310 0cbe
00000170: 5aac 763e f80e 163f 2020 18bf 9c27 e83e
00000180: 14b9 d83e 93af b6be a78e 0e3e c72a 8cbe
00000190: 626c f6bd 7603 323d cc5a 46bf 0203 37be
000001a0: bb5b dd3e 54dd 38bf 651c 893f 75f1 7fbf
000001b0: b8c1 8c3e fc98 313e fd59 f5be 139a 943f
000001c0: e5d6 233f 3c8e 91be 41d7 033f 542f f83e
000001d0: 4878 363d 3d26 3bbf ab6b bd3e a2b2 913e
000001e0: 3e77 bbbd 045a 9dbe 06c4 43bf e316 afbe
000001f0: 2818 383f 326d d0be 3bd6 043f e5a6 6abf
00000200: 7121 be3e 05eb cd3e a9f3 62bf a609 b3bd
00000210: 6762 d43e 76b9 4abf b1a6 4bbf e37b 683f
00000220: 6322 48bf fbab 35bf 1b18 0fbf 63ec 623f
00000230: 35d7 88be 0709 1bbe 0f4e 5b3f 2554 433f
00000240: ad6f 83bf af9b dbbe 1dc0 2c3f ec4e 333f
00000250: a264 c43e 8c0f c8bd 5e5c 703f 0c78 7fbf
00000260: 0a06 16bf 4ab3 80be 4416 283e 639a 2c3f
00000270: b152 693f 45b9 f7be cfa6 333e b634 be3e
00000280: 9935 78bf c55d f4bd aba0 25bf 7572 7b3f
00000290: 49d7 38be a490 2b3f 7e6b 3a3e d2ab 613e
000002a0: a1cd 83bd 64f5 193f a6e9 63be 502d c43e
000002b0: 215b 553e 89c2 783f 7576 15bf e2ba 7ebf
000002c0: 715f 413b 0ac4 143e e959 91be 4a76 1d3f
000002d0: ba89 543f bee0 f53e 2080 8cbe ef91 893f
000002e0: 1fd2 e53e 6815 5abf a253 01bf fcb8 703f
000002f0: fec9 103f 1492 623f 49e6 223f b05c 82be
00000300: 3f34 0dbf fe92 f33e 8689 a0be b3fb 4abf
00000310: f3f7 9fbd a215 d8be 1697 8a3c e275 12bf
00000320: 79fb 95be a705 7d3d 6b46 943e dd87 333f
00000330: c5dc debe 0be7 903f 242e 4dbf 6d94 55bc
00000340: acf6 7bbf 1ccf c43e 652e 82be 185f e93d
00000350: 0c02 023f 8295 24bf dbf2 353f a617 fb3e
00000360: 5a86 20bf 5bdd a0be cb0a 8bbe d72d 123c
00000370: c136 213e a79b 73bd feaa 8ebe 4096 f43d
00000380: 6a83 ee3d 245f a23d 271a bc3e 9070 2cbe
00000390: 47f9 cebe e75c 273f 5e11 5e3f 6276 18be
000003a0: 3252 c03e 6e7d fbbd 1bbe c3be 2646 093f
000003b0: 65b4 d0be ba88 1abd 6c41 933e 3dd3 24bf
000003c0: 3f31 cdbe 118e a0be b45a 403f 2d6c 1a3f
000003d0: c16d 0f3e c134 f4bd ded2 7bbf 8020 a83e
000003e0: 7a96 5b3f 629d acbd e1af 2fbf d644 603f
000003f0: ef4a 423f edd6 55be f2ac a03d 2b20 9bbe

weight_ih_l0 f4 [128, 16]
0.21385388 -0.1574341 -0.043368608 0.38871205 -0.11204786 -0.1226479 -0.12242595 -0.124328926
-0.12845011 0.15718573 0.21937919 0.0980086 0.027993297 -0.07480091 -0.10786869 0.3201569
-0.19011748 -0.16369763 0.025594676 0.49279106 -0.030733155 -0.211339 -0.20066886 0.060707387
-0.2656295 0.014147318 0.045680415 0.06627229 0.09262702 0.117344745 0.12133302 0.18434519
0.13380833 -0.1520231 0.29053804 -0.120678544 -0.09330733 -0.10506039 0.31994337 0.08681675
-0.067437686 0.05099553 -0.16456321 0.07277059 -0.10026027 -0.21565321 0.14160196 -0.042963583
0.17357746 -0.19073363 0.06442829 0.21089816 -0.4841244 -0.0859378 -0.15584359 -0.03734903
-0.012515499 0.2844749 0.11785644 0.2737436 0.14425014 -0.1294751 0.11757945 -0.14321157
0.08355089 -0.013798388 0.009979025 0.1834268 0.07898323 0.12066654 0.028537488 -0.22760867
0.04826982 0.40723735 -0.1643969 0.045971874 0.0571484 -0.13698547 0.13165481 -0.15240827
-0.19358914 0.085176185 -0.012304562 0.05267845 -0.13247573 0.13232364 0.28738746 0.050633382
-0.20972341 0.23393326 0.031736087 0.16969933 0.12509225 -0.08250594 -0.194802 0.08709568
-0.09997459 -0.1430121 0.031167518 0.3183269 -0.0034348033 -0.033046667 0.10503721 0.08612707
-0.1088364 0.16276851 0.16998434 0.007340989 -0.058763452 -0.117379084 -0.00012058531 0.22657555
-0.108252466 0.049563926 0.104741275 -0.026212707 -0.0028856592 -0.07731218 -0.06601007 0.028738247
-0.04226868 0.3055643 -0.2064107 0.060418133 -0.07735454 -0.019825747 0.17507565 0.0363004
0.0040782983 -0.20496684 -0.14756393 -0.27450803 0.017052213 0.12278712 -0.18851678 -0.03986787
0.032692663 0.20661369 0.0045562317 -0.112718776 -0.10105368 -0.23964795 -0.033365376 0.08792232
0.030772284 -0.1073905 0.17035268 0.044906385 -0.016108876 -0.123711795 -0.06957869 0.08986183
0.14981648 0.19854617 0.024413368 0.035579104 -0.099868745 -0.22766581 0.2274483 0.24100435
0.12079238 -0.034416918 -0.01830166 0.034145504 -0.01026029 -0.016835816 -0.010655932 0.044510197
0.055027626 0.17384852 -0.004448897 -0.06315191 -0.103677645 -0.04005064 -0.16280967 -0.035148326
-0.032702405 0.18183757 -0.16135758 -0.24835037 -0.11902697 0.21173866 0.14945932 -0.29595062
0.082292505 0.112884276 0.032749638 -0.08597483 -0.10850969 -0.2476967 0.1778979 0.24868248
-0.11986813 0.073709145 0.19452368 -0.16104025 -0.0077346414 0.17219086 0.22856449 -0.14541094
0.014416383 0.0015908672 -0.0031630865 -0.15502612 0.20004168 -0.025591405 0.060306013 -0.02573496
0.04108167 -0.33983862 0.2938163 0.096385695 0.076139174 -0.020160832 -0.2687568 0.20818928
0.09257331 0.10360067 0.13044696 0.13329408 0.1338396 -0.054405104 0.16104363 0.24778362
-0.1012737 0.06777688 0.01989135 0.55011845 -0.1683304 -0.1333796 0.055480506 -0.15712684
-0.2103615 0.31302834 0.036918305 -0.09474898 0.11515199 0.045123983 -0.115765534 0.09818203
-0.05914284 -0.22436021 0.21299458 -0.28951347 -0.049755454 0.070328034 0.052153956 0.049165897
-0.16715142 -0.015309133 -0.010550515 0.09074516 0.09872745 0.050403316 0.33111212 0.23876235
00000000: 83fc 5a3e 6836 21be 48a3 31bd 4405 c73e
00000010: 5979 e5bd d22e fbbd 75ba fabd 2aa0 febd
00000020: 6d88 03be 4cf5 203e f0a4 603e bcb8 c83d
00000030: 3352 e53c 3831 99bd 42ea dcbd 9beb a33e
00000040: 28ae 42be 5aa0 27be edab d13c 1c4f fc3e
00000050: 19c4 fbbc 4069 58be 237c 4dbe 4fa8 783d
00000060: 9700 88be 27ca 673c 631b 3b3d c4b9 873d
00000070: 3cb3 bd3d 7152 f03d 727d f83d fcc4 3c3e
00000080: 0d05 093e f2ab 1bbe 67c1 943e 5026 f7bd
00000090: ea17 bfbd e729 d7bd 9ecf a33e fbcc b13d
000000a0: c51c 8abd b0e0 503d 4283 28be bf08 953d
000000b0: 4255 cdbd 32d4 5cbe 1b00 113e 95fa 2fbd
000000c0: 4abe 313e ad4f 43be fbf2 833d b0f5 573e
000000d0: 27df f7be 2800 b0bd 7695 1fbe 4cfb 18bd
000000e0: cf0d 4dbc b2a6 913e b85e f13d 1f28 8c3e
000000f0: 4fb6 133e 1f95 04be 7fcd f03d 0ea6 12be
00000100: bb1c ab3d a212 62bc 117f 233c 3cd4 3b3e
00000110: f6c1 a13d 0520 f73d 73c7 e93c 3f12 69be
00000120: 93b6 453d 6a81 d03e a957 28be 014d 3c3d
00000130: 7114 6a3d eb45 0cbe 85d0 063e ea10 1cbe
00000140: 3b3c 46be da70 ae3d 1399 49bc 5cc5 573d
00000150: b8a7 07be d97f 073e 7324 933e f364 4f3d
00000160: bcc1 56be 338c 6f3e b3fd 013d a9c5 2d3e
00000170: 2f18 003e e0f8 a8bd 2d7a 47be 385f b23d
00000180: 7abf ccbd c471 12be 0653 ff3c befb a23e
00000190: 701a 61bb f15b 07bd c01d d73d 6463 b03d
000001a0: 9ee5 debd caac 263e 6010 2e3e ae8c f03b
000001b0: f2b1 70bd 7264 f0bd bfe2 fcb8 6c03 683e
000001c0: 78b3 ddbd 8b03 4b3d 9882 d63d 08bc d6bc
000001d0: 541d 3dbb d955 9ebd 4a30 87bd 796c eb3c
000001e0: ec21 2dbd ed72 9c3e 545d 53be 0179 773d
000001f0: 0f6c 9ebd 9b69 a2bc 0847 333e baaf 143d
00000200: 3fa3 853b d4e2 51be 001b 17be 518c 8cbe
00000210: 15b1 8b3c d077 fb3d 8b0a 41be 7e4c 23bd
00000220: bee8 053d 8a92 533e 714c 953b 1ad9 e6bd
00000230: 3bf5 cebd 4666 75be 22aa 08bd 9e10 b43d
00000240: 2816 fc3c 8def dbbd ef70 2e3e c2ef 373d
00000250: c3f6 83bc 9c5c fdbd 467f 8ebd 7b09 b83d
00000260: 7e69 193e b04f 4b3e 8bfe c73c 65bb 113d
00000270: fc87 ccbd 3a21 69be 35e8 683e d8c9 763e
00000280: ff61 f73d c1f8 0cbd 5ded 95bc 28dc 0b3d
00000290: c61a 28bc 44eb 89bc 3896 2ebc 5350 363d
000002a0: a664 613d 5905 323e 0ec8 91bb ca55 81bd
000002b0: f254 d4bd 240c 24bd 94b7 26be b1f7 0fbd
000002c0: f5f2 05bd a133 3a3e ec3a 25be 8f4f 7ebe
000002d0: 69c4 f3bd 05d2 583e dd0b 193e d786 97be
000002e0: f988 a83d df2f e73d 7c24 063d 9213 b0bd
000002f0: 543a debd 34a4 7dbe de2a 363e 9fa6 7e3e
00000300: 6c7d f5bd d2f4 963d 3731 473e bce7 24be
00000310: e072 fdbb cd52 303e cf0c 6a3e 9be6 14be
00000320: b132 6c3c a584 d03a c94b 4fbb 2bbf 1ebe
00000330: bad7 4c3e 11a5 d1bc 7003 773d 1fd2 d2bc
00000340: 4145 283d 54ff adbe 176f 963e dd65 c53d
00000350: dbee 9b3d 5428 a5bc 7e9a 89be 922f 553e
00000360: 1397 bd3d 972c d43d e393 053e 3e7e 083e
00000370: 400d 093e e3d7 5ebd 9fe8 243e fdba 7d3e
00000380: 9668 cfbd 9bce 8a3d 2ff3 a23c 90d4 0c3f
00000390: ce5e 2cbe a994 08be 873f 633d dce5 20be
000003a0: 0169 57be 4045 a03e a637 173d c10b c2bd
000003b0: ced4 eb3d edd3 383d 7b16 edbd a913 c93d
000003c0: c33f 72bd afbe 65be 401b 5a3e 1c3b 94be
000003d0: 60cc 4bbd 2508 903d 639f 553d 2e62 493d
000003e0: be29 2bbe 28d3 7abc 11dc 2cbc 99d8 b93d
000003f0: 9e31 ca3d b573 4e3d 8787 a93e 1e7e 743e

weight_hh_l0 f4 [128, 32]
-0.20506814 0.007898457 -0.024385383 0.09558479 0.063444406 -0.04014679 0.09425935 -0.44859135
-0.09774628 0.022392053 -0.11213987 -0.15381922 -0.019988155 -0.04387671 -0.012851442 0.41192958
0.033074375 -0.114524074 0.19596608 -0.26900515 0.33738154 0.12023416 0.14242586 0.110250294
-0.037207026 -0.13511074 0.05973812 0.0030331283 0.2057903 -0.047241632 0.023772005 0.14920273
-0.023496648 -0.143992 0.07584443 0.14450502 -0.049483586 -0.08718364 -0.23317213 -0.054005463
-0.20204143 0.053661313 0.13559233 0.022677867 -0.0034752234 0.0123859085 0.14308143 0.38884377
-0.039230533 0.19015548 0.14671367 -0.12331776 0.20120834 0.17126516 0.14935312 -0.08415527
0.08926377 0.03570916 0.1791378 -0.1905338 -0.10585814 -0.06953172 -0.10772415 0.013644222
-0.05439476 -0.20890954 0.015901364 0.077503525 0.21014372 0.03945189 -0.05029171 0.082298316
-0.0038793725 0.011847632 0.0075527625 -0.041384935 0.053517535 0.1317129 0.256503 -0.066971086
-0.0883914 0.038864758 0.11270893 -0.12919754 0.2209922 -0.018893467 0.071357846 -0.16840224
-0.17663838 -0.23715597 0.16527683 0.14077213 -0.1437855 -0.17261262 -0.001129553 0.13999434
-0.021406338 -0.016949588 0.044904385 -0.07436127 -0.10908336 -0.10622101 -0.0033886933 -0.1691883
-0.27931002 -0.08990041 0.062744446 -0.22910416 -0.16889377 -0.1888907 0.12896259 0.4295008
0.08690304 -0.123035096 0.24436048 -0.26420286 0.110507265 0.1804968 -0.08818536 0.055976912
0.13993406 -0.08637198 0.14283563 -0.14135604 -0.12351547 -0.12400818 -0.12511154 0.07436533
0.028842203 -0.084136814 -0.1528074 0.042666383 -0.040844914 -0.06352192 0.12982064 0.014986554
-0.1210325 -0.03209563 0.07435899 -0.13341354 -0.13399938 -0.2559346 -0.014149724 0.03454301
0.07744092 0.034299456 0.037873924 -0.1504489 0.042210363 0.09871254 -0.12947208 -0.05983953
0.21084186 -0.018222203 0.13582553 0.028248452 0.21242195 -0.05052806 0.22144052 0.25216392
-0.08638796 -0.27692947 -0.29289496 -0.06511407 0.07420715 0.041625477 -0.21020706 -0.29887396
0.025377257 -0.14367 -0.17286183 0.07732307 -0.12509134 0.013570861 -0.06576386 0.3029056
0.016551087 -0.11441441 -0.083560154 -0.054430407 0.15125342 0.120549075 -0.1275549 0.04196084
-0.11086542 0.119468875 0.037077848 0.106619336 0.18696351 -0.22830617 -0.05808222 0.1560367
-0.12828128 -0.15131454 -0.08577911 0.19243576 -0.1624041 -0.054648645 -0.10954232 -0.25301966
0.07752697 -0.077286 -0.118443415 -0.047686763 -0.16937672 0.098359 -0.08955189 0.2642189
0.12034082 -0.05894852 0.036825232 -0.1622224 0.21099544 0.14831546 -0.077564426 -0.113212444
-0.06740129 0.15429144 0.18496202 0.15059993 0.20964912 -0.21500665 0.028606229 -0.03901014
0.11584021 -0.026871443 -0.010683234 -0.15304501 -0.03663762 -0.12645285 0.09053881 -0.072884575
-0.23436353 0.21036305 0.0063737994 -0.16348591 -0.20106825 -0.029808817 0.089092135 -0.17204876
-0.021057192 -0.08842161 -0.09359467 -0.1888877 0.18075064 0.15009603 -0.100212276 -0.27882615
-0.058585078 -0.0022858714 -0.12729786 0.048320595 -0.17059575 0.08194997 -0.15334813 -0.18765374
00000000: 62fd 51be 8868 013c dbc3 c7bc f5c1 c33d
00000010: 24ef 813d f670 24bd 0c0b c13d c4ad e5be
00000020: 342f c8bd 8a6f b73c 97a9 e5bd c982 1dbe
00000030: 33be a3bc 11b8 33bd db8e 52bc 6fe8 d23e
00000040: ff78 073d 998b eabd 55ab 483e 0bbb 89be
00000050: 46bd ac3e 543d f63d 16d8 113e e8ca e13d
00000060: 6566 18bd 785a 0abe f5af 743d 73c7 463b
00000070: b1ba 523e 7180 41bd 82bd c23c 9ac8 183e
00000080: 0b7c c0bc a472 13be 5354 9b3d 20f9 133e
00000090: 4daf 4abd 568d b2bd adc4 6ebe d534 5dbd
000000a0: f3e3 4ebe f7cb 5b3d b7d8 0a3e efc6 b93c
000000b0: 93c0 63bb 44ee 4a3c f083 123e 8816 c73e
000000c0: 32b0 20bd 1eb8 423e 1c3c 163e 068e fcbd
000000d0: 8f09 4e3e 2260 2f3e 06f0 183e 9959 acbd
000000e0: eccf b63d c543 123d e66f 373e 4b1b 43be
000000f0: 27cc d8bd a566 8ebd 7b9e dcbd 048c 5f3c
00000100: 0acd 5ebd 62ec 55be 9443 823c 2bba 9e3d
00000110: ea2f 573e 4e98 213d aefe 4dbd 058c a83d
00000120: 123d 7ebb 921c 423c 2a7d f73b 4083 29bd
00000130: 3435 5b3d bfdf 063e 5c54 833e 2328 89bd
00000140: 8d06 b5bd a730 1f3d f1d3 e63d 5c4c 04be
00000150: c74b 623e 79c6 9abc 1024 923d a371 2cbe
00000160: b1e0 34be 04d9 72be 543e 293e 9226 103e
00000170: 823c 13be 5dc1 30be 820d 94ba ad5a 0f3e
00000180: 585c afbc ddd9 8abc a9ed 373d b94a 98bd
00000190: 1967 dfbd 678a d9bd d714 5ebb b33f 2dbe
000001a0: b901 8fbe b51d b8bd 2980 803d 489a 6abe
000001b0: 7df2 2cbe 906c 41be c50e 043e 87e7 db3e
000001c0: 39fa b13d d3f9 fbbd a239 7a3e 9945 87be
000001d0: a251 e23d 27d4 383e 879a b4bd 0c48 653d
000001e0: e04a 0f3e cbe3 b0bd 8143 123e a3bf 10be
000001f0: aef5 fcbd 00f8 fdbd 3d1d 00be da4c 983d
00000200: 7c46 ec3c ec4f acbd 8b79 1cbe f2c2 2e3d
00000210: ff4c 27bd c817 82bd b4ef 043e 2a8a 753c
00000220: e3df f7bd b576 03bd 8749 983d 8f9d 08be
00000230: 2237 09be dc09 83be 3ed4 67bc f97c 0d3d
00000240: 5899 9e3d 967d 0c3d b021 1b3d 470f 1abe
00000250: c6e4 2c3d cd29 ca3d 5494 04be 4c1a 75bd
00000260: eee6 573e bb46 95bc d915 0b3e 4c69 e73c
00000270: 2485 593e 83f6 4ebd 4ec1 623e a11b 813e
00000280: 2cec b0bd b3c9 8dbe 54f6 95be 875a 85bd
00000290: ebf9 973d 7a7f 2a3d 8540 57be 0206 99be
000002a0: f7e3 cf3c 3a1e 13be b102 31be 8f5b 9e3d
000002b0: f217 00be 5158 5e3c 34af 86bd 7116 9b3e
000002c0: 2596 873c 1a52 eabd 9621 abbd 6bf2 5ebd
000002d0: 2de2 1a3e 6fe2 f63d c09d 02be 21df 2b3d
000002e0: 690d e3bd 19ac f43d f1de 173d 3d5b da3d
000002f0: 5d73 3f3e 18c9 69be 9fe7 6dbd 16c8 1f3e
00000300: 2b5c 03be 33f2 1abe f5ac afbd e10d 453e
00000310: 434d 26be 42d7 5fbd b957 e0bd cb8b 81be
00000320: 76c6 9e3d 1f48 9ebd 7692 f2bd 3253 43bd
00000330: 1771 2dbe 7270 c93d fb66 b7bd b347 873e
00000340: 3f75 f63d 0174 71bd 0ed6 163d a11d 26be
00000350: 300f 583e 02e0 173e 19da 9ebd eddb e7bd
00000360: b009 8abd 93fe 1d3e af66 3d3e de36 1a3e
00000370: 42ae 563e b42a 5cbe 9c57 ea3c 19c9 1fbd
00000380: a23d ed3d 8021 dcbc bb08 2fbc d5b7 1cbe
00000390: 5411 16bd db7c 01be 696c b93d 8244 95bd
000003a0: fefc 6fbe 6969 573e 4edb d03b da68 27be
000003b0: d6e4 4dbe 9f31 f4bc f075 b63d 8d2d 30be
000003c0: 2280 acbc 6416 b5bd 90ae bfbd c76b 41be
000003d0: b216 393e c6b2 193e 183c cdbd 4dc2 8ebe
000003e0: e8f6 6fbd 8fce 15bb 5f5a 02be d1eb 453d
000003f0: a7b0 2ebe 63d5 a73d 4b07 1dbe 4d28 40be

bias_ih_l0 f4 [128]
8.282591e-05 0.0062395222 0.16837853 -0.0038219008 0.17573261 0.22167382 0.066294335 0.08261964
-0.036010996 0.090193994 0.16291773 0.10654247 0.078961745 -0.014567458 -0.14023782 0.21993427
-0.017451763 0.078248456 -0.07836774 -0.11000867 0.1255554 -0.06678624 0.07720608 0.040696014
0.005884332 0.09364679 -0.015107398 -0.12294922 0.06797177 0.07353697 -0.027244102 -0.1696353
0.033486556 -0.04755606 0.094605885 -0.01709036 0.08905347 -0.06526865 0.07243721 0.0073821372
-0.09374434 -0.04673087 -0.15188311 -0.106280304 -0.09280173 0.18356737 -0.02442567 0.28050312
0.08045976 -0.03639939 0.036830246 -0.13401571 -0.074003845 -0.025539398 0.011976047 0.15574011
-0.0047985264 0.16028652 0.10826014 0.066142656 -0.028429542 -0.08267532 0.07022395 -0.116448656
-0.0004294288 -0.0583308 -0.13255206 0.039095737 -0.0742407 -0.013999561 -0.09993324 -0.058432624
-0.15284024 -0.0751371 0.004968191 -0.033401553 -0.1310063 0.14062199 -0.13418716 0.002050247
-0.17551358 0.028042736 0.05266237 -0.049760126 0.1382292 0.10638256 0.045226265 -0.07871133
-0.0785881 0.019203072 -0.042393483 -0.17182727 -0.02491161 -0.14042455 -0.13493386 -0.033436175
0.014623738 -0.037451863 -0.10070128 -0.12899674 0.12629196 -0.022903012 -0.04408768 0.1360639
0.014784985 0.11548625 -0.078689985 -0.0864154 0.03468383 0.19576429 0.20028254 -0.029183842
0.030988235 0.01550202 0.2059551 0.05105744 0.12210242 0.102009885 -0.07834787 0.13249621
0.19459198 -0.105825365 0.19670147 0.14851503 0.058516882 -0.034213517 0.15778407 -0.14402933
00000000: d2b2 ad38 e874 cc3b 6c6b 2c3e db78 7abb
00000010: 40f3 333e 76fe 623e 53c5 873d 7c34 a93d
00000020: 4480 13bd a1b7 b83d e8d3 263e f032 da3d
00000030: b2b6 a13d 59ac 6ebc 819a 0fbe 7336 613e
00000040: 00f7 8ebc ba40 a03d 447f a0bd 3a4c e1bd
00000050: 9891 003e 39c7 88bd 391e 9e3d ddb0 263d
00000060: 5bd1 c03b e3c9 bf3d 0585 77bc cdcc fbbd
00000070: c934 8b3d 8d9a 963d 062f dfbc e0b4 2dbe
00000080: 3329 093d 25ca 42bd bbc0 c13d 1501 8cbc
00000090: aa61 b63d 92ab 85bd f659 943d dbe5 f13b
000000a0: 08fd bfbd de68 3fbd 3f87 1bbe 7da9 d9bd
000000b0: d50e bebd 16f9 3b3e 5818 c8bc 1b9e 8f3e
000000c0: 16c8 a43d 8717 15bd 50db 163d 6a3b 09be
000000d0: 548f 97bd 0038 d1bc 2f37 443c 567a 1f3e
000000e0: f53c 9dbb 2622 243e 7eb7 dd3d cd75 873d
000000f0: 12e5 e8bc ae51 a9bd 93d1 8f3d a27c eebd
00000100: f524 e1b9 47ec 6ebd babb 07be da22 203d
00000110: 820b 98bd 6a5e 65bc cca9 ccbd 0c57 6fbd
00000120: 2782 1cbe 7be1 99bd 35cc a23b 11d0 08bd
00000130: 8426 06be 36ff 0f3e 5c68 09be 705d 063b
00000140: d5b9 33be e1b9 e53c 7fb4 573d 46d1 4bbd
00000150: f58b 0d3e 1adf d93d 2d3f 393d 6833 a1bd
00000160: ccf2 a0bd c34f 9d3c caa4 2dbd 7df3 2fbe
00000170: 6f13 ccbc 74cb 0fbe 1a2c 0abe 5ff4 08bd
00000180: 6798 6f3c 2067 19bd 793c cebd b917 04be
00000190: ae52 013e 199f bbbc 4895 34bd 5654 0b3e
000001a0: b93c 723c 0e84 ec3d 3728 a1bd 8ffa b0bd
000001b0: a210 0e3d 6f76 483e de16 4d3e f412 efbc
000001c0: 0adb fd3c 2ffc 7d3c e5e5 523e 9b21 513d
000001d0: d510 fa3d 8fea d03d d974 a0bd 16ad 073e
000001e0: 1f43 473e f8ba d8bd 1c6c 493e 5314 183e
000001f0: 66af 6f3d 7923 0cbd 2692 213e 6d7c 13be

bias_hh_l0 f4 [128]
0.051863663 0.06244539 -0.097608306 -0.2265113 0.18729404 0.14377245 0.07319449 0.13314472
0.06925976 -0.09050908 -0.11741886 -0.056504738 -0.10402099 0.20629068 -0.13950776 0.11697264
-0.039532095 0.15356916 -0.11628188 0.21707264 0.18761629 0.03400706 -0.08125185 -0.05466791
-0.102119714 -0.19838986 -0.009557315 0.030760178 0.028626524 0.11857577 -0.118327186 0.13856015
-0.051205516 -0.066255644 0.004960767 -0.0879984 0.20411529 -0.045917824 -0.07589343 0.04036781
0.027897405 0.15371895 -0.14907998 0.031416457 0.010162944 -0.018594747 0.13306199 0.17050004
-0.06211362 0.050206967 0.16510133 0.058729757 -0.052116312 0.036255024 -0.26704073 0.13580425
0.19857866 0.11373439 0.061907 -0.03540428 0.1642296 0.0074699176 0.015171792 0.04207281
-0.020312665 -0.1010156 -0.069562174 0.06385395 0.049578257 -0.084179275 0.18521166 0.07007346
-0.14845642 0.09071276 -0.105946966 -0.09818941 0.06728029 -0.0039040158 -0.005201864 0.13324063
0.0003142942 -0.10218903 -0.03887469 0.0674364 0.021444192 -0.0947116 -0.0426096 -0.03365077
-0.09865774 0.048206154 -0.056204088 0.10439823 0.04372363 -0.15032439 0.09762954 -0.003111878
0.04255926 0.14717145 -0.11862485 -0.11092154 0.06895348 -0.007999859 0.089518465 -0.065390095
0.14979212 -0.038312048 -0.030594958 -0.050728023 0.093617916 0.113835685 -0.10040828 0.11954901
0.09138336 0.067791164 0.07553401 0.13277939 0.059048034 0.09273691 -0.24163562 0.07584038
-0.080556415 -0.16127189 -0.096459344 0.12466432 -0.0051636575 -0.046747275 0.051780097 0.100034624
00000000: fe6e 543d bdc6 7f3d dde6 c7bd 94f2 67be
00000010: 02ca 3f3e 1639 133e fee6 953d 1757 083e
00000020: 10d8 8d3d d35c b9bd 4d79 f0bd 8371 67bd
00000030: f508 d5bd dd3d 533e 1fdb 0ebe 5a8f ef3d
00000040: 68ec 21bd 3c41 1d3e 3225 eebd 4a48 5e3e
00000050: 7c1e 403e fd4a 0b3d 5f67 a6bd 75eb 5fbd
00000060: 2424 d1bd b626 4bbe 4996 1cbc c5fc fb3c
00000070: 2c82 ea3c dad7 f23d 8655 f2bd b6e2 0d3e
00000080: e0bc 51bd 0ab1 87bd ee8d a23b 8138 b4bd
00000090: 9903 513e 5414 3cbd 046e 9bbd b758 253d
000000a0: 1989 e43c 8068 1d3e 6ca8 18be 8bae 003d
000000b0: 7a82 263c 0354 98bc 6741 083e 9097 2e3e
000000c0: da6a 7ebd d2a5 4d3d 5310 293e 9d8e 703d
000000d0: ea77 55bd 2680 143d 90b9 88be 4510 0b3e
000000e0: 3458 4b3e 93ed e83d 3292 7d3d 1404 11bd
000000f0: ce2b 283e 36c6 f43b 1c93 783c 8a54 2c3d
00000100: bf66 a6bc 44e1 cebd 9d76 8ebd dcc5 823d
00000110: 9212 4b3d 2f66 acbd 20a8 3d3e ad82 8f3d
00000120: f604 18be 9dc7 b93d b9fa d8bd 8817 c9bd
00000130: 40ca 893d 84da 7fbb 6674 aabb 3b70 083e
00000140: dac7 a439 7b48 d1bd 113b 1fbd 181c 8a3d
00000150: bbab af3c 28f8 c1bd 6787 2ebd 64d5 09bd
00000160: 120d cabd d173 453d 4236 66bd bdce d53d
00000170: 8d17 333d a3ee 19be fff1 c73d a6f0 4bbb
00000180: 9e52 2e3d 1db4 163e 96f1 f2bd d52a e3bd
00000190: 7b37 8d3d d711 03bc 7555 b73d 3eeb 85bd
000001a0: 1b63 193e 18ed 1cbd 47a2 fabc 30c8 4fbd
000001b0: c0ba bf3d af22 e93d dba2 cdbd 1dd6 f43d
000001c0: 3327 bb3d 18d6 8a3d 93b1 9a3d 52f7 073e
000001d0: 5adc 713d d9ec bd3d 546f 77be 3352 9b3d
000001e0: c3fa a4bd 7524 25be 7a8c c5bd 0250 ff3d
000001f0: e633 a9bb 127a 3fbd 5e17 543d f4de cc3d

weight_ih_l0_reverse f4 [128, 16]
0.2208471 -0.0012634179 0.08328028 -0.053043984 -0.13295627 -0.20931627 -0.11693974 -0.08036493
0.08853862 -0.10548172 0.13300784 0.20519377 -0.07666339 -0.18740104 0.18923134 0.14603856
0.07243106 -0.22294994 0.005877669 0.1752658 -0.087334245 -0.18732671 0.10896174 -0.1458634
0.08613046 -0.02275987 0.20175949 -0.14231841 0.023992619 -0.23282793 0.18805534 0.17732443
0.28819075 -0.11217775 0.019441793 0.09446662 -0.31239012 -0.0578134 -0.031844296 0.09308619
0.07530662 -0.17037906 0.28118712 0.18261647 -0.15654285 -0.10030327 0.059802745 0.19496885
0.14474002 -0.10685738 0.08258238 0.042009883 0.04082542 0.10985738 0.279786 0.042682428
0.23012598 0.09838152 -0.2285626 -0.012938454 -0.13695928 -0.21550806 -0.1569557 0.034923345
0.15019628 -0.15174222 -0.04424072 -0.1054859 -0.2416144 -0.14099817 0.02399829 0.060285453
0.069834486 0.021560501 0.2803645 0.10722362 -0.01281905 -0.012822107 0.36262372 0.038750596
-0.18560496 -0.21324068 0.11582795 -0.21600427 -0.10379961 -0.2812334 0.12368251 0.11386787
-0.027355947 -0.016039155 0.25414795 -0.011766734 -0.12045348 0.016495625 0.030871559 0.1871976
0.18197858 0.2339907 0.03146053 0.2726645 -0.08641198 -0.014193262 -0.21009386 -0.21333818
-0.12126719 -0.040320124 -0.1168587 0.046584886 -0.08582054 -0.022183996 0.10256078 -0.0060937675
-0.011559326 -0.22598132 0.19471936 0.03274088 -0.022470672 -0.25085437 -0.1351927 0.11444024
-0.08445931 -0.20579602 -0.011697081 0.13584282 0.0033057274 -0.002396599 0.049460474 0.031866852
-0.09317393 0.1632301 -0.19999394 0.25362146 -0.1489371 0.13816985 -0.03718422 -0.11175741
0.086966656 0.28391838 0.32041982 0.097423844 0.13135134 0.032178387 0.047205385 0.04676245
0.21022564 -0.0694542 0.062286474 0.30851975 0.102825016 -0.13536562 0.09719519 -0.29270458
-0.126463 -0.18831778 -0.12375098 0.007841074 -0.028223556 -0.15573667 -0.22283043 0.170071
-0.03462103 -0.051247403 -0.3088866 -0.015886247 0.098019 -0.07051212 -0.17263445 -0.01224901
-0.15873714 0.03803286 0.18592882 0.20451072 -0.094914764 -0.15281278 -0.1304375 0.07079743
0.043138884 -0.05049907 -0.100230716 0.41421807 -0.0007935303 0.0021012882 -0.15465263 0.121157534
-0.08605822 0.2606997 -0.09184298 0.011440219 -0.053167146 0.007142061 -0.10930887 -0.109726705
0.06304099 -0.14462104 -0.088705935 0.010100312 0.030626815 -0.13745235 0.067058906 -0.1077886
0.13448477 0.23973534 0.091249086 0.030523075 -0.007186515 -0.00081956026 0.15705052 0.15046754
0.1142202 0.10216407 -0.055947978 0.3113657 -0.11302922 -0.08237919 0.09539586 -0.12832664
0.017931191 0.22438642 0.2469991 0.074537784 0.008129623 -0.15832531 -0.18058245 0.08489187
-0.27258056 -0.15776128 0.1178251 -0.1775493 0.016802944 0.16413891 0.053952027 -0.04242913
0.027851328 0.005768425 -0.14810397 0.16694647 -0.09339969 0.1964453 -0.1155741 -0.14937377
0.025816284 0.02527762 -0.19695975 0.29513928 -0.09044533 -0.2895097 -0.095907845 -0.16257866
-0.029412623 0.07771663 0.16641693 0.14886573 0.14450736 -0.05889294 -0.00812289 0.08119132
00000000: be25 623e 4599 a5ba da8e aa3d a644 59bd
00000010: b025 08be 0157 56be 1a7e efbd 5e96 a4bd
00000020: bc53 b53d cd06 d8bd 3533 083e 511e 523e
00000030: b201 9dbd 0fe6 3fbe dcc5 413e 228b 153e
00000040: bc56 943d fd4c 64be 7699 c03b e178 333e
00000050: 4cdc b2bd 93d2 3fbe 5527 df3d 375d 15be
00000060: 2b65 b03d e872 babc 0a9a 4e3e ebbb 11be
00000070: 2b8c c43c 726a 6ebe 9491 403e 8994 353e
00000080: bd8d 933e 73bd e5bd 6544 9f3c b777 c13d
00000090: 99f1 9fbe becd 6cbd 2a6f 02bd f9a3 be3d
000000a0: 5b3a 9a3d d977 2ebe c2f7 8f3e d0ff 3a3e
000000b0: c54c 20be cd6b cdbd b9f3 743d eaa5 473e
000000c0: ba36 143e 0bd8 dabd f320 a93d 8e12 2c3d
000000d0: 8e38 273d e8fc e03d 1c40 8f3e c5d3 2e3d
000000e0: 25a6 6b3e 407c c93d 500c 6abe cffb 53bc
000000f0: 0e3f 0cbe 25ae 5cbe ffb8 20be c80b 0f3d
00000100: 0ecd 193e 5062 1bbe c235 35bd fe08 d8bd
00000110: c469 77be d361 10be 1098 c43c e1ed 763d
00000120: 6205 8f3d a69f b03c f08b 8f3e 0f98 db3d
00000130: fe06 52bc d113 52bc d1a9 b93e f2b8 1e3d
00000140: 3a0f 3ebe c45b 5abe 3437 ed3d 3930 5dbe
00000150: e494 d4bd d3fd 8fbe 414d fd3d 8f33 e93d
00000160: 9419 e0bc 8c64 83bc ae1f 823e 42c9 40bc
00000170: 50b0 f6bd d521 873c 5ae6 fc3c bab0 3f3e
00000180: 9858 3a3e 429b 6f3e c2dc 003d ae9a 8b3e
00000190: c4f8 b0bd db8a 68bc d822 57be 5375 5abe
000001a0: ef5a f8bd b726 25bd 9d53 efbd cbcf 3e3d
000001b0: aec2 afbd 36bb b5bc 630b d23d 3aae c7bb
000001c0: 5463 3dbc a667 67be 8364 473e 4d1b 063d
000001d0: 6a14 b8bc fc6f 80be f56f 0abe a55f ea3d
000001e0: 01f9 acbd 31bc 52be 1da5 3fbc 611a 0b3e
000001f0: e7a4 583b 4210 1dbb 1197 4a3d d186 023d
00000200: f9d1 bebd cb25 273e 36cb 4cbe acda 813e
00000210: f882 18be 667c 0d3e 7b4e 18bd 12e1 e4bd
00000220: 931b b23d c05d 913e 110e a43e 2786 c73d
00000230: f780 063e 7ccd 033d 6f5a 413d fc89 3f3d
00000240: 6445 573e 013e 8ebd 1a20 7f3d 4df6 9d3e
00000250: ec95 d23d 499d 0abe 460e c73d 60dd 95be
00000260: 847f 01be 60d6 40be 2771 fdbd d977 003c
00000270: 1635 e7bc 6f79 1fbe a92d 64be 1827 2e3e
00000280: c8ce 0dbd cce8 51bd 6226 9ebe e023 82bc
00000290: 2fbe c83d a968 90bd 16c7 30be 12b0 48bc
000002a0: fd8b 22be 58c8 1b3d 2064 3e3e 426b 513e
000002b0: ac62 c2bd f47a 1cbe 6891 05be 3efe 903d
000002c0: 66b2 303d 1dd8 4ebd c345 cdbd 6414 d43e
000002d0: eb04 50ba c4b5 093b 425d 1ebe 7121 f83d
000002e0: 4b3f b0bd 6e7a 853e 2c18 bcbd c26f 3b3c
000002f0: cbc5 59bd f307 ea3b 54dd dfbd 65b8 e0bd
00000300: a21b 813d 8a17 14be 75ab b5bd c77b 253c
00000310: 16e5 fa3c 4fc0 0cbe 2e56 893d 45c0 dcbd
00000320: 60b6 093e 2e7d 753e cde0 ba3d 870b fa3c
00000330: db7c ebbb c2d7 56ba dad1 203e 2a14 1a3e
00000340: 48ec e93d 653b d13d b529 65bd 536b 9f3e
00000350: dd7b e7bd 6cb6 a8bd e85e c33d 0f68 03be
00000360: 6fe4 923c 8ec5 653e 55ed 7c3e 44a7 983d
00000370: 1c32 053c 0820 22be 9bea 38be cadb ad3d
00000380: ae8f 8bbe 2c8c 21be 494e f13d 7ccf 35be
00000390: 54a6 893c 0814 283e cdfc 5c3d 2bca 2dbd
000003a0: 7828 e43c 0e05 bd3b 91a8 17be 04f4 2a3e
000003b0: 5648 bfbd f528 493e 1db2 ecbd 70f5 18be
000003c0: ac7c d33c 0313 cf3c d1af 49be 7f1c 973e
000003d0: 673b b9bd 9e3a 94be 556b c4bd 057b 26be
000003e0: bef2 f0bc e629 9f3d 3369 2a3e 4270 183e
000003f0: bdf9 133e b939 71bd df15 05bc a347 a63d

weight_hh_l0_reverse f4 [128, 32]
-0.122947454 -0.07470929 0.09657175 -0.021557417 0.19391385 0.038305692 0.080020234 -0.017461283
0.039315514 -0.058298193 -0.0051080533 0.11050089 0.21985175 0.13480559 -0.06470808 -0.12869568
0.09267945 0.13719986 -0.0390719 -0.17150876 -0.13146023 0.1275389 0.10005765 -0.09833762
-0.118124574 0.036608353 0.07445237 0.08029846 -0.17758986 0.11161793 -0.015422229 -0.045389865
0.013457014 0.08005913 0.0837695 0.16376674 0.16706549 -0.074262954 -0.07133326 0.12232987
0.199137 -0.03025369 0.1884742 0.07884167 0.038524915 -0.18141122 0.06670917 -0.23000629
0.16786227 0.17055538 -0.31778908 -0.116459355 0.01852975 -0.05050948 0.28210202 -0.12593836
0.04156712 -0.0006431985 0.06279084 0.038727097 0.124258876 -0.1610726 -0.22570935 -0.05246953
-0.11760669 -0.2328862 0.08413121 0.085257314 0.20677678 0.07121666 -0.06668515 0.14100562
0.12647615 0.15358324 -0.21278031 -0.1458038 -0.026528088 -0.048841152 0.09767411 -0.17247285
0.30922878 -0.16789736 -0.024464779 0.037432674 -0.002489302 0.09133393 -0.15118605 0.05836501
0.16262402 -0.10839333 0.010448425 0.09360764 0.16056922 0.057003252 0.005044857 0.07771215
0.18331924 0.03101008 0.23652753 -0.070826106 0.15920453 -0.077236265 -0.028032286 0.05350197
-0.017684752 -0.002569589 0.19282505 -0.13743253 -0.1694104 -0.12473511 -0.12922479 -0.06701574
-0.06726296 -0.12947676 -0.033968456 -0.119981155 0.15654753 -0.16596471 -0.01601424 -0.013761101
0.09071655 -0.04263915 -0.20032717 -0.020642852 0.24465767 -0.045313697 -0.17685822 -0.099222004
0.14583705 -0.05772615 0.2098261 0.13323767 0.09904509 0.25869092 0.062470827 -0.09482745
0.12802684 0.09493088 -0.019303177 0.16916034 0.037739057 0.029520491 0.07029703 0.10144134
-0.09946209 -0.09291724 0.014481238 -0.029500268 -0.02520564 0.0029428308 -0.037040345 0.0051702163
0.06680637 0.14167382 0.012357941 0.15890554 -0.05401907 0.20264745 0.09887682 -0.15394722
-0.054404635 -0.0703121 0.0028509249 0.20958209 0.2647896 0.25347388 0.020000994 0.010333845
0.103548326 -0.08093551 -0.034044255 0.0065305047 -0.11591115 0.19430055 -0.16350195 -0.13794628
0.16274297 -0.039124653 -0.15255456 0.2677552 0.08330211 0.011829569 0.13016224 -0.11883627
-0.09551573 -0.09842322 0.08178014 0.101746455 -0.008780928 0.17701367 -0.13199884 0.010669289
0.01130731 -0.10106086 -0.1019807 -0.069991775 -0.0906549 0.055472787 0.013181367 -0.053300448
-0.039883375 -0.08985849 -0.012036145 0.023147158 -0.1196531 -0.14930792 -0.025754623 -0.0002783875
0.1517328 -0.16345929 -0.10667019 0.08752366 0.014256727 -0.037535332 0.13785906 0.15183513
-0.03137995 -0.14446716 -0.13757615 -0.123529874 -0.07319459 0.078191616 -0.14742528 -0.08164301
-0.13757382 -0.009721105 0.034767125 0.05861454 0.19992293 0.18122187 -0.16769943 -0.17601007
0.0638944 0.11997334 0.042272117 -0.01236798 -0.00019040932 0.19186737 -0.04532959 0.14520529
0.022359835 0.052090805 0.027643591 -0.08562761 -0.041821692 -0.06270269 -0.10462238 -0.16664757
0.059746042 0.09687021 0.038903043 0.1147099 -0.05554351 0.022659507 0.040176302 -0.115525596
00000000: e0cb fbbd 2f01 99bd 69c7 c53d 2e99 b0bc
00000010: 5a91 463e 6ee6 1c3d a6e1 a33d f70a 8fbc
00000020: 4e09 213d 16ca 6ebd 7561 a7bb 4a4e e23d
00000030: d120 613e 7a0a 0a3e ab85 84bd cdc8 03be
00000040: b9ce bd3d 1f7e 0c3e db09 20bd fe9f 2fbe
00000050: 839d 06be 8f99 023e 06eb cc3d 3c65 c9bd
00000060: 4ceb f1bd a4f2 153d 7c7a 983d 8573 a43d
00000070: 1eda 35be f197 e43d 84ad 7cbc b9ea 39bd
00000080: cf7a 5c3c 0bf6 a33d 588f ab3d 78b2 273e
00000090: 3713 2b3e 2d17 98bd 2c17 92bd 1588 fa3d
000000a0: 92ea 4b3e 96d6 f7bc 61ff 403e be77 a13d
000000b0: 4dcc 1d3d ddc3 39be d19e 883d c586 6bbe
000000c0: 16e4 2b3e 12a6 2e3e 40b5 a2be 3e82 eebd
000000d0: b4cb 973c 07e3 4ebd ad6f 903e fcf5 00be
000000e0: 4942 2a3d 529c 28ba 7c98 803d 4ea0 1e3d
000000f0: 707b fe3d 37f0 24be 5a20 67be 4aea 56bd
00000100: c7db f0bd b879 6ebe fc4c ac3d 639b ae3d
00000110: 4bbd 533e 0ada 913d 3992 88bd c763 103e
00000120: f782 013e ed44 1d3e 15e3 59be 974d 15be
00000130: 6f51 d9bc a90d 48bd 5d09 c83d b99c 30be
00000140: 3c53 9e3e 49ed 2bbe 5c6a c8bc 0153 193d
00000150: 8f23 23bb 490d bb3d 84d0 1abe 2610 6f3d
00000160: e986 263e 52fd ddbd df2f 2b3c 5db5 bf3d
00000170: 426c 243e 3e7c 693d 544f a53b 8c27 9f3d
00000180: 0ab8 3b3e da08 fe3c 4634 723e 470d 91bd
00000190: 8306 233e 0c2e 9ebd f7a3 e5bc e224 5b3d
000001a0: 9ddf 90bc 8d66 28bb ee73 453e 1dbb 0cbe
000001b0: eb79 2dbe 1f75 ffbd 8153 04be 8c3f 89bd
000001c0: 2ac1 89bd 8e95 04be 8222 0bbd aeb8 f5bd
000001d0: ff4d 203e a7f2 29be 4c30 83bc 3e76 61bc
000001e0: 99c9 b93d 64a6 2ebd 9122 4dbe 331b a9bc
000001f0: 8a87 7a3e db9a 39bd 521a 35be e834 cbbd
00000200: 4f56 153e 4172 6cbd a7dc 563e 756f 083e
00000210: 27d8 ca3d 2373 843e 69e1 7f3d e534 c2bd
00000220: 7819 033e 1f6b c23d b221 9ebc 5e38 2d3e
00000230: 4594 1a3d f5d4 f13c e4f7 8f3d 7ac0 cf3d
00000240: c8b2 cbbd 654b bebd b742 6d3c 8caa f1bc
00000250: 0f7c cebc 82dc 403b 9eb7 17bd eb6a a93b
00000260: c7d1 883d f112 113e f678 4a3c 22b8 223e
00000270: 1a43 5dbd d082 4f3e ee7f ca3d 57a4 1dbe
00000280: 65d7 5ebd caff 8fbd 95d6 3a3b b09c 563e
00000290: 8192 873e 54c7 813e 20d9 a33c 4a4f 293c
000002a0: 2511 d43d 84c1 a5bd fd71 0bbd d8fd d53b
000002b0: d362 edbd b9f6 463e 0e6d 27be ca41 0dbe
000002c0: 18a6 263e 2c41 20bd 4337 1cbe 3617 893e
000002d0: 4c9a aa3d cfd0 413c 4049 053e 6e60 f3bd
000002e0: c09d c3bd 1d92 c9bd 597c a73d 7260 d03d
000002f0: e2dd 0fbc 1243 353e b42a 07be 3ece 2e3c
00000300: 4c42 393c fff8 cebd 42db d0bd d957 8fbd
00000310: 47a9 b9bd 6f37 633d a9f6 573c 9251 5abd
00000320: c05c 23bd ba07 b8bd 4033 45bc 1c9f bd3c
00000330: af0c f5bd 2de4 18be 5cfb d2bc 8af4 91b9
00000340: d85f 1b3e df61 27be e775 dabd 9b3f b33d
00000350: 0c95 693c a6be 19bd ed2a 0d3e ab7a 1b3e
00000360: 4388 00bd 33ef 13be c3e0 0cbe 3bfd fcbd
00000370: 0ce7 95bd ed22 a03d a7f6 16be 7334 a7bd
00000380: 27e0 0cbe 4545 1fbc f967 0e3d cd15 703d
00000390: 99b8 4c3e 3a92 393e 66b9 2bbe fc3b 34be
000003a0: 11db 823d 95b4 f53d 8725 2d3d 11a3 4abc
000003b0: 9da8 47b9 e178 443e 85ab 39bd b2b0 143e
000003c0: f92b b73c 2b5d 553d d074 e23c 875d afbd
000003d0: 394d 2bbd 456a 80bd 4244 d6bd a9a5 2abe
000003e0: 44b8 743d e363 c63d cc58 1f3d 06ed ea3d
000003f0: 9781 63bd 6ea0 b93c e88f 243d af98 ecbd

bias_ih_l0_reverse f4 [128]
0.08428239 -0.08107149 0.13958055 0.024131244 0.07108259 -0.06128349 0.045808833 0.09185698
0.060909502 0.20810212 -0.11954784 0.14130798 0.18611938 -0.13317187 -0.101840645 -0.07614162
-0.10171493 -0.074431784 0.14339073 -0.07795987 0.16064844 0.039150443 0.24895847 -0.04333061
-0.047508456 -0.061196137 0.15537325 -0.0002834589 -0.061311673 0.05878192 0.037293337 -0.06071844
0.1322859 0.057156987 0.06518917 -0.019225229 0.13667418 0.19470577 0.080447756 -0.12136565
0.033012036 0.00062894664 0.13556191 0.07662809 0.044736467 0.010525787 -0.019907106 0.06581753
0.21730109 0.15532105 0.005682572 0.1896527 -0.01833868 0.13946268 0.21092083 0.083247356
-0.039296113 0.13759564 0.18618292 -0.10779434 -0.044722274 -0.017673362 0.114910625 0.04543203
0.095782265 0.18193214 -0.15598677 0.048595607 0.05735794 -0.10683738 0.026511058 -0.030359533
-0.013758478 0.041642297 0.11406237 0.019125406 -0.0031683801 0.049230658 0.06299825 -0.11382881
0.09463092 -0.061584704 0.06075664 -0.16337593 0.031219648 -0.07323674 0.07120301 -0.111714676
-0.10964823 0.04391476 -0.08210977 0.12943815 0.10562376 -0.10959563 -0.06470345 -0.12495851
0.02206687 0.22294159 0.1370696 0.15396842 0.21457484 0.21969858 0.1361176 -0.09069915
0.108806826 0.08880313 -0.13655867 0.01663892 0.018823192 0.10181746 0.14266741 0.061854474
0.24971068 -0.060433917 -0.11167495 0.021647999 -0.0007534901 -0.1202545 0.086543016 -0.085242264
-0.1527166 -0.08647815 0.029015806 0.15346798 -0.164655 -0.03136262 0.1379106 0.16566995
00000000: 3f9c ac3d cf08 a6bd 34ee 0e3e e3ae c53c
00000010: c093 913d 6604 7bbd 0ba2 3b3d 831f bc3d
00000020: 3e7c 793d b918 553e 7fd5 f4bd 0ab3 103e
00000030: 1496 3e3e 355e 08be d491 d0bd 23f0 9bbd
00000040: eb4f d0bd b16f 98bd 05d5 123e 6da9 9fbd
00000050: 0681 243e 375c 203d f8ee 7e3e 707b 31bd
00000060: 3a98 42bd cda8 7abd 2a1a 1f3e 369d 94b9
00000070: f321 7bbd 4fc5 703d e6c0 183d e6b3 78bd
00000080: f475 073e 721d 6a3d e681 853d 3a7e 9dbc
00000090: 51f4 0b3e f360 473e cbc1 a43d 8e8e f8bd
000000a0: a137 073d e5df 243a bed0 0a3e 30ef 9c3d
000000b0: 963d 373d 5a74 2c3c 3a14 a3bc 57cb 863d
000000c0: 2d84 5e3e 7b0c 1f3e de34 ba3b 5134 423e
000000d0: 003b 96bc 4ecf 0e3e a1fb 573e 977d aa3d
000000e0: f6f4 20bd dfe5 0c3e bca6 3e3e 47c3 dcbd
000000f0: b42e 37bd bac7 90bc 4356 eb3d f016 3a3d
00000100: 7e29 c43d 6b4c 3a3e ffba 1fbe 300c 473d
00000110: 29f0 6a3d 8ecd dabd b82d d93c 8eb4 f8bc
00000120: 3d6b 61bc 1d91 2a3d 8899 e93d e2ac 9c3c
00000130: 99a4 4fbb 16a6 493d 3a05 813d 141f e9bd
00000140: dbcd c13d 3e40 7cbd f4db 783d 054c 27be
00000150: 59c0 ff3c 25fd 95bd e2d2 913d aaca e4bd
00000160: 408f e0bd f7df 333d 2b29 a8bd 6f8b 043e
00000170: 4551 d83d ac73 e0bd 3e83 84bd 3fea ffbd
00000180: 95c5 b43c cd4a 643e f95b 0c3e e6a9 1d3e
00000190: 82b9 5b3e aaf8 603e 6a62 0b3e 7ac0 b9bd
000001a0: 1dd6 de3d 6ade b53d 09d6 0bbe 584e 883c
000001b0: 1833 9a3c ac85 d03d 6817 123e 1e5b 7d3d
000001c0: 28b4 7f3e 8e89 77bd d6b5 e4bd 2557 b13c
000001d0: dd85 45ba fe47 f6bd 773d b13d 7f93 aebd
000001e0: be61 1cbe 751b b1bd 8eb2 ed3c b626 1d3e
000001f0: 529b 28be 1776 00bd 7038 0d3e 62a5 293e

bias_hh_l0_reverse f4 [128]
-0.1295967 0.15330637 -0.13749798 0.23787239 0.051138025 -0.011101931 -0.07982153 0.08793964
0.09199872 0.09653958 0.016518781 0.13770097 0.19371125 0.028326862 0.06360663 -0.07311156
0.11725213 -0.05419382 0.0030159277 0.03246883 0.056569207 0.076073736 0.033171695 0.08471137
0.033216853 0.1599303 -0.07768231 -0.04332579 0.10096683 0.045688603 0.0483903 0.1498397
-0.09002633 -0.08666584 0.05981884 0.0067183822 -0.06445413 0.271788 -0.206785 0.13763885
0.06426239 -0.1198747 0.10991584 0.080861375 0.17409024 -0.09512801 -0.046556067 0.13417254
-0.05025733 0.1240609 0.15817936 -0.03341603 0.14260179 0.14125544 0.11139053 0.010904639
0.12408391 0.14918464 0.010122541 0.14435127 -0.1733228 -0.05681636 -0.054070592 0.021536287
0.1218879 -0.12003343 0.13682294 -0.07003305 0.025550587 0.1396549 0.016004022 -0.11185983
0.084980555 -0.03968943 0.017526058 0.095231 -0.05791383 -0.030252153 -0.022603132 -0.018976552
-0.21292892 0.13256522 0.020354003 0.13182807 0.15281443 -0.1419773 -0.13132942 -0.050396644
-0.0872658 -0.083346836 0.0143188825 0.031335525 0.10342998 0.04898061 -0.07715543 -0.15332127
0.14108965 -0.09528742 0.13849656 -0.07067729 0.0845653 0.12261431 -0.20769405 -0.05636848
0.03601895 0.14149122 -0.031808946 -0.122560464 0.019971566 -0.015963148 -0.10880546 0.15325344
0.23822896 -0.074417524 -0.06420684 0.018713446 0.16359857 0.023830105 0.13265657 0.07969551
0.08244089 0.11596038 0.04227246 -0.009527506 -0.1448798 -0.018775126 0.14038834 0.21346642
00000000: ffb4 04be 58fc 1c3e 45cc 0cbe d294 733e
00000010: 1b76 513d e0e4 35bc 7879 a3bd b319 b43d
00000020: d369 bc3d 8bb6 c53d 6552 873c 7c01 0d3e
00000030: 3e5c 463e bc0d e83c 3144 823d 83bb 95bd
00000040: e221 f03d 57fa 5dbd dfa6 453b 09fe 043d
00000050: 1db5 673d 8ccc 9b3d 0bdf 073d 287d ad3d
00000060: 650e 083d c5c4 233e e717 9fbd 6276 31bd
00000070: b3c7 ce3d f923 3b3d e834 463d 946f 193e
00000080: b95f b8bd dc7d b1bd 9a04 753d e025 dc3b
00000090: 8700 84bd cc27 8b3e 72bf 53be 33f1 0c3e
000000a0: 009c 833d de80 f5bd 8e1b e13d a69a a53d
000000b0: b644 323e 79d2 c2bd 93b1 3ebd 8764 093e
000000c0: a1da 4dbd a413 fe3d c5f9 213e 3fdf 08bd
000000d0: 3406 123e 44a5 103e b820 e43d 5fa9 323c
000000e0: b41f fe3d dcc3 183e 04d9 253c d2d0 133e
000000f0: 887b 31be 46b8 68bd 2079 5dbd de6c b03c
00000100: 5da0 f93d 16d4 f5bd 501b 0c3e 7d6d 8fbd
00000110: 774f d13c b201 0f3e de1a 833c c416 e5bd
00000120: 490a ae3d 6291 22bd cf92 8f3c 7808 c33d
00000130: 0d37 6dbd 5dd3 f7bc 342a b9bc b774 9bbc
00000140: 0a0a 5abe 2dbf 073e 70bd a63c f0fd 063e
00000150: 637b 1c3e 7f62 11be 387b 06be b66c 4ebd
00000160: 69b8 b2bd bfb1 aabd bf99 6a3c ae59 003d
00000170: 19d3 d33d e49f 483d ab03 9ebd 4000 1dbe
00000180: ce79 103e 0d26 c3bd 0bd2 0d3e 41bf 90bd
00000190: 9230 ad3d 361d fb3d c0ad 54be a3e2 66bd
000001a0: 9b88 133d 13e3 103e 194a 02bd fb00 fbbd
000001b0: 699b a33c 26c5 82bc 66d5 debd 78ee 1c3e
000001c0: 4bf2 733e 3768 98bd e07e 83bd f14c 993c
000001d0: 6286 273e 5a37 c33c 20d7 073e 6637 a33d
000001e0: c5d6 a83d a37c ed3d e325 2d3d 4219 1cbc
000001f0: 5f5b 14be 4bce 99bc f6c1 0f3e f196 5a3e

weight f4 [2, 64]
-0.27656898 -0.112203196 0.07462453 0.27857974 -0.12487724 0.16794504 -0.30101812 0.16590734
0.180724 -0.19167228 -0.053968806 0.031037817 0.0860814 -0.3597245 -0.18062824 -0.14100163
0.21135859 -0.09613032 -0.1127904 0.1689011 -0.07689762 -0.05856936 -0.06286997 0.23379898
0.29226702 0.037625607 0.09213064 0.31062332 0.22983715 0.10162196 0.15405889 0.22047274
0.09774473 -0.18921012 0.008094558 -0.23367395 0.005543692 0.23836184 -0.09603076 -0.15706913
-0.03756865 0.10472198 0.14285241 0.07403966 0.20639446 0.19703199 -0.21389244 0.019915579
-0.16235259 -0.22909206 0.10960578 0.10280852 -0.18094812 0.1054408 -0.2714171 0.1856252
-0.07419247 -0.09892653 -0.22624615 0.25322244 0.111955345 0.21379481 0.045405127 0.16959004
0.2504435 0.15838812 -0.14707027 -0.2626276 0.28456452 -0.3607614 0.18585952 -0.11693079
-0.062440146 0.06444804 0.14638068 -0.18179236 -0.12214008 0.17752078 0.30931982 0.1675927
-0.22643341 0.20743647 0.21530925 -0.070749514 0.1583961 0.2303723 0.11268175 -0.2592352
-0.24858797 -0.1973533 -0.224979 -0.23650469 -0.116662145 -0.11010491 -0.23111817 -0.17523628
-0.022834184 0.263533 -0.14913759 0.26930177 0.032119192 -0.28598475 -0.07137578 0.1002219
0.11301372 -0.20852557 -0.13903442 -0.08872995 -0.15675269 -0.0086592315 -0.0007009215 0.11985881
0.16900532 0.112637155 -0.037772655 -0.29765683 0.064489394 -0.19039884 0.12700526 -0.2112929
0.121916965 0.09147972 0.15914592 -0.2695559 0.005175072 -0.1865854 -0.27757335 -0.16427313
00000000: 739a 8dbe caca e5bd bfd4 983d 01a2 8e3e
00000010: a3bf ffbd c9f9 2b3e 0c1f 9abe 9de3 293e
00000020: b60f 393e bd45 44be 650e 5dbd 0543 fe3c
00000030: 724b b03d cf2d b8be 9cf6 38be bb62 10be
00000040: 636e 583e f9df c4bd a7fe e6bd 69f4 2c3e
00000050: 807c 9dbd 6de6 6fbd f9c1 80bd 0069 6f3e
00000060: 06a4 953e 4f1d 1a3d fdae bc3d 050a 9f3e
00000070: 6e5a 6b3e 2d1f d03d 9dc1 1d3e 9bc3 613e
00000080: 642e c83d 4cc0 41be 099f 043c 3948 6fbe
00000090: dca7 b53b 2015 743e c6ab c4bd bbd6 20be
000000a0: 96e1 19bd 7a78 d63d e747 123e 1ba2 973d
000000b0: 1259 533e c1c2 493e 9f06 5bbe ff25 a33c
000000c0: c23f 26be 1c97 6abe ff78 e03d 468d d23d
000000d0: 774a 39be 59f1 d73d 2ff7 8abe 8814 3e3e
000000e0: 39f2 97bd fe99 cabd 12ad 67be 5fa6 813e
000000f0: d848 e53d 07ed 5a3e bafa 393d 03a9 2d3e
00000100: 213a 803e 7f30 223e 9799 16be 2077 86be
00000110: 71b2 913e b8b5 b8be f551 3e3e 6979 efbd
00000120: 3dc1 7fbd 56fd 833d d1e4 153e c727 3abe
00000130: 9424 fabd 02c8 353e 2b5f 9e3e 6c9d 2b3e
00000140: 29de 67be 3a6a 543e 077a 5c3e 1fe5 90bd
00000150: 9632 223e b7e6 6b3e b0c5 e63d 7aba 84be
00000160: d88d 7ebe fc16 4abe e560 66be 492e 72be
00000170: 90ec eebd af7e e1bd 3eaa 6cbe 2471 33be
00000180: c10e bbbc cced 863e 86b7 18be ece1 893e
00000190: 6a8f 033d 986c 92be 772d 92bd 2441 cd3d
000001a0: bd73 e73d ba87 55be 0a5f 0ebe 0cb8 b5bd
000001b0: c783 20be 73df 0dbc 0cbe 37ba 8978 f53d
000001c0: bb0f 2d3e 4fae e63d 80b7 1abd 7a66 98be
000001d0: 0413 843d eaf7 42be ab0d 023e 2a5d 58be
000001e0: 9aaf f93d b859 bb3d 26f7 223e 3b03 8abe
000001f0: a693 a93b 3e10 3fbe 181e 8ebe 3737 28be

bias f4 [2]
-0.033878166 -0.0069476697
00000000: d5c3 0abd 47a9 e3bb
