m6A_BERT_Stacking/Resnet/model_pth/m_h_bilstm.pth (torch, 69975 bytes, 13 tensors)

weight f4 [64, 16]
-0.42642784 -0.6134739 0.7278173 0.635074 -0.04540527 0.35861027 0.16533053 -0.41275048
0.2762158 -0.6936028 0.10252166 0.81935894 -0.91375184 0.810928 0.6151751 0.070308805
-0.8426819 -0.2790508 -0.75811064 0.42998835 -0.89790916 -0.5781301 0.5553874 0.91341364
-0.980669 0.90342915 0.8187686 -0.8368147 -0.013797182 -0.36322194 -0.06372381 1.0052348
0.38404375 -0.02467816 0.71336144 -0.03227274 1.1572365 0.18621066 -0.3223157 0.023422375
1.2590007 -1.1649774 0.6027926 -0.6237138 1.9334317 0.030232545 -0.37759838 0.26748654
0.2607851 -0.0072652353 -1.0982431 0.6608752 -0.8609234 -0.78032434 -0.1477933 -0.28510487
-0.40657353 -0.10616684 0.92253613 0.6902987 -1.7830496 -0.32220832 -1.1016335 -1.3447094
0.24568422 -1.1327988 1.202548 0.5293069 -1.3232868 -0.9871389 -0.29856947 -0.2264819
-0.63637936 1.4014387 0.7677 0.8722581 0.36227953 -1.0923553 1.00772 1.6115545
-0.09370361 -0.3995703 -1.1351228 -0.6290062 -0.36840373 -0.42993304 -0.68059325 -0.14613828
0.3008537 -0.43609834 -0.4492843 -0.42743924 0.39150903 0.3136994 0.57354957 0.48044795
0.71935105 -0.34066862 -0.052887373 -0.46450573 -0.47630906 0.12972303 -0.7501089 -0.45076025
0.72388107 -0.67004716 1.0583308 -1.2234814 0.10776949 0.16449043 0.23584752 1.203091
0.15844429 -0.1531321 0.00034868906 0.12952377 -0.053947844 -0.29406476 1.2129773 -0.1385305
0.2861208 -0.56052077 -1.3015237 -0.99093986 1.2378024 -0.73147357 0.92482585 -0.70614254
0.27748203 0.53599924 -1.1355813 -0.37082136 0.12681808 -0.8186755 -0.815335 0.8999934
-1.0339085 -0.45771047 -0.5442012 0.7988113 -0.5892159 -0.06334492 0.87490493 0.74752814
-1.1483024 0.7717709 0.8326667 0.755124 0.60807544 0.10075093 1.1825026 -1.0514438
-0.36479473 -0.33060417 -0.2624499 0.32507527 1.607629 -0.66942894 0.26611987 0.28585857
-1.4892974 -0.07903282 -1.0140455 1.0872471 -0.20852122 0.80682415 0.2633859 0.19532834
-0.33616018 0.44568408 -0.5169845 0.34115666 0.1760993 1.2025428 -0.95323503 -1.0315932
0.34722766 0.5069014 0.70851314 0.63910353 1.668927 0.49962607 -0.088919796 1.9293914
0.77712625 -1.2233087 -1.9192338 1.0274606 1.4525732 1.2891108 -0.67654794 -0.20439467
-0.8288271 0.14417809 -0.031137029 -0.994367 -0.3355719 -0.7307929 -0.39552984 -0.23268351
-0.83712417 0.19777721 0.9306728 0.82521844 -1.5044082 1.0417219 -1.105776 0.005394039
-1.6845182 0.5396602 -0.43605557 0.42540184 0.53855336 -0.39358616 1.2129084 0.08723607
-0.6606717 -0.44355175 -0.7265111 -0.25574166 0.58338493 -0.1922694 -0.11007032 -0.23707737
0.21821833 0.34159225 0.018042047 -0.38010105 -0.45143858 0.75301206 0.691286 -0.17771833
0.44319642 0.1026496 -0.38131428 0.4930066 -0.47220653 -0.43922794 0.76238155 -0.5903639
-0.63330686 -0.41430235 1.0481993 0.6266854 0.26203895 0.11129517 -1.401256 0.5556704
0.5826748 -0.02776524 -0.8874655 0.8956366 0.97249633 0.035482 0.86283016 -1.232371
00000000: c054 dabe a00c 1dbf 3c52 3a3f 3694 223f
00000010: e0fa 39bd c49b b73e 684c 293e 0854 d3be
00000020: 286c 8d3e f48f 31bf e0f6 d13d 82c1 513f
00000030: a4eb 69bf fa98 4f3f 1e7c 1d3f 10fe 8f3d
00000040: 00ba 57bf bfdf 8ebe 8a13 42bf 6f27 dc3e
00000050: 60dd 65bf 5600 14bf de2d 0e3f 7ad5 693f
00000060: 200d 7bbf 2247 673f d29a 513f 7d39 56bf
00000070: 930d 62bc 3af8 b9be a181 82bd 89ab 803f
00000080: 62a1 c43e da29 cabc db9e 363f 6c30 04bd
00000090: 5320 943f 02ae 3e3e 9006 a5be 48e0 bf3c
000000a0: ef26 a13f fb1d 95bf 9e50 1a3f b5ab 1fbf
000000b0: b17a f73f 3eaa f73c 9354 c1be fff3 883e
000000c0: a085 853e 3611 eebb 3b93 8cbf 1e2f 293f
000000d0: 7a65 5cbf 56c3 47bf 2057 17be 44f9 91be
000000e0: 682a d0be 006e d9bd 542b 6c3f 6ab7 303f
000000f0: f83a e4bf 7df8 a4be 5402 8dbf 701f acbf
00000100: a594 7b3e 8dff 90bf 18ed 993f a880 073f
00000110: 7661 a9bf 23b5 7cbf 19de 98be dfea 67be
00000120: c2e9 22bf 5862 b33f fd87 443f 4f4c 5f3f
00000130: b47c b93e 4cd2 8bbf f8fc 803f 6b47 ce3f
00000140: aee7 bfbd 7a94 ccbe b44b 91bf 8d06 21bf
00000150: 6a9f bcbe 2f20 dcbe 5c3b 2ebf 46a5 15be
00000160: 7f09 9a3e 4848 dfbe 9708 e6be 51d9 dabe
00000170: df73 c83e 359d a03e 25d4 123f 46fd f53e
00000180: 6427 383f 1e6c aebe 6ea0 58bd b2d3 edbe
00000190: c8de f3be 1dd6 043e 2307 40bf 0cca e6be
000001a0: 4550 393f 3688 2bbf 6277 873f 0a9b 9cbf
000001b0: 40b6 dc3d 2e70 283e 0382 713e e3fe 993f
000001c0: 383f 223e a9ce 1cbe 41d0 b639 e1a1 043e
000001d0: 6af8 5cbd a88f 96be d742 9b3f f0da 0dbe
000001e0: 6d7e 923e 4a7e 0fbf 5498 a6bf 3cae 7dbf
000001f0: 4f70 9e3f da41 3bbf 63c1 6c3f c2c5 34bf
00000200: 2012 8e3e 3f37 093f ba5a 91bf 4cdc bdbe
00000210: 99dc 013e b894 51bf cbb9 50bf f865 663f
00000220: 1d57 84bf 0759 eabe c550 0bbf e67e 4c3f
00000230: dad6 16bf fbba 81bd c5f9 5f3f 015e 3f3f
00000240: 93fb 92bf c792 453f a529 553f ce4f 413f
00000250: d5aa 1b3f 8156 ce3d 3f5c 973f b695 86bf
00000260: 60c6 babe f344 a9be d55f 86be 4470 a63e
00000270: c9c6 cd3f b25f 2bbf dd40 883e 0e5c 923e
00000280: 4ca1 bebf f6db a1bd 3ecc 81bf ea2a 8b3f
00000290: 9686 55be 078c 4e3f 84da 863e 2704 483e
000002a0: 301d acbe b430 e43e 1959 04bf 16ac ae3e
000002b0: 6053 343e ecec 993f 3607 74bf 3f0b 84bf
000002c0: d3c7 b13e 4ac4 013f 1e61 353f 4a9c 233f
000002d0: 669f d53f fdce ff3e 951b b6bd 4cf6 f63f
000002e0: bff1 463f 6195 9cbf 74a9 f5bf d483 833f
000002f0: ebed b93f 9501 a53f 3f32 2dbf d64c 51be
00000300: 032e 54bf 6ca3 133e 1513 ffbc d68e 7ebf
00000310: 14d0 abbe 3e15 3bbf e382 cabe 9644 6ebe
00000320: c54d 56bf 1c86 4a3e 9340 6e3f 8441 533f
00000330: 7390 c0bf 2557 853f 118a 8dbf 7bc0 b03b
00000340: 4b9e d7bf 2c27 0a3f ad42 dfbe 45ce d93e
00000350: a2de 093f 2084 c9be 9540 9b3f d3a8 b23d
00000360: c821 29bf 3719 e3be a2fc 39bf 92f0 82be
00000370: b758 153f 45e2 44be 8c6c e1bd 69c4 72be
00000380: a074 5f3e 2ee5 ae3e eacc 933c 9b9c c2be
00000390: f522 e7be 66c5 403f 1ff8 303f cbfb 35be
000003a0: a4ea e23e f439 d23d a03b c3be 5c6b fc3e
000003b0: 0ec5 f1be 7ce2 e0be 702b 433f 1722 17bf
000003c0: 6620 22bf 701f d4be 652b 863f 746e 203f
000003d0: f829 863e b9ee e33d 5b5c b3bf 6a40 0e3f
000003e0: 2d2a 153f ee73 e3bc f030 63bf 7148 653f
000003f0: 85f5 783f 9355 113d 70e2 5c3f 55be 9dbf

weight_ih_l0 f4 [128, 16]
-0.08601373 0.19102275 -0.34697288 0.38360044 0.08772105 -0.122395575 -0.5300015 -0.021083122
0.01783475 -0.08081492 -0.10158379 -0.17814316 0.30235147 -0.048846714 -0.23506439 1.9642278
-0.61149496 -0.46377173 0.5796294 0.57043725 0.1072444 0.0092848865 0.22298148 -0.04859827
-0.12034899 -0.38978702 -0.070062906 0.35219678 0.6713416 0.046339396 0.19417104 0.2986211
0.8202775 -0.6331005 0.22501005 -0.58434415 -0.3625949 -0.2596114 -0.3418396 0.3151537
-0.37932 0.30850002 -0.2254132 0.4139909 -0.06749371 -0.639575 0.16457368 0.82546574
-0.55853105 -0.09787229 -0.005674547 -0.53419363 -0.38098726 0.02452612 0.0964476 0.5408971
0.08051483 -0.1581024 -0.2650091 -0.003487534 0.40094638 -0.113509454 0.16995277 -0.16436785
0.29973963 -0.3572772 -0.26594415 -0.17481811 -0.024377223 0.35772926 -0.6913468 -0.24861103
0.18721153 0.3220425 0.11535581 -0.0019735585 -1.1421983 0.27252424 -0.13338074 -0.09510325
-0.2229992 0.09287051 0.6160067 -0.18429317 -0.051327568 -0.16166738 -0.13901979 0.76302916
0.06284978 -0.20527397 -0.3357252 0.82846165 -0.08055672 -0.3335285 0.10354722 0.45225662
-0.24932773 -0.3255842 0.35678717 0.9176472 -0.19436745 -0.107277565 -0.40885508 0.5376994
0.254831 -0.17439407 -0.24765725 0.12723425 0.4853885 -0.07313829 -0.14390324 0.4155092
0.23574398 -0.2332545 -0.8340887 -0.019951325 -0.2632552 0.5342459 -0.086971834 -0.12808165
0.3839245 0.92552173 -1.1826717 0.10128139 -1.1977159 0.090050235 -0.34443703 -0.14699052
0.11894059 -0.14734036 -0.4682004 -0.39831856 -0.004794737 0.14796449 -0.5942359 -0.09279422
0.24351819 0.09109378 0.0040969336 -0.033549365 0.0926394 -0.24978307 -0.34062698 -0.3421183
0.41450188 0.30921605 0.38136947 -0.33926222 0.28191188 0.0762779 0.08191822 0.33639735
0.46332943 -0.22858225 -0.11331611 0.10996327 -0.10366455 -0.27497664 -0.6282525 0.41693234
0.0814252 0.22554451 0.4221094 -0.20867316 -0.4073291 -0.2594104 0.15789916 0.66571087
0.06396664 0.2572787 0.28668743 -0.7855976 -0.4391318 -0.29810908 0.18251984 1.5374384
0.25014797 0.82478744 -0.63048536 0.3874598 -0.5881868 0.03222567 0.10495778 0.16681038
0.25323582 0.7121607 -0.5891245 -0.3679615 -0.69668883 -0.26977056 -0.15360098 -0.25985172
-0.26202637 -0.050176937 0.8385101 -0.19142698 -0.27702096 -0.12353129 -0.5346451 -0.50287914
0.093060486 -0.21586756 -0.3673091 0.118112884 0.2621011 0.062362656 -0.24076146 0.28925198
-0.53030527 -0.3694683 0.33351234 -0.36756083 0.15341511 0.2190447 0.012707448 0.25989017
0.12130956 -0.26357296 0.1627662 0.025643986 0.54352075 -0.15879662 0.08474847 1.0417105
-0.34381032 -0.7666921 0.94454324 0.48937163 -0.34880295 -0.35301134 0.3184625 -0.15898529
-0.2694853 0.33945522 -0.27272218 0.24374664 0.32923263 0.35859048 -0.55762225 -0.10199729
-0.078530684 -0.37415272 -0.41121197 -0.6114235 0.5671179 0.8388783 0.3095087 -0.1105823
0.7896114 -0.85908747 -0.86585176 0.5521424 -0.010092714 -0.27292395 -0.01071211 0.14988206
00000000: f727 b0bd 789b 433e 6ea6 b1be 4767 c43e
00000010: 18a7 b33d 88aa fabd 2eae 07bf 83b6 acbc
00000020: 2e1a 923c 4b82 a5bd 290b d0bd 296b 36be
00000030: d0cd 9a3e 7e13 48bd b8b4 70be d16b fb3f
00000040: ef8a 1cbf 7d73 edbe 9862 143f 2d08 123f
00000050: f4a2 db3d a31f 183c 4255 643e fb0e 47bd
00000060: 8879 f6bd 2a92 c7be 247d 8fbd 2353 b43e
00000070: 0bdd 2b3f 61ce 3d3d c6d4 463e dde4 983e
00000080: b5fd 513f e012 22bf 0969 663e 9497 15bf
00000090: 0aa6 b9be c9eb 84be 9a05 afbe d35b a13e
000000a0: 3b36 c2be b7f3 9d3e b8d2 66be 9ef6 d33e
000000b0: 243a 8abd 30bb 23bf 0186 283e b951 533f
000000c0: e4fb 0ebf 4471 c8bd 8df1 b9bb eac0 08bf
000000d0: c310 c3be 00eb c83c 5286 c53d 3b78 0a3f
000000e0: f6e4 a43d 98e5 21be 46af 87be 1c8f 64bb
000000f0: d848 cd3e a577 e8bd 1908 2e3e 0c50 28be
00000100: 7977 993e 0aed b6be d529 88be 8503 33be
00000110: beb2 c7bc 4a28 b73e 1bfc 30bf e493 7ebe
00000120: 61b4 3f3e c1e2 a43e ab3f ec3d d156 01bb
00000130: 8e33 92bf 4c88 8b3e f694 08be 7ec5 c2bd
00000140: e759 64be e532 be3d 9db2 1d3f 59b7 3cbe
00000150: db3c 52bd 228c 25be 345b 0ebe e155 433f
00000160: 63b7 803d 5733 52be 2ce4 abbe 1016 543f
00000170: ecfa a4bd 3fc4 aabe 9110 d43d 2e8e e73e
00000180: c54f 7fbe f9b2 a6be cfac b63e edea 6a3f
00000190: 4308 47be 57b4 dbbd 7455 d1be aba6 093f
000001a0: 3579 823e 5c94 32be dd99 7dbe b249 023e
000001b0: d784 f83e 87c9 95bd 5f5b 13be 9fbd d43e
000001c0: df66 713e 45da 6ebe d686 55bf f670 a3bc
000001d0: 63c9 86be 57c4 083f 4a1e b2bd d627 03be
000001e0: c191 c43e feee 6c3f c961 97bf 9e6c cf3d
000001f0: c14e 99bf 426c b83d 0d5a b0be af84 16be
00000200: 2097 f33d 64e0 16be f6b7 efbe 69f0 cbbe
00000210: 2b1d 9dbb 0184 173e d81f 18bf e50a bebd
00000220: d55c 793e 608f ba3d 923f 863b 0f6b 09bd
00000230: bab9 bd3d 22c7 7fbe a966 aebe 212a afbe
00000240: 9739 d43e 9151 9e3e dc42 c33e c7b3 adbe
00000250: c156 903e 9637 9c3d bdc4 a73d 463c ac3e
00000260: 8439 ed3e 7711 6abe 4712 e8bd 6c34 e13d
00000270: 144e d4bd bdc9 8cbe 28d5 20bf 2878 d53e
00000280: 41c2 a63d 24f5 663e b91e d83e 6bae 55be
00000290: 718d d0be 71d1 84be 51b0 213e 076c 2a3f
000002a0: f100 833d 09ba 833e b2c8 923e ed1c 49bf
000002b0: e2d5 e0be c1a1 98be 7be6 3a3e c8ca c43f
000002c0: 6513 803e 4525 533f 7d67 21bf 2261 c63e
000002d0: 6993 16bf 10ff 033d 1bf4 d63d 57d0 2a3e
000002e0: 20a8 813e 2a50 363f ddd0 16bf 7365 bcbe
000002f0: 335a 32bf 5e1f 8abe 9349 1dbe 490b 85be
00000300: 5228 86be 5586 4dbd 99a8 563f 6f05 44be
00000310: b1d5 8dbe f9fd fcbd 80de 08bf b0bc 00bf
00000320: 7f96 be3d 630c 5dbe f00f bcbe 2be5 f13d
00000330: 1e32 863e fc6f 7f3d 2c8a 76be d618 943e
00000340: 16c2 07bf f32a bdbe 21c2 aa3e ef30 bcbe
00000350: da18 1d3e 414d 603e e632 503c 5310 853e
00000360: 2671 f83d 09f3 86be 2fac 263e 5613 d23c
00000370: 2d24 0b3f 959b 22be 9b90 ad3d c556 853f
00000380: e807 b0be ef45 44bf 96cd 713f eb8e fa3e
00000390: 4d96 b2be e7bd b4be 840d a33e 0acd 22be
000003a0: faf9 89be 13cd ad3e 3ea2 8bbe b898 793e
000003b0: 2e91 a83e 2c99 b73e 55c0 0ebf f5e3 d0bd
000003c0: b2d4 a0bd f290 bfbe 608a d2be 4086 1cbf
000003d0: a42e 113f bac0 563f ed77 9e3e f978 e2bd
000003e0: f923 4a3f 28ed 5bbf 76a8 5dbf 3459 0d3f
000003f0: e95b 25bc b0bc 8bbe d981 2fbc af7a 193e

weight_hh_l0 f4 [128, 32]
0.22388773 0.33337057 0.47532734 -0.18054621 0.54724854 -0.4779032 0.19346395 -0.8324774
0.82474566 0.50241804 -0.17487477 -0.090962864 0.35969666 0.22899432 0.6225583 0.42095459
0.04217832 -0.8898168 0.34485802 -0.95639324 1.26739 0.4497301 0.14841363 -0.18885809
-0.48923182 -0.3654993 0.11629854 -0.022338884 -0.082626045 -1.1241344 -0.50298095 -0.46327475
0.111422785 0.17692883 0.6604504 -0.13472235 0.64847827 0.25052363 -0.7625081 -0.04631793
0.27126345 0.29183486 0.21673867 -0.06725144 -0.2612494 0.03182894 0.48644304 0.8002148
0.483874 -0.51420504 0.26323503 -1.1222064 1.7132089 1.3588659 -0.5008043 -0.049426757
0.018975552 0.17549221 0.17433196 -0.05285072 -0.067128375 -1.4043899 -0.21805555 -0.32854426
0.012401549 0.0036007126 0.14776309 0.36652112 -0.18478796 0.4378994 -0.47017682 -0.5196673
-0.3195988 -0.040683847 -0.40978572 -0.29754794 -0.25104907 -0.06151855 0.03162614 -0.21900007
0.84106183 0.36863202 -0.04964557 -0.04438917 1.0922725 -0.46031332 0.3240009 0.06359849
0.44173744 -0.29356825 0.29586536 0.55325687 0.10107476 0.17594624 -0.08582677 0.16883963
-0.1841964 -0.094197 0.3040892 -0.112813555 0.4398819 -0.0022396508 -0.94829535 0.34198186
-0.07379244 0.12159699 0.30381393 -0.2245199 -0.48280504 -0.4324416 0.11948321 0.99134654
0.48874986 -0.4650458 0.34568942 -1.2446015 0.7284573 1.3227292 -0.78745925 0.13686736
0.12577328 -0.46893263 0.22762041 -0.14264074 -0.31135786 -2.4930308 -0.03194664 0.107005246
0.109865494 -0.06409544 -0.3073328 -0.102785856 -0.20944256 0.9967257 -0.7174829 -0.48622605
-0.23226948 -0.63739944 -0.065761104 -0.008362735 0.17341226 -0.2274602 -0.3513566 -0.35283554
0.59137905 0.63087815 -0.21970347 0.30934057 -0.111893155 -0.020041473 0.24880603 0.178921
0.4666484 -1.1471938 0.14541961 0.064885646 0.808004 0.6796693 0.19260648 0.46118948
-0.07029808 0.014358061 0.74289525 -0.6036344 0.81937426 -0.29464063 0.18383515 -0.06708752
1.0323972 0.6125038 0.14458479 0.5116655 -0.40589604 0.01645373 0.77215254 0.34632304
0.5814703 -0.9454137 0.3852372 -0.46555156 0.44958857 0.47277543 -1.2158762 -0.13075288
-1.0847005 -0.19613129 0.008772142 -0.26012406 -0.23396155 -0.51681024 -0.50731784 -0.5358251
0.2748308 0.6068924 0.141126 -0.25677675 0.274236 -0.36808112 0.41290256 -1.5725316
0.0691436 0.577901 0.039711937 0.6475736 0.4178688 0.6039644 0.64974385 -0.13016805
0.5075685 -1.4338884 0.06972437 -1.5238913 0.14463608 0.42560437 0.4512267 -0.46912685
-0.40331134 -0.6668915 -0.30173022 -0.054033387 -0.5980253 -0.67349344 -0.7717371 -0.5414378
0.078749105 0.6296008 0.09091521 -0.5312739 -0.38356343 0.11441241 -1.4589759 0.29511738
-0.9102659 -0.46569595 1.0903218 -0.6054964 -0.25993696 0.17276621 0.16037984 -0.0043733083
-0.55150217 0.5816058 0.08689378 0.08220697 -0.1421056 -0.16810057 -0.05813592 -0.16114768
-0.40040356 -0.116412014 -0.3572615 0.20541188 0.15670697 1.092386 -0.11440009 -0.45449403
00000000: d342 653e 8caf aa3e 1b5e f33e 1be1 38be
00000010: 7b18 0c3f baaf f4be 6a1b 463e 3d1d 55bf
00000020: 8822 533f 789e 003f 5f12 33be bd4a babd
00000030: 292a b83e 7d7d 6a3e fb5f 1f3f 5c87 d73e
00000040: 2dc3 2c3d 09cb 63bf 3b91 b03e 30d6 74bf
00000050: d639 a23f 0643 e63e bef9 173e 0464 41be
00000060: 987c fabe b922 bbbe ee2d ee3d 0900 b7bc
00000070: d837 a9bd a3e3 8fbf 5cc3 00bf 5932 edbe
00000080: a131 e43d d52c 353e 4713 293f a8f4 09be
00000090: ac02 263f a244 803e bb33 43bf dfb7 3dbd
000000a0: 0be3 8a3e 616b 953e bef0 5d3e 1fbb 89bd
000000b0: 7bc2 85be 105f 023d 100f f93e e1da 4c3f
000000c0: 55be f73e f1a2 03bf bec6 863e 76a4 8fbf
000000d0: 6e4a db3f 51ef ad3f b634 00bf b673 4abd
000000e0: 9e72 9b3c 3bb4 333e 1484 323e ff79 58bd
000000f0: 9a7a 89bd 0cc3 b3bf f449 5fbe f436 a8be
00000100: de2f 4b3c eff9 6b3b 354f 173e a8a8 bb3e
00000110: 0e39 3dbe 5a34 e03e 04bb f0be eb08 05bf
00000120: 74a2 a3be 1ba4 26bd 6fcf d1be 3458 98be
00000130: 8189 80be e0fa 7bbd 698a 013d 8e41 60be
00000140: d44f 573f 56bd bc3e 2759 4bbd 6bd1 35bd
00000150: 96cf 8b3f 30ae ebbe 72e3 a53e ed3f 823d
00000160: 692b e23e 944e 96be aa7b 973e 3ea2 0d3f
00000170: 4900 cf3d 402b 343e f2c5 afbd 4ce4 2c3e
00000180: fb9d 3cbe 5bea c0bd 94b1 9b3e cb0a e7bd
00000190: 3338 e13e 1bc7 12bb 7cc3 72bf 3f18 af3e
000001a0: 7e20 97bd d807 f93d 808d 9b3e 8be8 65be
000001b0: 3932 f7be fc68 ddbe 9db3 f43d e3c8 7d3f
000001c0: 6c3d fa3e 7c1a eebe 34fe b03e 1a4f 9fbf
000001d0: 2d7c 3a3f 314f a93f ee96 49bf f526 0c3e
000001e0: b6ca 003e f017 f0be 5315 693e 6a10 12be
000001f0: 4c6a 9fbe d18d 1fc0 7bda 02bd 9125 db3d
00000200: 2901 e13d 7844 83bd ba5a 9dbe 6481 d2bd
00000210: 1c78 56be 6a29 7f3f f6ac 37bf 9ff2 f8be
00000220: 0dd8 6dbe 9c2c 23bf c2ad 86bd da03 09bc
00000230: fc92 313e 54eb 68be 03e5 b3be dca6 b4be
00000240: 9e64 173f 3b81 213f f2f9 60be e361 9e3e
00000250: 3d28 e5bd 042e a4bc 02c7 7e3e 1137 373e
00000260: 8aec ee3e 3fd7 92bf e1e8 143e c4e2 843d
00000270: 5ad9 4e3f cffe 2d3f a23a 453e 0721 ec3e
00000280: 71f8 8fbd 133e 6b3c 622e 3e3f c987 1abf
00000290: 83c2 513f 23db 96be 483f 3c3e 2f65 89bd
000002a0: 9725 843f 0dcd 1c3f 090e 143e 83fc 023f
000002b0: 9bd1 cfbe f9c9 863c caab 453f 4151 b13e
000002c0: 3ddb 143f a206 72bf cf3d c53e c65c eebe
000002d0: 7930 e63e 9f0f f23e d5a1 9bbf 15e4 05be
000002e0: 77d7 8abf a4d6 48be 08b9 0f3c fb2e 85be
000002f0: 9e93 6fbe ad4d 04bf 95df 01bf d52b 09bf
00000300: 9fb6 8c3e 4d5d 1b3f 5683 103e 3e78 83be
00000310: a968 8c3e 2175 bcbe f767 d33e b748 c9bf
00000320: 299b 8d3d 52f1 133f fca8 223d 62c7 253f
00000330: e6f2 d53e 699d 1a3f 9d55 263f c64a 05be
00000340: 02f0 013f a889 b7bf a7cb 8e3d df0e c3bf
00000350: 7b1b 143e d1e8 d93e 3007 e73e 6531 f0be
00000360: d37e cebe 67b9 2abf 627c 9abe 1d52 5dbd
00000370: 3018 19bf 116a 2cbf 9090 45bf ab9b 0abf
00000380: 3647 a13d 852d 213f c131 ba3d 9101 08bf
00000390: 6d62 c4be 0e51 ea3d b9bf babf a019 973e
000003a0: 3007 69bf b36f eebe aa8f 8b3f d001 1bbf
000003b0: 7516 85be a0e9 303e 9d3a 243e f84d 8fbb
000003c0: 3f2f 0dbf 1ee4 143f 5ef5 b13d 215c a83d
000003d0: 2184 11be 8e22 2cbe ee1f 6ebd e603 25be
000003e0: b201 cdbe 6c69 eebd fbea b6be 7e57 523e
000003f0: cb77 203e 4ed3 8b3f 984a eabd 71b3 e8be

bias_ih_l0 f4 [128]
0.057197206 -0.37826025 0.009436096 -0.4707832 -0.3776954 -0.21015108 -0.14855944 -0.8488245
-0.6790313 -0.027103364 0.15386492 -0.013636992 -0.51452684 -0.33069173 -0.28918752 -0.46154583
-1.0183432 0.05393218 -0.15855585 -0.63896835 0.059675526 -0.51191306 -0.27638334 -0.30032802
-0.53272194 -0.053979784 -0.26100528 -0.65221435 -0.36571535 0.5925948 -0.6433074 -0.29288223
0.07698496 0.11481052 -0.14562517 -0.09628031 -0.36048743 -0.4735636 -0.19816917 -0.21313545
-0.7110284 0.27043667 0.40440208 -0.26924348 -0.43886137 -0.07573522 0.5833056 -0.08575481
0.3592218 0.59781146 -0.037405744 -0.101995565 0.43488762 -0.17119206 -0.024081983 0.37934676
0.093123466 -0.047903948 -0.0064208773 -0.010731751 0.51831126 0.6782065 -0.024081046 -0.111792915
-0.016272562 -0.032719474 -0.21382563 -0.15271017 0.06274317 -0.2156449 -0.07984242 -0.020248024
-0.18338941 -0.061586715 0.1896226 -0.012522187 0.057152692 0.108562976 -0.0943063 -0.17195095
-0.30275807 -0.020734232 0.10430457 0.012490252 -0.121882014 -0.1750452 0.124234505 -0.15139411
-0.1574146 0.026658388 -0.057865553 -0.13618974 0.018886637 -0.44492012 -0.11926833 -0.05043894
-0.3685472 -0.4426236 -0.4911833 -0.5248746 -0.5869783 -0.74858505 -0.10649479 -0.3610389
-0.76079845 0.11901954 -0.52438897 -0.19906381 -0.4674629 -0.22469205 0.08081581 -0.4214904
-0.12956539 -0.055788834 -0.055246204 -0.3631513 0.35188663 0.056995366 -0.31764752 -0.18758114
-0.03213351 -0.12459811 -0.20769542 -0.40446135 -0.31263104 1.0029874 -0.52041453 -0.49909028
00000000: 9e47 6a3d 54ab c1be db99 1a3c 7f0a f1be
00000010: 4b61 c1be d831 57be f71f 18be 904c 59bf
00000020: ffd4 2dbf e007 debc c48e 1d3e b16d 5fbc
00000030: 08b8 03bf 6d50 a9be 6310 94be bc4f ecbe
00000040: 1259 82bf fde7 5c3d 775c 22be 6e93 23bf
00000050: 536e 743d bc0c 03bf 1e82 8dbe 98c4 99be
00000060: 7760 08bf e819 5dbd 7ca2 85be 85f7 26bf
00000070: 0b3f bbbe 4bb4 173f cbaf 24bf a9f4 95be
00000080: 4aaa 9d3d c721 eb3d c41e 15be 9c2e c5bd
00000090: cf91 b8be ee76 f2be dcec 4abe 2e40 5abe
000000a0: f505 36bf ad76 8a3e ca0d cf3e 48da 89be
000000b0: 70b2 e0be 111b 9bbd 8453 153f 38a0 afbd
000000c0: ebeb b73e 2c0a 193f c436 19bd 0de3 d0bd
000000d0: 97a9 de3e f94c 2fbe 9447 c5bc bd39 c23e
000000e0: 84b7 be3d ee36 44bd 3966 d2bb 3ad4 2fbc
000000f0: 0cb0 043f f19e 2d3f 9d45 c5bc aff3 e4bd
00000100: 094e 85bc db04 06bd 1bf5 5abe 0e60 1cbe
00000110: 7e7f 803d 04d2 5cbe 6c84 a3bd 2fdf a5bc
00000120: 6fca 3bbe 5a42 7cbd 6d2c 423e dc29 4dbc
00000130: f118 6a3d 4456 de3d a923 c1bd e913 30be
00000140: 1b03 9bbe d6da a9bc a29d d53d eaa3 4c3c
00000150: 479d f9bd 0d3f 33be a96e fe3d 0f07 1bbe
00000160: 4b31 21be b162 da3c 6e04 6dbd 5375 0bbe
00000170: 26b8 9a3c 92cc e3be f442 f4bd 1099 4ebd
00000180: 38b2 bcbe 8f9f e2be 617c fbbe 2f5e 06bf
00000190: 3644 16bf 45a3 3fbf f119 dabd 17da b8be
000001a0: b0c3 42bf 84c0 f33d 5b3e 06bf 62d7 4bbe
000001b0: 4c57 efbe ac15 66be c282 a53d 97cd d7be
000001c0: caac 04be d582 64bd d849 62bd f8ee b9be
000001d0: 7c2a b43e f973 693d b2a2 a2be 4515 40be
000001e0: 6d9e 03bd 4b2d ffbd 1cae 54be 8f15 cfbe
000001f0: 2d11 a0be e461 803f e339 05bf c388 ffbe

bias_hh_l0 f4 [128]
0.10897796 -0.32205483 -0.256551 -0.69347167 -0.36613405 -0.28805235 -0.14165919 -0.7982993
-0.57376057 -0.20780623 -0.12647142 -0.17668426 -0.69750935 -0.10983354 -0.2884576 -0.5645071
-1.0404232 0.12925236 -0.1964696 -0.31188685 0.121736735 -0.41111937 -0.43484208 -0.39569262
-0.64072615 -0.34601578 -0.25545526 -0.49850562 -0.40506032 0.6376332 -0.7343907 0.01531325
-0.0077068973 0.096111216 -0.23527035 -0.16718833 -0.24542569 -0.45421278 -0.34649953 -0.18014982
-0.5893862 0.47088662 0.4072051 -0.13154699 -0.33589676 -0.27789727 0.74079347 -0.19575806
0.21664819 0.6844179 0.09086541 0.0907501 0.45677528 -0.1093975 -0.30309847 0.35941097
0.29650018 -0.094456375 -0.052774098 -0.112279125 0.7109707 0.7683521 -0.07913338 0.04672816
-0.036155824 -0.07540435 -0.15083607 -0.12795196 0.18656175 -0.28582427 0.20530215 0.10825791
-0.17900567 0.10426324 0.07870732 -0.07731004 0.25543967 -0.035962876 0.034678813 -0.040760525
-0.12693016 -0.15096587 0.012767605 0.12968653 -0.23866746 -0.37613964 0.03639846 -0.10633362
-0.17748417 0.05566174 -0.07167626 0.1400361 0.087521985 -0.45482025 0.1132953 -0.020114569
-0.3406119 -0.25799993 -0.50910676 -0.5067995 -0.6443166 -0.7336817 0.027111618 -0.5624922
-0.6257921 -0.034778852 -0.4762937 -0.16337678 -0.40852913 -0.3066205 -0.21987504 -0.2727568
-0.069170184 -0.0034994879 -0.18566795 -0.28142968 0.2888319 0.047722373 -0.48093408 -0.24423683
-0.30728248 -0.18004456 -0.5008572 -0.4283122 -0.37631172 0.9904537 -0.6264181 -0.25502595
00000000: d62f df3d 5fe4 a4be a75a 83be 5c87 31bf
00000010: ec75 bbbe 997b 93be 1b0f 11be 585d 4cbf
00000020: f9e1 12bf 28cb 54be b981 01be b8ec 34be
00000030: f98f 32bf 68f0 e0bd b7b0 93be 8a83 10bf
00000040: 962c 85bf bb5a 043e 542f 49be a2af 9fbe
00000050: 1c51 f93d 3d7e d2be 9fa3 debe 3998 cabe
00000060: a106 24bf fb28 b1be 08cb 82be 213c ffbe
00000070: 1164 cfbe ee3b 233f 0701 3cbf 6de4 7a3c
00000080: 248a fcbb f5d5 c43d b6ea 70be 6b33 2bbe
00000090: df50 7bbe 948e e8be 6368 b1be 3279 38be
000000a0: 04e2 16bf 0d18 f13e 307d d03e 41b4 06be
000000b0: a9fa abbe 8d48 8ebe a4a4 3d3f cd74 48be
000000c0: 06d9 5d3e 0336 2f3f a517 ba3d 30db b93d
000000d0: 73de e93e cc0b e0bd b92f 9bbe b704 b83e
000000e0: dfce 973e 5872 c1bd a729 58bd 99f2 e5bd
000000f0: 2d02 363f b9b2 443f ae10 a2bd 0766 3f3d
00000100: 2118 14bd 996d 9abd c574 1abe d705 03be
00000110: 0b0a 3f3e 8f57 92be ba3a 523e 53b6 dd3d
00000120: 434d 37be f787 d53d 4e31 a13d ba54 9ebd
00000130: fdc8 823e cf4d 13bd 5f0b 0e3d 82f4 26bd
00000140: fbf9 01be cc96 1abe 372f 513c 8ccc 043e
00000150: 3e65 74be 6095 c0be 8d16 153d 71c5 d9bd
00000160: 69be 35be 91fd 633d 01cb 92bd a065 0f3e
00000170: ba3e b33d 33de e8be 5e07 e83d 4fc7 a4bc
00000180: af64 aebe 9118 84be d254 02bf 9dbd 01bf
00000190: eff1 24bf 90d2 3bbf 2f19 de3c 7dff 0fbf
000001a0: e933 20bf 4574 0ebd c5dc f3be 3e4c 27be
000001b0: bb2a d1be 5dfd 9cbe ec26 61be c7a6 8bbe
000001c0: 19a9 8dbd aa57 65bb bd1f 3ebe 8d17 90be
000001d0: c6e1 933e 8978 433d fe3c f6be 3819 7abe
000001e0: 2154 9dbe 9a5d 38be 2d38 00bf bd4b dbbe
000001f0: eeab c0be 608e 7d3f f05c 20bf c392 82be

weight_ih_l0_reverse f4 [128, 16]
0.315769 0.28201726 0.17676622 -0.18473554 -0.4359853 -0.26962802 0.033601873 -0.33219206
0.08233465 0.0548254 0.17725791 0.52697617 -0.16874652 -0.94735557 0.64966965 0.53241324
0.80352205 -0.78791374 -0.10321225 -0.22095287 -0.17465837 0.0057046744 0.34714946 -0.32382068
0.26012424 -0.20372108 0.71966475 -0.2807324 0.47384804 -0.2940962 -0.23478179 0.6762531
0.7308914 -1.2670504 0.80587196 -0.4306922 -0.3121888 -0.30558565 -0.18140154 -0.36869165
0.56608415 -0.14266652 0.03126236 0.14460136 1.0066531 -1.4822471 1.0706286 -0.045243632
1.3535036 -0.15097418 -0.116202235 -0.7802006 0.27617773 -0.11281871 0.06933433 -0.4525564
-0.04319523 -0.19246238 -0.010219039 -0.8575155 -0.47526535 -0.57095104 1.7522851 0.70386624
0.7919475 0.14554568 -0.90276104 -0.15072283 -0.24225947 -0.06772199 -0.14701691 -1.0399791
-0.1042564 0.07629948 0.36910385 -0.011788114 -0.48954505 -0.88824266 -0.13846698 0.023400001
-0.37795973 -0.87545013 0.66470927 -0.43877077 0.011040436 -0.39066753 -0.033304747 0.5497437
0.07407807 -0.10101843 0.82703567 -0.19140327 0.029460905 0.3080145 -0.060607668 0.68376327
-0.10132328 -0.49289742 -0.103031486 0.13416256 -0.3711405 -0.067356095 0.5771583 -0.7035647
0.26877806 -0.158745 -0.14853145 -0.09288916 -0.046981648 -0.13679221 0.5225452 0.18067035
0.43460047 -0.89190406 0.8272215 0.09951428 -0.35879496 -0.05432913 -0.44164652 0.09806979
0.1163944 -0.2487632 0.17297257 -0.10984991 0.3466294 -0.92708087 0.35250825 0.48653662
-0.016206829 0.7898046 -0.13873696 0.37721938 0.27293566 0.06518671 -0.018359339 0.5252141
0.013461229 0.24502783 -0.015936857 0.22769223 0.17987975 0.18585908 -0.56301576 -0.29591203
0.30069613 0.0060326895 -0.15032248 -0.1569264 0.18996623 0.107810944 0.21805686 -0.43195093
-0.24784893 -0.13079236 -0.26222044 -0.1358395 0.16321523 -0.1317027 -0.86150336 -0.13096714
-0.06094937 -0.40997675 -0.5957108 -0.23197897 0.14341353 0.06104401 -0.59445095 0.23430891
-0.0530903 0.036980435 0.308193 0.12438595 0.31871125 -0.15725154 0.10303299 0.6873185
-0.042379834 -0.6547971 0.677377 0.2758761 0.6335502 0.23496234 -0.11939418 0.14372875
-0.046824712 0.11179754 -0.11219162 0.043970317 0.09514012 0.28697652 -0.40172294 -0.21614829
-0.28129622 0.3579083 0.044317808 -0.80087835 0.23797041 -0.22918431 0.21514928 0.0987523
-0.15910167 0.014888319 0.5606409 0.7840371 -0.7213424 0.4107576 0.95555604 -0.04281608
0.0067235786 -0.181545 0.28836244 0.016069502 -0.01159527 0.032671925 0.10425188 -0.022469249
0.08214875 0.27750772 0.39399552 0.19828047 0.16651693 -0.05680755 -0.56046426 0.4513523
-0.27943906 1.033337 -1.1249331 -0.36700952 -0.43738988 0.46284088 -0.5218097 0.23691288
-0.014334884 -0.53164357 -0.84855056 -0.2358261 -0.086470924 0.041038383 -0.5184753 -1.0502328
1.2533199 -0.114145115 0.07554858 1.0060294 -0.08888542 -0.9344268 -0.5749817 -0.12710996
0.31162155 0.111930475 0.027242923 0.61953264 1.0324402 -0.6724188 0.7310719 0.0774529
00000000: 79ac a13e 9164 903e 3402 353e 502b 3dbe
00000010: 7739 dfbe af0c 8abe 1ea2 093d 1415 aabe
00000020: 129f a83d 9990 603d 1983 353e e9e7 063f
00000030: e3cb 2cbe e585 72bf c050 263f 3c4c 083f
00000040: 9fb3 4d3f b7b4 49bf f260 d3bd 7841 62be
00000050: a5d9 32be 47ee ba3b 93bd b13e d3cb a5be
00000060: 012f 853e 429c 50be f33b 383f 28bc 8fbe
00000070: 369c f23e c793 96be a36a 70be ec1e 2d3f
00000080: b31b 3b3f b52e a2bf a04d 4e3f b083 dcbe
00000090: 36d7 9fbe b975 9cbe 53c1 39be 27c5 bcbe
000000a0: e4ea 103f 2c17 12be f60c 003d 6112 143e
000000b0: 02da 803f 46ba bdbf 5c0a 893f 6351 39bd
000000c0: 9b3f ad3f fa98 1abe 70fb edbd 3abb 47bf
000000d0: 2b67 8d3e 7f0d e7bd 28ff 8d3d 79b5 e7be
000000e0: 7bed 30bd dc14 45be c26d 27bc 2386 5bbf
000000f0: fb55 f3be d929 12bf e14a e03f 9430 343f
00000100: 12bd 4a3f ed09 153e 591b 67bf 1657 1abe
00000110: de12 78be d4b1 8abd 9a8b 16be 091e 85bf
00000120: 6184 d5bd e742 9c3d 2efb bc3e ef22 41bc
00000130: a6a5 fabe df63 63bf 4aca 0dbe 5cb1 bf3c
00000140: f083 c1be 801d 60bf 632a 2a3f 90a6 e0be
00000150: f2e2 343c 9305 c8be 8f6a 08bd 01bc 0c3f
00000160: 3eb6 973d c0e2 cebd 9cb8 533f 38ff 43be
00000170: ff57 f13c 14b4 9d3e bf3f 78bd 1c0b 2f3f
00000180: 9482 cfbd 0d5d fcbe 2c02 d3bd e961 093e
00000190: 2106 bebe fef1 89bd a5c0 133f d11c 34bf
000001a0: 479d 893e 0d8e 22be a118 18be ac3c bebd
000001b0: d46f 40bd 4213 0cbe 86c5 053f a601 393e
000001c0: f483 de3e d353 64bf cac4 533f 25ce cb3d
000001d0: f9b3 b7be 3988 5ebd 7e1f e2be d0d8 c83d
000001e0: 3060 ee3d c8bb 7ebe b91f 313e fdf8 e0bd
000001f0: 6979 b13e 2c55 6dbf f67b b43e 541b f93e
00000200: 2fc4 84bc a230 4a3f 1011 0ebe e622 c13e
00000210: 39be 8b3e 9c80 853d 5366 96bc 6e74 063f
00000220: 7d8c 5c3c 93e8 7a3e 038e 82bc 2728 693e
00000230: 6632 383e d851 3e3e cd21 10bf c881 97be
00000240: d8f4 993e dead c53b 23ee 19be 50b1 20be
00000250: 8286 423e fccb dc3d 4c4a 5f3e ac28 ddbe
00000260: 1ccc 7dbe 6fee 05be c241 86be 8319 0bbe
00000270: e521 273e 13dd 06be 7c8b 5cbf 401c 06be
00000280: 0ca6 79bd 79e8 d1be 8180 18bf e58b 6dbe
00000290: ffda 123e 4909 7a3d f02d 18bf adee 6f3e
000002a0: 3775 59bd cc78 173d 79cb 9d3e 10be fe3d
000002b0: 1f2e a33e 8c06 21be f602 d33d 1bf4 2f3f
000002c0: 7a96 2dbd c8a0 27bf 9468 2d3f a23f 8d3e
000002d0: 5930 223f f899 703e f084 f4bd a12d 133e
000002e0: 45cb 3fbd 1cf6 e43d b8c4 e5bd 381a 343d
000002f0: d3d8 c23d 96ee 923e a1ae cdbe fa55 5dbe
00000300: 0f06 90be c23f b73e 9786 353d 5d06 4dbf
00000310: 84ae 733e 4baf 6abe 1850 5c3e a53e ca3d
00000320: 8ceb 22be 23ee 733c 2986 0f3f a8b6 483f
00000330: e5a9 38bf d24e d23e 529f 743f ea5f 2fbd
00000340: 7751 dc3b efe6 39be 3ea4 933e 30a4 833c
00000350: 16fa 3dbc ffd2 053d 0282 d53d 6e11 b8bc
00000360: 9b3d a83d 7e15 8e3e c8b9 c93e 090a 4b3e
00000370: 6a83 2a3e 09af 68bd 967a 0fbf a617 e73e
00000380: a312 8fbe 6344 843f cffd 8fbf ace8 bbbe
00000390: 91f1 dfbe 7bf9 ec3e 5295 05bf 4a99 723e
000003a0: dcdc 6abc cb19 08bf 9c3a 59bf 667c 71be
000003b0: ab17 b1bd dd17 283d ccba 04bf 076e 86bf
000003c0: c96c a03f eac4 e9bd 37b9 9a3d 92c5 803f
000003d0: 8f09 b6bd 9836 6fbf 0032 13bf 1d29 02be
000003e0: dc8c 9f3e ce3b e53d 8d2c df3c b199 1e3f
000003f0: 0027 843f a323 2cbf 8727 3b3f a09f 9e3d

weight_hh_l0_reverse f4 [128, 32]
-0.35695198 -0.034037746 0.07874177 0.94879293 -0.7015102 0.2986402 0.31935507 0.1620154
-0.03162057 -0.08704084 -0.013875688 -0.1759374 -0.0736922 0.05284269 -0.3597193 -0.039272975
0.50959855 0.09389788 0.12648071 -0.30359858 -0.41790554 -0.53609365 -0.14693736 -0.68039143
-0.1951987 0.18561389 0.34215844 -0.20860535 0.05975681 0.015602168 -0.28376812 -0.27228606
-0.05361901 0.11597586 0.86347276 -0.19215977 -0.05234363 -0.21685651 -0.62213814 0.18375869
-0.13409963 -0.22288506 0.16745338 -0.04897803 0.13288522 -0.39052573 1.2294217 -0.6691214
-0.5021351 0.34634188 -0.102591485 0.609299 -0.12624432 0.27221316 0.7074808 0.009071492
-0.48902786 0.1341103 0.20800675 -0.40275466 0.23405726 -0.14709401 -0.17576243 -0.052107584
-0.19762506 0.92737097 -0.08435381 1.123506 0.34529594 -1.4717828 -0.70287937 1.3112617
-0.60563636 -0.2676618 -0.71439743 -1.508505 0.40700665 -0.86847866 -0.55415 -0.46281642
1.2429861 0.03589921 0.15229079 -0.41530916 0.282058 -0.38067865 0.13155292 -1.3752998
0.5237657 0.56184053 1.3975986 -1.0721705 0.48757586 -0.32181522 0.49065286 -0.13098034
0.093434475 -0.14628778 0.0048448374 0.38854536 0.3172572 -0.17214222 -0.27437124 0.2904917
0.6420235 -0.1803634 0.21497871 -0.13689879 0.812384 -0.0009903887 -0.6203323 -0.09032552
-1.0205334 0.20287924 -0.3088711 -0.3684082 0.16599165 0.19329835 0.7669125 -0.14654207
0.20967026 -0.74949515 -0.35499847 -0.17014487 -0.09617195 -0.24205023 0.5630323 0.026903331
-0.6194951 0.5475241 0.35827243 -0.14552194 -0.20584254 -0.14005221 0.58101094 0.3168961
0.34178555 0.11965272 -0.63018644 -0.10924039 -0.58378357 -0.32068983 -1.0698305 0.09111395
0.69189715 -0.46811503 0.1252261 -0.06310978 0.19017433 -0.5031064 -0.722189 -0.83971494
-0.117084876 0.7386756 0.49610794 -0.47607958 0.17706135 -0.07410018 0.6509871 -0.3983335
0.4295807 -0.7065793 1.7536117 0.81940615 0.96590614 0.07064438 -0.27574256 -0.68513066
-0.53094596 0.12361365 -0.101236805 -0.26802036 -0.15185697 0.4258869 1.6827654 -0.52894104
-0.7196933 0.39169672 -0.26356903 0.69828725 0.33101836 0.44347045 0.14923221 0.015444157
-0.69367015 0.27582908 0.36257508 0.12506375 0.29780456 0.7222802 -0.17084138 0.012678926
0.93947303 -0.73736084 1.078196 -0.99940693 -0.759099 0.32045662 -0.3991123 -0.33099645
-0.16243148 -0.09447985 1.1599377 0.8697623 -0.29055044 0.12731063 0.49005798 -0.8369585
-1.4305853 0.37011966 -0.61171055 0.01887097 -0.42920643 -1.7074038 0.35677445 0.3662029
-1.3744744 -0.61677855 -0.0029847098 0.37454504 -0.09519224 1.2117475 -0.597633 0.20946544
-0.21620703 0.4911809 0.47715735 0.99151164 -0.7678011 -0.36833912 -1.1499934 0.44687682
-0.6349345 0.18803613 -0.59391284 -1.1146686 -0.4629217 -0.38502762 -0.19835812 0.28358102
0.28626898 0.8769627 -0.4854652 0.32294235 -0.8345169 -1.105859 0.926669 -1.3344246
0.3400308 0.73285264 0.50782716 -0.7904304 -0.20953204 -0.2632446 -0.2684127 -0.7081862
00000000: 69c2 b6be 2a6b 0bbd 5d43 a13d 18e4 723f
00000010: 2c96 33bf 5ee7 983e 8282 a33e 5de7 253e
00000020: 9284 01bd 7842 b2bd db56 63bc ef28 34be
00000030: f0eb 96bd 9471 583d 212d b8be b3dc 20bd
00000040: 0d75 023f 884d c03d 2984 013e 4671 9bbe
00000050: b7f7 d5be 6f3d 09bf bf76 16be 222e 2ebf
00000060: 2be2 47be 9111 3e3e 642f af3e a49c 55be
00000070: 8fc3 743d 3ca0 7f3c 0e4a 91be 1469 8bbe
00000080: 9b9f 5bbd c084 ed3d 8d0c 5d3f 88c5 44be
00000090: 4666 56bd a20f 5ebe 7244 1fbf 3d2b 3c3e
000000a0: 6a51 09be fb3b 64be e678 2b3e 309d 48bd
000000b0: 1013 083e fdf2 c7be b15d 9d3f 8a4b 2bbf
000000c0: ed8b 00bf b953 b13e 7c1b d2bd 05fb 1b3f
000000d0: 3146 01be 865f 8b3e 761d 353f 98a0 143c
000000e0: dc61 fabe 3654 093e b9ff 543e dc35 cebe
000000f0: b5ac 6f3e d09f 16be 11fb 33be c36e 55bd
00000100: 395e 4abe 2f68 6d3f b1c1 acbd 0bcf 8f3f
00000110: a1ca b03e 6163 bcbf e7ef 33bf 6cd7 a73f
00000120: fc0a 1bbf f80a 89be c0e2 36bf b116 c1bf
00000130: 2d63 d03e 9e54 5ebf c6dc 0dbf 46f6 ecbe
00000140: 2b1a 9f3f 0d0b 133d 1ef2 1b3e 67a3 d4be
00000150: e869 903e 50e8 c2be cfb5 063e d309 b0bf
00000160: 8215 063f c8d4 0f3f 83e4 b23f e23c 89bf
00000170: 8ba3 f93e f7c4 a4be da36 fb3e b61f 06be
00000180: 935a bf3d 77cc 15be 71c1 9e3b 6bef c63e
00000190: 896f a23e 0d46 30be 637a 8cbe 54bb 943e
000001a0: a75b 243f 2fb1 38be 6123 5c3e 322f 0cbe
000001b0: 66f8 4f3f eecf 81ba 19ce 1ebf 96fc b8bd
000001c0: d7a0 82bf 93bf 4f3e 5a24 9ebe 00a0 bcbe
000001d0: b7f9 293e 01f0 453e 6154 443f 200f 16be
000001e0: cdb3 563e eade 3fbf 5cc2 b5be 753a 2ebe
000001f0: cdf5 c4bd 04dc 77be e322 103f 6064 dc3c
00000200: 3b97 1ebf 8a2a 0c3f 7c6f b73e b403 15be
00000210: 63c8 52be d969 0fbe 22bd 143f 3540 a23e
00000220: 84fe ae3e 7c0c f53d e653 21bf 6db9 dfbd
00000230: d772 15bf 7531 a4be 35f0 88bf f399 ba3d
00000240: 2c20 313f c6ac efbe 453b 003e b33f 81bd
00000250: 0fbd 423e 95cb 00bf 61e1 38bf 8ff7 56bf
00000260: 32ca efbd d819 3d3f dc01 fe3e b4c0 f3be
00000270: 924f 353e d6c1 97bd 17a7 263f 5ef2 cbbe
00000280: 00f2 db3e 62e2 34bf 5976 e03f 9ac4 513f
00000290: a045 773f 00ae 903d 212e 8dbe b964 2fbf
000002a0: 13ec 07bf 2729 fd3d 3e55 cfbd f739 89be
000002b0: 6580 1bbe d90d da3e db64 d73f ae68 07bf
000002c0: d23d 38bf 798c c83e 85f2 86be f4c2 323f
000002d0: 3d7b a93e 8f0e e33e 54d0 183e 7d09 7d3c
000002e0: 5e94 31bf 7839 8d3e 71a3 b93e b610 003e
000002f0: d779 983e 5be7 383f 0bf1 2ebe 45bb 4f3c
00000300: 4e81 703f aec3 3cbf 5402 8a3f 22d9 7fbf
00000310: 5054 42bf e412 a43e 7358 ccbe 5e78 a9be
00000320: 7054 26be a77e c1bd d778 943f bea8 5e3f
00000330: 07c3 94be b85d 023e e1e8 fa3e ea42 56bf
00000340: 6b1d b7bf 5380 bd3e 1099 1cbf 4b97 9a3c
00000350: f2c0 dbbe 358c dabf 24ab b63e f27e bb3e
00000360: c7ee afbf 33e5 1dbf 1f9b 43bb 5ec4 bf3e
00000370: 26f4 c2bd 8b1a 9b3f 7afe 18bf 1c7e 563e
00000380: 6065 5dbe 107c fb3e f84d f43e b5d3 7d3f
00000390: 9d8e 44bf f296 bcbe fc32 93bf 0acd e43e
000003a0: 118b 22bf 8b8c 403e ac0a 18bf 76ad 8ebf
000003b0: 1304 edbe 5722 c5be 641e 4bbe 8831 913e
000003c0: d991 923e a180 603f e58e f8be b358 a53e
000003d0: e6a2 55bf ca8c 8dbf 2e3a 6d3f 6dce aabf
000003e0: 8418 ae3e 3b9c 3b3f f600 023f a659 4abf
000003f0: 918f 56be ffc7 86be 646d 89be b14b 35bf

bias_ih_l0_reverse f4 [128]
-0.25388956 -0.10124273 0.04478292 -0.057042286 -0.62586933 -0.09371729 -0.013219623 0.4598958
-0.17116906 -0.10160416 -0.24631482 -0.10029108 -0.30942845 -0.35858127 -0.06805967 -0.12191034
-0.2082795 -0.60725117 -0.2906542 -0.4112414 -0.40084782 0.012393794 0.28836164 -0.17838998
0.22631176 -0.14662202 0.15891166 -0.15013318 -0.49220383 -0.18478589 -0.25333896 -0.28211182
-0.027046079 0.12125708 0.6390649 0.11731942 -0.49985355 0.26111495 -0.1526804 -0.20246018
0.021622388 -0.49019876 0.09313398 -0.11946105 -0.42642894 -0.15514483 -0.16247267 0.34164414
0.17771748 0.07580674 -0.35178086 0.43000785 -0.3741459 0.19893838 -0.20097187 0.6891579
-0.22750868 -0.03155767 1.1377195 0.0003726723 -0.31482038 0.20388937 -0.25276646 -0.21753566
-0.09391221 0.19916399 -0.34684083 0.3772645 0.21498734 -0.20095342 -0.057656985 0.18862303
-0.014536182 -0.06441935 0.0006790608 -0.12832417 -0.09065149 0.017513601 -0.09125242 -0.027781036
0.02833822 -0.15709658 0.07406703 -0.107937075 -0.06321563 0.16767956 0.13928133 -0.1504737
0.033633526 0.10864956 -0.032525912 0.051025335 0.04338162 -0.33033952 -0.006781686 -0.08131649
-0.33890933 -0.02474428 0.12101495 -0.39343458 -0.74459684 0.19576898 0.12599604 -0.16046849
-0.06548116 -0.21897769 -0.2843888 -0.4554284 -0.70476514 -0.29780456 0.28585446 -0.21094167
-0.12984185 -0.3407493 -0.6362676 0.11647023 -0.6644032 -0.24589589 0.05977495 -0.25384003
-0.40981436 -0.5077986 -0.10616903 -0.1324964 -0.5040654 -0.21046644 -0.27029935 -0.22620794
00000000: d0fd 81be 5958 cfbd 4c6e 373d 2ca5 69bd
00000010: f938 20bf daee bfbd 1e97 58bc 7677 eb3e
00000020: f146 2fbe d815 d0bd f439 7cbe 6965 cdbd
00000030: 686d 9ebe f797 b7be de62 8bbd 21ac f9bd
00000040: 3947 55be d074 1bbf a1d0 94be 3c8e d2be
00000050: ed3b cdbe 570f 4b3c 23a4 933e ddab 36be
00000060: 45be 673e 1524 16be bdb9 223e 83bc 19be
00000070: 2402 fcbe 8338 3dbe a5b5 81be f670 90be
00000080: bd8f ddbc a255 f83d c299 233f 2a45 f03d
00000090: ceec ffbe dcb0 853e 4058 1cbe b951 4fbe
000000a0: 6f21 b13c 55fb fabe 07bd be3d ffa7 f4bd
000000b0: e554 dabe 49de 1ebe 3c5f 26be fbeb ae3e
000000c0: 92fb 353e 9040 9b3d 9f1c b4be fd29 dc3e
000000d0: 0d90 bfbe 81b6 4b3e 92cb 4dbe a76c 303f
000000e0: 09f8 68be 9e42 01bd cba0 913f 3b63 c339
000000f0: 2330 a1be 60c8 503e 9b6a 81be abc1 5ebe
00000100: 0b55 c0bd a5f1 4b3e 1f95 b1be d028 c13e
00000110: a425 5c3e bcc6 4dbe bb29 6cbd 6526 413e
00000120: 2b29 6ebc 4bee 83bd 0003 323a 6967 03be
00000130: 7da7 b9bd af78 8f3c 8ce2 babd 0e95 e3bc
00000140: 8e25 e83c eddd 20be 74b0 973d 1d0e ddbd
00000150: 3277 81bd 31b4 2b3e c49f 0e3e c715 1abe
00000160: 4fc3 093d a983 de3d e439 05bd f1ff 503d
00000170: edb0 313d 4322 a9be e838 debb 4389 a6bd
00000180: 8685 adbe 84b4 cabc b0d6 f73d 4270 c9be
00000190: e69d 3ebf aa77 483e 1b05 013e da51 24be
000001a0: fd1a 86bd b03b 60be 699b 91be e92d e9be
000001b0: 7d6b 34bf d779 98be 845b 923e 1801 58be
000001c0: 43f5 04be b176 aebe 6fe2 22bf f287 ee3d
000001d0: 5416 2abf 22cc 7bbe 94d6 743d 52f7 81be
000001e0: 30d3 d1be 17ff 01bf 266f d9bd 23ad 07be
000001f0: 6e0a 01bf 8484 57be ad64 8abe 0ea3 67be

bias_hh_l0_reverse f4 [128]
-0.4677688 0.1331353 -0.2322958 0.15669893 -0.6458141 -0.043535795 -0.13885005 0.4559785
-0.14007984 -0.21316737 -0.110248536 -0.1038981 -0.3018366 -0.19708243 0.09738771 -0.11888034
0.010687158 -0.5870132 -0.43102947 -0.30081224 -0.5049273 0.04931709 0.07257545 -0.050348185
0.30703682 0.07450409 -0.07414359 -0.19317551 -0.32992485 -0.19787921 -0.24224211 -0.07155382
-0.2493586 -0.022565983 0.63369465 0.14326304 -0.7009823 0.33819777 -0.43991256 0.056543674
0.05287246 -0.6107024 0.067487955 -0.11522781 -0.29707515 -0.26079807 -0.18912148 0.40999883
-0.089841016 0.04454621 -0.1992847 0.20693892 -0.2132054 0.20073114 -0.30050194 0.6168152
-0.064128466 -0.019968648 0.96165913 0.25251845 -0.4434207 0.16474652 -0.4217478 -0.24143128
-0.067806765 -0.102800965 -0.054030918 0.25863597 0.18317974 0.045539062 -0.06816405 0.107122526
0.08420272 -0.14575124 -0.095857374 -0.05221822 -0.14539689 -0.061969284 -0.17685391 0.06707104
-0.2792213 0.03705323 0.033664156 0.18726684 0.05837892 0.09893849 -0.063250825 -0.08915556
0.056015827 -0.018612077 0.06390266 -0.0470774 0.041187856 -0.17176317 -0.019233696 -0.10967944
-0.21988663 -0.3429728 0.1224419 -0.6180831 -0.87460643 0.09868442 -0.21781598 -0.1261378
-0.13826914 -0.16628943 -0.1796397 -0.594628 -0.70361674 -0.41558513 0.034382217 -0.119542554
-0.14132372 -0.3547327 -0.58879924 0.11353566 -0.50005126 -0.10181118 0.105888784 -0.088903144
-0.17465647 -0.30536026 -0.09291239 -0.29549217 -0.48429033 -0.19787884 -0.26782155 -0.1784115
00000000: 647f efbe 9f54 083e f3de 6dbe af75 203e
00000010: 1354 25bf 9752 32bd b52e 0ebe 0476 e93e
00000020: 1771 0fbe 8c48 5abe fcc9 e1bd 87c8 d4bd
00000030: 548a 9abe facf 49be 3573 c73d 8977 f3bd
00000040: 3119 2f3c 7f46 16bf e5af dcbe 1004 9abe
00000050: ea42 01bf b800 4a3d 70a2 943d e639 4ebd
00000060: ee33 9d3e 9a95 983d 98d8 97bd cdcf 45be
00000070: e9eb a8be d9a0 4abe 510e 78be cf8a 92bd
00000080: dc57 7fbe 4cdc b8bc d039 223f 8cb3 123e
00000090: 9373 33bf 4228 ad3e 383c e1be 579a 673d
000000a0: cb90 583d fe56 1cbf 2037 8a3d 8ffc ebbd
000000b0: 3c1a 98be 5387 85be 10a9 41be 5eeb d13e
000000c0: 91fe b7bd 1676 363d 4a11 4cbe cce7 533e
000000d0: 8452 5abe 778c 4d3e 64db 99be 9ae7 1d3f
000000e0: c955 83bd 4a95 a3bc 4b2f 763f 194a 813e
000000f0: 0a08 e3be 50b3 283e 54ef d7be c339 77be
00000100: 46de 8abd 5089 d2bd 864f 5dbd ef6b 843e
00000110: 7893 3b3e 2b87 3a3d 9899 8bbd 0e63 db3d
00000120: 7a72 ac3d d03f 15be df50 c4bd c6e2 55bd
00000130: ece2 14be 81d3 7dbd 3119 35be 8b5c 893d
00000140: 18f6 8ebe 21c5 173d 6de3 093d e1c2 3f3e
00000150: bc1e 6f3d 43a0 ca3d a689 81bd 3197 b6bd
00000160: da70 653d 5b78 98bc 66df 823d 3bd4 40bd
00000170: 99b4 283d afe2 2fbe fc8f 9dbc 9d9f e0bd
00000180: f629 61be 219a afbe d2c2 fa3d b23a 1ebf
00000190: 35e6 5fbf 0f1b ca3d 270b 5fbe 442a 01be
000001a0: 6d96 0dbe c747 2abe 78f3 37be 8a39 18bf
000001b0: 3a20 34bf 93c7 d4be 5ed4 0c3d bad2 f4bd
000001c0: 2ab7 10be 869f b5be 8cbb 16bf 6285 e83d
000001d0: 5c03 00bf 6182 d0bd 38dc d83d da12 b6bd
000001e0: 25d9 32be 2e58 9cbe da48 bebd c04a 97be
000001f0: e7f4 f7be c0a0 4abe e81f 89be 81b1 36be

weight f4 [2, 64]
-0.39105216 -0.22968256 -0.054587796 0.3336766 0.061917804 -0.033187494 -0.263314 0.23218375
0.21360324 -0.4022555 -0.401415 -0.31033024 0.077706486 -0.10878037 -0.59712815 -0.089868985
0.5121012 0.6536499 -0.10819928 0.31639692 -0.20835485 -0.02004569 0.06523236 0.34235388
0.66887677 0.17978999 -0.21022639 0.10727583 0.14383462 0.5210394 0.20995432 0.5020876
0.06870101 -0.24354531 0.73645306 0.036534138 0.19642232 0.52666426 0.26636073 -0.24986984
-0.037451297 0.24999402 -0.028043121 0.018739542 0.027745757 0.1836365 -0.2974022 -0.15769666
0.17586812 -0.5750409 0.25411797 -0.18008241 0.07373728 0.541898 -0.28899357 0.7390831
0.031029688 -0.06492415 -0.8343004 0.32884756 0.11155837 0.43544903 0.09911079 0.13369565
0.36492693 0.27586693 -0.017857786 -0.31772554 0.09777007 -0.15962932 0.14815493 -0.18320692
-0.09531921 0.27503157 0.4938282 0.15957592 -0.11376505 -0.073424146 0.7258203 0.11646056
-0.5271772 -0.5423443 0.21071815 -0.21824521 0.28985366 0.19184954 -0.01542075 -0.36779022
-0.62519926 -0.33951777 0.07737842 -0.03315779 -0.0306594 -0.52952254 -0.28701317 -0.4568517
0.0062092077 0.31786817 -0.877496 -0.0009062521 -0.15875936 -0.57428753 -0.43376756 0.1930228
0.11289639 -0.35379776 0.031860847 -0.033429924 0.021896128 0.0047360607 0.082808845 0.29747123
-0.16921544 0.4585852 -0.1822849 -0.014766534 -0.19019601 -0.6268564 0.14458129 -0.76475066
0.016694607 0.0574775 0.76720035 -0.3451818 0.0055721784 -0.40824002 -0.33127952 -0.12837894
00000000: fd37 c8be e831 6bbe 7497 5fbd a9d7 aa3e
00000010: 869d 7d3d 9cef 07bd 18d1 86be 94c1 6d3e
00000020: cfba 5a3e 6ff4 cdbe 4486 cdbe 9be3 9ebe
00000030: 9424 9f3d 3ec8 debd 64dd 18bf 3b0d b8bd
00000040: 1019 033f 9a55 273f 9697 ddbd c7fe a13e
00000050: f95a 55be dc36 a4bc 8b98 853d 0249 af3e
00000060: 823b 2b3f de1a 383e 9645 57be 6eb3 db3d
00000070: 6249 133e d762 053f 44fe 563e d088 003f
00000080: 1db3 8c3d f163 79be 3088 3c3f d2a4 153d
00000090: ef22 493e 78d3 063f 6f60 883e e1dd 7fbe
000000a0: 8866 19bd 6ffe 7f3e b0ba e5bc ab83 993c
000000b0: 124b e33c 350b 3c3e 1a45 98be 3c7b 21be
000000c0: c616 343e e135 13bf c01b 823e 8667 38be
000000d0: 9203 973d d4b9 0a3f f7f6 93be 8d34 3d3f
000000e0: f931 fe3c f4f6 84bd b694 55bf b55e a83e
000000f0: b778 e43d 2df3 de3e 99fa ca3d 83e7 083e
00000100: b4d7 ba3e 6e3e 8d3e 7e4a 92bc ecac a2be
00000110: ad3b c83d de75 23be edb5 173e 989a 3bbe
00000120: b836 c3bd f0d0 8c3e 0dd7 fc3e df67 233e
00000130: a7fd e8bd 665f 96bd 5ccf 393f e082 ee3d
00000140: 16f5 06bf 13d7 0abf 80c6 573e ac7b 5fbe
00000150: b367 943e 3574 443e 50a7 7cbc 004f bcbe
00000160: 0f0d 20bf 46d5 adbe 9478 9e3d 76d0 07bd
00000170: 6c29 fbbc ca8e 07bf 64f3 92be 77e8 e9be
00000180: 9c76 cb3b 9ebf a23e 94a3 60bf 8d91 6dba
00000190: d091 22be 8204 13bf c816 debe c5a7 453e
000001a0: 3936 e73d fb24 b5be 8580 023d d1ed 08bd
000001b0: 825f b33c f530 9b3b af97 a93d 264e 983e
000001c0: d046 2dbe aecb ea3e e5a8 3abe 55ef 71bc
000001d0: bec2 42be a979 20bf 1e0d 143e b3c6 43bf
000001e0: 21c3 883c 876d 6b3d 3e67 443f abbb b0be
000001f0: d296 b63b d604 d1be 789d a9be c575 03be

bias f4 [2]
-0.089470915 0.048644282
00000000: 873c b7bd 3a3f 473d
