m6A_BERT_Stacking/Resnet/model_pth/m_k_bilstm.pth (torch, 69975 bytes, 13 tensors)

weight f4 [64, 16]
0	0xbeda54c0	-0.42642784
1	0xbf1d0ca0	-0.6134739
2	0x3f3a523c	0.7278173
3	0x3f229436	0.635074
4	0xbd39fae0	-0.04540527
5	0x3eb79bc4	0.35861027
6	0x3e294c68	0.16533053
7	0xbed35408	-0.41275048
8	0x3e8d6c28	0.2762158
9	0xbf318ff4	-0.6936028
10	0x3dd1f6e0	0.10252166
11	0x3f51c182	0.81935894
12	0xbf69eba4	-0.91375184
13	0x3f4f98fa	0.810928
14	0x3f1d7c1e	0.6151751
15	0x3d8ffe10	0.070308805
16	0xbeb8df1a	-0.36107713
17	0xbdda818b	-0.106692396
18	0xbe8f8fd7	-0.2803943
19	0x3f030eb3	0.51194304
20	0xbf50d001	-0.8156739
21	0xbf2ea073	-0.68213576
22	0x3f39e7f0	0.72619534
23	0x3f90be01	1.1307985
24	0xbf4df561	-0.80452543
25	0x3f0e0725	0.5547965
26	0x3f6bda23	0.92129725
27	0xbf3b27fd	-0.7310789
28	0x3e82d9ce	0.25556797
29	0xbe721915	-0.2364238
30	0xbe173d47	-0.14769469
31	0x3f16d421	0.58917433
32	0x3e0a7c12	0.13523892
33	0x3e8b924c	0.27260053
34	0x3f2d5b47	0.67717403
35	0x3e95b3e0	0.29238796
36	0x3f18f504	0.59748864
37	0xbeb72d6d	-0.35776845
38	0xbf6177c2	-0.8807336
39	0x3eb0dc2a	0.34542972
40	0x3f4c508c	0.79810405
41	0xbf3d795f	-0.7401332
42	0x3eefefc3	0.4686261
43	0xbdabf953	-0.08397164
44	0x3f5cba2a	0.86221564
45	0x3d5bfed7	0.05370983
46	0xbe91ec75	-0.28500715
47	0xbd46ee46	-0.04856708
48	0x3ee0d86a	0.4391511
49	0x3d766092	0.06015069
50	0xbf679f84	-0.90477777
51	0x3f447935	0.7674745
52	0xbf5b6c94	-0.8571255
53	0xbf69a5ce	-0.9126862
54	0xbe8b24ca	-0.27176505
55	0xbe17aa0c	-0.14810961
56	0xbf1479b8	-0.5799823
57	0xbdde3b89	-0.10851199
58	0x3f5b734f	0.8572282
59	0x3f0f5341	0.5598641
60	0xbf8d2a7c	-1.102859
61	0xbf059750	-0.5218401
62	0xbf58ae16	-0.84640634
63	0xbf76f589	-0.96468407
64	0x3f03cd7c	0.5148542
65	0xbed5a6ec	-0.41728914
66	0x3f195137	0.5988955
67	0x3f14d076	0.58130586
68	0xbf87de83	-1.061478
69	0xbf729dc4	-0.9477198
70	0xbec606cf	-0.3867707
71	0x3ea58b2d	0.32332745
72	0xbf293c78	-0.66107893
73	0x3f8bdfb6	1.0927646
74	0x3f573264	0.84061265
75	0x3f7156a5	0.94272834
76	0x3e86f3b3	0.26357803
77	0xbf1c98ff	-0.61170954
78	0x3f04b494	0.5183804
79	0x3f64688f	0.89222044
80	0xbec63107	-0.3870928
81	0xbf7a3a2a	-0.97745
82	0xbe9a9d4a	-0.30198127
83	0xbec6e7e1	-0.38848785
84	0xbd5f2153	-0.05447514
85	0xbf026006	-0.5092777
86	0xbf28176e	-0.6566075
87	0x3eb01851	0.34393552
88	0x3da91b39	0.082571454
89	0xbec57461	-0.38565353
90	0xbeb97ec5	-0.3622953
91	0xbe0995f0	-0.13436103
92	0x3e3e1d00	0.1856575
93	0x3f2ffce4	0.68745255
94	0xbef2245d	-0.47293368
95	0x3edd9b60	0.43282604
96	0x3ebf1a5a	0.37324792
97	0xbed370d4	-0.4129702
98	0x3d573909	0.052544627
99	0xbe8c6f16	-0.27428502
100	0xbccb7695	-0.024836818
101	0x3dbdf33f	0.09274911
102	0xbf40c684	-0.7530291
103	0xbe83f2ef	-0.2577128
104	0x3f061043	0.52368563
105	0xbf499131	-0.7873717
106	0x3f6e0042	0.92969143
107	0xbf8b3415	-1.0875269
108	0x3ebb056e	0.3652758
109	0x3df5af7b	0.11996361
110	0xbe879f81	-0.2648888
111	0x3f847cea	1.0350621
112	0x3f19c30d	0.6006325
113	0xbeb91085	-0.36145416
114	0x3f069aed	0.5258015
115	0x3eabafe3	0.33532628
116	0x3de3f099	0.11129875
117	0xbf2853a9	-0.65752655
118	0x3ee96e0e	0.45591778
119	0x3e6298f8	0.22128665
120	0xbd9a4d0c	-0.07534227
121	0xbeb59ab3	-0.3546959
122	0xbf46d357	-0.7766623
123	0xbedd9f43	-0.4328557
124	0x3f56e18a	0.83937895
125	0xbeeb9f14	-0.46019804
126	0x3f08f949	0.5350538
127	0xbf72af31	-0.9479857
128	0x3ea98895	0.33112016
129	0x3ee22654	0.44169867
130	0xbf68e37a	-0.909721
131	0xbde8daa8	-0.1136983
132	0x3ed46097	0.41479942
133	0xbf3e57f8	-0.7435298
134	0xbf49619d	-0.7866457
135	0x3f77ac7e	0.9674758
136	0xbf385cc9	-0.7201658
137	0xbf30bd62	-0.69038975
138	0xbf0af522	-0.54280293
139	0x3f61e76f	0.88243765
140	0xbe82f15d	-0.2557477
141	0xbe44fdb9	-0.19237413
142	0x3f6ceb09	0.92546135
143	0x3f56e80e	0.8394784
144	0xbf7e24b8	-0.9927478
145	0xbf04c450	-0.5186205
146	0x3f26be8d	0.6513451
147	0x3f5e5105	0.86842376
148	0x3ebc2f3d	0.3675479
149	0xbe1f7c41	-0.15574743
150	0x3f69d26f	0.9133672
151	0xbf80c450	-1.005991
152	0xbf176cdf	-0.591505
153	0xbe023fc5	-0.12719639
154	0x3cca3610	0.024683982
155	0x3f2a005c	0.664068
156	0x3f693817	0.9110121
157	0xbf0dd982	-0.55410016
158	0x3e29a1a9	0.16565575
159	0x3ec52de7	0.38511583
160	0xbf8129f0	-1.0090923
161	0xbe2eca38	-0.17069328
162	0xbf2ad6de	-0.6673411
163	0x3f9261ad	1.1436058
164	0xbe0c5740	-0.13705158
165	0x3f36ab94	0.7135556
166	0x3e5a845c	0.21339554
167	0x3e2b4e5d	0.16729112
168	0xbcccecba	-0.025015224
169	0x3edba0e9	0.42896202
170	0xbe97cdea	-0.29649287
171	0x3eb11e29	0.34593323
172	0x3e69c722	0.2282987
173	0x3f7880e7	0.9707169
174	0xbedb810d	-0.42871895
175	0xbf6f8784	-0.93566155
176	0x3dc3ab64	0.095541745
177	0x3e74be52	0.23900726
178	0xbe5926e5	-0.21206243
179	0x3f21085c	0.6290338
180	0x3f449031	0.7678252
181	0x3ed89201	0.42298892
182	0xbea9a68a	-0.33134872
183	0x3f91cbd7	1.1390332
184	0x3ecd5cbd	0.40109816
185	0xbf6d7915	-0.9276288
186	0xbe97a2fc	-0.29616535
187	0x3f847f5e	1.0351369
188	0x3ef1bf87	0.47216436
189	0x3f6cb945	0.924702
190	0x3ed3f7ad	0.413999
191	0xbe9ec3c3	-0.3100873
192	0xbf15d26e	-0.58524215
193	0x3ebd3590	0.36954927
194	0xbe84de2c	-0.25950754
195	0xbf83cf27	-1.0297593
196	0xbd3e82d7	-0.046511497
197	0xbec107a7	-0.3770115
198	0xbab76e56	-0.0013994675
199	0xbf16c81c	-0.5889909
200	0xbe916418	-0.28396678
201	0x3c88dd75	0.016707161
202	0x3ed6dfc9	0.4196761
203	0x3f26945f	0.65070146
204	0xbec003b9	-0.3750284
205	0x3f929f76	1.1454914
206	0xbf9b4cfb	-1.2132868
207	0x3cba9565	0.022776315
208	0xbf759896	-0.9593595
209	0x3ee66cc2	0.4500485
210	0xbe5adda4	-0.21373612
211	0x3e6a386f	0.2287309
212	0x3ee49e60	0.4465208
213	0xbf359737	-0.7093386
214	0x3f242e5f	0.64133257
215	0x3f15abf2	0.5846549
216	0xbf283080	-0.65699005
217	0xbe64dbd1	-0.22349478
218	0xbe736e20	-0.23772478
219	0x3d3832ae	0.044970207
220	0x3dcaea49	0.099079676
221	0xbd8908c6	-0.066911265
222	0xbd0be0da	-0.034149982
223	0x3e31ebe3	0.1737514
224	0x3e17cad7	0.14823471
225	0x3af99b10	0.0019043405
226	0x3ebdc229	0.37062195
227	0xbd8cc4a9	-0.068734474
228	0xbee496e2	-0.44646364
229	0x3f15bf88	0.5849538
230	0x3f562c71	0.8366156
231	0xbdc16294	-0.094426304
232	0x3eb0edb8	0.34556365
233	0xbd9e162c	-0.07719073
234	0xbed73527	-0.4203274
235	0x3f02bc2b	0.5106837
236	0xbee2fe7e	-0.44334787
237	0x3cdf52de	0.027261194
238	0x3ebfb597	0.3744323
239	0xbf4f1613	-0.8089306
240	0xbedfae3d	-0.4368762
241	0xbe7165c3	-0.23573975
242	0x3f62f94a	0.88661635
243	0x3f03c747	0.5147595
244	0x3e073bf9	0.13206472
245	0xbd8df33a	-0.069311574
246	0xbf79cd37	-0.9757876
247	0x3eb211af	0.34779117
248	0x3f609109	0.87721306
249	0xbe32dd35	-0.17467196
250	0xbf31d61b	-0.69467324
251	0x3f6c433e	0.92290103
252	0x3f40522d	0.7512539
253	0xbcbf15f1	-0.023325892
254	0x3c5a55e6	0.013326144
255	0xbefcd875	-0.49383894

weight_ih_l0 f4 [128, 16]
0	0x3df17298	0.11789435
1	0xbd0afaa1	-0.033930425
2	0xbd9ae440	-0.075630665
3	0x3e8ce962	0.27521807
4	0x3d492ee6	0.04911699
5	0xbe49a6c0	-0.19692516
6	0xbdd823fa	-0.10553737
7	0xbe3826d8	-0.17983568
8	0xbe545b8b	-0.20738046
9	0x3deb937b	0.11502739
10	0x3e0fa80d	0.1402895
11	0x3cdb4631	0.026766868
12	0xbd883196	-0.06650083
13	0xbd8fe4f4	-0.07026091
14	0xbe202ca5	-0.1564203
15	0x3e0f7857	0.1401075
16	0xbe37ca12	-0.17948177
17	0xbe19ad2f	-0.1500747
18	0x3d042d48	0.032269746
19	0x3ee4a490	0.446568
20	0x3d794a61	0.06086195
21	0xbe626e4a	-0.22112384
22	0xbe69479a	-0.2278122
23	0xbe109a4a	-0.14121357
24	0xbe914777	-0.28374836
25	0xbcc848ef	-0.02444884
26	0x3da13ce7	0.07872944
27	0xbd4bfade	-0.049799792
28	0x3b87b905	0.004141929
29	0x3dba2fd3	0.09091153
30	0x3d5ba3d9	0.053623054
31	0x3daaffb2	0.08349551
32	0x3e3f1e7a	0.1866397
33	0xbe26ca2b	-0.16288058
34	0x3e303058	0.17205942
35	0xbe84da5b	-0.25947842
36	0xbd5b9661	-0.05361021
37	0xbd16f5cf	-0.036855515
38	0x3e60d43d	0.21955962
39	0x3ca41b2e	0.020032492
40	0xbddc7bc4	-0.10765794
41	0xbc424ac8	-0.01185865
42	0xbe549216	-0.20758852
43	0x3db1042a	0.08643372
44	0xbe295314	-0.16535598
45	0xbe48b622	-0.19600728
46	0x3e2cdab7	0.16880308
47	0xbdee95b8	-0.1164965
48	0x3e41225c	0.18860763
49	0xbe0c741f	-0.13716172
50	0x3d18489d	0.037178624
51	0x3e0cd976	0.1375483
52	0xbecf76c1	-0.4052029
53	0xbe0a4f6f	-0.13506864
54	0xbe1bc665	-0.152124
55	0xbe70f506	-0.23530969
56	0xbd284acc	-0.041086957
57	0x3ea83c3d	0.32858458
58	0x3e29342d	0.1652381
59	0x3e5d447a	0.21608153
60	0xbc4fb686	-0.012677794
61	0xbe32fd9f	-0.17479561
62	0x3e0025e6	0.12514457
63	0xbe3825ea	-0.17983213
64	0x3dbcfc3a	0.09227796
65	0xbe2a0fd2	-0.16607597
66	0xbd84c88c	-0.06483564
67	0x3e412c5f	0.18864582
68	0x3c34574d	0.011007142
69	0x3e7ddf54	0.24792224
70	0x3d5bcb1b	0.053660493
71	0xbedb2876	-0.42804307
72	0x3e33edbd	0.17571159
73	0x3ef0ffa7	0.47070047
74	0xbe6cc76f	-0.23122953
75	0xbd8f044c	-0.069832414
76	0xbda146b5	-0.078748144
77	0xbd865b61	-0.06560398
78	0x3d0a7c2d	0.03380983
79	0xbed667f9	-0.418762
80	0xbe3bfefd	-0.18358989
81	0xbcff0e43	-0.03113473
82	0xbd8336e3	-0.06406953
83	0xbdc22822	-0.09480311
84	0xbba18515	-0.0049291947
85	0x3e19941d	0.14997907
86	0x3e5e35a0	0.21700144
87	0xbd4e7044	-0.050400034
88	0xbe14f4c0	-0.1454649
89	0xbdc1ef41	-0.09469462
90	0xbd32375e	-0.043509834
91	0x3e0910eb	0.1338536
92	0x3e045c27	0.12925778
93	0xbd470fb2	-0.048598953
94	0xbe8ef37b	-0.27920136
95	0x3d96046a	0.07325061
96	0xbd87e7f8	-0.066360414
97	0xbe211db0	-0.15733981
98	0xbb763d7d	-0.003757327
99	0x3e36be44	0.17846018
100	0x3df63e9b	0.1202366
101	0xbc8736f9	-0.016505705
102	0x3d60588d	0.05477195
103	0x3d9a2a5d	0.075276114
104	0xbdec1774	-0.11527911
105	0x3e04f4d2	0.12984017
106	0x3d58458f	0.05280071
107	0xbd947b84	-0.07250121
108	0xbd2d3e1d	-0.042295564
109	0xbdbb7a8e	-0.09154235
110	0x3b302d9a	0.002688265
111	0x3e032031	0.12805249
112	0xbd4929a5	-0.04911198
113	0x3e648128	0.22314894
114	0xbe142e40	-0.14470768
115	0xbd99a686	-0.07502465
116	0x3d8fedc3	0.07027771
117	0x3d6e1105	0.0581217
118	0xbd19a9f1	-0.037515584
119	0x3dac2c55	0.08406893
120	0x3c8ab499	0.016931819
121	0x3ea155fd	0.31510916
122	0xbee219f3	-0.44160423
123	0xbd433db4	-0.047666267
124	0xbe560f7f	-0.20904349
125	0xbe0184a1	-0.1264825
126	0xbbcb2339	-0.006199267
127	0xbe8268d3	-0.254706
128	0xbd0b665a	-0.034033157
129	0xbdee31d2	-0.11630596
130	0xbec475c1	-0.3837109
131	0xbe88fd47	-0.26755735
132	0x3dbeb519	0.093118854
133	0x3dbb22f8	0.09137529
134	0xbe8a01d8	-0.26954532
135	0xbd0f3a79	-0.034967873
136	0xbda609e0	-0.08107352
137	0x3e0c796c	0.13718194
138	0xbb8a09f0	-0.0042126104
139	0x3d67e899	0.056618307
140	0xbdd5ce61	-0.10439754
141	0xbe5e46f5	-0.21706755
142	0xbd655196	-0.05598601
143	0x3e52bd8a	0.20580116
144	0x3e14de10	0.14537835
145	0xbe29bee5	-0.16576727
146	0x3d635470	0.055500448
147	0x3cc6c98c	0.024266027
148	0xbbf799c9	-0.0075561744
149	0xbe3fb6ad	-0.18722029
150	0xbc1d98de	-0.009618966
151	0x3c95498f	0.018223552
152	0x3df130b7	0.1177687
153	0x3db4646d	0.08808217
154	0x3dbdffdf	0.09277319
155	0x3dd361d2	0.10321392
156	0xbe1bdc3c	-0.15220731
157	0xbe98a2da	-0.29811746
158	0x3d337999	0.043817136
159	0x3e254bcd	0.16142197
160	0x3e334804	0.1750794
161	0xbdaa369f	-0.083111994
162	0x3db0f524	0.08640507
163	0xbd915040	-0.070953846
164	0x3df5f85c	0.120102614
165	0xbe89d736	-0.26922005
166	0x3c8dd4bb	0.017313352
167	0x3e314429	0.17311157
168	0x3d82843b	0.06372877
169	0x3dd435af	0.10361802
170	0xbd807d27	-0.06273871
171	0xbd2185af	-0.03943413
172	0x3c14b4c2	0.009076299
173	0xbe28a663	-0.16469721
174	0xbdb5ff2e	-0.08886562
175	0xbcd2e1be	-0.025742408
176	0xbc7198a9	-0.01474587
177	0x3d9e4545	0.07728056
178	0xbe2b3b6c	-0.16721886
179	0xbe4b19c9	-0.19834055
180	0x3ce63117	0.02809958
181	0x3c2856de	0.010274617
182	0xbd10f09d	-0.035385717
183	0xbe8a5497	-0.27017662
184	0x3df806cc	0.121106714
185	0x3d14bafd	0.03631114
186	0xbd3ce2e8	-0.046114832
187	0xbe02246e	-0.1270921
188	0xbdfdc16c	-0.12390408
189	0xbe91149b	-0.28336033
190	0x3e9e72f0	0.30947065
191	0x3dec5f7b	0.11541649
192	0xbe191075	-0.14947684
193	0x3d8db452	0.06919159
194	0x3df349d5	0.11879317
195	0xbdfaa0af	-0.12237679
196	0x3b98f654	0.0046680365
197	0x3e49ecd2	0.19719246
198	0x3e7a8864	0.24466091
199	0xbca0e088	-0.019638315
200	0xbce4105b	-0.02783983
201	0xbd3d5e30	-0.046232402
202	0xbe668b77	-0.22514139
203	0xbe7053cc	-0.23469466
204	0x3e9d7fba	0.3076151
205	0x3d363812	0.044487067
206	0xbcfc3bad	-0.030790174
207	0x3db3b32f	0.08774411
208	0x3ca39284	0.019967325
209	0xbe8beb15	-0.2732779
210	0x3e22eec2	0.15911391
211	0x3dec0dde	0.115260825
212	0x3e067cf8	0.1313361
213	0xbcde6bd4	-0.027151026
214	0xbe9216de	-0.2853307
215	0x3e2a425e	0.1662688
216	0x3d8df1d4	0.06930891
217	0x3d67084c	0.056404397
218	0x3e0ccf63	0.13750987
219	0x3e02ded9	0.12780322
220	0x3cef1fca	0.029189963
221	0xbd8ffb36	-0.070303366
222	0x3dacfba8	0.08446437
223	0x3de3d2c4	0.11124185
224	0xbdff0540	-0.12452173
225	0x3d82fd6c	0.06395993
226	0xbd797ba0	-0.060908914
227	0x3ef5c6b9	0.48003176
228	0xbdbac6af	-0.09119927
229	0xbe34b504	-0.17647177
230	0xbc228ad5	-0.009920795
231	0xbe4b5484	-0.19856459
232	0xbe611121	-0.2197919
233	0x3e41a3b7	0.18910109
234	0x3d1f264d	0.038854886
235	0xbdf21a14	-0.1182138
236	0x3dd65a0e	0.10466395
237	0x3d97ad57	0.07406109
238	0xbe5ab80d	-0.21359272
239	0x3d4239e0	0.047418475
240	0xbde23ae8	-0.11046392
241	0xbd9c0e32	-0.07619895
242	0x3eb2644f	0.34842154
243	0xbe9b878c	-0.30376852
244	0xbe453dc4	-0.19261843
245	0x3da3cb8f	0.0799781
246	0x3d0669c9	0.03281573
247	0x3e050125	0.12988718
248	0xbe750ecc	-0.23931426
249	0x3d2045ad	0.039128948
250	0xbce48960	-0.027897537
251	0x3e85214d	0.2600197
252	0x3e3ebbc7	0.18626319
253	0x3c0b6927	0.008508957
254	0x3e8da0cf	0.2766175
255	0x3ec15314	0.37758696

weight_hh_l0 f4 [128, 32]
0	0xbe8ff379	-0.28115442
1	0xbce76edd	-0.028251106
2	0xbd202a1e	-0.039102666
3	0x3e18647a	0.14882079
4	0xbabefc4a	-0.0014571038
5	0xbdba7b3e	-0.09105538
6	0x3d52b72e	0.051444225
7	0xbe994cf4	-0.29941523
8	0x3cfc2f77	0.030784352
9	0xbcc77a63	-0.02435035
10	0xbe27d9db	-0.16391699
11	0x3d39155b	0.04518638
12	0x3e1003d5	0.14063962
13	0xbda22af9	-0.07918353
14	0xbd80b355	-0.06284205
15	0x3e51b623	0.20479636
16	0x3dfc920a	0.12332542
17	0xbc941ebf	-0.018081067
18	0x3d5d887b	0.054085236
19	0xbdc071fd	-0.093967415
20	0x3e8c7f3d	0.27440825
21	0xbdc96e5d	-0.09835503
22	0xbd066baa	-0.03281752
23	0x3e2a6ecf	0.16643833
24	0xbb8a9652	-0.0042293454
25	0x3d8c9ddd	0.068660475
26	0x3dc2b46c	0.09507069
27	0x3dd46204	0.103702575
28	0x3e64a099	0.22326888
29	0x3dbcfc49	0.09227807
30	0x3da3a8d5	0.079911865
31	0x3e2e5eb3	0.17028312
32	0xbd89af56	-0.06722896
33	0xbe26b0a0	-0.16278315
34	0xbdb75aba	-0.089528516
35	0x3e33ab8d	0.1754591
36	0xbd8a6796	-0.06758039
37	0xbe28bb99	-0.16477813
38	0xbe6f52c9	-0.23371424
39	0x3cd2f7a9	0.02575286
40	0xbe373b70	-0.17893767
41	0x3c268ff3	0.010166156
42	0x3db48d04	0.08815959
43	0x3dac4f5b	0.08413573
44	0x3d3a5d2a	0.045499004
45	0xbc91ab3e	-0.01778185
46	0x3dde75f7	0.10862344
47	0x3e9b194d	0.3029274
48	0xbbe27367	-0.0069107297
49	0x3e67bbe2	0.22630265
50	0x3d3bb62f	0.04582804
51	0xbb1204d6	-0.0022280714
52	0x3e37bc86	0.1794301
53	0x3d4f6e74	0.050642446
54	0x3d5dc0af	0.054138836
55	0xbd55c3e8	-0.052188784
56	0x3da05f6d	0.07830701
57	0x3e8083ff	0.25100705
58	0x3e529daf	0.20567964
59	0xbdf8651a	-0.121286586
60	0xbd961246	-0.07327704
61	0xbd32ab8b	-0.043620627
62	0xbd8d2fb2	-0.06893863
63	0x3c3757e0	0.011190385
64	0x3e19f0ae	0.15033218
65	0xbdcc051e	-0.099619135
66	0xbd324ee2	-0.04353226
67	0xbd3d8a99	-0.046274755
68	0x3e44fd76	0.19237313
69	0x3d5b6066	0.05355873
70	0x3d49318f	0.04911953
71	0x3e3e89d8	0.1860727
72	0xbd6a329c	-0.05717717
73	0x3e9178b6	0.28412408
74	0x3e4e09d6	0.2012094
75	0xbd19379b	-0.037406545
76	0x3da1dc81	0.07903386
77	0x3ea36040	0.3190937
78	0x3e76b88d	0.24093838
79	0xbe052694	-0.13002998
80	0xbe2ff440	-0.17183018
81	0xbea11e8b	-0.31468615
82	0x3e6448ff	0.22293471
83	0xbe84dee4	-0.25951302
84	0x3ea29a44	0.3175832
85	0x3d691286	0.05690243
86	0x3e122dc8	0.14275277
87	0xbe1c8e14	-0.15288574
88	0xbe7ca9c8	-0.24674141
89	0xbee090e3	-0.4386054
90	0x3be51f02	0.006992222
91	0x3db1bf6f	0.08679091
92	0xbe8ddf14	-0.27709258
93	0xbe25694f	-0.16153453
94	0x3c81e414	0.015855826
95	0x3d60a3d8	0.054843754
96	0x3baea9b6	0.0053302897
97	0x3bc74406	0.006081107
98	0x3e01135e	0.12605044
99	0xbd915dc5	-0.07097963
100	0xbd551cb5	-0.05202933
101	0xbe835eef	-0.25658366
102	0x3d8f0889	0.0698405
103	0xbe9d9bc9	-0.30782917
104	0xbe978a02	-0.2959748
105	0xbd93f858	-0.07225102
106	0xbb6fb70f	-0.0036577617
107	0xbe0c578c	-0.13705271
108	0xbe420024	-0.18945366
109	0xbe2e1a97	-0.1700233
110	0x3e1039d8	0.14084566
111	0x3edbc4c2	0.42923552
112	0x3db13728	0.08653098
113	0xbdd2ce72	-0.102932826
114	0x3e1eb965	0.1550041
115	0xbdf201d5	-0.11816756
116	0x3dbb5880	0.091477394
117	0xbd80cd7d	-0.06289194
118	0xbafe775c	-0.0019414234
119	0x3d310429	0.043216858
120	0x3e12019d	0.14258428
121	0x3e8293d0	0.25503397
122	0x3e1a7b23	0.15086035
123	0xbe043677	-0.12911402
124	0xbddd1693	-0.10795321
125	0xbe32cfe7	-0.17462121
126	0xbe19a3d2	-0.15003899
127	0x3ccf8c1d	0.025335366
128	0x3e316270	0.17322707
129	0x3cf238c2	0.02956808
130	0xbddf371d	-0.10899184
131	0xbd86a7e7	-0.065749936
132	0xbcddf2d0	-0.027093321
133	0xbd9caa73	-0.07649698
134	0x3e1e9792	0.15487507
135	0x3d1c1aa9	0.038111363
136	0xbdbf32ae	-0.09335838
137	0xbcdf437b	-0.027253857
138	0x3df79bc9	0.120902605
139	0xbdedc599	-0.116099544
140	0xbde36937	-0.111040525
141	0xbe7b976f	-0.24569486
142	0x3c7f277a	0.015573377
143	0xbcc4fefd	-0.02404737
144	0x3d9527a6	0.07282953
145	0xbcc04fb5	-0.023475507
146	0x3d1b762a	0.037954487
147	0xbdd43b6e	-0.10362898
148	0xbd611dac	-0.054959938
149	0x3d1f67cd	0.03891735
150	0x3bb32cba	0.0054679783
151	0xbdd61b34	-0.10454407
152	0x3e695dfd	0.2278976
153	0xbd7c8a62	-0.06165541
154	0xbceb9206	-0.028756153
155	0xbd206eb9	-0.039168093
156	0x3e91dd29	0.28489044
157	0xbbafba74	-0.005362803
158	0x3de7534f	0.11295187
159	0x3e4b1fd8	0.19836366
160	0xbdc5aed7	-0.09652489
161	0xbe9de60c	-0.30839574
162	0xbe9a8347	-0.30178282
163	0x3b126218	0.00223363
164	0x3da5965b	0.08085319
165	0xbdedabb0	-0.116050124
166	0xbde957ad	-0.11393676
167	0xbea6e3d2	-0.32595688
168	0x3c6649de	0.014055697
169	0xbe28289a	-0.16421738
170	0xbe2b133d	-0.16706558
171	0x3d8da13a	0.06915517
172	0xbd8798c9	-0.06620938
173	0x3df84dd2	0.12124218
174	0xbd1498d8	-0.036278576
175	0x3e8493b7	0.25893947
176	0xbd49527d	-0.049150933
177	0xbd8b1015	-0.06790177
178	0x3d20ba43	0.039240133
179	0x3d048a08	0.0323582
180	0x3e554c00	0.20829773
181	0x3e6a0d0f	0.22856544
182	0xbe96e37b	-0.2947043
183	0xbdaf4fb7	-0.08560126
184	0xbde647ba	-0.112441495
185	0x3e0e6401	0.13905336
186	0x3ceff355	0.029290834
187	0x3dafd438	0.085853994
188	0x3e3b0c7b	0.1826648
189	0xbe58701c	-0.21136516
190	0xbcc66a71	-0.024220677
191	0x3e4f54db	0.20247214
192	0xbe35fcd2	-0.17772225
193	0xbe1b8604	-0.15187842
194	0xbd8f0877	-0.069840364
195	0x3e6e8c23	0.23295645
196	0xbe405875	-0.18783744
197	0xbde6f6a5	-0.112775125
198	0xbdff9754	-0.124800354
199	0xbdd09b9e	-0.101859316
200	0x3e21b942	0.15793326
201	0xbdc739eb	-0.09727844
202	0xbe0f6930	-0.1400497
203	0x3d41de41	0.0473311
204	0xbd2c7cf4	-0.042111352
205	0x3dc699db	0.09697314
206	0xbdcd92e5	-0.100377835
207	0x3e0b9884	0.13632399
208	0x3df90d4d	0.1216074
209	0x3dac884c	0.08424434
210	0x3d647b40	0.055781603
211	0xbd3e5f72	-0.046477742
212	0x3e848c32	0.2588821
213	0x3d442192	0.047883578
214	0xbe6de3c1	-0.23231412
215	0xbdce64bc	-0.10077807
216	0xbcfa3ec2	-0.030547503
217	0x3eba5b44	0.36397755
218	0x3e5af375	0.21381934
219	0x3e51bc8f	0.20482086
220	0x3e7d12bb	0.24714176
221	0xbe07b4eb	-0.13252608
222	0x3d84d819	0.0648653
223	0xbc0084c4	-0.007844154
224	0x3d165bd7	0.03670868
225	0xbe264a37	-0.16239248
226	0x3decdfbd	0.11566112
227	0xbcab0afd	-0.020879263
228	0xbdd134a8	-0.102151215
229	0xbcc6a04f	-0.024246363
230	0x39edff6d	0.0004539447
231	0xbd8f8c2a	-0.07009156
232	0xbe3fd49b	-0.18733446
233	0x3e2fb1b3	0.1715763
234	0x3dc999df	0.09843802
235	0xbd889e72	-0.06670846
236	0xbe1b7d9f	-0.1518464
237	0xbdf38360	-0.11890292
238	0x3b14a453	0.0022680953
239	0xbdfb6b46	-0.1227632
240	0x3d466020	0.048431516
241	0xbe8966ab	-0.26836142
242	0x3d7ad905	0.061242122
243	0xbe0050f6	-0.12530884
244	0x3e3032a6	0.17206821
245	0x3e76adb8	0.24089706
246	0xbd076e01	-0.033063892
247	0xbe5519f0	-0.20810676
248	0x3e06d6cf	0.1316788
249	0xbe6ee6f9	-0.23330297
250	0xbb959645	-0.0045650327
251	0x3e075ea9	0.13219704
252	0xbc3308f8	-0.010927431
253	0x3e041fd3	0.12902765
254	0xbcc08377	-0.023500187
255	0xbd273366	-0.0408205

bias_ih_l0 f4 [128]
0	0x3d1859a3	0.03719486
1	0x3d25431c	0.040347204
2	0x3e414351	0.18873335
3	0xbc333021	-0.010936768
4	0x3e1beb47	0.1522647
5	0x3e67e38b	0.22645395
6	0x3d57fd2c	0.052731678
7	0x3cea9a96	0.028638165
8	0xbce90f11	-0.028449567
9	0x3dcf7d64	0.10131338
10	0x3e5a9b14	0.2134822
11	0x3deb2b5e	0.11482881
12	0x3df89096	0.121369526
13	0xbc3c9b85	-0.011511688
14	0xbe01de81	-0.12682535
15	0x3e485abb	0.19565861
16	0xbd291f71	-0.04128975
17	0x3e26513e	0.16241929
18	0xbcd1d131	-0.025612446
19	0xbe2a6295	-0.16639169
20	0x3e20f49b	0.1571831
21	0x3d15f058	0.036606163
22	0x3eb56039	0.35424975
23	0x3ce929e6	0.028462362
24	0xbd984572	-0.07435121
25	0x3e354358	0.17701471
26	0xbc9ef3c3	-0.019403344
27	0xbdfbf3a5	-0.12302331
28	0x3d9117dc	0.07084629
29	0x3d98c080	0.074585915
30	0xbce1b4cc	-0.027552031
31	0xbe0e1c0f	-0.13877891
32	0x3dcf7564	0.10129812
33	0xbce27574	-0.027643897
34	0x3dd40234	0.10351983
35	0xbc63522f	-0.013874575
36	0x3df1f523	0.11814334
37	0xbd8dced9	-0.06924219
38	0x3d14fdb5	0.036374766
39	0xbde41855	-0.111374535
40	0xbdb24607	-0.08704763
41	0xbd21d024	-0.03950514
42	0xbd341de8	-0.043973833
43	0xbdf9cbf3	-0.12197103
44	0xbd3e7396	-0.04649695
45	0x3e5da898	0.21646345
46	0xbc1b111a	-0.009464527
47	0x3e422def	0.18962835
48	0x3d8ae6bf	0.067822926
49	0x3d9895bc	0.074504346
50	0x3dee305b	0.11630317
51	0xbdb10154	-0.086428314
52	0xbd04d78f	-0.032432135
53	0x3e00d739	0.12582101
54	0x3e51cf9e	0.20489356
55	0x3e10779c	0.14108127
56	0xbd67225c	-0.056429252
57	0x3e5ee640	0.21767521
58	0x3e1db1e0	0.15399885
59	0x3dcda372	0.1004094
60	0x3d109096	0.035294138
61	0xbd8c2d0e	-0.06844531
62	0x3da053c9	0.07828481
63	0xbdb8f2ea	-0.09030707
64	0xbafed1ce	-0.0019441189
65	0xbd95d2f6	-0.07315628
66	0xbdc865d9	-0.09785051
67	0x3d122f0a	0.03568939
68	0xbdba846a	-0.09107287
69	0xbc4b0ac0	-0.0123927
70	0xbde67172	-0.11252107
71	0xbdc3a668	-0.09553224
72	0xbe030d44	-0.12798029
73	0xbda60dd6	-0.08108108
74	0x3db4220e	0.08795558
75	0xbccde3a6	-0.025132965
76	0xbdf2f941	-0.11863948
77	0x3df7e387	0.12103944
78	0xbe15e23d	-0.14637084
79	0xbd023d6e	-0.031796865
80	0xbe272caa	-0.16325632
81	0xbc5d6c91	-0.013514654
82	0x3d099311	0.03358752
83	0xbd00b05c	-0.03141819
84	0x3de83488	0.113381445
85	0x3dce3a14	0.10069671
86	0x3d3dfc6d	0.04638331
87	0xbd8e3930	-0.069445014
88	0xbd9eda49	-0.07756478
89	0xbc847a3a	-0.016171563
90	0xbc46ef30	-0.012141988
91	0xbe228788	-0.15872014
92	0xbcc148d7	-0.023594303
93	0xbdfc0dfd	-0.123073556
94	0xbe0aebbe	-0.13566491
95	0xbcb8720b	-0.022515317
96	0x3cdf54f6	0.027262192
97	0xbcb8937d	-0.022531265
98	0xbd90645c	-0.07050392
99	0xbe0b1e5f	-0.13585804
100	0x3e07f3b5	0.1327656
101	0xbd092b50	-0.03348857
102	0xbd5d3baf	-0.054011997
103	0x3d91cdae	0.071193084
104	0x3c5b70e3	0.0133936135
105	0x3e12ecc8	0.14348137
106	0xbd075a32	-0.033045
107	0xbdbae94b	-0.09126528
108	0x3d9cbd2e	0.07653271
109	0x3e2ed87d	0.17074771
110	0x3e4fdaec	0.20298356
111	0xbcde4609	-0.027133005
112	0xbbc7fe7f	-0.0061033363
113	0x3dc6ae62	0.0970123
114	0x3e69b690	0.22823548
115	0xbc83bc0e	-0.016080882
116	0x3e108106	0.14111719
117	0x3e1f35ac	0.15547818
118	0x3e86f7e8	0.26361012
119	0x3e0b13a8	0.13581717
120	0x3e351c37	0.17686544
121	0xbc9f33b2	-0.01943383
122	0x3e46dead	0.19420882
123	0x3e20b6c6	0.15694723
124	0x3d755ac7	0.059901025
125	0xbd037bde	-0.03210055
126	0x3e2d58a7	0.1692835
127	0xbe0534f4	-0.13008481

bias_hh_l0 f4 [128]
0	0x3db638d9	0.088975616
1	0x3dc5bda7	0.09655314
2	0xbd9e36dc	-0.07725307
3	0xbe6f3ba0	-0.23362589
4	0x3e27c20c	0.16382617
5	0x3e181e28	0.14855254
6	0x3d7440b0	0.059632003
7	0x3da22079	0.0791635
8	0x3d9d5490	0.07682145
9	0xbda29709	-0.07938964
10	0xbd88eb18	-0.066854656
11	0xbd45803b	-0.048217993
12	0xbd7c5e29	-0.061613236
13	0x3e565ed7	0.20934616
14	0xbe011f2e	-0.1260955
15	0x3dbdd803	0.092697166
16	0xbd81c807	-0.0633698
17	0x3e737204	0.23773962
18	0xbd821a11	-0.06352628
19	0x3e248be6	0.16068992
20	0x3e6081aa	0.21924463
21	0x3e0cb264	0.13739926
22	0x3e487e13	0.19579343
23	0xbd8903bd	-0.06690166
24	0xbe3abb80	-0.18235588
25	0xbdeb90b0	-0.11502206
26	0xbc62f95b	-0.013853396
27	0x3cfb6153	0.030686056
28	0x3d01073d	0.031501044
29	0x3df4fda8	0.119624436
30	0xbdf2f6f6	-0.1186351
31	0x3e2d7b7b	0.16941635
32	0x3c8809f1	0.016606303
33	0xbd3dd285	-0.046343345
34	0x3c63529b	0.013874675
35	0xbdada277	-0.08478253
36	0x3e6ecd35	0.23320468
37	0xbd4c5ac7	-0.04989126
38	0xbde54918	-0.11195582
39	0xbda08a5a	-0.078388885
40	0x3d0db23d	0.03459381
41	0x3e24ce8e	0.1609442
42	0xbd28a296	-0.04117068
43	0x3c80d241	0.015725257
44	0x3d674af6	0.056467973
45	0x3c6a50c1	0.01430148
46	0x3e179343	0.1480227
47	0x3da31262	0.079624906
48	0xbd9916c2	-0.07475044
49	0x3e24fa04	0.16110998
50	0x3e7a71a8	0.24457419
51	0x3dd9bcda	0.10631724
52	0xbc2cc3d7	-0.010544739
53	0x3e401e3c	0.18761533
54	0xbd97ce45	-0.0741239
55	0x3df81af0	0.12114513
56	0x3e16796d	0.14694758
57	0x3e2f3adf	0.17112301
58	0x3ddc7546	0.10764556
59	0xba952741	-0.0011379496
60	0x3e696c7c	0.2279529
61	0x3cb1c40c	0.021699928
62	0x3cbe51e5	0.02323241
63	0x3d8bb3e2	0.06821419
64	0xbcb2cf89	-0.021827476
65	0xbded3e47	-0.11584144
66	0xbd0eca76	-0.03486105
67	0x3d7797f4	0.06044765
68	0x3d062096	0.03274592
69	0xbda91bb1	-0.08257235
70	0x3e30c462	0.17262414
71	0x3d070f69	0.03297368
72	0xbdfd2037	-0.1235966
73	0x3dad9b3d	0.08476875
74	0xbcbc15a1	-0.022959532
75	0xbdb8286c	-0.08992085
76	0x3da31db4	0.0796465
77	0xbcc0668e	-0.023486402
78	0xbc8e6e1c	-0.017386489
79	0x3dcb8ec2	0.09939338
80	0x3c4df9ae	0.012571735
81	0xbe133279	-0.14374723
82	0xbd6d5c84	-0.057949558
83	0x3dafac70	0.08577812
84	0xbb5f183e	-0.003404155
85	0xbdcd9d25	-0.100397386
86	0xbd29ca3c	-0.04145263
87	0xbcc7c2ba	-0.024384845
88	0xbdc7f4a3	-0.097634576
89	0x3c523c0d	0.0128317
90	0xbcd49a83	-0.025952583
91	0x3df0a6ba	0.117505506
92	0x3d387ccb	0.045040887
93	0xbe082a1d	-0.13297315
94	0x3dc67297	0.09689825
95	0x3bffe1b9	0.0078088907
96	0x3d621704	0.05519773
97	0x3e25fb81	0.16209222
98	0xbdb51977	-0.08842748
99	0xbdf1387d	-0.117783524
100	0x3d9a79d4	0.07542768
101	0xbc98405c	-0.018585376
102	0x3da30276	0.07959454
103	0xbe05631f	-0.13026093
104	0x3e17f637	0.14840017
105	0xbc290787	-0.010316736
106	0x3c769488	0.015050061
107	0xbd63a62e	-0.055578403
108	0x3e0ab7ad	0.13546629
109	0x3db5e6fd	0.08881948
110	0xbdc81ada	-0.097707465
111	0x3df9094c	0.12159976
112	0x3d5e60e2	0.054291613
113	0x3e18e288	0.14930165
114	0x3dc852a7	0.0978139
115	0x3d866ec9	0.06564099
116	0x3d9fdf18	0.07806224
117	0x3e15b6ca	0.1462051
118	0x3dcd75b2	0.10032214
119	0x3da21fe5	0.0791624
120	0xbdc9494c	-0.098284334
121	0xbd995ac3	-0.074880145
122	0xbdcaa73b	-0.09895178
123	0x3e084a6f	0.13309644
124	0xbb77b1b0	-0.003779512
125	0xbd36d276	-0.044634305
126	0x3d819852	0.06327881
127	0x3de96d5b	0.11397811

weight_ih_l0_reverse f4 [128, 16]
0	0x3e9d754c	0.30753553
1	0xbe0bfa35	-0.13669665
2	0x3e3d7483	0.18501477
3	0xbe046a71	-0.12931229
4	0xbdde9b35	-0.10869447
5	0xbdf11419	-0.117714114
6	0x3cc91dba	0.024550308
7	0xbe026f95	-0.12737878
8	0x3e1873ba	0.14887896
9	0xbe19c176	-0.15015206
10	0xbcaa1bab	-0.020765146
11	0x3e22b73f	0.15890215
12	0x3d8717fe	0.06596373
13	0xbdc17d66	-0.09447746
14	0x3e0dc4a1	0.13844539
15	0xbe1353be	-0.14387414
16	0xbd5b05a9	-0.053472195
17	0xbe3c60d7	-0.18396316
18	0xbc4680fb	-0.012115712
19	0x3dda68bd	0.106645085
20	0xbc247ad6	-0.010039052
21	0xbe201c45	-0.15635784
22	0x3d7eb601	0.06218529
23	0xbe66c1e9	-0.22534908
24	0x3dab56a2	0.08366133
25	0xbd58ad0c	-0.052899405
26	0x3de8d7b7	0.11369269
27	0xbe330b98	-0.17484891
28	0x3e4b5f5a	0.19860592
29	0xbe0c0170	-0.13672423
30	0x3e19e9f9	0.1503066
31	0x3c9814bb	0.018564573
32	0x3ea5c121	0.32373908
33	0xbe3c3cd0	-0.18382573
34	0x3d85c68c	0.065320104
35	0x3cf5c0d4	0.029999174
36	0xbe8d5b1a	-0.27608567
37	0x3e3d60ba	0.1849393
38	0x3d9113b5	0.07083837
39	0xbd15cf19	-0.036574457
40	0x3e125f64	0.14294201
41	0xbe845b8d	-0.25851098
42	0x3e855196	0.26038808
43	0x3e3c5f7a	0.18395796
44	0xbe0030cd	-0.12518616
45	0x3c51fcd2	0.012816625
46	0x3d0091a7	0.031388905
47	0x3e1fd22d	0.1560752
48	0x3e19c4e7	0.15016519
49	0xbd9fb2b2	-0.07797755
50	0xbb42ac31	-0.0029704685
51	0x3daba074	0.083802134
52	0x3d3fe97f	0.04685354
53	0x3dc83251	0.09775222
54	0x3e6d2844	0.23159891
55	0x3dccd774	0.10002032
56	0x3e01dab5	0.12681086
57	0x3e2469b3	0.16055946
58	0xbe5da023	-0.21643119
59	0x3c3cc88a	0.011522422
60	0xbcb72ac5	-0.022359261
61	0xbe7327e2	-0.23745683
62	0xbe859a66	-0.2609436
63	0x3de6c421	0.11267877
64	0x3e9d0450	0.30667353
65	0xbe6126a9	-0.21987404
66	0xbe11459f	-0.14186715
67	0xbe276a7d	-0.16349216
68	0xbe08fbb7	-0.13377272
69	0xbd1446e4	-0.03620042
70	0x3e4df2fc	0.20112222
71	0xbd841fc0	-0.06451368
72	0x3d38c7b6	0.045112334
73	0x3bc420b4	0.005985344
74	0x3db590c0	0.088654995
75	0x3dc6b16c	0.09701809
76	0x3d0f729a	0.035021402
77	0xbd93211a	-0.07184048
78	0x3e52176a	0.20516744
79	0xbd5c5581	-0.05379248
80	0xbe3aff4b	-0.18261449
81	0xbe554e98	-0.20830762
82	0x3e494397	0.1965469
83	0xbe8655ac	-0.26237237
84	0xbcfa91fc	-0.030587189
85	0xbe59c3ef	-0.21266149
86	0x3e5bb0cd	0.21454163
87	0x3e12786c	0.1430375
88	0xbcc3608c	-0.023849748
89	0xbd999bc4	-0.07500413
90	0x3e394883	0.18094067
91	0xbcd465c1	-0.025927426
92	0xbd416917	-0.047219362
93	0x3dd33ded	0.10314546
94	0xbc7d1b06	-0.015448337
95	0x3e00fef0	0.12597251
96	0x3e833d97	0.25632927
97	0x3e7119df	0.23545025
98	0x3e94732c	0.2899412
99	0x3dd352ab	0.10318502
100	0xbe2df833	-0.16989212
101	0x3e34b51e	0.17647216
102	0xbe519b88	-0.20469487
103	0x3d7de316	0.061984144
104	0x3daa2500	0.083078384
105	0x3e304bf1	0.1721647
106	0xbe853be4	-0.26022255
107	0x3e6b6569	0.22987904
108	0x3baf7b68	0.0053552873
109	0xbbe0e65f	-0.0068634
110	0x3c109e0b	0.008826743
111	0x3ddadac9	0.10686261
112	0xbd37cd7e	-0.044873707
113	0xbea6bc58	-0.3256557
114	0x3f16fc9c	0.589792
115	0x3e242267	0.16028748
116	0x3c58407a	0.013198966
117	0xbe21efa1	-0.15814067
118	0xbe65b356	-0.22431692
119	0x3e11b031	0.14227368
120	0xbd218dc6	-0.039441846
121	0xbeb880dd	-0.36035815
122	0xbc9c3988	-0.019070402
123	0x3d537d43	0.05163313
124	0x3e5bdad7	0.214702
125	0x3e8923e6	0.267852
126	0xbd2c3528	-0.04204288
127	0xbc91f408	-0.017816558
128	0xbd9aebc9	-0.07564504
129	0x3e20d484	0.15706068
130	0xbe8f4fe8	-0.2799065
131	0x3e4ec06e	0.20190594
132	0x3dd2b09f	0.10287594
133	0x3e0eef63	0.13958506
134	0xba29f020	-0.000648262
135	0xbe7d5689	-0.24740042
136	0x3d235b46	0.039881967
137	0x3e95ddfa	0.29270917
138	0xbbf127b5	-0.00735947
139	0x3dcf02b1	0.10107935
140	0x3e572865	0.21011503
141	0x3d6fa103	0.058503162
142	0xbd476342	-0.048678644
143	0xbe2141a8	-0.15747702
144	0x3e29c862	0.16580346
145	0xbe03729e	-0.12836692
146	0x3ddd2276	0.107975885
147	0x3e38a7ee	0.1803281
148	0x3e505ae1	0.20347168
149	0xbc57d2bd	-0.0131728025
150	0x3d0bd270	0.034136236
151	0xbe6c2b11	-0.23063304
152	0x3da9e9d1	0.0829655
153	0xbeca5c25	-0.39523426
154	0xbde74465	-0.11292342
155	0xbd091dac	-0.033475563
156	0x3dc2da70	0.0951432
157	0xbe41a4e7	-0.18910562
158	0xbeb50cbf	-0.35361287
159	0x3dee576c	0.11637768
160	0xbe0ac862	-0.13553002
161	0x3da70be8	0.08156568
162	0xbeada56e	-0.33915275
163	0xbd4da6bc	-0.05020784
164	0x3d15acf5	0.036541898
165	0xbd987489	-0.07444102
166	0xbe4932c2	-0.19648269
167	0x3c43072f	0.011903568
168	0xbdfb0f63	-0.12258794
169	0xbce87aa2	-0.028378788
170	0x3e865d21	0.26242927
171	0x3e35a407	0.17738353
172	0xbd2b1a36	-0.041773044
173	0xbe484b8a	-0.19560066
174	0xbdd185cc	-0.10230598
175	0x3d93d0d1	0.07217563
176	0x3bcca997	0.0062458026
177	0xbd9dec46	-0.07711081
178	0xbdaab81f	-0.083358996
179	0x3ed43c38	0.41452193
180	0x3e15e5f3	0.146385
181	0x3daba3aa	0.08380826
182	0xbe2f0b70	-0.17094207
183	0x3e2ae50b	0.16688935
184	0xbb7173da	-0.0036842735
185	0x3e196c6d	0.14982767
186	0xbec56e75	-0.38560835
187	0xbd9106e9	-0.07081396
188	0x3e995a99	0.29951933
189	0x3dd43d06	0.10363202
190	0xbe0b6f0f	-0.13616584
191	0xbecd6270	-0.40114164
192	0x3cfdadad	0.030966604
193	0xbdb3ea73	-0.08784952
194	0xbda498f3	-0.08036985
195	0xbd30d0a9	-0.043167744
196	0x3dcd56ff	0.10026359
197	0xbdfe4b35	-0.12416688
198	0x3d85355f	0.0650432
199	0xbdd455cc	-0.10367927
200	0x3e0ca055	0.13733037
201	0x3e8f7d53	0.28025302
202	0xbb0f08b5	-0.0021825258
203	0x3b4f08fa	0.0031591044
204	0x3e6843d5	0.22682126
205	0x3d6b95f8	0.05751607
206	0x3e1ec67c	0.15505403
207	0x3e018edf	0.12652157
208	0x3d9889a8	0.07448131
209	0x3a8397f3	0.0010039791
210	0xb94864ab	-0.00019110988
211	0x3e0ebed9	0.1393999
212	0x3c1ecd9b	0.009692575
213	0x3c4ea936	0.012613585
214	0x3e2be32c	0.16785878
215	0xbd674c70	-0.05646938
216	0x3dbebc55	0.09313265
217	0x3e36c8e7	0.17850076
218	0x3bb2b425	0.005453604
219	0x3cac3666	0.021022033
220	0x3eb6bcb2	0.35690838
221	0xbce1239e	-0.027482804
222	0xbe7f587c	-0.24936098
223	0xbe236eb1	-0.15960194
224	0xbe6c8885	-0.23098953
225	0xbd9b43b9	-0.075812764
226	0x3d7f66d2	0.062353916
227	0xbe8192ca	-0.25307304
228	0x3d718180	0.05896139
229	0x3e8baf28	0.2728207
230	0x3e234d83	0.15947537
231	0xbd9d25b1	-0.07673205
232	0xbe0c8958	-0.13724267
233	0xbc67497d	-0.014116642
234	0xbe88a2f3	-0.2668682
235	0x3e32295c	0.1739859
236	0xbd04b841	-0.03240228
237	0xbc481bef	-0.012213691
238	0x3cae1219	0.021248864
239	0xbe00375d	-0.1252112
240	0xbca955f9	-0.020670878
241	0x3d9eaab9	0.077474065
242	0xbe72b6ff	-0.2370262
243	0x3e6aaca8	0.22917426
244	0xba6a49b0	-0.0008937372
245	0xbdf61971	-0.12016571
246	0x3d440f37	0.047866073
247	0xbe575ac6	-0.21030721
248	0x3c874976	0.016514521
249	0x3ad2038b	0.0016022784
250	0x3dd9be00	0.10631943
251	0x3e399876	0.18124565
252	0x3e1c931a	0.1529049
253	0xbce35f55	-0.027755419
254	0xbe6b48f7	-0.22977053
255	0xbdba491e	-0.09095977

weight_hh_l0_reverse f4 [128, 32]
0	0xbdbec573	-0.09315004
1	0xbd666b54	-0.0562547
2	0x3d92c334	0.07166138
3	0xbd384c63	-0.044994723
4	0x3e105150	0.14093518
5	0x3d9925ce	0.07477914
6	0x3c38cbc3	0.011279049
7	0x3c8dc574	0.017306067
8	0x3d93172c	0.07182154
9	0xbda50612	-0.080577984
10	0x3d36df8e	0.044646792
11	0x3e322508	0.17396939
12	0x3e758599	0.23976745
13	0x3e30da77	0.17270838
14	0xbc568010	-0.013092056
15	0xbdc62c6e	-0.09676443
16	0x3e77755a	0.2416586
17	0x3e2579e6	0.16159782
18	0x3d1d1afc	0.038355812
19	0xbe5c9f86	-0.21545228
20	0xbe043520	-0.1291089
21	0x3e0be833	0.13662796
22	0x3d48fa47	0.049066808
23	0xbe447690	-0.19185853
24	0xbe04e034	-0.12976152
25	0xbb600f03	-0.0034188635
26	0x3c111e30	0.008857295
27	0x3de58d7d	0.112086274
28	0xbe041356	-0.12898001
29	0x3dd8572d	0.105635025
30	0x3d6807b0	0.056647956
31	0xbd57a2ea	-0.0526456
32	0x3e3e7a7f	0.18601416
33	0x3d7e3cec	0.06206982
34	0x3e18fe6c	0.14940804
35	0x3e180235	0.14844592
36	0x3edc3c3d	0.43014708
37	0xbb5289e2	-0.0032125642
38	0xbdb6bc81	-0.08922673
39	0x3c84b8ce	0.016201403
40	0x3e5b7e62	0.2143493
41	0x3d6c8464	0.057743445
42	0x3e8af76e	0.271419
43	0x3e613988	0.21994603
44	0x3daeb9b5	0.085315146
45	0xbd3257fa	-0.043540932
46	0x3eea774a	0.45794135
47	0xbeaa53c4	-0.33267033
48	0x3e1fe4d8	0.1561464
49	0x3e2ece02	0.17070773
50	0xbeaa7aea	-0.332969
51	0xbe7e6fbd	-0.24847312
52	0x3d36f049	0.044662748
53	0xbe2bf8a6	-0.1679407
54	0x3ec855db	0.39128003
55	0xbe4d7cd7	-0.20067154
56	0xbe157299	-0.14594497
57	0xbe3dbd7d	-0.18529315
58	0xbd5bfc73	-0.05370755
59	0x3daee431	0.08539618
60	0x3e8f6397	0.2800567
61	0xbe2800df	-0.16406582
62	0xbe15d39c	-0.14631504
63	0xbdf4aac9	-0.11946637
64	0xbdd05996	-0.10173337
65	0xbe5cb1ca	-0.21552196
66	0x3d72c539	0.059270117
67	0x3e522ca8	0.20524848
68	0x3e52439b	0.20533602
69	0x3db3430b	0.08753022
70	0xbe008706	-0.12551507
71	0x3e1c2d6e	0.15251705
72	0x3e302a6d	0.17203684
73	0x3e3cd84a	0.18441883
74	0xbe653196	-0.22382197
75	0xbe13d6a5	-0.14437349
76	0x3d01c37a	0.03168056
77	0xbcba2567	-0.022722913
78	0x3eb42e9c	0.3519181
79	0xbe37318c	-0.17889994
80	0x3eed143d	0.46304503
81	0xbe01b5cf	-0.1266701
82	0xbd7baae8	-0.061442286
83	0xbc3b5943	-0.011434856
84	0xbac9b5d1	-0.0015389269
85	0x3d3cc5f4	0.04608722
86	0xbe220daf	-0.15825532
87	0x3d84a756	0.06477229
88	0x3e17c8da	0.14822713
89	0xbe0dc119	-0.13843192
90	0xbd0a6254	-0.03378518
91	0x3dfb04e1	0.1225679
92	0x3e2544d8	0.16139543
93	0x3cf1684c	0.029468678
94	0xbd841389	-0.064490385
95	0xbd44f33b	-0.048083525
96	0x3ea711e0	0.32630825
97	0x3ccab9a7	0.024746729
98	0x3ec55fec	0.38549745
99	0xbdb79166	-0.089632794
100	0x3e9cfb99	0.30660704
101	0x3ba300aa	0.0049744444
102	0x3d19592e	0.037438564
103	0xbd0f6a37	-0.035013404
104	0x3e54aa0e	0.20767996
105	0xbcb6b908	-0.022305027
106	0x3e60d4c7	0.21956168
107	0x3e5bb170	0.21454406
108	0xbe12e684	-0.14345747
109	0x3cb58d26	0.022162031
110	0x3c8bba02	0.017056469
111	0xbe0772b6	-0.13227352
112	0xbe129676	-0.14315209
113	0xbdd01d19	-0.101618
114	0x3dfff5e9	0.124980755
115	0xbdd4eef1	-0.10397137
116	0x3e3da6e4	0.18520695
117	0xbe6fb76b	-0.23409812
118	0x3deaf58b	0.11472615
119	0xbe03762a	-0.12838045
120	0xbd5d7a8c	-0.054071948
121	0xbe5d4b82	-0.21610835
122	0xbe803780	-0.25042343
123	0xba22e230	-0.0006213514
124	0x3f0d24c8	0.5513425
125	0xbd96d4ae	-0.07364784
126	0xbd4df8a7	-0.05028596
127	0xbddd508e	-0.1080638
128	0x3e92450f	0.28568313
129	0xbd765133	-0.06013603
130	0x3e820ffd	0.25402823
131	0x3ca3cbfc	0.019994728
132	0x3bdd06ea	0.006745209
133	0x3ec408bd	0.38287917
134	0x3dc5a329	0.09650261
135	0xbda149d6	-0.07875411
136	0x3e53867f	0.20656775
137	0x3dcb593a	0.09929128
138	0x3e07beeb	0.13256423
139	0x3e87fb0b	0.26558718
140	0x3c218c7d	0.009860155
141	0x3e2b009f	0.16699456
142	0xbe249744	-0.16073328
143	0x3dc16e08	0.09444815
144	0x3d46da53	0.048548054
145	0xbe82b65d	-0.25529757
146	0x3e805690	0.25066042
147	0x3e20eb1b	0.15714686
148	0xbdda0ac4	-0.10646585
149	0x3dec9094	0.115510136
150	0xbea09843	-0.31366166
151	0xbdf5d286	-0.12003045
152	0x3d3f301d	0.046676744
153	0x3da24354	0.07922998
154	0xbc930443	-0.017946368
155	0x3eae5b2c	0.34053934
156	0xbe8585cc	-0.2607864
157	0x3e32e5d2	0.17470482
158	0x3dcc8ac1	0.09987403
159	0xbe1d7453	-0.15376405
160	0xbd87e114	-0.06634727
161	0x3dfd2085	0.12359718
162	0xbd0d9f19	-0.034575555
163	0x3e4ef7f4	0.20211774
164	0x3eb450bf	0.35217854
165	0x3e920daa	0.2852605
166	0x3e45c016	0.19311556
167	0xbd8f134d	-0.06986103
168	0x3db9471f	0.090467684
169	0xbe1b3d4a	-0.15160099
170	0xbce501b1	-0.027954908
171	0xbd317c59	-0.043331478
172	0xbe050f44	-0.12994105
173	0x3dfa589d	0.12223933
174	0x3d562d26	0.05228915
175	0xbe426874	-0.18985158
176	0x3e97fc7c	0.29684818
177	0xbd83ef11	-0.06442083
178	0xbd37d984	-0.044885173
179	0x3e75f248	0.24018204
180	0x3e4619cf	0.19345783
181	0x3cc95a23	0.024579113
182	0x3e1b51e5	0.15167959
183	0xbe5ad7bf	-0.21371363
184	0xbd93ca6d	-0.07216344
185	0xbd9bd476	-0.07608883
186	0x3ce2d90c	0.027691387
187	0x3da8dc81	0.08245183
188	0x3c322449	0.010872909
189	0x3e6420b3	0.22278099
190	0xbe37cd99	-0.17949523
191	0xbe42bec0	-0.19018078
192	0x3e0cc3ab	0.13746516
193	0xbcd15024	-0.02555091
194	0xbd9be2e1	-0.07611633
195	0x3d09c327	0.033633377
196	0x3b693228	0.0035582874
197	0x3b23bd66	0.0024984716
198	0x3dcc0907	0.09962659
199	0xbdb336f2	-0.08750714
200	0x3e60a180	0.21936607
201	0xbe25e3ab	-0.1620013
202	0x3dcf3b52	0.10118736
203	0x3df02176	0.11725132
204	0xbe0d020b	-0.1377031
205	0xbd83454b	-0.06409701
206	0x3d9a7aa4	0.07542923
207	0xbe26b1a3	-0.162787
208	0x3e0a3609	0.13497175
209	0xbcddc924	-0.02707345
210	0xbdd4b8d1	-0.103868134
211	0xbd7153e1	-0.058917884
212	0x3db5b063	0.08871534
213	0xbe297d25	-0.16551645
214	0x3e7ab4fd	0.24483104
215	0xbb43fc76	-0.0029905117
216	0xbd8bb591	-0.068217404
217	0xbe7c74bd	-0.24653907
218	0xbdb8bf8d	-0.090209104
219	0xbdf3206e	-0.1187142
220	0x3d4626cf	0.048376855
221	0x3d8692a2	0.06570937
222	0xbe81bf2d	-0.25341168
223	0xbe310b5c	-0.1728949
224	0xbd808429	-0.062752075
225	0xbc8fe1ae	-0.017563667
226	0x3cac13c4	0.021005519
227	0xbc2ef25e	-0.010677902
228	0x3ea777a8	0.32708478
229	0x3e616fda	0.22015324
230	0xbe0a45f2	-0.13503245
231	0xbe331090	-0.17486787
232	0x3e508061	0.20361473
233	0x3e2e98af	0.17050432
234	0x3dc71e89	0.09722621
235	0x3d280544	0.041020647
236	0x3d9e1815	0.07719437
237	0x3e8b181a	0.27166826
238	0x3df43183	0.11923506
239	0x3da7b62e	0.08189045
240	0x3e6a4bd0	0.22880483
241	0xbd02b254	-0.03190835
242	0xbd2f46cf	-0.042792138
243	0xbdcbee7b	-0.09957596
244	0xbdb6f830	-0.08934057
245	0xbd770205	-0.06030466
246	0xbe90637f	-0.2820091
247	0xbe657b06	-0.22410211
248	0x3d46ad9f	0.04850542
249	0x3c68bd67	0.014205313
250	0xbd70b208	-0.058763534
251	0x3e629b79	0.2212962
252	0x3ccb9b11	0.024854215
253	0x3c930c08	0.017950073
254	0xbda5ea9d	-0.081013896
255	0xbe5a4056	-0.21313605

bias_ih_l0_reverse f4 [128]
0	0x3dc2c18e	0.09509574
1	0xbbd07fec	-0.0063629057
2	0x3e178f09	0.14800657
3	0x3da0a0eb	0.07843193
4	0x3e681b16	0.22666582
5	0xbd752e87	-0.059858825
6	0x3e28e1bf	0.16492365
7	0x3e545e81	0.20739175
8	0x3d841f84	0.06451324
9	0x3e95d849	0.29266575
10	0xbdcd35a0	-0.10019994
11	0x3e1600a3	0.1464868
12	0x3e6a1fea	0.22863737
13	0xbe15e4e9	-0.14638104
14	0x3d4ea8c1	0.050453905
15	0xbdd295e2	-0.10282494
16	0x3caf66e6	0.02141137
17	0xbd57f8c2	-0.05272747
18	0x3e248ada	0.16068593
19	0x3cfeee6a	0.031119544
20	0x3e2771b3	0.16351967
21	0x3d9575de	0.07297872
22	0x3e9f1a4f	0.3107476
23	0xbd7e3ef2	-0.062071748
24	0x3c5624a2	0.013070257
25	0xbd1a4560	-0.037663817
26	0x3e8af367	0.27138826
27	0x3aa7dc4f	0.0012806746
28	0x3de3e0de	0.111268744
29	0x3d919868	0.07109147
30	0x3c2140f5	0.009842147
31	0xbc9d4430	-0.019197553
32	0x3e10e4db	0.14149801
33	0x3deae3a3	0.114691995
34	0x3d8f9c01	0.07012177
35	0xbc2c8c00	-0.0105314255
36	0x3e7a430d	0.2443964
37	0x3e4e0728	0.20119917
38	0x3e4d8c23	0.20072989
39	0xbcd5330a	-0.026025314
40	0x3d6ed95f	0.05831277
41	0x3dfd6356	0.123724625
42	0x3dffc531	0.12488783
43	0x3da4d8ba	0.0804915
44	0x3d26e959	0.04074988
45	0x3c9ff5db	0.019526413
46	0x3d9fe8b0	0.078080535
47	0x3dc933d6	0.0982434
48	0x3e4f3700	0.20235825
49	0x3e324795	0.17410119
50	0x3d1d4ad1	0.03840143
51	0x3e87f83e	0.2655658
52	0xbcc1872e	-0.023624029
53	0x3e3276ea	0.17428175
54	0x3e5b10b8	0.21393096
55	0x3e12ba8c	0.14328974
56	0xbd41446e	-0.0471844
57	0x3e4fe691	0.20302798
58	0x3e91c5a6	0.28471106
59	0xbde7d5db	-0.113200866
60	0x3deb49fb	0.1148872
61	0x3d025b7e	0.031825535
62	0x3d98a5ca	0.07453497
63	0x3dae72dc	0.085180014
64	0x3d9e25c8	0.0772205
65	0x3e4069d9	0.18790378
66	0xbe24be2b	-0.16088168
67	0x3d9a7b38	0.07543033
68	0x3da3cad0	0.07997668
69	0xbdeb6bf4	-0.114952
70	0x3d2518ad	0.040306736
71	0x3b6367e3	0.0034699372
72	0xb99a327c	-0.00029410783
73	0x3d66555e	0.056233756
74	0x3dc3969f	0.09550213
75	0x3b36623d	0.002782955
76	0xbcaece9f	-0.021338759
77	0x3d2dbf36	0.04241868
78	0x3d9676e9	0.07346899
79	0xbde68893	-0.11256518
80	0x3e20c061	0.15698387
81	0xbd563b4e	-0.05230265
82	0x3d2361a2	0.03988803
83	0xbe332222	-0.1749349
84	0x3d389e17	0.04507264
85	0xbdbbc0d0	-0.091676354
86	0x3d84518a	0.06460865
87	0xbd97354b	-0.07383212
88	0xbd5df5bf	-0.05418944
89	0x3d1adeea	0.037810244
90	0xbd9a37a2	-0.07530142
91	0x3def6cdb	0.116906844
92	0x3df69902	0.12040903
93	0xbe053070	-0.13006759
94	0xbda478fb	-0.08030888
95	0xbe157bd6	-0.14598021
96	0x3d2d3a65	0.042292017
97	0x3e8270d0	0.25476694
98	0x3e10a6e4	0.14126164
99	0x3e40dff1	0.18835427
100	0x3ec39872	0.38202244
101	0x3e68ad9c	0.22722477
102	0x3e818c52	0.25302368
103	0x3d48be41	0.049009565
104	0x3e01ed4f	0.12688182
105	0x3e436e2f	0.19085
106	0xbdf44b0f	-0.11928379
107	0x3d4f51f2	0.05061526
108	0x3d1c10cd	0.03810196
109	0x3de1cf05	0.11025814
110	0x3ea2eb99	0.31820372
111	0x3d4beb5a	0.049784996
112	0x3eb8f5ea	0.36125118
113	0xbd35ee4b	-0.044416707
114	0xbd858e23	-0.06521251
115	0x3dcd2845	0.100174464
116	0xbbf90a32	-0.0076000923
117	0xbd940612	-0.0722772
118	0x3e3b45d9	0.18288364
119	0xbcd2ec1f	-0.025747357
120	0xbda32ed7	-0.07967918
121	0xbc9d75c8	-0.019221202
122	0x3e225c8e	0.1585562
123	0x3e2b9e93	0.1675971
124	0x3d0464cc	0.03232269
125	0xbcb887ee	-0.022525754
126	0x3df1f5dd	0.11814473
127	0x3e430df5	0.19048293

bias_hh_l0_reverse f4 [128]
0	0xbdf344bd	-0.11878345
1	0x3e697cbb	0.22801487
2	0xbe042b44	-0.1290713
3	0x3e9597bd	0.2921733
4	0x3e53aebe	0.20672128
5	0xbc1e8dc6	-0.009677356
6	0x3d20f1e4	0.039293185
7	0x3e505b98	0.2034744
8	0x3dc3cb2b	0.095602356
9	0x3e397301	0.18110277
10	0x3d12e8b6	0.03586646
11	0x3e124f15	0.1428798
12	0x3e71e614	0.23622924
13	0x3c77b174	0.015117992
14	0x3e5d154a	0.21590152
15	0xbdcc6149	-0.09979493
16	0x3e7625b4	0.2403782
17	0xbd0513a5	-0.032489438
18	0x3ca663a8	0.020311192
19	0x3e10f1e6	0.14154777
20	0x3d737805	0.05944063
21	0x3de1145d	0.10990212
22	0x3dc27ad3	0.09496083
23	0x3d871b3c	0.065969914
24	0x3dc017d5	0.093795456
25	0x3e3bdd9f	0.1834626
26	0x3d1d02af	0.038332637
27	0xbd2b0e45	-0.041761655
28	0x3e8c0e54	0.27354681
29	0x3d6d8f78	0.05799815
30	0x3cab8858	0.020939037
31	0x3e43f3fc	0.19136041
32	0xbda5820f	-0.08081447
33	0xbceea3bc	-0.029130809
34	0x3d849c75	0.06475154
35	0x3c7c82df	0.0154120615
36	0x3d313a1d	0.04326831
37	0x3e8e7ae5	0.27828136
38	0xbdb128a5	-0.086503305
39	0x3e6e91d3	0.23297815
40	0x3db76ce8	0.08956319
41	0x3b5312c3	0.0032207228
42	0x3dcb3f27	0.09924155
43	0x3dad8428	0.084724724
44	0x3e2e2fac	0.17010373
45	0xbdb06387	-0.08612733
46	0x3d52aa21	0.05143178
47	0x3e2a98bd	0.16659828
48	0xbd8587e5	-0.065200604
49	0x3e1244e6	0.14284095
50	0x3e437ab8	0.19089782
51	0x3d2e116f	0.042497095
52	0x3e0c9cbb	0.13731663
53	0x3e344ce2	0.17607453
54	0x3dea4b2d	0.1144012
55	0x3d914c8c	0.07094678
56	0x3dedf82d	0.116196014
57	0x3e5bc48b	0.21461694
58	0x3dde840d	0.108650304
59	0x3e0e47a1	0.13894512
60	0xbc60adb8	-0.013713293
61	0xbbefc540	-0.007317215
62	0xbdc16d0d	-0.09444628
63	0x3d7b053d	0.061284292
64	0x3dd39c6b	0.10332569
65	0xbde99962	-0.114062086
66	0x3e071824	0.13192803
67	0xbd30f0e8	-0.043198496
68	0x3d454cfe	0.04816913
69	0x3e06b291	0.13154055
70	0x3cf41e54	0.029799618
71	0xbd9fce70	-0.07803047
72	0x3dc99d67	0.09844475
73	0xbccd9a29	-0.025097923
74	0xba879097	-0.0010342774
75	0x3da19047	0.07888847
76	0xbd9bd20a	-0.07608421
77	0xbd17d09c	-0.03706418
78	0xbc46c691	-0.012132303
79	0xbc911aa6	-0.017712902
80	0xbe1a3079	-0.15057553
81	0x3e11409a	0.141848
82	0xba06e89c	-0.0005146356
83	0x3df64f8d	0.12026892
84	0x3e2aaaaf	0.16666673
85	0xbe244467	-0.16041718
86	0xbe0d3bbd	-0.1379232
87	0xbc4d0831	-0.01251416
88	0xbd0247f7	-0.031806912
89	0xbdb7321c	-0.089451045
90	0x3cad128e	0.021127012
91	0x3c9a0b37	0.018804176
92	0x3df21ae8	0.11821538
93	0x3ce98b46	0.028508794
94	0xbdbdf96d	-0.0927609
95	0xbe3286f4	-0.17434293
96	0x3e252fa6	0.16131458
97	0xbd81f875	-0.063462175
98	0x3e121cfb	0.14268868
99	0xbd14a60f	-0.03629118
100	0x3e8107e8	0.25201344
101	0x3e054377	0.13014017
102	0xbdb9ef09	-0.090787955
103	0x3daaae56	0.08334033
104	0x3d5d915f	0.054093715
105	0x3e796212	0.24353817
106	0xbc6e210f	-0.014534249
107	0xbdb56b9f	-0.08858418
108	0x3d20c4f8	0.039250344
109	0xbbf68020	-0.007522598
110	0x3d88aa17	0.06673067
111	0x3e10926e	0.14118358
112	0x3eb314fb	0.34976944
113	0xbd6f3507	-0.05840018
114	0xbc915c12	-0.017744098
115	0x3dc725b4	0.09723988
116	0x3e2083a2	0.15675214
117	0x3d930fbd	0.07180736
118	0x3e6a7e48	0.22899735
119	0x3e0e87ec	0.13919038
120	0x3e1f35ce	0.15547869
121	0x3e3b9d56	0.18321738
122	0x3e2fefa6	0.17181262
123	0x3b96caac	0.004601797
124	0x3d5564ad	0.052097965
125	0xbc22d487	-0.009938366
126	0x3df708b1	0.12062205
127	0x3e73ff86	0.23827943

weight f4 [2, 64]
0	0xbe6767d3	-0.225982
1	0xbdb0fd51	-0.08642066
2	0x3d2a7d56	0.041623436
3	0x3e63ee86	0.22258958
4	0xbde9b997	-0.114123516
5	0x3e0a9f85	0.13537414
6	0xbe811167	-0.2520859
7	0x3e485efa	0.1956748
8	0x3e5c5582	0.21516994
9	0xbe45fcf3	-0.19334774
10	0x3c70ab09	0.014689215
11	0x3d8626be	0.06550358
12	0x3df536fa	0.119733766
13	0xbe90f64a	-0.28312904
14	0xbe0eedfa	-0.13957968
15	0xbe47a6df	-0.1949725
16	0x3e3fd109	0.18732084
17	0x3e781cf8	0.242298
18	0xbd8f79d1	-0.070056565
19	0x3dea450e	0.114389524
20	0xbdd0825e	-0.101811156
21	0xbe112539	-0.14174356
22	0xbe3f8e66	-0.18706664
23	0x3e6f766c	0.23385018
24	0x3e97c0ce	0.29639286
25	0xbe158829	-0.14602722
26	0xbcc59198	-0.024117276
27	0x3e9a5826	0.30145377
28	0x3e2c6558	0.16835535
29	0x3e11ff64	0.1425758
30	0x3e1df178	0.15424144
31	0x3e6d3230	0.23163676
32	0x3d66de13	0.05636413
33	0xbe7c6e0f	-0.24651359
34	0xbd36e742	-0.04465414
35	0xbe6b67ca	-0.22988811
36	0x39ca97a7	0.00038641432
37	0x3e6e3d37	0.23265539
38	0xbe1b8e05	-0.15190895
39	0xbe22b0ed	-0.15887804
40	0x3db7d1a8	0.08975536
41	0x3e3a857b	0.18214981
42	0x3e35c5eb	0.17751281
43	0x3d0a7226	0.033800267
44	0x3e7bfba0	0.24607706
45	0x3e6520a4	0.22375733
46	0xbe9ac6d9	-0.30229834
47	0x3d3fe963	0.046853434
48	0xbe610e51	-0.21978118
49	0xbe7ceffd	-0.24700923
50	0x3d4197c6	0.047263883
51	0x3e18feac	0.149409
52	0xbe4fe5da	-0.20302525
53	0x3e148578	0.1450404
54	0xbe95269d	-0.29131022
55	0x3e5ad6e4	0.21371037
56	0xbdd1fca5	-0.10253266
57	0xbe0038d5	-0.1252168
58	0xbeaccc3e	-0.33749574
59	0x3e9a0849	0.30084446
60	0x3e0eab49	0.13932528
61	0x3e5624af	0.20912431
62	0x3b78ea65	0.0037981507
63	0x3e3b95ce	0.18318865
64	0x3e4ca746	0.19985685
65	0x3e07c9b1	0.13260533
66	0xbde99cda	-0.1140687
67	0xbe5398ca	-0.20663753
68	0x3e8c30e3	0.27381048
69	0xbea808b2	-0.32819134
70	0x3e0c369b	0.13692705
71	0xbe16380b	-0.14669816
72	0xbdc66c48	-0.09688622
73	0x3d876be5	0.06612376
74	0x3d9f2d2d	0.077722885
75	0xbe5d72a1	-0.21625759
76	0xbe1f8824	-0.15579277
77	0x3dceb1ec	0.1009253
78	0x3e895ae8	0.26827168
79	0x3e62e190	0.22156358
80	0xbe4f40d1	-0.20239569
81	0xbe0622d2	-0.1309922
82	0x3e30b7a1	0.17257549
83	0xbc8504d2	-0.01623765
84	0x3e3bb591	0.18330981
85	0x3ea0893d	0.31354704
86	0x3e72902a	0.23687807
87	0xbe84c133	-0.2592865
88	0xbe81639c	-0.25271308
89	0xbc6077b2	-0.013700413
90	0xbddeae53	-0.108730935
91	0xbe68cb26	-0.22733745
92	0xbd6204a8	-0.05518022
93	0xbe1aaf1a	-0.15105858
94	0xbe6cda17	-0.2313007
95	0xbe3edfbd	-0.18640037
96	0x3c97eeb0	0.018546432
97	0x3ea444a1	0.3208361
98	0xbdc5670c	-0.09638795
99	0x3e87f1aa	0.26551563
100	0x3d18af28	0.037276417
101	0xbe8f809e	-0.28027815
102	0xbc7dea9b	-0.015497829
103	0x3dd0f62a	0.10203202
104	0xbc6a775d	-0.014310685
105	0xbe926892	-0.28595406
106	0xbe31dd1d	-0.17369504
107	0xbd469e4c	-0.048490807
108	0xbe492623	-0.19643454
109	0xbd10ef5a	-0.035384513
110	0x3db39e4b	0.08770426
111	0x3dbe4d72	0.09292115
112	0x3e67de50	0.22643399
113	0x3e05aff1	0.13055398
114	0x3cc944db	0.024568966
115	0xbeb04277	-0.3442571
116	0x3db149fc	0.086566895
117	0xbe6b84ce	-0.2299988
118	0x3e166c28	0.14689696
119	0xbe751f78	-0.23937786
120	0x3e19dd0c	0.15025729
121	0x3df13186	0.11777024
122	0x3e8a714c	0.27039564
123	0xbea26544	-0.31717885
124	0xbcb5d24e	-0.022195008
125	0xbe3a47e2	-0.18191484
126	0xbe71a10c	-0.23596591
127	0xbe3623f7	-0.17787157
