m6A_BERT_Stacking/Resnet/model_pth/m_l_bilstm.pth (torch, 69975 bytes, 13 tensors)

weight f4 [64, 16]
000000 c0 54 da be a0 0c 1d bf 3c 52 3a 3f 36 94 22 3f
       -0.42642784 -0.6134739 0.7278173 0.635074
000010 e0 fa 39 bd c4 9b b7 3e 68 4c 29 3e 08 54 d3 be
       -0.04540527 0.35861027 0.16533053 -0.41275048
000020 28 6c 8d 3e f4 8f 31 bf e0 f6 d1 3d 82 c1 51 3f
       0.2762158 -0.6936028 0.10252166 0.81935894
000030 a4 eb 69 bf fa 98 4f 3f 1e 7c 1d 3f 10 fe 8f 3d
       -0.91375184 0.810928 0.6151751 0.070308805
000040 ac d9 c6 be 30 cf 76 be eb ad b2 be 5b b8 15 3f
       -0.38837945 -0.24102473 -0.34898314 0.5848443
000050 ba 28 4c bf 88 1a 24 bf b2 e3 3e 3f a3 2f 83 3f
       -0.79749644 -0.64102983 0.74566185 1.0248913
000060 d3 91 3c bf 54 33 16 3f de 0e 5d 3f c9 67 43 bf
       -0.7366001 0.5867207 0.8635081 -0.7633024
000070 73 5d b0 3e 56 ec 21 bf 87 d2 bf 3c 09 32 35 3f
       0.34446296 -0.63251245 0.023415817 0.7077947
000080 d0 2d 6c bd dc c9 28 3e 06 fa 37 3f f7 30 72 3e
       -0.057660878 0.16483253 0.7186588 0.23651491
000090 d8 82 29 3f f2 62 56 be f3 e2 53 bf 7d 26 85 3e
       0.66215277 -0.20936182 -0.8276817 0.26005927
0000a0 78 fa 6a 3f d8 7b 48 bf 4a 82 f8 3e 17 7e 5d be
       0.91788435 -0.7831397 0.48536903 -0.2163013
0000b0 ee f1 77 3f f8 14 ba bd 0c fc f9 be fd 8c 2d be
       0.9685353 -0.09086031 -0.4882511 -0.16948314
0000c0 39 f5 a3 3e 5c 7e c9 3d 05 99 5b bf bb d7 04 3f
       0.32023028 0.09838554 -0.85780364 0.5189168
0000d0 89 ce 43 bf c3 9b 4a bf 32 b6 a4 bd ef 9f 85 be
       -0.7648702 -0.79143924 -0.080425635 -0.26098582
0000e0 8a 5a ee be ea 27 59 be 07 f3 32 3f fb 31 c5 3e
       -0.4655345 -0.21206632 0.6990208 0.38514695
0000f0 30 ce 88 bf 80 30 e3 be 68 8c 48 bf 32 25 73 bf
       -1.0687923 -0.4437294 -0.7833924 -0.9497863
000100 da 83 00 3f 68 5f 45 bf 1c 09 98 3e 3e 84 e4 3e
       0.5020119 -0.77098703 0.2969445 0.44632143
000110 f7 4a 84 bf 89 b7 65 bf 49 d4 bd be 57 8d 9b 3e
       -1.0335377 -0.8973318 -0.37076023 0.3038127
000120 27 68 2e bf bb a8 81 3f fe 74 2b 3f 9b 74 6d 3f
       -0.68127674 1.0129617 0.6697539 0.9275605
000130 29 ac 9d 3e d3 3d 41 bf 84 e7 2c 3f 96 26 55 3f
       0.3079541 -0.7548496 0.67540765 0.83262
000140 a0 7a ab be 3f 6c 45 bf 8e 5b 95 be 0f db a7 be
       -0.33491993 -0.77118295 -0.29171413 -0.32784316
000150 7b 3c 3e bd 41 27 15 bf c1 5f 35 bf 79 90 d0 3e
       -0.046444397 -0.5826302 -0.70849234 0.40735224
000160 5f 58 92 3d 5f 7f b1 be 12 25 b3 be 60 f5 bb bd
       0.07145762 -0.3466749 -0.3498922 -0.09177661
000170 19 00 04 3e 24 30 4a 3f 64 c2 2f bf 5c cf 9b 3e
       0.12890662 0.78979707 -0.6865599 0.3043164
000180 4d 9e 06 3f f5 13 b5 be da 9e 3b 3d 0a 6b 97 be
       0.525853 -0.35366789 0.04580579 -0.29573852
000190 4f a8 96 be f2 e3 61 bb d6 15 64 bf 2c 2a fb bd
       -0.29425284 -0.0034468141 -0.8909582 -0.12263903
0001a0 1a a8 a8 3e f3 bf 13 bf 47 24 87 3f bb ac 6e bf
       0.3294075 -0.57714766 1.0557946 -0.93232316
0001b0 89 83 c1 3d 43 c1 79 3b 79 4d 1b bf c6 5f 9c 3f
       0.094489165 0.0038109578 -0.6066509 1.2216728
0001c0 05 46 0e 3f a5 5f 8a be fa 16 f1 3e 21 21 a7 3e
       0.5557559 -0.27026096 0.47087842 0.32642463
0001d0 5e d5 04 3e f7 1e 27 bf 57 01 04 3f eb e4 20 3e
       0.12972018 -0.65281624 0.51564544 0.15712325
0001e0 55 4d 5d bd 17 bd c4 be 0b 04 5a bf ab 49 fc be
       -0.054028828 -0.38425514 -0.8516242 -0.49274954
0001f0 d0 6c 49 3f 87 d3 bb be 33 da f2 3e a9 61 55 bf
       0.7868166 -0.3668482 0.47432098 -0.8335214
000200 0a 13 c3 3e 9c d3 f4 3e 41 40 75 bf b8 27 fc bd
       0.38100463 0.47817695 -0.9580117 -0.12312263
000210 17 ed d6 3e bf b1 45 bf e7 7b 3d bf 4a 55 65 3f
       0.4197776 -0.77224344 -0.74017185 0.89583266
000220 58 ab 45 bf 9d a6 39 bf d4 3a 0c bf 39 6a 5d 3f
       -0.77214575 -0.72519857 -0.54777265 0.8649021
000230 17 a6 93 be b8 58 e0 bd 00 77 54 3f 26 6a 63 3f
       -0.28837654 -0.10954422 0.8299408 0.88833845
000240 c0 53 89 bf d7 34 99 be 14 91 34 3f 03 f0 4e 3f
       -1.0728683 -0.29923126 0.7053387 0.8083498
000250 fe 6b d1 3e 0a 8d e4 bd 89 e5 70 3f 5b 9c 7c bf
       0.40902704 -0.111597136 0.9410024 -0.9867608
000260 30 bf 12 bf 22 79 71 be be 83 01 3e 8f 3a 24 3f
       -0.5732298 -0.23581365 0.12647912 0.64151853
000270 b4 26 5f 3f 46 e5 d4 be b1 6c 13 3e 6b 10 c1 3e
       0.8716843 -0.41581172 0.14396931 0.37707838
000280 f7 ed 60 bf 8a 19 1c 3d fe 67 2e bf 4d 7b 7f 3f
       -0.87863106 0.038110293 -0.6812743 0.9979752
000290 3d 43 64 be a1 3b 2a 3f ad 83 5c 3e 42 e7 90 3e
       -0.22291274 0.66497236 0.21534605 0.28301436
0002a0 1a 52 05 be c0 23 12 3f 1d a3 59 be c5 36 df 3e
       -0.130196 0.570858 -0.21253629 0.43596473
0002b0 11 3a f1 3d 34 39 8f 3f b6 2b 19 bf 62 ab 87 bf
       0.117786534 1.1189332 -0.5983232 -1.0599177
0002c0 32 0e 4d be 8b 71 02 3d 43 1e 44 be 9c a9 32 3f
       -0.20024946 0.031846564 -0.19152169 0.69790053
0002d0 e5 ae 7b 3f 91 1f 23 3f 7c 87 f1 bd 09 2a 7a 3f
       0.9831374 0.6372004 -0.1179342 0.9772039
0002e0 41 2c 37 3f 0c a9 7b bf b9 bf e1 be b6 65 4b 3f
       0.715519 -0.9830482 -0.44091585 0.79452074
0002f0 44 b3 31 3f 78 97 58 3f 65 95 0f 3f be 2b 88 be
       0.6941416 0.8460612 0.5608733 -0.26595873
000300 d4 0c 0b bf 60 31 8c 3d 19 64 9b be b1 cb 48 bf
       -0.5431645 0.06845355 -0.30349806 -0.7843581
000310 dd 9a 5f bd f2 53 cb be fb 0e 7e 3d 9e c5 20 bf
       -0.05459105 -0.39712483 0.062026005 -0.6280154
000320 5b a0 9c be 86 9d 3d 3d ef 81 b9 3e cc ad 2c 3f
       -0.30591092 0.046292804 0.36231944 0.67452693
000330 44 a1 e8 be 1d 93 8a 3f e2 28 3c bf c3 6d e8 3d
       -0.45435536 1.0826145 -0.7349988 0.113490604
000340 b5 f3 7a bf 7a 58 25 3f 8b 25 04 be b9 ca 22 3e
       -0.9802812 0.6458813 -0.12904947 0.15897645
000350 a7 44 fd 3e 55 eb 29 bf 93 6e 3e 3f e0 57 12 3f
       0.4946644 -0.66374713 0.7438747 0.57165337
000360 9b 4e 1e bf 46 57 9e be a9 f0 8a be 80 35 50 3c
       -0.6183869 -0.3092596 -0.27136734 0.012708068
000370 b6 ce fd 3d 39 9c 92 3b d0 f3 5a be b9 d0 48 3e
       0.123929426 0.0044741896 -0.2138207 0.19610871
000380 8c 5e 0a 3e 15 a0 b4 3d 89 cb 9e 3e 76 2e 80 be
       0.1351263 0.08819596 0.3101466 -0.25035447
000390 9d c0 dd be a1 99 32 3f 7f cc 65 3f a6 65 63 be
       -0.43311015 0.6976567 0.8976516 -0.22206745
0003a0 ed 1e c3 3e 9c 46 ce bd 7d 93 b1 be 6d a0 ef 3e
       0.38109532 -0.100720614 -0.34682837 0.46802083
0003b0 dc 44 ce be d7 d7 cc bd 50 e5 78 3e 7c fa 17 bf
       -0.4028691 -0.10002106 0.24306226 -0.59366584
0003c0 26 f5 0a bf fa c6 48 be c6 11 48 3f 36 03 dc 3e
       -0.54280317 -0.19607154 0.7815212 0.429712
0003d0 97 d7 76 3e b8 97 1a bc 90 5f 5d bf 7b e4 62 3e
       0.24105678 -0.009435587 -0.8647394 0.22157471
0003e0 b9 bd 78 3f cc fd 16 be 2c 42 44 bf f6 9f 3e 3f
       0.97164494 -0.14745253 -0.7666347 0.7446283
0003f0 57 86 65 3f 79 18 a1 be 22 50 bd 3d 07 6e 03 be
       0.8965811 -0.31463984 0.092438 -0.12834941

weight_ih_l0 f4 [128, 16]
000000 30 96 8b bc fe 5d 0b be 04 88 3d bc f2 32 d0 3e
       -0.017039388 -0.13610074 -0.011568073 0.40663868
000010 64 dd 5b bb 2e 69 0e be ae d1 d0 bc fb c6 2b be
       -0.0033548707 -0.1390731 -0.025490608 -0.16775124
000020 3e 13 1f be fa 69 0a 3e d0 ec 51 3e a6 55 e3 3d
       -0.15534684 0.1351699 0.20500493 0.111003205
000030 cc 53 e7 bd 6f a6 be bb 94 7a db bd ec f7 06 3e
       -0.1129528 -0.0058181803 -0.10716739 0.13180512
000040 35 23 88 be 75 6c c8 bd dd ba f3 bc f7 57 22 3f
       -0.2658936 -0.097863115 -0.02975219 0.63415474
000050 d0 59 98 3d 5d 0c 67 be 2d 21 36 be e6 2c 7c bd
       0.074390054 -0.2256331 -0.17786093 -0.061566256
000060 14 5f 2d be b1 a3 cf bd 74 33 87 3d 5c 12 1f bd
       -0.169308 -0.101386435 0.06601611 -0.03883587
000070 52 da 42 bd ee 58 2e 3e d0 75 9a 3d e6 79 ba 3d
       -0.047571488 0.17026111 0.07542002 0.091052815
000080 53 3e 03 3e 77 7d 88 be 09 f4 97 3e 7a 5a 93 bd
       0.12816744 -0.26658222 0.29678372 -0.071949914
000090 4d d7 13 be c0 74 0d be ce 82 a6 3e c8 61 e2 3d
       -0.144376 -0.13814068 0.3252167 0.110538065
0000a0 7d 27 ed bd 90 d0 5d 3c d3 42 e4 bd 29 a1 53 3e
       -0.115797974 0.013538495 -0.11145558 0.20666946
0000b0 4c 40 79 bd d9 dc 75 be 25 08 b3 3d da 17 54 3d
       -0.060852334 -0.24010028 0.08741788 0.05178056
0000c0 59 57 1b 3d e6 6b 00 be 4b 5d 1e be 91 69 81 3e
       0.037925098 -0.1254116 -0.15465276 0.25275853
0000d0 dc 1a bb be 3f 43 d1 bd 42 1c 13 be d3 e8 68 bd
       -0.3654393 -0.10217904 -0.14366248 -0.056862663
0000e0 55 98 96 3c 85 65 93 3e 19 28 06 3e 22 fd 28 3d
       0.018383184 0.2878839 0.13101234 0.04125703
0000f0 13 53 21 3e 0f f8 a8 bd 50 d5 6d 3d aa 48 39 be
       0.15754347 -0.082504384 0.05806476 -0.18094125
000100 dc 5e cb 3d 9e 8b e8 bc 0f f3 8f 3c 00 44 69 3e
       0.09930202 -0.028386887 0.017571954 0.22779846
000110 6b 9b ab 3d 38 5a fe bc 97 59 b4 3b 66 6b 54 be
       0.08379253 -0.031048879 0.005503844 -0.20744094
000120 2e 2a 07 be 05 17 bf 3e 12 f9 da 3b e1 b2 47 3c
       -0.13199684 0.3732225 0.0066825235 0.012188644
000130 a1 d1 73 bc b9 7d d3 bd e1 75 e4 3c b2 a4 47 bd
       -0.014881522 -0.10326714 0.02788824 -0.04874105
000140 62 9a 3b bd b6 3c 0d 3e 9c a1 9b 3d 01 a5 94 be
       -0.045801528 0.1379269 0.07599184 -0.29032138
000150 8e 11 12 3d ce 2b 1e 3e 44 68 cd 3e 03 85 a1 3d
       0.035661273 0.15446398 0.4011861 0.07886698
000160 dd c1 fe bc 99 2c 5e bc 71 2d c7 bd 10 66 0a 3e
       -0.0310983 -0.013560438 -0.09725464 0.13515496
000170 e1 3a 88 3d 59 05 3b be 20 08 eb be 9a 41 f4 3d
       0.06651855 -0.18263759 -0.45904636 0.11926575
000180 7f 18 2d be 29 9c 74 bd 23 a9 9b 3d f2 23 0a 3e
       -0.16903876 -0.05971924 0.0760062 0.13490275
000190 32 b0 67 3e 97 90 28 3d eb a4 0d 3e 90 be 44 3d
       0.22625807 0.041153517 0.13832442 0.048033297
0001a0 aa 2f f5 bc b0 ee 19 bc f3 06 51 bc 00 1f ad bd
       -0.029929955 -0.009395286 -0.0127580045 -0.084531784
0001b0 74 2f 05 be ef 40 b6 bc 6c 4f 07 bd c3 69 1f 3e
       -0.13006383 -0.02224776 -0.033034727 0.15567689
0001c0 8d 30 cc 3d 76 ca 18 3e c2 d6 2c be 8d 3e ab be
       0.09970198 0.14920983 -0.16878799 -0.3344616
0001d0 11 51 94 3d 65 0a 05 3e 7f 0c 86 3c 0a b7 84 3d
       0.07242025 0.12992246 0.01636338 0.064802244
0001e0 92 39 0f be 9d c7 e8 3e 0e 00 99 be ec 16 cd bd
       -0.13986805 0.45464793 -0.29882854 -0.100141376
0001f0 91 ec 64 be b1 08 21 be 8f 4b 33 bb 35 5d 1f be
       -0.22355868 -0.15725972 -0.002735827 -0.155629
000200 43 42 fd 3b ac cc a6 bd 8d f7 ce bd f4 0e 80 be
       0.0077288463 -0.08144507 -0.1010581 -0.25011408
000210 d2 51 d6 3d ea 1a bb 3d 64 37 21 be 72 b2 e8 3d
       0.10464825 0.09135993 -0.15743786 0.11362161
000220 b2 33 43 3d e2 33 58 3e af 31 7a bd 00 1f 3b be
       0.047656722 0.21113542 -0.06108254 -0.18273544
000230 40 b8 0a 3d c0 c5 8f be 68 f6 df 3c 82 5a 85 3e
       0.03386712 -0.2808056 0.027339175 0.26045614
000240 5c 9a 9c 3d ef 20 ec bd 7b 56 71 3e 8e f0 1a bd
       0.07646629 -0.11529719 0.23568146 -0.037827067
000250 90 05 01 3e f8 0e b5 bd 0d d4 08 3c 16 9d 99 3c
       0.12599778 -0.08840746 0.008351338 0.018751662
000260 a9 64 f0 3d 4a 3d d3 3d 75 a2 ec 3d 15 30 65 3d
       0.117379494 0.10314424 0.11554424 0.055954058
000270 fc 45 8d be 9c 99 44 be b5 fa 89 3e 10 72 71 3e
       -0.27592456 -0.19199222 0.26949087 0.23578668
000280 14 e5 a0 3e 3b 5b e5 bb d9 1b e2 3d 92 0e d2 bc
       0.31424773 -0.006999401 0.11040468 -0.025641713
000290 7b 87 e3 bd a7 d3 8d be a2 6f 7a bc 46 56 09 3e
       -0.11109825 -0.2770054 -0.015285404 0.13411817
0002a0 02 1e 74 bd 5c 05 6e 3e 53 8f 0e 3d b8 0f ac bd
       -0.05959893 0.23244232 0.034804653 -0.084014356
0002b0 3f 9a 17 be b5 16 4b be 0c 48 ab bd 84 a8 ae 3e
       -0.14804934 -0.19832881 -0.08363351 0.34112942
0002c0 a0 f0 e7 bd a8 04 21 3e 6e f1 28 be bc 84 5c be
       -0.113251925 0.15724432 -0.16498348 -0.21535009
0002d0 76 8b 00 bd 9c f4 46 3e 2b fb f7 3d 20 f9 83 be
       -0.031383 0.19429249 0.12108453 -0.25776005
0002e0 e0 68 41 3e 70 66 4a bc 8a 17 09 3d 2d a7 84 3c
       0.18887663 -0.012353525 0.033469714 0.016192997
0002f0 c0 88 49 be 81 9e 40 be 17 76 55 3e 14 c3 56 3e
       -0.19681072 -0.18810464 0.20845829 0.20972854
000300 73 d7 a4 bc 8a eb 76 3e bb 1f 07 3e e4 57 78 be
       -0.020122265 0.24113289 0.13195698 -0.24252278
000310 7f 72 02 be 95 8c 88 3d c7 37 66 3e 73 ec 2c bc
       -0.1273899 0.06667439 0.22482215 -0.010554421
000320 06 ac ab bd b8 57 91 bd b9 67 86 bc e8 60 f6 bc
       -0.0838242 -0.07096809 -0.01640688 -0.030075505
000330 c4 80 68 3e 0a 95 0c be 9d ca 4c bc 7e 43 f7 3d
       0.2270537 -0.13728729 -0.012499479 0.1207342
000340 95 99 94 bd 5a 1d 7f be 44 74 66 3e 83 fc 9a 3d
       -0.07255856 -0.2491354 0.2250529 0.07567694
000350 05 03 42 3e 4a 01 ce bc 29 cb 8e be dc ff 33 3e
       0.18946464 -0.025147099 -0.27889374 0.17578071
000360 af 1f c5 3d 24 ab 7b 3d 44 78 2c 3e 6b 5b ac 3d
       0.09625184 0.06144251 0.16842753 0.08415874
000370 f5 22 b2 bc c2 0b 9d bd 3e 9c 0a 3e 39 c8 40 3e
       -0.021745184 -0.07668258 0.13536164 0.18826379
000380 eb e3 21 be 91 88 e7 3c a7 40 c0 bd 2d 37 31 3f
       -0.158096 0.028263362 -0.093873315 0.69224817
000390 3f 18 a2 bd 25 b0 d5 bd a0 1e b7 3d 6b c3 70 be
       -0.07914781 -0.104339875 0.08941388 -0.23512046
0003a0 fe 5f 3f be 0a 8a 60 3e cd c2 00 3b cb f4 20 be
       -0.18688962 0.21927658 0.001964736 -0.15718381
0003b0 97 ed 2c 3d e0 63 b6 3d 78 16 24 be 4b f4 87 3d
       0.04221877 0.089057684 -0.16024196 0.06638392
0003c0 01 e1 27 be 2d f6 06 3d 74 0a 8d bc a2 98 81 be
       -0.16394426 0.032949615 -0.017216899 -0.25311762
0003d0 8c 14 06 3d a7 fa 89 3e 2c 21 3c bd 53 bf fe 3d
       0.03273444 0.26949045 -0.045930073 0.12438836
0003e0 e1 36 a8 3c 28 5b 6a be b6 76 60 be c4 e7 28 be
       0.02053398 -0.22886336 -0.21920285 -0.16494662
0003f0 79 c4 54 bd d6 8c b3 3d 17 ca df 3d 2a 24 34 3e
       -0.051945183 0.08767097 0.109272175 0.1759192

weight_hh_l0 f4 [128, 32]
000000 6d 2d 6b be 80 50 3f bc 18 e3 9f bb 5d d3 09 3e
       -0.22966547 -0.011676908 -0.0048793666 0.13459535
000010 ab 76 bb bd a1 de 1b be 81 97 02 3e 02 af 42 be
       -0.091534935 -0.15221645 0.12753107 -0.19012073
000020 d6 ee 82 3d c6 ce 4e bc 9f d1 62 be 10 0d 5b 3c
       0.063932106 -0.012622541 -0.22150277 0.013369814
000030 89 c4 36 3e 51 7b ab bd 92 98 44 bd a6 83 39 3e
       0.1784841 -0.0837313 -0.047997065 0.18116626
000040 a2 14 e8 3d ea a0 ba bd d7 19 79 3d 94 10 27 be
       0.113320604 -0.09112723 0.06081566 -0.16314918
000050 ef 15 8d 3e 83 a1 1d bd b4 1e c8 bb 10 10 1d 3e
       0.27555797 -0.038484108 -0.0061071757 0.15338159
000060 7a e6 48 3c 38 21 c4 bd b7 54 f1 3d f1 26 a8 3d
       0.012261981 -0.095766485 0.11783736 0.082105525
000070 8c ac 62 3e 93 d7 ab 3c 52 53 2b 3d 9e b4 1b 3e
       0.22136134 0.020976817 0.041827507 0.15205619
000080 22 e7 20 bd cb 05 28 be 60 ce 87 3d 88 71 1e 3e
       -0.039282925 -0.1640846 0.0663116 0.15472996
000090 42 c7 3d be ec 82 93 be ad f1 f4 bd 7b 42 46 3e
       -0.18533042 -0.28810823 -0.119601585 0.19361298
0000a0 1e 2a ce bd 90 6d 3d 3d 81 f4 22 bd f1 aa 5c 3d
       -0.10066627 0.046247065 -0.03978396 0.05387396
0000b0 8d 59 30 3d 6e cd 45 3b b1 fb 1a 3e fb 6c 89 3e
       0.043054152 0.003018226 0.15135075 0.26840958
0000c0 48 cc 91 bd dd 38 89 3e 2b 9d 04 3e 70 59 43 be
       -0.07119042 0.26801196 0.1295058 -0.19077086
0000d0 3e e3 8e 3e ad fa f6 3d b3 65 80 bd 68 fe cb bd
       0.27907747 0.12059531 -0.062693976 -0.099606335
0000e0 96 06 a9 3d 2d c7 8b 3d 7f 0c 72 3e ae 54 cf bd
       0.08253209 0.06825099 0.2363758 -0.10123573
0000f0 99 e6 e2 bd 35 88 c7 bd 35 88 dc bd c7 bd 07 bb
       -0.11079139 -0.09742776 -0.10768167 -0.0020712481
000100 ef 12 36 3d 0a fe 50 be cb 5b 3a 3d 8b 2e 91 bd
       0.04445165 -0.20409408 0.045497697 -0.070889555
000110 72 39 58 3d 96 8d 29 3e 51 00 1b 3d 06 d6 86 3e
       0.05278916 0.16557917 0.0378421 0.26335162
000120 96 5d 0c be 4b bf fb 3d 0f b3 c8 3c 47 2c bf bd
       -0.13707575 0.122923456 0.024499444 -0.09334617
000130 8e 1f 40 bd fd c3 57 3e a8 11 83 3e 2f 16 db bc
       -0.046905093 0.21070857 0.25599408 -0.026743976
000140 e9 af 71 be 5a d1 23 be 1c 89 4c 3d 62 18 6b be
       -0.2360226 -0.1599783 0.049935445 -0.2295852
000150 17 15 5b 3e 74 7d 02 3d b9 a2 a6 bc 79 1a 36 be
       0.21394764 0.031857923 -0.020341264 -0.17783536
000160 49 68 87 be 89 a8 be be 6d c4 a4 3d 6b f4 df 3d
       -0.2644675 -0.37237957 0.08045278 0.10935291
000170 f7 8a 4c be fb 74 51 be 73 2b ca bd 40 9d 7f 3c
       -0.19974886 -0.20454781 -0.098715685 0.015601456
000180 82 6c 31 bd 66 f4 34 bd e5 be 56 3e 9b 54 35 bd
       -0.04331637 -0.04417839 0.20971258 -0.04427014
000190 fe 3e 93 be 20 eb c5 be 13 57 0a 3e e6 da 83 3e
       -0.28758997 -0.3865595 0.13509779 0.25752944
0001a0 6f 0a 29 be 26 a2 e2 bd 6e c1 79 be 98 71 4c be
       -0.16507886 -0.110660836 -0.24390194 -0.19965208
0001b0 05 c7 20 bd 4d 9a 4f be d7 f4 d8 3d 4a ac b1 3e
       -0.0392523 -0.20273705 0.105935745 0.3470176
0001c0 64 44 df 3c c7 9f 8f bd c1 00 61 3e 58 98 96 be
       0.02725429 -0.07012897 0.21972944 -0.29413104
0001d0 a0 9c e3 3d ae 46 86 3e 73 33 9f be f3 51 7d 3d
       0.11113858 0.262258 -0.3109394 0.06184573
0001e0 ed ba 40 3e fc 5d c2 bd d0 9e 5f 3e 15 16 93 bd
       0.18821307 -0.09490582 0.21837926 -0.07181946
0001f0 60 24 ea bd e6 c6 ee bd eb a5 e5 bd 40 dc 7e 3d
       -0.11432719 -0.116590306 -0.11213287 0.062221766
000200 03 06 f2 3d aa bc 6b bd 70 5e 2c be 19 3f 31 bd
       0.11817553 -0.05755297 -0.168329 -0.043273065
000210 77 b1 f4 bd 26 65 8d be bc 82 a8 3e 7b 1d 6f 3c
       -0.11947911 -0.27616233 0.32912242 0.014594431
000220 95 b9 8c be 8a d8 c6 3d d7 32 b1 3d 96 e2 68 be
       -0.27485338 0.0970927 0.08652275 -0.22742686
000230 d8 32 c0 bd 20 ec 26 bd 26 f1 1a 3d 85 e3 58 3e
       -0.09384698 -0.04075253 0.037827633 0.21180542
000240 60 da a7 bd 9d f3 53 3d 20 a5 9d 3e 1e fe c6 be
       -0.081959486 0.051746 0.30790043 -0.3886575
000250 82 e9 8d 3e 15 e4 2b 3e e2 a0 e0 bd b8 2d 16 be
       0.27717215 0.16786225 -0.10968186 -0.14665878
000260 4a 5f e8 3d b2 27 20 be 6b 6c eb 3d 06 bd 07 3d
       0.113463 -0.15640143 0.114952885 0.03313925
000270 31 54 0d 3e a7 fc 3b be 9f 73 c2 3d e1 dc 5b 3e
       0.13801648 -0.18358098 0.09494709 0.21470977
000280 30 6c 70 be c4 b7 c5 be 0b a6 37 be 9c 33 e8 3d
       -0.2347877 -0.38616765 -0.17934434 0.11337969
000290 03 ce bf 3d 9f 85 00 bd be cd 1a be ea 8d 9c be
       0.093654655 -0.03137743 -0.15117547 -0.30577022
0002a0 f7 7a 0e 3d 03 9d bb bd d0 ce 57 bd 4d 27 09 3e
       0.034785237 -0.09160807 -0.052687466 0.13393898
0002b0 4c 66 6d 3c 9c 1a 00 3d 58 95 6e be 89 80 5a 3e
       0.0144897215 0.031275377 -0.23299158 0.21338095
0002c0 0d 6f 51 3d 87 da 14 be 7e 52 8f bd 0b 68 03 3c
       0.051131297 -0.14536487 -0.06998156 0.008020411
0002d0 3c 14 84 3d 68 61 f6 3d 92 aa b1 bb 3c c1 fa 3b
       0.06449172 0.120302975 -0.005421945 0.00765243
0002e0 5c c4 bb bd f5 75 14 3e 39 7b d2 3d 32 7a 28 3e
       -0.09168312 0.14498122 0.10277409 0.16452864
0002f0 b3 8b 03 3e e6 66 45 be 05 95 7e 3c 4f 0c 76 3e
       0.1284626 -0.19277534 0.015538459 0.24028133
000300 7b 61 e4 bd bc 15 0c be d4 0f 48 bd ec 45 35 3e
       -0.111514054 -0.13680166 -0.04884322 0.17702454
000310 2d 29 46 be 23 58 7f bd c0 58 09 be e9 69 fb bd
       -0.19351645 -0.062339913 -0.13412762 -0.1227606
000320 c9 40 49 3e f5 41 8a bd f0 4c 8a bd 83 b9 d9 3d
       0.1965362 -0.067508616 -0.06752956 0.10631087
000330 1b 8a f8 bc 1c 5f 03 3e ed ec f5 bd 13 0c 4b 3d
       -0.030339291 0.1282925 -0.12008081 0.04957206
000340 64 4d 3f 3e 48 ad 78 bc 68 9f 82 bd 21 a7 63 bd
       0.18681866 -0.015178032 -0.063780606 -0.05557931
000350 70 8d 13 3e 11 75 cf bc 48 71 7c be 34 89 ed bd
       0.14409423 -0.025324376 -0.24652588 -0.11598435
000360 67 93 81 bd 18 c8 0c 3e 70 7f 3f 3e 40 28 21 3e
       -0.06326943 0.13748205 0.18700957 0.1573801
000370 3c 6a 4a 3e ab 61 c4 bd 53 ac d3 3c 27 de c3 bd
       0.19767088 -0.09588941 0.025839007 -0.095638566
000380 86 75 27 be 85 fb 69 be 15 69 48 3e 39 50 57 3e
       -0.16353425 -0.22849853 0.19571336 0.21026696
000390 ad 66 81 be fc 80 9c 3c 5e 89 cb 3d 4a f0 24 bc
       -0.25273648 0.019104473 0.0993831 -0.010067055
0003a0 67 1b 59 be 00 94 08 3e 36 42 29 bd fc 2a 0d be
       -0.2120186 0.13337708 -0.04132291 -0.13785928
0003b0 b9 61 19 be c8 35 4d be c4 31 e8 bd bf 4c b4 bd
       -0.14978684 -0.20040047 -0.11337617 -0.08803701
0003c0 73 32 27 3d c3 4f 9c be 94 37 27 bd 40 f2 58 be
       0.040819596 -0.30529603 -0.040824488 -0.21186161
0003d0 9c 2c aa 3d bb ce c7 3e 00 ac 4b be ac 30 fa bd
       0.0830929 0.3902491 -0.19889832 -0.12216315
0003e0 db 3c 20 3e 56 98 2f bd bb 35 5b 3e fd 80 4e 3e
       0.15648215 -0.04286989 0.21407215 0.20166393
0003f0 73 d9 85 bc f0 41 09 3e e6 73 bd 3c 60 31 45 3a
       -0.01633904 0.1340406 0.023126554 0.0007522311

bias_ih_l0 f4 [128]
000000 ad 37 75 3c 9b 77 b6 3c ff 12 3b 3e f8 c5 9c 39
       0.014966887 0.02227383 0.18268965 0.00029902137
000010 9f 54 10 3e 9f 2f 5e 3e 75 32 1c 3c fb 0e da 39
       0.1409478 0.21697854 0.009533514 0.00041591362
000020 e4 17 99 bd 35 0b bc 3d 44 20 3f 3e 83 c7 c7 3d
       -0.0747526 0.09181825 0.18664652 0.09754851
000030 f6 d5 67 3d 2d 27 05 bd 6f 1f 0f be a8 db 1f 3e
       0.056600533 -0.032508064 -0.13976835 0.15611136
000040 ff 39 94 39 d7 25 3b 3e 43 3b 4a 3c 66 54 a9 bd
       0.0002827197 0.18276154 0.012343231 -0.08268051
000050 64 f0 30 3e 23 eb 51 3d 3e 29 50 3e 49 a1 ec 3c
       0.17279202 0.051249634 0.20328233 0.0288855
000060 9c 3e 4a bd 53 22 01 3e 37 46 20 3b 3d b8 27 be
       -0.049376115 0.1261075 0.0024455914 -0.16378875
000070 9c 36 97 3d f5 f2 ba 3d 64 3f 80 bd 75 fb 30 be
       0.07383463 0.091283716 -0.06262091 -0.17283423
000080 ea 75 db 3c 0a 46 ab bc fc 4e ba 3d f0 fe 04 bd
       0.026789624 -0.02090742 0.09097096 -0.03246969
000090 eb 19 af 3d 17 77 87 bd 38 8d e4 3b 42 8d 03 be
       0.08549865 -0.066145115 0.0069748424 -0.12846854
0000a0 ea 67 02 be 80 67 01 bd 33 f2 ac bd c2 7c 05 be
       -0.12734953 -0.031592846 -0.08444633 -0.13035873
0000b0 b1 ee 24 be a3 f5 f3 3d b7 4f 37 bd 8f f0 20 3e
       -0.16106679 0.11912086 -0.044753756 0.15716766
0000c0 ca 2b a3 3d 66 b4 f2 3d 95 e0 df 3d b7 b6 cc bd
       0.079673365 0.118508145 0.109315075 -0.099957876
0000d0 33 23 47 bd b1 0f 1b 3d e3 8b 4c 3e 80 12 29 3e
       -0.048617553 0.03785676 0.19975238 0.16510963
0000e0 c6 f1 a9 bc e9 03 7b 3e 4c c8 15 3e 3d 66 66 3d
       -0.02074517 0.2451321 0.14627188 0.056249846
0000f0 17 30 2c 3d 0e 17 18 bd 1e 3d 42 3d 48 ff fa bd
       0.04203805 -0.03713136 0.047421567 -0.12255722
000100 b8 3b 7e bc 98 84 57 bd 69 27 e7 bd f9 61 e6 3c
       -0.015517168 -0.052616686 -0.11286814 0.028122889
000110 cb 71 26 bd 95 75 a5 bc f5 08 dd bd fa 1a de bd
       -0.040635865 -0.020197669 -0.10792724 -0.10844989
000120 2a 39 21 be ce a0 8f bd 12 77 9c 3d 59 15 06 bd
       -0.15744463 -0.07013093 0.07639898 -0.032735202
000130 09 c5 09 be a5 e9 14 3e 3c ca f5 bd 73 a2 c0 bc
       -0.13454069 0.14542253 -0.12001464 -0.023514962
000140 34 10 2f be 85 6d a6 bb c5 14 4f 3d c2 ef b0 bc
       -0.17096025 -0.0050789737 0.050556917 -0.0215987
000150 75 21 ee 3d 2f ef 4d 3d 0a 5b c6 3d 1a 35 b0 bd
       0.11627475 0.05027693 0.09685333 -0.08603878
000160 6d 9a ae bd 13 35 90 3c b0 7c 13 bd af 76 30 be
       -0.08525548 0.017603433 -0.036007583 -0.17232774
000170 0e 1e 8a bc 2a 7f e9 bd b7 65 14 be 9d 00 f4 bc
       -0.016860034 -0.11401208 -0.14491926 -0.029785449
000180 60 70 a1 bb be 95 27 bc 79 f8 00 bd dd 99 12 be
       -0.004926726 -0.010228572 -0.031486962 -0.14316507
000190 ec fa d3 3d 68 dc 2a bd fe fe 0a be f1 36 29 3d
       0.10350594 -0.041714102 -0.13573834 0.04131216
0001a0 ba 8d d7 bc 20 06 08 3e 2e 1e 86 bd 4b f1 e1 bd
       -0.026312698 0.13283587 -0.06548725 -0.11032351
0001b0 1a 05 3a 3c 42 1f 01 3e 3d 0f 3f 3e b4 cc 9f bd
       0.011353755 0.1260958 0.18658157 -0.07802716
0001c0 fe 2d 5b 3c 24 61 10 3e 08 0e 60 3e 2b 28 51 3d
       0.013377665 0.14099556 0.21880352 0.051063698
0001d0 2b d4 0a 3e c9 77 3a 3e ec bb 50 3d 6b 07 fc 3d
       0.13557498 0.18209757 0.050960466 0.12306102
0001e0 38 9c 20 3e 94 76 47 bd 67 3c 45 3e 23 c9 f3 3d
       0.15684593 -0.04869707 0.19261323 0.11903598
0001f0 41 0c 42 3d 1d d5 be bc 02 bb 12 3e d8 73 18 be
       0.047374967 -0.02329498 0.1432915 -0.14887941

bias_hh_l0 f4 [128]
000000 ff b2 88 3d 0c ba a0 3d ba 97 aa bd 4c ba 63 be
       0.06674766 0.078479856 -0.08329721 -0.22239035
000010 61 2b 1c 3e 30 6a 0e 3e 25 a0 86 3c eb a7 50 3d
       0.15250923 0.13907695 0.016433785 0.05094139
000020 0a 02 fa 3c 34 09 b6 bd c3 e0 bf bd 24 24 86 bd
       0.03051855 -0.08888474 -0.09369042 -0.06549862
000030 56 6a 01 be 9f de 40 3e 1a 60 0e be e9 b3 59 3d
       -0.1263822 0.18834923 -0.13903847 0.05315009
000040 d8 90 b2 bc 66 23 84 3e 07 7a d1 bc 3a 44 7a 3e
       -0.021797583 0.25808257 -0.025570882 0.24440089
000050 47 7d 70 3e 30 b1 1b 3e 9e 99 37 3d dd 25 88 bd
       0.2348529 0.1520431 0.044824235 -0.06647847
000060 4c 28 21 be 6d e9 29 be 12 00 03 3c c2 25 25 bc
       -0.15738028 -0.16592951 0.007995622 -0.010079803
000070 0a 45 0d 3d 21 98 0b 3e 9b 64 1d be 20 9c 0a 3e
       0.03448967 0.13632251 -0.15370409 0.1353612
000080 23 2b 6d bd bb 3a 22 bd 31 cc ad 3a b9 b7 d3 bd
       -0.057902467 -0.03960679 0.0013259706 -0.10337777
000090 d9 5f 4d 3e 80 ab 3f bd 94 bf 10 be a1 8c c3 bd
       0.20056094 -0.046794415 -0.14135581 -0.09548307
0000a0 be 08 bb bb ac e8 2c 3e 92 34 a7 bd 3d 72 f0 3b
       -0.0057078293 0.16885632 -0.08164324 0.007337837
0000b0 b9 fb 6d bd 76 11 aa bd 61 e1 e6 3d 10 30 41 3d
       -0.05810139 -0.08304112 0.11273456 0.047164977
0000c0 b8 d1 80 bd 9c 09 52 3e c5 49 73 3e 5b 07 be 3d
       -0.06290001 0.20511478 0.2375861 0.09278747
0000d0 e7 f8 da bc fa 15 cc 3d 76 55 a2 bd 71 a8 14 3e
       -0.026730014 0.09965129 -0.07926457 0.1451738
0000e0 da 03 3b 3e 62 58 4b 3e 3c a2 cc 3d aa 89 39 bd
       0.18263188 0.19857934 0.09991881 -0.045297302
0000f0 38 54 70 3e 67 25 59 3d 73 0a fa bb 73 4f 13 3d
       0.23469627 0.053014185 -0.00763064 0.03596444
000100 1f 00 11 bd 71 2d c3 bd 8d 4d 4c bd 03 9a 58 3d
       -0.035400506 -0.09530152 -0.049878646 0.052881252
000110 0b 5c aa 3d d1 17 b9 bd 71 78 35 3e 5c 4c a4 3c
       0.08318337 -0.09037746 0.17721726 0.020055942
000120 f9 bb 1c be 55 08 c4 3d ca 60 0d bd 3c ba c7 bd
       -0.15306081 0.09571902 -0.034516133 -0.09752318
000130 52 8d 82 3d ae ee 6a 3a b6 f9 12 3c da 84 dc 3d
       0.06374611 0.00089619576 0.008970669 0.10767527
000140 3a 7b 9f 3b eb 8e 0a be c8 da 27 bd c3 c8 c3 3d
       0.0048669847 -0.13531081 -0.04098013 0.09559777
000150 b7 f8 05 ba cb 6f 1a be f3 bc 13 3c b9 d8 27 bd
       -0.0005110609 -0.15081708 0.009017217 -0.040978167
000160 a1 b4 d7 bd bf e6 3e 3d 0f 0e 4c bd c9 c8 d4 3d
       -0.10532499 0.046606775 -0.049818095 0.10389859
000170 6c 12 54 3d b4 c5 fd bd a8 7e b3 3d 66 47 0d 3a
       0.05177538 -0.123912245 0.08764392 0.00053893623
000180 91 7c bc 3c 90 94 32 3e a5 62 4a bd a2 17 00 be
       0.023008617 0.17439485 -0.04941048 -0.12509015
000190 37 1a 3d 3d bb a2 db bc cb b4 0b bb 4f fc 23 be
       0.04616758 -0.026810994 -0.0021317478 -0.16014217
0001a0 f9 9a de 3d 81 b9 ab bc 2b 7a 8e bc cd da 98 bd
       0.108694024 -0.020962479 -0.017392239 -0.07463608
0001b0 01 f3 8f 3d 74 e8 34 3d 54 b2 e9 bd 22 ce 90 3d
       0.07028771 0.044166997 -0.114109665 0.07070567
0001c0 1d 16 97 3d 6e ec 45 3e 84 01 b5 3d e6 f8 07 3e
       0.07377265 0.19328472 0.0883818 0.13278541
0001d0 02 86 94 3d eb f8 30 3e c4 0b e6 bd 7c ff 87 3d
       0.072521225 0.17282455 -0.11232713 0.06640527
0001e0 e6 48 f2 bd 56 49 d5 bd ed eb cd bd 29 f0 c2 3d
       -0.118303105 -0.10414378 -0.10054765 0.09518463
0001f0 5b 93 85 bc e5 c0 12 bd 88 bb 18 3d ec ef c2 3d
       -0.016305616 -0.03582849 0.03728822 0.09518418

weight_ih_l0_reverse f4 [128, 16]
000000 8a cb 9f 3e 60 4d 5e bd 43 b3 34 3d 94 75 6c bd
       0.31209975 -0.05427301 0.04411627 -0.05772932
000010 c0 74 05 be 27 54 47 be d9 b2 0f be 88 ca 08 be
       -0.13032818 -0.19465695 -0.14033069 -0.1335851
000020 7f 1c 24 3d 56 fb 06 be 3e 45 2a 3e 7e 2f 6e 3e
       0.04006624 -0.13181815 0.16627976 0.23260304
000030 be 9c 45 bd 79 49 0b be 8d 11 da 3d 02 5b 2b 3d
       -0.048245184 -0.13602246 0.10647879 0.04183484
000040 26 e7 41 3c 9c 87 44 be 99 b2 85 bc f8 4a 35 3e
       0.011834895 -0.19192356 -0.016320514 0.1770438
000050 82 02 eb bc 98 c1 0a be c2 4e 34 3d af 7b 36 be
       -0.02868772 -0.13550413 0.04402042 -0.17820619
000060 eb 6e c2 3d 21 c3 eb bd 6d e6 e0 3d e2 ed 34 bd
       0.09493812 -0.11511827 0.1098145 -0.044172175
000070 b6 d7 57 3e 07 bd 36 be 53 0f 30 3e 21 26 58 3e
       0.21078381 -0.17845546 0.17193346 0.21108295
000080 aa f2 92 3e 73 92 e9 bd 49 0e ac bd 0e 35 b7 3d
       0.28700763 -0.11404886 -0.08401162 0.08945666
000090 fa 02 5f be a5 34 62 3a 61 de 8f 3c 5b 59 a2 3d
       -0.21778479 0.00086290605 0.017562093 0.079271995
0000a0 8d 99 c6 3d 0b da 18 be 23 3d 6f 3e 99 4a 65 3e
       0.09697256 -0.14926927 0.23363166 0.22391738
0000b0 10 ef 52 be 27 55 19 be 2f aa a9 3d 83 df db 3c
       -0.20599008 -0.1497389 0.08284413 0.026839977
0000c0 7a 35 24 3e 82 4b 37 3d 27 d1 08 3d 58 53 da bd
       0.16036025 0.044749744 0.03340259 -0.10660428
0000d0 15 15 22 be 1f 9c 77 3d dc 5a a3 3e e6 c1 4d 3d
       -0.15828355 0.060451623 0.31905258 0.050233744
0000e0 aa b3 58 be cf e9 bf bd 8a f3 71 be c7 99 45 3e
       -0.21162286 -0.09370767 -0.23628059 0.19296943
0000f0 ec 9a 96 bd 31 3b 52 be 80 c0 87 be 09 40 7c 3e
       -0.07353768 -0.20530392 -0.26514053 0.24633802
000100 a7 31 07 3f db fe 33 be d8 39 8f be 4e f3 02 be
       0.5281014 -0.17577688 -0.2797382 -0.12788126
000110 0d 1e 37 3d 36 f0 15 be d7 46 a7 bd f3 78 bf bd
       0.044706393 -0.14642414 -0.081678085 -0.09349241
000120 9d a5 85 3d 49 ea 2a be d1 21 64 3e c2 37 82 3d
       0.06525729 -0.16690935 0.22278525 0.06358291
000130 47 3c 27 3c 58 af 21 bd 71 36 84 3e 84 aa 89 bd
       0.010207242 -0.03947386 0.25822785 -0.067219764
000140 28 46 93 be 6c 4c 5f be b4 08 38 3e da d5 5b be
       -0.28764462 -0.21806496 0.1797207 -0.21468297
000150 f2 5b 3d bd 81 f2 84 be b8 a8 aa 3d 97 15 83 3e
       -0.046230264 -0.25966266 0.08332962 0.2560241
000160 26 ef 6d 39 0a 46 25 bd 2c 71 f0 3d 1c cc dd 3b
       0.00022691171 -0.040349998 0.11740336 0.0067687165
000170 13 c1 37 3e d1 62 aa 3d 12 5b 23 3c 23 4f 11 3e
       0.17944746 0.08319629 0.009970443 0.14190345
000180 39 08 b4 3e 53 e9 dd 3d e0 98 c2 3d 7d 54 54 3e
       0.35162523 0.10835519 0.09501815 0.20735355
000190 b8 65 d4 bd 68 76 be bd 7b f5 ac be d2 6e ce bd
       -0.10370964 -0.09299928 -0.33781037 -0.10079731
0001a0 8c 28 e0 be 9b d7 7f 3b ff 90 ee 3d 4f ea 91 3e
       -0.43780935 0.0039038423 0.116487496 0.28499076
0001b0 60 5a 3d be 81 96 da bc b3 f3 28 3e d3 ed 89 3e
       -0.18491507 -0.026683094 0.16499214 0.26939258
0001c0 ad e6 ee 3d 8a 04 7f be 48 de 57 3e a9 8f a7 3d
       0.11665092 -0.24904075 0.21080887 0.08181698
0001d0 69 bd a9 3d 18 aa 0b be 52 15 3c 3c 0a 80 85 3d
       0.0828808 -0.13639104 0.0114796925 0.06518562
0001e0 8d df ec bd 67 d9 45 bd 5f af 38 be 0a 3d 2c 3e
       -0.115660764 -0.048303034 -0.18035649 0.1682016
0001f0 6a 4d 1f 3e 6f 7f 05 3e 6d e3 ac 3d 93 52 87 bd
       0.15556875 0.13036893 0.084418155 -0.06607547
000200 be af b1 bd a3 6e 04 3e 2e 5a df bd 88 d5 44 3e
       -0.08676098 0.1293283 -0.10905872 0.1922208
000210 d0 56 78 3d 9f 19 b9 3d 29 3c 08 be a2 e0 32 be
       0.060629666 0.0903809 -0.133042 -0.17468503
000220 3c d4 85 3d 9f 95 3e 3e 69 3f 64 3e d9 3a 6c 3e
       0.06534621 0.18611763 0.22289814 0.23069324
000230 68 1e bb 3e 66 3b 0d 3d 6c a5 04 3e fc 95 e0 3d
       0.36546636 0.034480475 0.12953728 0.10966107
000240 0b 15 bf 3c 35 48 15 be c7 af 81 3c f0 7f 06 3d
       0.023325464 -0.14578326 0.015830887 0.032836854
000250 2d 22 68 3e 6f 19 66 bd 84 4c aa 3e c1 0d 38 be
       0.22669287 -0.0561766 0.33261502 -0.17973997
000260 c8 79 05 3e 7a 31 cf be 29 04 9b be 4c c5 b8 bc
       0.13034737 -0.40467435 -0.3027661 -0.022555016
000270 d5 39 d5 3d 7a 6a bb bc 8a 38 99 be b0 05 06 3d
       0.10411421 -0.02287792 -0.29925948 0.032720268
000280 60 e2 24 be db 9f 04 bd 25 be cb be 14 6f 02 3c
       -0.1610198 -0.032379013 -0.39793506 0.007961053
000290 c6 53 f8 3d 24 6f d0 3d 08 00 c0 bd 92 36 1f 3c
       0.121253535 0.101774484 -0.09375006 0.0097176
0002a0 ad 37 3f be da fe 79 3d 83 97 fd 3b e2 05 5d 3e
       -0.18673582 0.06103406 0.007739009 0.21584275
0002b0 55 f9 a7 bd 2c 16 e6 bd 64 6e 75 be 84 a4 32 bd
       -0.08201853 -0.11234698 -0.23967892 -0.043613926
0002c0 54 08 a9 3d d1 04 d4 bd 26 6c 81 bd 3f 7a 1a 3e
       0.082535416 -0.10352481 -0.06319456 0.15085696
0002d0 ca ec 3c 3d fd de 34 3d 2f 77 fc bd 25 40 7c 3d
       0.046124257 0.04415797 -0.1232742 0.06158461
0002e0 6c 5a 90 bd e3 2e 57 3e 1d 4a 2f be 6a e0 d3 3c
       -0.070484966 0.2101398 -0.17118116 0.025863845
0002f0 8f d3 99 bd 55 ca 9c 3d fc 02 4c be 2e 78 0d be
       -0.07511055 0.07655779 -0.19923013 -0.13815376
000300 c3 f7 6c 3d f7 e3 58 be df 1d 70 bd e1 97 8b bd
       0.05785347 -0.21180712 -0.058622237 -0.06816078
000310 45 b3 4d 3d f5 3a 96 bd 65 8a c1 3d e0 68 48 be
       0.050219793 -0.07335464 0.09450225 -0.19571257
000320 44 0a fa 3d 99 13 50 3e 07 fd 02 3e 18 fa 23 3d
       0.12208989 0.20319976 0.12791835 0.04003343
000330 fc 84 68 3e cf 29 b4 3d cd 44 a9 3d d7 40 17 3e
       0.2270698 0.08797037 0.08265076 0.14770828
000340 90 41 ac 3d c6 93 dd 3c d0 7a 8b bc b0 2f c5 3d
       0.084109426 0.027048003 -0.017026335 0.09628236
000350 69 34 0d 3c 63 ca 14 bd 1e 1c 32 3d 2f 74 d2 bd
       0.008618453 -0.036325824 0.043483846 -0.102760665
000360 58 1c a8 3d 3d 73 4e 3e 53 a3 0f 3e 71 c0 c3 3d
       0.08208531 0.20161147 0.14027147 0.0955819
000370 33 bf 46 3e e0 bb e0 bd c3 29 22 be 9b 64 0c 3e
       0.19408874 -0.10973334 -0.15836243 0.13710253
000380 1f 13 5f bd c6 e2 05 be 5d c6 d8 3e 6e af 84 be
       -0.054461595 -0.13074788 0.4233884 -0.25915092
000390 a9 61 a1 3e 36 b7 54 3d 45 36 cc 3c 4c 11 37 be
       0.3151982 0.051932536 0.024928221 -0.17877692
0003a0 cb b2 f6 3d 8b d5 15 be 3b c6 9b be 82 6f 8d 3c
       0.12045821 -0.14632241 -0.30424675 0.017265085
0003b0 5e 4a 1e bc 14 ed 7c 3e 1b 31 0d 3c ae 7f d6 be
       -0.009661285 0.24699813 0.008617665 -0.41894287
0003c0 95 82 93 3d b5 bd 72 3d 97 d4 65 be 96 b4 2c 3e
       0.07202641 0.05926295 -0.22444378 0.16865763
0003d0 f0 2f fa 39 99 0a 92 be c5 b5 03 be 0b 3c 4b be
       0.00047719432 -0.2852371 -0.12862308 -0.19847123
0003e0 80 51 c2 3c 42 5b 65 bc e7 2c 39 3e 78 53 28 3e
       0.023720503 -0.013998808 0.18083535 0.16438091
0003f0 37 f0 00 3e 54 b7 e8 bd 0c 06 b1 bb 3d 49 15 3d
       0.12591635 -0.11363092 -0.005402332 0.0364468

weight_hh_l0_reverse f4 [128, 32]
000000 c0 87 fa bd fb e1 1a bc 8a 0a 81 3d cb 8f 8f 3d
       -0.122329235 -0.009453292 0.06300838 0.07009848
000010 94 a8 37 3e 5d 52 8f 3c 2c 02 54 bd 22 d0 81 3d
       0.17935401 0.017495329 -0.051759884 0.06338526
000020 87 e9 0c 3d 68 05 f2 bd b6 e4 5e bd 9b 1f db 3d
       0.034402397 -0.118174374 -0.054417334 0.10699388
000030 4a 3e 75 3e e7 53 03 3e 6f c8 89 be 8b 8c 14 be
       0.23949543 0.12824975 -0.2691073 -0.14506738
000040 f7 0d c1 3c 70 fc 3e 3e b1 86 e1 3d b6 c2 2b be
       0.02356623 0.18650985 0.110120185 -0.16773495
000050 ae 90 f7 bd 9c 01 19 3e 64 92 4a 3e fc 80 0c be
       -0.12088142 0.1494202 0.19782406 -0.13721079
000060 3b 86 c7 bd 89 2a 34 3d a9 98 b8 3d 9f 95 85 3d
       -0.09742399 0.043985877 0.090134926 0.065226786
000070 22 e0 89 be 09 77 a3 3d 77 57 54 bd fd 4a 28 bd
       -0.26928812 0.079816885 -0.051841225 -0.04108714
000080 56 12 d7 3d 23 10 7d 3d 8c 1b 11 3e 48 c0 6c 3e
       0.10501544 0.061782967 0.14170665 0.23120224
000090 58 86 7d 3e 75 9e a7 bb ee 33 8d be 94 10 00 3d
       0.2475828 -0.005115325 -0.27578682 0.03126581
0000a0 d9 71 30 3e b2 73 81 bb 0d 69 63 3e 0d 35 2b 3e
       0.1723093 -0.0039505595 0.22208042 0.16719456
0000b0 16 fe f8 3d cd 95 0b be 96 d9 36 3e d5 7f a0 be
       0.12157838 -0.13631363 0.1785644 -0.31347528
0000c0 eb 97 c3 3d cd 89 e1 3d 4a 69 b8 be 1c bb 14 bd
       0.095504604 0.110126115 -0.3601783 -0.036311254
0000d0 9a 35 e6 bb 57 d0 e8 bd 3d 7a 5f 3e 1f 1d 16 bc
       -0.007025433 -0.11367863 0.21823974 -0.009162216
0000e0 21 c7 d1 ba 75 b4 73 bd 97 84 31 3d 42 04 ac 3d
       -0.001600478 -0.05949827 0.04333934 0.083992496
0000f0 11 6a 4e 3e fb fd df bd 5c 13 12 be f1 f5 99 bc
       0.20157649 -0.10937115 -0.14265198 -0.018794032
000100 19 20 ee bd 84 77 4a be 38 cd a4 3d ce bd d5 3d
       -0.11627216 -0.19772154 0.08046955 0.10436593
000110 15 c3 59 3e ea fd ae 3d 46 8b 37 be 10 eb 0d 3e
       0.21265824 0.08544524 -0.17924222 0.138592
000120 a7 fb c0 3d 8e 8f 07 3e 64 fa 51 be 1b ce 20 be
       0.09422999 0.13238356 -0.20505673 -0.15703623
000130 ef 28 00 3d a4 19 90 bd 8b 2b a3 3d 37 04 42 be
       0.031289037 -0.070361406 0.079672895 -0.1894692
000140 26 8f a9 3e 02 3e 2b be b6 02 58 3c bd dd be 3d
       0.33117026 -0.16722873 0.01318424 0.09319637
000150 82 64 4c bd 84 36 21 3e 06 7f e0 bd 4b b5 16 3e
       -0.04990054 0.15743452 -0.10961728 0.14717595
000160 56 43 25 3e 19 43 cb bd 44 86 a8 bc ed df f2 3d
       0.16138968 -0.09924907 -0.020571835 0.11859117
000170 bb 77 07 3e a1 5e a3 3d 49 d6 23 3d 2a 38 b3 3d
       0.13229267 0.079770334 0.03999928 0.08750947
000180 62 0d 15 3e 8b b4 52 3d 06 fa c4 3e af ba d9 bd
       0.14555886 0.05144171 0.38472003 -0.1063131
000190 4e 5a a0 3d 8a 1c 13 bd 4e 71 81 3e ed be 05 3d
       0.07829724 -0.03591589 0.25281757 0.032652784
0001a0 68 4c 92 be 97 08 18 bd 43 aa 94 3e 8b a2 17 be
       -0.28573918 -0.037117567 0.2903615 -0.14808099
0001b0 c6 1b 0d be 3f 4a c8 be 17 3f cb be cf e2 ce 3c
       -0.13780126 -0.39119145 -0.3969657 0.025254635
0001c0 58 02 71 3d 67 7c 79 be 40 77 c6 3d 9b 48 14 3d
       0.058840126 -0.24363862 0.09690714 0.036202054
0001d0 3f 6f 16 3e 60 5f 1c be 94 f2 98 3c d3 5e 1a bd
       0.14690875 -0.15270758 0.018670358 -0.037688088
0001e0 66 86 f8 bc bd 2b 54 bd b5 eb 79 be a1 a9 6d 3d
       -0.030337524 -0.051799525 -0.24406321 0.0580231
0001f0 44 df 94 3e a6 b9 49 bd 36 d3 90 be d8 74 27 be
       0.29076588 -0.049249314 -0.2828614 -0.16353166
000200 73 81 4c 3e 31 cb 1d 3d 01 ec 50 3e 3f 3c d3 3e
       0.19971256 0.038523857 0.20402528 0.41256902
000210 c2 67 85 3e f9 7f 7a 3e b8 63 92 bd be 89 14 3d
       0.26055723 0.2446288 -0.07147926 0.036264174
000220 f3 95 16 3e 1c 50 89 bd ba aa 15 be d2 53 43 3e
       0.14705639 -0.06704733 -0.14615908 0.19074944
000230 4c 86 52 3d 94 37 33 3d 3c 94 03 3d cb 27 58 3d
       0.051397607 0.043754175 0.03212379 0.052772325
000240 84 79 1f bd f4 f0 09 3d c3 22 89 bd 27 6a fa bd
       -0.038934246 0.033677056 -0.066960834 -0.12227278
000250 7c fb 97 3d 16 20 7a be fd 4e 57 3e b5 80 57 be
       0.07421014 -0.24426302 0.21026225 -0.21045192
000260 f2 b5 13 3e 70 e8 e2 3d f8 89 e0 3d 1e b9 00 3e
       0.14424875 0.1107949 0.109638155 0.12570617
000270 d2 a1 92 bd b2 61 ff 3d b5 5d 54 be cc 24 d2 be
       -0.07159771 0.12469806 -0.20738871 -0.410437
000280 f3 32 ed 3a ca 89 ff bd 43 07 48 3d 8e 5a a7 3e
       0.0018096849 -0.12477453 0.04883505 0.32686275
000290 6e 6d b8 3e ed 4c a5 3e 20 ee 8f be e8 88 e5 3d
       0.36020988 0.32285252 -0.28111362 0.112077534
0002a0 39 4c 2d 3e 9a 31 ae bd 9a 88 ea bc c1 fe dd 3c
       0.16923608 -0.085055545 -0.02862959 0.027099015
0002b0 cb d2 2f 3d e6 8b 64 3e cc df c3 bd 76 d5 74 be
       0.042925637 0.22318992 -0.0956417 -0.23909554
0002c0 87 72 1f 3d cd 9e a5 bd 41 36 47 be d6 df 8e 3e
       0.03892758 -0.080869295 -0.1945429 0.27905148
0002d0 4f be ac 3d 07 f1 89 bb ab 0a 92 3e b2 15 b2 3d
       0.08434736 -0.004209641 0.28523764 0.08695544
0002e0 1d 7c f4 bd da 21 34 be 7b a9 07 3d ac 87 10 3e
       -0.11937735 -0.17591038 0.033120614 0.14114255
0002f0 5f 89 23 bd cc f8 83 3e e6 23 22 3d 0e b2 20 3e
       -0.03992593 0.25775754 0.039585017 0.15692922
000300 da d0 15 3d 4d cb 89 bd 30 10 9e bd 64 1f 1a be
       0.03657613 -0.0672823 -0.07717931 -0.15051037
000310 b8 97 14 be 31 cd 12 3c 3f 0b 24 3e 4c af 94 bd
       -0.14511001 0.008960054 0.16019915 -0.07259998
000320 58 e1 e4 bd 93 31 15 be 04 52 b0 bb 9a 4e ad 3d
       -0.111757934 -0.14569692 -0.005380871 0.08462258
000330 82 86 13 be dc 45 5d be f7 50 83 be 59 4c 00 bd
       -0.1440678 -0.2160868 -0.2564771 -0.03132281
000340 9f fd 4e 3e 47 de e4 bd bb 2f 58 bc 86 48 48 3d
       0.20213936 -0.111752085 -0.013194974 0.04889729
000350 1b a4 89 3d 32 c4 25 be ab cc 8e 3e e5 30 eb 3b
       0.06720754 -0.16188124 0.27890524 0.0071774595
000360 59 12 e2 bc 9c 03 e3 bd 03 50 13 be cd a4 22 be
       -0.02759664 -0.11084673 -0.14385991 -0.15883179
000370 86 db c9 bc 19 a0 4e 3c 57 ec a8 be 4e 95 6a be
       -0.02464081 0.012611412 -0.32992813 -0.22908518
000380 c3 a3 9e bd 0b 75 8c 3d f1 eb d0 3c 82 f8 28 3e
       -0.07746079 0.06858262 0.02550313 0.16501048
000390 4e fb 82 3e 85 4a 04 3e da 52 8a be d0 60 53 be
       0.25582355 0.12919052 -0.27016336 -0.206424
0003a0 85 f1 fe 3d ae 70 ad 3d 54 26 52 bb d0 84 46 b9
       0.1244841 0.084687576 -0.0032066302 -0.00018932228
0003b0 fd 5c fa 3c dc bd 5b 3e 2e 82 78 39 31 af c8 3d
       0.030561918 0.21459144 0.00023699619 0.0979904
0003c0 99 78 4d 3d 9e 14 e0 3d e8 04 71 3d 05 2a 42 be
       0.05016384 0.109414324 0.05884257 -0.18961342
0003d0 c9 08 2d bb e0 5b 7d be 59 c1 18 bd 47 95 3c be
       -0.0026402941 -0.24742079 -0.037293766 -0.1841632
0003e0 17 8f b8 3d 09 4b d6 3d f5 ac a9 3d c8 74 e7 3d
       0.09011667 0.104635306 0.08284942 0.11301571
0003f0 b7 13 c9 bd e8 5e 0e bd 5f 7f 3b be 83 de 6d be
       -0.098182134 -0.03475848 -0.18310307 -0.23229413

bias_ih_l0_reverse f4 [128]
000000 ae 25 f1 3d 7e 9e 84 bd 61 b1 17 3e 08 ca f6 3d
       0.11774765 -0.064755425 0.14813758 0.12050253
000010 04 39 0a 3e 8f e9 ad bd 6f 7c 80 3e dc 5c 33 3e
       0.13498312 -0.084918134 0.25094935 0.17515892
000020 66 7e 95 3d 17 62 94 3e ba 6c 04 be d6 d0 fa 3d
       0.07299499 0.28981087 -0.12932101 0.122468635
000030 c9 ca 3a 3e 1b 47 1d be 83 81 17 bd a5 80 9a bd
       0.18241419 -0.15359156 -0.036988746 -0.07544068
000040 09 d8 c7 bd b8 f9 9d bd 8c 20 49 3e ad 43 8e bd
       -0.09758002 -0.07713646 0.19641322 -0.06946502
000050 39 2b 31 3e 98 1c 93 3d 0d f5 a0 3e d8 bd 4c bd
       0.17301644 0.07183188 0.3143696 -0.049985737
000060 b0 9a 81 bd d4 fd 42 bd 52 68 5b 3e 81 d3 95 bc
       -0.063283324 -0.04760535 0.21426514 -0.01828933
000070 d6 c7 9b 3b 01 68 4d 3d 5e a5 61 3c 20 97 ff bc
       0.004754047 0.050148014 0.013772337 -0.031199992
000080 6c 02 16 3e 19 a4 a2 3d c3 92 50 3d 20 e5 09 3d
       0.14649361 0.079414554 0.050921213 0.033665776
000090 ef 0d 00 3e 43 69 2d 3e f4 28 48 3e 66 3b 06 be
       0.12505315 0.16934685 0.19546872 -0.13108596
0000a0 8a 36 42 3d 67 ba b9 3d 9e c8 04 3e 2c 38 33 3d
       0.047415294 0.090687566 0.12967154 0.04375474
0000b0 23 60 78 3d dd 43 ed 3b 90 b4 08 3d 1c 3d 71 3d
       0.060638558 0.007240756 0.033375323 0.05889617
0000c0 1e 81 4f 3e f4 64 1a 3e 0d ac 0b 3c 69 46 46 3e
       0.20264098 0.15077573 0.008524907 0.19362797
0000d0 f9 02 a1 bc e3 8d 2b 3e 5f 76 89 3e 02 83 cf 3c
       -0.019654738 0.16753344 0.26848122 0.025331024
0000e0 d9 90 64 bd 4b 84 08 3e e3 83 66 3e 95 d8 ef bd
       -0.0558022 0.13331716 0.22511248 -0.117112316
0000f0 5e 3c c7 bb eb 5c 0d bc 77 36 bc 3d aa 78 8e 3d
       -0.0060801944 -0.00862811 0.09190076 0.069566086
000100 ae 79 a0 3d 92 c8 3a 3e 0e 2e 27 be 28 be 81 3d
       0.078357086 0.18240574 -0.16326162 0.063350976
000110 f5 6a d1 3c 98 27 ee bd 75 51 9d 3d c9 e9 25 bd
       0.025563696 -0.11628646 0.07681552 -0.040506158
000120 18 38 1c bd 1f ac 53 3d ef 61 dd 3d fd 04 a5 3b
       -0.038139433 0.05167782 0.10809695 0.005035995
000130 ce 0e ea bc ec 9a 11 3d 01 00 a0 3d f1 ba b1 bd
       -0.028571513 0.035548136 0.07812501 -0.08678234
000140 45 13 1f 3e f1 f1 48 bd 03 13 49 3d ad 4f 39 be
       0.15534694 -0.04905886 0.049090397 -0.180968
000150 f2 e2 3a 3d 8d a5 85 bd 1e 79 0b 3d ad 15 f5 bd
       0.04562659 -0.06525717 0.034051053 -0.11967025
000160 5d 54 c9 bd 0b 44 22 3d 88 a4 aa bd 26 14 d7 3d
       -0.09830544 0.039615672 -0.08332163 0.1050189
000170 ee 83 f5 3d c9 e5 f0 bd 49 80 9e bd 88 8b 11 be
       0.11988054 -0.11762578 -0.07739312 -0.14213383
000180 4f 07 36 3d 66 2c 64 3e e1 53 05 3e f6 2a 82 3e
       0.044440564 0.22282562 0.13020279 0.25423402
000190 93 76 92 3e 09 4c 56 3e 25 86 c6 3e 5f 78 b0 bc
       0.2860609 0.20927443 0.3877422 -0.021541772
0001a0 0b fb 21 3e be af 30 3e 7a fb fe bd 56 5e 86 ba
       0.15818422 0.1725454 -0.12450309 -0.0010251503
0001b0 09 96 66 3d 07 07 a0 3d 3e 50 76 3e ac 7d 94 3d
       0.05629543 0.0781384 0.24054047 0.072505325
0001c0 e7 7e 82 3e 97 f0 5e bd 51 8b be bd 38 d3 48 3c
       0.25487444 -0.054428663 -0.09303916 0.01225739
0001d0 21 b7 f3 ba 5f f0 b2 bd 9c 90 44 3e ab ec c8 bd
       -0.0018594005 -0.087372534 0.19195789 -0.09810766
0001e0 aa 7f 29 be 8d 0f ac bd 68 e7 7f 3d 20 a3 12 3e
       -0.16552606 -0.084014036 0.062476546 0.1432004
0001f0 55 86 d7 bd 3f 50 29 bd 3c 5d dc 3d e0 e2 3a 3e
       -0.10523669 -0.041336294 0.107599705 0.18250608

bias_hh_l0_reverse f4 [128]
000000 90 e0 c4 bd 9f b1 2d 3e 1a 09 04 be 05 22 ab 3e
       -0.096131444 0.16962288 -0.12894097 0.33424392
000010 07 99 eb 3d c7 47 0e bd c6 53 00 3e f7 59 2f 3e
       0.11503797 -0.03473642 0.12531957 0.17124163
000020 0f 2a d5 3d 94 86 36 3e 85 0b dd 3b 93 6d f3 3d
       0.10408413 0.17824775 0.006745758 0.11886134
000030 f6 90 42 3e 8b 8c 01 3c a8 8a 03 3e 07 4c 94 bd
       0.1900061 0.007907043 0.12845862 -0.072410636
000040 a5 99 f8 3d 24 0e 69 bd 65 88 65 3d 38 c9 27 3d
       0.1213868 -0.05689825 0.05603828 0.04096338
000050 0d 2f 8d 3d 1a bb de 3d 1b e6 c9 3d e4 db 9f 3d
       0.0689374 0.108755305 0.09858342 0.07805613
000060 25 e2 8e 3c 82 af 31 3e b6 ee 99 bc c1 36 7b bd
       0.017441818 0.17352107 -0.018790584 -0.061331514
000070 97 0a 2b 3e b9 c6 17 3d 9f ba cb 3c ab a9 37 3e
       0.16703258 0.03705475 0.024869261 0.17935817
000080 e5 46 9b bd 89 e8 83 bd c3 93 3a 3d f3 28 74 3d
       -0.075818814 -0.06440837 0.045551073 0.059609365
000090 6c cd 9b bd ff 57 7c 3e b7 ee bb bd 0d fd 02 3e
       -0.076075405 0.24642943 -0.091763906 0.12791844
0000a0 5a 1b a1 3d 79 40 f4 bc 79 0b d5 3d 09 8f 44 3d
       0.07866545 -0.0298159 0.10402579 0.04798797
0000b0 63 8d 42 3e a4 8c c9 bd 3b 6a dc 3b 14 4e 02 3e
       0.18999247 -0.09841278 0.006726531 0.12725097
0000c0 5d f3 84 bd 8a c4 f4 3d e7 e2 24 3e 4f 2c f1 bc
       -0.0649173 0.11951549 0.16102181 -0.029440073
0000d0 2b ad 10 3e d9 63 2d 3e 49 01 2d 3e 40 8f 40 bd
       0.14128558 0.1693262 0.16895021 -0.047011614
0000e0 e2 51 dc 3d 4a 62 14 3e 15 ea 48 3d 31 46 0a 3e
       0.107578054 0.1449062 0.049051363 0.13503338
0000f0 de e9 09 be 6d ab 43 bd 5c dc 9d bd 24 11 3b 3d
       -0.1346812 -0.047770906 -0.07708046 0.045670643
000100 68 f0 d5 3d 85 db f4 bd 43 a8 04 3e d4 6a 62 bd
       0.104462445 -0.119559325 0.12954812 -0.05527766
000110 25 97 cc bb b5 54 05 3e ab cc 87 3d a5 de f9 bd
       -0.006243604 0.13020594 0.06630834 -0.12200669
000120 3d 37 78 3d 44 ec f2 bc 3f 68 3d 3c b8 2d a6 3d
       0.060599554 -0.029653676 0.011560499 0.08114189
000130 fd a1 aa bd 02 f5 33 bd 57 fb f4 bb 43 38 04 3c
       -0.08331678 -0.04393483 -0.007476251 0.008070054
000140 93 dd 1b be cd 92 14 3e 99 57 0e 3c 86 f4 e9 3d
       -0.15221243 0.14509125 0.008687877 0.11423592
000150 ed 3b 2b 3e de 36 09 be 69 86 2c be 4b 03 6f bd
       0.16722079 -0.13399836 -0.16848148 -0.05835275
000160 87 7d 9b bd b4 7f b3 bd 15 bf 56 3c b4 9e e2 3b
       -0.07592302 -0.08764592 0.013107081 0.0069158915
000170 c6 05 f1 3d b2 bb 27 3d b8 00 b8 bd a5 96 2e be
       0.11768679 0.040950485 -0.08984512 -0.17049654
000180 fb 62 27 3e c1 62 c3 bd f4 c9 06 3e 4d 62 f2 3c
       0.16346352 -0.0954032 0.13162977 0.02958789
000190 f0 cb 1f 3e e8 c3 e5 3d 45 f1 33 3d 55 89 51 3c
       0.1560514 0.11219007 0.043931264 0.01278909
0001a0 45 e4 ae 3d 98 a3 66 3e 9e d3 a1 bc ec 96 0f be
       0.08539633 0.22523344 -0.019754227 -0.14022416
0001b0 47 4a 6b 3d fa 5f 22 bd 4a 1f 33 bc a4 d6 27 3e
       0.057443883 -0.03964231 -0.010932753 0.16390473
0001c0 e7 3b 79 3e 8c 1b 8c bd 8f a8 3a bd ab be 18 3c
       0.24339257 -0.06841192 -0.045570906 0.009322803
0001d0 56 64 26 3e 9d 4a 68 3d 22 c9 73 3e 3c de 88 3d
       0.16249213 0.05671178 0.23807195 0.06683013
0001e0 d8 9a 8e 3d 9d 88 f2 3d 21 1a 9b 3d 8f 28 a2 bc
       0.06963128 0.11842463 0.07573343 -0.01979473
0001f0 81 06 af bd 7c 82 eb bc 40 70 e1 3d 6c d4 6b 3e
       -0.085461624 -0.028748743 0.11007738 0.23030251
