m6A_BERT_Stacking/Resnet/model_pth/m_t_bilstm.pth (torch, 69975 bytes, 13 tensors)

weight f4 [64, 16]
-0.42642784 -0.6134739 0.7278173 0.635074 -0.04540527 0.35861027 0.16533053 -0.41275048
0.2762158 -0.6936028 0.10252166 0.81935894 -0.91375184 0.810928 0.6151751 0.070308805
0.03660325 -0.021996375 -0.7805948 0.4025059 -0.9658635 -0.7053742 1.2602621 0.45437136
0.009006484 0.8665546 0.5506943 -0.926464 0.08098794 -1.0063877 0.34384936 1.0219105
-0.16499566 -0.079166315 0.55989075 0.22339416 0.31510705 0.31383997 -1.3902317 -0.14234799
1.3960595 -0.6158796 0.58734304 -0.23439056 0.7901258 0.30427653 -0.48700157 -0.19635826
0.40287095 1.0083011 0.0800313 -0.32542977 -1.1651614 -1.022666 -0.6572157 0.42853737
-0.1976427 -0.3529881 1.1912633 0.508774 -2.257623 -0.62121326 -1.0675681 -0.8771091
0.47636473 -0.66661507 0.72291136 0.66772455 -1.3572462 -1.1634442 -0.22695358 -0.7846251
-0.8036214 1.3334919 0.92481565 1.2810159 0.512376 -1.2257773 1.298072 1.2320474
-0.5122254 -1.3904457 -0.27380785 -0.5596554 0.32097012 -0.52685606 -0.7176397 0.072193205
-0.22418328 -0.79609615 0.052749027 -0.28913563 0.27717373 1.1437331 -0.7293943 0.11371893
-0.187966 -0.09971739 0.8071138 -0.3265205 -0.13957497 0.5659195 -0.8110609 -0.50925225
0.27647072 -1.2923028 1.0053604 -1.0910559 0.15247232 0.24930179 -0.45318663 0.76800156
0.53753597 0.16027641 0.643908 0.8250906 0.1442348 -0.70662874 0.1342814 0.7595525
-0.4353001 -0.31507915 -1.889223 -0.3259994 0.92008185 -0.20710896 0.10550944 -1.0747092
0.61491805 0.55727047 -1.2513493 -0.8171725 0.77568 -0.84511685 -0.69288003 1.0820283
-0.9672312 -1.0756112 -0.78549254 0.82875085 -0.034423903 -0.23325934 0.3041528 0.44981107
-1.2160401 -0.041130077 -0.6409123 0.54465556 1.2541158 0.521626 0.77298784 -0.610476
-0.67181236 -0.59947246 -0.2564574 0.5690203 1.0615181 0.39207262 -0.24004263 -0.4135364
-1.0121733 1.0498396 -1.0023445 0.538788 0.071157046 0.023755305 0.12691925 1.0051004
-0.030809585 0.095407814 -1.0075402 0.84278345 -0.43962443 1.6522741 -1.4434792 -1.706494
-0.17106058 0.27394328 -0.3765784 2.0779588 0.6521793 0.9096122 -0.42242932 0.8672294
1.0232757 -1.181281 -0.4714401 0.82391495 0.37662485 1.1919101 0.72406393 0.061737906
-0.09578545 0.92537826 -1.1616005 -1.024761 -0.45041117 -0.61874557 -0.22081964 -1.0101279
-1.1341933 0.5419969 0.7495505 0.84205073 -1.040644 0.07127141 -0.5517125 0.6960593
-1.8717988 0.21445921 -0.14767602 -0.4477133 1.0121976 -0.6466463 0.78024024 0.41092762
-0.68015796 -0.67975247 -0.7002733 -0.04728283 0.57607496 0.4101696 -0.16216402 -0.59679407
-0.030424409 0.37918222 0.09448827 -0.11824725 -0.17358159 0.9618289 0.8443777 -0.12354551
0.43699777 -0.27972496 -0.589284 0.41051966 -0.45227224 0.2531262 -0.12545262 -0.68549436
-0.37908202 -0.16586621 1.8109841 0.3029721 -0.025003316 -0.35538864 -1.8541932 1.3385187
1.1279149 0.025085283 -0.5914504 0.9900707 0.74805254 -0.5093914 0.16800793 0.3156689
00000000: c054 dabe a00c 1dbf 3c52 3a3f 3694 223f
00000010: e0fa 39bd c49b b73e 684c 293e 0854 d3be
00000020: 286c 8d3e f48f 31bf e0f6 d13d 82c1 513f
00000030: a4eb 69bf fa98 4f3f 1e7c 1d3f 10fe 8f3d
00000040: 4aed 153d be31 b4bc 10d5 47bf 4115 ce3e
00000050: d542 77bf 6793 34bf 4550 a13f 5da3 e83e
00000060: ef8f 133c 86d6 5d3f 4dfa 0c3f bf2c 6dbf
00000070: 01dd a53d 50d1 80bf 060d b03e f7cd 823f
00000080: 9ff4 28be f321 a2bd 0055 0f3f 70c1 643e
00000090: b655 a13e a2af a03e 1df3 b1bf acc3 11be
000000a0: 14b2 b23f 49aa 1dbf 1d5c 163f 1404 70be
000000b0: af45 4a3f 22ca 9b3e 4558 f9be 2412 49be
000000c0: 1a45 ce3e 0310 813f 73e7 a33d bb9e a6be
000000d0: 0224 95bf b8e6 82bf 4a3f 28bf 4069 db3e
000000e0: d962 4abe dbba b4be 517b 983f 033f 023f
000000f0: e57c 10c0 d507 1fbf 12a6 88bf 398a 60bf
00000100: 14e6 f33e 49a7 2abf b810 393f ffef 2a3f
00000110: 3eba adbf bdeb 94bf 8566 68be 31dd 48bf
00000120: 22ba 4dbf ddaf aa3f b8c0 6c3f 54f8 a33f
00000130: 132b 033f 45e6 9cbf 3927 a63f bbb3 9d3f
00000140: 3421 03bf 20fa b1bf 8b30 8cbe 9445 0fbf
00000150: 3256 a43e 0ae0 06bf 3cb7 37bf 08da 933d
00000160: 4d90 65be f5cc 4bbf 5d0f 583d 9609 94be
00000170: b7e9 8d3e d965 923f 96b9 3abf 78e5 e83d
00000180: 297a 40be a238 ccbd 039f 4e3f b22d a7be
00000190: beec 0ebe 1ae0 103f b0a1 4fbf 5b5e 02bf
000001a0: 928d 8d3e 2e6a a5bf a6af 803f b8a7 8bbf
000001b0: b421 1c3e f848 7f3e 1408 e8be c09b 443f
000001c0: f59b 093f 801f 243e 28d7 243f 2339 533f
000001d0: 4ab2 133e 9fe5 34bf 1081 093e 0872 423f
000001e0: a8df debe 0e52 a1be 0fd2 f1bf 65e9 a6be
000001f0: 7c8a 6b3f 5f14 54be 5515 d83d 1290 89bf
00000200: 456b 1d3f 47a9 0e3f 372c a0bf 3832 51bf
00000210: f792 463f 9459 58bf 9660 31bf e77f 8a3f
00000220: 779c 77bf a1ad 89bf 0a16 49bf 0429 543f
00000230: 1400 0dbd 89db 6ebe eab9 9b3e a34d e63e
00000240: 34a7 9bbf 0378 28bd d412 24bf 8c6e 0b3f
00000250: de86 a03f 4889 053f 88e2 453f 2848 1cbf
00000260: e5fb 2bbf 0777 19bf 624e 83be 50ab 113f
00000270: d3df 873f bebd c83e bccd 75be 0bbb d3be
00000280: e58e 81bf 2561 863f d34c 80bf 03ee 093f
00000290: c9ba 913d 7c9a c23c 1ff7 013e 21a7 803f
000002a0: 6264 fcbc 2c65 c33d 14f7 80bf a8c0 573f
000002b0: 7416 e1be b87d d33f edc3 b8bf 656e dabf
000002c0: 812a 2fbe 4b42 8c3e e2ce c0be 47fd 0440
000002d0: 39f5 263f 58dc 683f a848 d8be bf02 5e3f
000002e0: b3fa 823f 3734 97bf 9960 f1be 17ec 523f
000002f0: f9d4 c03e 8390 983f 415c 393f e3e0 7c3d
00000300: 292b c4bd 97e5 6c3f 53af 94bf 5e2b 83bf
00000310: 4b9c e6be 1c66 1ebf 8b1e 62be df4b 81bf
00000320: 3f2d 91bf 4fc0 0a3f 8be2 3f3f a390 573f
00000330: d333 85bf bff6 913d 083d 0dbf f130 323f
00000340: 1a97 efbf 329b 5b3e 6238 17be ad3a e5be
00000350: b18f 813f 9d8a 25bf d3bd 473f 1b65 d23e
00000360: d51e 2ebf 4204 2ebf 1c45 33bf a4ab 41bd
00000370: a679 133f c001 d23e 530e 26be 7fc7 18bf
00000380: 9c3c f9bc 2c24 c23e 1183 c13d 9d2b f2bd
00000390: 5fbf 31be 6b3a 763f 2329 583f 6e05 fdbd
000003a0: 2cbe df3e 1c38 8fbe 51db 16bf a22f d23e
000003b0: 3a90 e7be c299 813e a776 00be 8f7c 2fbf
000003c0: 0a17 c2be d5d8 29be 54ce e73f 291f 9b3e
000003d0: c1d3 ccbc 80f5 b5be 3456 edbf 9554 ab3f
000003e0: 845f 903f a77f cd3c 4b69 17bf 4675 7d3f
000003f0: 5f80 3f3f 7a67 02bf 450a 2c3e 5b9f a13e

weight_ih_l0 f4 [128, 16]
-0.25647765 -0.94979846 0.87807566 0.8160166 0.13080277 -0.5011268 0.41315362 -0.46056905
-0.35274917 -0.10172598 0.7060029 -0.1011806 0.29126763 -0.21536103 0.25034657 0.7004605
-0.5675451 -0.26206252 1.730409 0.45558867 -0.12167872 -0.3198768 0.47343385 -0.81010246
-0.057200473 -0.064464256 0.29081947 0.51180744 0.23287278 0.023805035 0.6708474 0.2435074
-0.39048246 -0.06476427 1.021035 0.18104403 -0.120578974 -0.3205535 0.74843985 0.4169029
0.0045993384 -0.11084571 -0.2783127 0.24644351 0.4598637 -0.080225356 0.74452335 -0.25653842
0.04584964 -0.8219397 0.318698 -0.75623256 -0.026128905 -0.010907425 -0.15370384 -0.4610589
0.07333733 0.12036704 -0.014580484 0.21169393 0.3512767 -0.059437092 0.43954816 -0.3233436
0.42915058 -0.22410601 -0.49237797 1.1079831 -0.49437988 -0.62467986 -0.27650738 -0.37731233
0.54118705 0.024922553 0.57409835 0.6588408 -0.9250116 -0.10013835 -0.43762755 -0.0042875167
-0.17553027 0.34506094 0.5439854 0.2532472 -0.4722784 -0.04916929 0.43902573 -0.17361014
-0.45533732 0.19224973 0.5268635 0.084447935 0.18663538 -0.13741192 -0.28331962 0.21917321
0.5727109 -0.09430978 0.101734646 0.318419 -0.15263827 -0.16668314 0.27101803 -0.45046878
-0.4291996 0.6932274 -0.11488053 -0.13589586 -0.005669227 -1.0408002 0.59164244 0.22274297
0.16370414 0.2289802 -0.35284063 -0.7298681 0.24864836 0.76357144 -0.2954233 -0.35904625
0.36605978 0.53078103 -0.73598504 -0.030112088 -0.62023073 0.07927687 -0.015097197 -0.5356366
-0.14986834 0.28896078 -0.91707665 -0.9047759 0.3462623 0.67359245 -0.71666235 -0.39617026
0.06891188 0.47920915 -0.2613365 -0.25210112 -0.49394494 -0.21471597 -0.11706153 -0.21708785
0.98999804 -0.105966955 0.46525386 -0.27577075 0.27245003 0.1256728 -0.13670543 -0.018472305
1.0717907 -0.37322855 -0.40135536 -0.13335294 -0.8625112 -0.9897479 0.5664539 0.34580463
-0.40244415 0.5488983 0.86480355 1.8369509 -0.3072925 -0.7662334 0.61171806 0.1551413
0.073183805 0.359741 0.18260345 -0.21687277 -1.1459035 -0.85217035 0.83242536 0.54916126
0.6150131 0.2845275 -1.0394257 -0.6336356 -0.95011556 0.9594276 -0.39305115 -1.4623026
0.53786385 1.2550136 -0.07763587 0.160872 -1.2185298 -1.3863696 0.3725805 -0.22229007
-0.9309498 0.18970916 0.4450725 -1.1588242 0.049984574 0.25083345 0.27578443 -0.49271008
0.6432203 -0.59808034 -0.29660764 -0.09554679 0.8748827 0.039394274 0.4740435 -0.33860186
-0.5452554 -0.6436249 0.792691 0.20636697 0.14918412 0.02394899 -0.7318512 -0.24462709
0.35443136 0.26483753 0.22206414 0.06426147 0.18400387 0.3058078 0.068173744 0.5111862
-0.42263407 -0.2238587 0.49295557 1.0428301 -0.52814627 -0.41132748 0.3003261 -1.1387396
-0.24844284 0.84792817 0.53246975 -0.22953247 0.0855716 0.027471004 0.071130134 0.7515343
0.21584801 0.5727158 -0.44588742 0.06302224 -0.8036627 0.056273058 0.5601404 -0.051116016
-0.018860217 0.9043598 -0.980722 -0.22415371 -0.8769687 -0.6739296 0.6648877 0.10677683
00000000: 0a51 83be fe25 73bf 91c9 603f 77e6 503f
00000010: 29f1 053e d949 00bf df88 d33e b5cf ebbe
00000020: 8a9b b4be b655 d0bd 9bbc 343f c637 cfbd
00000030: 0821 953e 9a87 5cbe 6d2d 803e 6151 333f
00000040: a34a 11bf 0f2d 86be 0b7e dd3f eb42 e93e
00000050: b132 f9bd e4c6 a3be ec65 f23e e062 4fbf
00000060: 0b4b 6abd d605 84bd 4ae6 943e d005 033f
00000070: 3476 6e3e c702 c33c a8bc 2b3f 015a 793e
00000080: 51ed c7be 21a3 84bd 46b1 823f 9b63 393e
00000090: 1cf2 f6bd 971f a4be c199 3f3f 4c74 d53e
000000a0: 0cb6 963b 1303 e3bd 017f 8ebe b05b 7c3e
000000b0: 4173 eb3e 314d a4bd 1599 3e3f 0159 83be
000000c0: d5cc 3b3d a46a 52bf 622c a33e 7598 41bf
000000d0: 490c d6bc 0eb5 32bc 8a64 1dbe ea0f ecbe
000000e0: e231 963d ff82 f63d fbe2 6ebc 4bc6 583e
000000f0: 8ada b33e 4f74 73bd 750c e13e 4b8d a5be
00000100: a0b9 db3e 0c7c 65be f718 fcbe 64d2 8d3f
00000110: 5c1f fdbe 05eb 1fbf 6092 8dbe 152f c1be
00000120: 3c8b 0a3f 622a cc3c 1cf8 123f caa9 283f
00000130: 8fcd 6cbf 5615 cdbd b810 e0be 4c7e 8cbb
00000140: 35be 33be d4ab b03e a142 0b3f 9ea9 813e
00000150: 79ce f1be bd65 49bd fbc7 e03e dbc6 31be
00000160: f921 e9be 1ddd 443e 87e0 063f 0af3 ac3d
00000170: 581d 3f3e b6b5 0cbe 450f 91be f16e 603e
00000180: 2e9d 123f 7c25 c1bd 415a d03d d107 a33e
00000190: 354d 1cbe fcae 2abe e0c2 8a3e d8a3 e6be
000001a0: 0dc0 dbbe 5a77 313f 7c46 ebbd 4928 0bbe
000001b0: ecc4 b9bb f138 85bf e175 173f bc16 643e
000001c0: 0fa2 273e c979 6a3e 87a7 b4be a3d8 3abf
000001d0: ad9d 7e3e 6b79 433f b941 97be e9d4 b7be
000001e0: 306c bb3e 44e1 073f 8469 3cbf a0ad f6bc
000001f0: 71c7 1ebf e95b a23d 3c5a 77bc 7b1f 09bf
00000200: 1677 19be abf2 933e 89c5 6abf 659f 67bf
00000210: 4b49 b13e 8e70 2c3f 2f77 37bf d4d6 cabe
00000220: ac21 8d3d e75a f53e e6cd 85be 6613 81be
00000230: 5ae6 fcbe 81de 5bbe f5bd efbd 474c 5ebe
00000240: 8370 7d3f 3405 d9bd c135 ee3e d331 8dbe
00000250: 927e 8b3e 5fb0 003e 82fc 0bbe 3b53 97bc
00000260: 7030 893f d017 bfbe 737e cdbe ac8d 08be
00000270: 89cd 5cbf 1e60 7dbf 1f03 113f 4e0d b13e
00000280: 290d cebe 9984 0c3f c463 5d3f 3521 eb3f
00000290: 7155 9dbe df27 44bf 8e99 1c3f 5cdd 1e3e
000002a0: 64e1 953d f92f b83e 66fc 3a3e e513 5ebe
000002b0: f7ac 92bf d627 5abf d419 553f d595 0c3f
000002c0: 8071 1d3f 97ad 913e e70b 85bf f135 22bf
000002d0: c63a 73bf 0c9d 753f 003e c9be bb2c bbbf
000002e0: 72b1 093f 49a4 a03f 8eff 9ebd a1bb 243e
000002f0: c9f8 9bbf 8f74 b1bf dfc2 be3e 02a0 63be
00000300: ba52 6ebf 1e43 423e 8be0 e33e 5a54 94bf
00000310: a0bc 4c3d 3e6d 803e 9e33 8d3e 7f44 fcbe
00000320: 16aa 243f cb1b 19bf f5dc 97be 09ae c3bd
00000330: 50f8 5f3f e45b 213d d4b5 f23e 395d adbe
00000340: dc95 0bbf 9ac4 24bf cced 4a3f dd51 533e
00000350: b9c3 183e ac30 c43c 9a5a 3bbf 867f 7abe
00000360: 0778 b53e c998 873e c864 633e 859b 833d
00000370: 836b 3c3e d792 9c3e ad9e 8b3d 19dd 023f
00000380: 7e63 d8be 373b 65be ac64 fc3e 757b 853f
00000390: 9834 07bf 8499 d2be 58c4 993e 38c2 91bf
000003a0: cd67 7ebe d211 593f f04f 083f 8f0a 6bbe
000003b0: 2a40 af3d df0a e13c adac 913d 8d64 403f
000003c0: 4307 5d3e 819d 123f 5b4b e4be ce11 813d
000003d0: d7bc 4dbf 947e 663d 5c65 0f3f 075f 51bd
000003e0: be80 9abc 2084 673f 9910 7bbf 8d88 65be
000003f0: 0581 60bf a686 2cbf 1536 2a3f d0ad da3d

weight_hh_l0 f4 [128, 32]
0.26802042 0.602577 -0.18648452 -0.22914112 0.49903664 -0.36625585 0.33760762 -0.6471618
-0.020276152 0.9284935 -0.10463124 0.008926203 0.71095634 0.34991133 0.9740631 0.8985088
0.104334354 0.22216192 -0.02988268 0.014800966 -0.029516539 0.44428647 0.26865983 0.7264626
-0.3930335 0.2668427 -1.2899411 0.62873 -0.3021269 -1.0048704 -0.002915123 0.13910547
0.6280904 0.6669281 -0.01131319 -0.36100292 0.67983174 -0.7695422 0.26191938 0.20823787
-0.1566567 -0.6692035 -0.02799093 -0.5407946 0.81670094 0.42427403 1.2442454 1.3059043
-0.3252506 0.39399296 0.2483728 -0.032698013 -0.060831387 0.793283 0.20560703 0.37286505
-0.4600174 -0.1996775 -0.07286587 0.9466574 -0.009680491 0.8703123 1.3778167 0.0053733685
0.009181089 -0.14363754 -0.32007927 -0.12472123 -1.1925108 -0.16405287 0.17391777 -0.36948565
-0.010382292 -0.27652848 -0.5851647 -0.66050446 0.03767583 0.10977802 0.5030874 0.4621847
-0.09531963 0.032885037 0.18408808 -0.26634485 0.99002403 0.9072366 0.49412942 0.69251347
-0.63439566 1.7208532 -0.20701027 1.0796429 -0.3637485 -0.6648826 -0.047858287 -0.022305636
-0.03363757 0.085276425 -0.06026923 -0.44143623 -1.619555 0.303501 0.96974355 -0.85047454
-0.47879094 -0.4044636 0.62398493 -0.7785643 -0.08409509 0.16071667 1.2927251 2.0682387
0.06906259 -0.21337308 0.36977923 -1.0441142 0.7397701 0.78617567 0.21740358 0.11118574
-0.4411291 2.53956 0.08789698 0.98428565 -0.5706839 -0.8117116 -1.7736914 0.26846194
0.3650789 1.2523916 1.1728264 0.114463374 -1.24932 -1.3427794 0.07422205 0.35163212
-0.06184347 0.6662761 0.1270137 0.018076327 -0.17756477 -0.4993663 -0.43024054 0.05850261
1.0393145 -0.22779992 0.57777566 0.3348574 -1.6115698 0.16790165 -0.121386744 -0.28011042
1.2420818 0.8178696 0.83233345 -1.0982913 0.620041 1.3971584 -0.3557131 0.23658185
0.5577856 0.16814943 -0.49606514 0.050864052 0.4995099 -0.57594836 0.12663849 -0.5633627
-0.33513975 -0.49626255 -0.14475074 -0.107972056 -0.14170341 0.64719105 0.49167007 0.95454246
-0.21798706 0.088408306 -0.2541994 -0.15493493 0.34045196 0.6608373 -0.45179912 -0.07721076
0.0766065 -0.46999016 -0.41985402 -0.93028617 0.477068 -1.6400332 -0.100829944 -0.27116334
0.23704024 0.19212866 -0.3341952 -0.1152296 -0.34765038 -0.5971114 0.26495513 -0.818158
-0.05411253 0.22492652 -0.33910885 0.14970405 -0.065100044 0.25793636 0.28457534 0.20471881
-0.016528547 0.17738451 -0.24650282 -0.41414207 0.88284355 0.11271193 0.00493369 -0.35797155
-0.45548204 -0.14387104 -0.32111055 -0.27488977 -0.11239773 -0.99977773 -0.35862327 -0.6465719
0.05584092 0.37639722 -0.18513374 0.08051049 -0.17030872 0.013441967 0.51049155 -0.74203575
-0.43966997 1.0860806 0.9497329 0.52802855 -0.72312325 0.0595187 0.6587402 1.41963
0.06884178 0.024332276 -0.37396288 -1.4952859 0.6321185 1.2109442 0.1570582 -0.84958196
-0.11488237 0.8666113 -0.78536904 1.3170797 -0.03677946 -1.0991708 -0.012090375 -0.18366015
00000000: f939 893e 7c42 1a3f ccf5 3ebe f8a3 6abe
00000010: bb81 ff3e e385 bbbe e8da ac3e 65ac 25bf
00000020: 2c1a a6bc c0b1 6d3f e748 d6bd 353f 123c
00000030: 3c01 363f 9427 b33e 335c 793f ac04 663f
00000040: 40ad d53d 6a7e 633e 86cc f4bc c07f 723c
00000050: abcc f1bc 8479 e33e c88d 893e 74f9 393f
00000060: b03b c9be 9b9f 883e ca1c a5bf 73f4 203f
00000070: 61b0 9abe 989f 80bf a60b 3fbb aa71 0e3e
00000080: 88ca 203f cdbb 2a3f f55a 39bc 60d5 b8be
00000090: 7409 2e3f b800 45bf 4c1a 863e 4f3c 553e
000000a0: 9d6a 20be ec50 2bbf 3c4d e5bc 8471 0abf
000000b0: 5013 513f 723a d93e 6f43 9f3f df27 a73f
000000c0: 3f87 a6be 72b9 c93e 7055 7e3e 5aee 05bd
000000d0: 552a 79bd 9814 4b3f a68a 523e 2be8 be3e
000000e0: 6787 ebbe 4278 4cbe b43a 95bd 2458 723f
000000f0: ec9a 1ebc c9cc 5e3f 4c5c b03f 1513 b03b
00000100: 476c 163c b815 13be 6ee1 a3be d86d ffbd
00000110: 32a4 98bf 7afd 27be 8017 323e 392d bdbe
00000120: 7d1a 2abc 2495 8dbe 5bcd 15bf d216 29bf
00000130: f951 1a3d 4cd3 e03d 56ca 003f 79a3 ec3e
00000140: f036 c3bd 76b2 063d 9681 3c3e 5a5e 88be
00000150: 3772 7d3f a840 683f 88fe fc3e 9048 313f
00000160: c167 22bf eb44 dc3f 80fa 53be bd31 8a3f
00000170: 3e3d babe bf35 2abf 0d07 44bd 4fba b6bc
00000180: 8cc7 09bd 68a5 ae3d dedc 76bd ee03 e2be
00000190: 944d cfbf 7c64 9b3e 1d41 783f b3b8 59bf
000001a0: 1624 f5be da15 cfbe 7abd 1f3f fd4f 47bf
000001b0: 0c3a acbd e992 243e 0478 a53f 065e 0440
000001c0: b070 8d3d 797e 5abe b453 bd3e 89a5 85bf
000001d0: 9361 3d3f cf42 493f 0b9f 5e3e 59b5 e33d
000001e0: acdb e1be 2788 2240 5503 b43d 25fa 7b3f
000001f0: 5718 12bf 55cc 4fbf 5208 e3bf d873 893e
00000200: 9feb ba3e 5e4e a03f 2d1f 963f c66b ea3d
00000210: b8e9 9fbf 32e0 abbf bb01 983d 2009 b43e
00000220: 944f 7dbd 1291 2a3f e10f 023e ce14 943c
00000230: 8ad3 35be f1ac ffbe 7d48 dcbe 6fa0 6f3d
00000240: 4208 853f 6244 69be 1be9 133f 6e72 ab3e
00000250: eb47 cebf 69ee 2b3e 9d99 f8bd a26a 8fbe
00000260: 89fc 9e3f e75f 513f ce13 553f cf94 8cbf
00000270: 02bb 1e3f 16d6 b23f 0720 b6be 8342 723e
00000280: 09cb 0e3f 5d2f 2c3e 40fc fdbe d356 503d
00000290: c3bf ff3e 5a71 13bf 85ad 013e 8a38 10bf
000002a0: 7097 abbe 2016 febe 8a39 14be 7420 ddbd
000002b0: b31a 11be 50ae 253f 2ebc fb3e e55c 743f
000002c0: 0038 5fbe 6a0f b53d 6c26 82be 43a7 1ebe
000002d0: b84f ae3e a22c 293f 3752 e7be ad20 9ebd
000002e0: dee3 9c3d 8da2 f0be 1bf7 d6be 3c27 6ebf
000002f0: 4242 f43e 9cec d1bf ee7f cebd ecd5 8abe
00000300: adba 723e 60bd 443e a21b abbe 7ffd ebbd
00000310: 3bff b1be 4bdc 18bf 33a8 873e cd72 51bf
00000320: 1aa5 5dbd 2353 663e ad9f adbe 054c 193e
00000330: 2c53 85bd 3c10 843e dcb3 913e cfa1 513e
00000340: e066 87bc 49a4 353e 3c6b 7cbe 6e0a d4be
00000350: 0902 623f 83d5 e63d cbaa a13b 0c48 b7be
00000360: f134 e9be ee52 13be 9a68 a4be 5abe 8cbe
00000370: c830 e6bd 6ff1 7fbf 789d b7be bc85 25bf
00000380: 73b9 643d 23b7 c03e b393 3dbe afe2 a43d
00000390: 6965 2ebe b23b 5c3c 93af 023f 0ef6 3dbf
000003a0: 6c1c e1be b004 8b3f b221 733f e12c 073f
000003b0: 9b1e 39bf e1c9 733d 33a3 283f 70b6 b53f
000003c0: ebfc 8c3d 7b54 c73c 1078 bfbe 8765 bfbf
000003d0: 85d2 213f 3800 9b3f ddd3 203e 347e 59bf
000003e0: 7347 ebbd 3dda 5d3f f20d 49bf 1196 a83f
000003f0: 0fa6 16bd a1b1 8cbf b516 46bc 6811 3cbe

bias_ih_l0 f4 [128]
-0.8055715 -0.45111918 -0.33974433 -0.39641795 -0.6384649 0.07786745 -0.6918727 -0.8193537
-0.39674348 -0.11131582 -0.32568854 -0.3328233 -0.7745241 -0.39260808 -0.49942467 0.14594871
-0.37935334 -0.4812432 -0.6612 -0.2114268 -0.2392654 -0.5972745 -0.18906088 -0.32415947
-0.37033674 -0.23536648 0.00884527 0.4153713 0.1222302 -0.37842044 -0.39532822 -0.7417891
-0.08415264 0.54117525 -0.37153205 0.31323275 -0.1854235 0.003579486 -0.26051813 -0.25514558
-0.08521518 -0.114732265 -0.40017605 -0.6169766 -0.95890415 0.4622653 0.6387937 0.73049843
0.103772275 0.15815297 0.3292502 -0.17299484 -0.16931918 -0.3821715 -0.07259626 -0.13611954
0.41791862 -0.7428052 0.16089422 0.14536712 0.661855 -0.12131092 -0.2296021 -0.33214602
0.086299784 -0.05870276 -0.22591268 -0.094127014 0.04108759 0.051210206 -0.16655107 -0.19694881
-0.11416338 -0.19887844 -0.07380849 0.15592219 -0.20162076 0.20528862 -0.09288187 0.16814008
-0.40681785 0.12391086 0.05688209 0.08563192 -0.024907615 -0.098355636 -0.11701749 -0.10422245
-0.17887796 -0.31617472 0.06233133 -0.313788 -0.034093723 -0.1948258 -0.22231394 -0.05225688
-0.16015801 -0.050661765 -0.9456816 -0.47435617 -0.9720333 -0.56196713 -0.9083115 -0.74007565
-0.6928523 -0.03377711 -0.31620863 -0.8250343 -0.47648522 -0.12165613 0.16688016 -0.260922
0.10084117 -0.44118655 0.0026991544 -0.41815427 0.02087872 -0.62458223 -0.7721695 -0.1701577
-0.17394552 0.14208145 -0.20997143 -0.027393095 0.12864587 -0.10053502 0.13486102 -0.68993527
00000000: ef39 4ebf 18f9 e6be f8f2 adbe 4bf7 cabe
00000010: 7072 23bf f878 9f3d 921e 31bf 2ac1 51bf
00000020: f621 cbbe 8cf9 e3bd a6c0 a6be d167 aabe
00000030: 3647 46bf ed03 c9be 97b4 ffbe 9473 153e
00000040: 9a3a c2be 8265 f6be 6744 29bf 4480 58be
00000050: fd01 75be fbe6 18bf 2d99 41be 3bf8 a5be
00000060: c79c bdbe e903 71be c0eb 103c 8cab d43e
00000070: d453 fa3d 53c0 c1be 7668 cabe e4e5 3dbf
00000080: 3858 acbd 768a 0a3f 7339 bebe 0b60 a03e
00000090: a8df 3dbe cf95 6a3b a262 85be 71a2 82be
000000a0: 4c85 aebd c0f8 eabd e0e3 ccbe 2ef2 1dbf
000000b0: be7a 75bf 0aae ec3e fc87 233f f201 3b3f
000000c0: 8f86 d43d daf2 213e 7b93 a83e 8f25 31be
000000d0: 0262 2dbe fcab c3be 59ad 94bd ec62 0bbe
000000e0: 6ef9 d53e 7b28 3ebf 74c1 243e 1edb 143e
000000f0: 546f 293f dc71 f8bd d01c 6bbe 0b0f aabe
00000100: f1bd b03d 4e72 70bd a755 67be aac5 c0bd
00000110: 764b 283d cbc1 513d 5d8c 2abe f3ac 49be
00000120: 7dce e9bd caa6 4bbe e828 97bd 11aa 1f3e
00000130: ac75 4ebe 2e37 523e da38 bebd ea2c 2c3e
00000140: 6e4a d0be fac4 fd3d 32fd 683d ca5f af3d
00000150: 0e0b ccbc ae6e c9bd dea6 efbd 9472 d5bd
00000160: c92b 37be a7e1 a1be 234f 7f3d d2a8 a0be
00000170: dca5 0bbd 6a80 47be 44a6 63be 4f0b 56bd
00000180: 7600 24be b682 4fbd 3018 72bf d0de f2be
00000190: 2dd7 78bf 14dd 0fbf 1a87 68bf 9975 3dbf
000001a0: c55e 31bf de59 0abd 19e6 a1be 7335 53bf
000001b0: dff5 f3be d926 f9bd a2e2 2a3e 9297 85be
000001c0: d185 ce3d 34e3 e1be 4ce4 303b 5118 d6be
000001d0: d909 ab3c 9fe4 1fbf e6ac 45bf d23d 2ebe
000001e0: c61e 32be cd7d 113e c002 57be 7c67 e0bc
000001f0: bebb 033e 4ee5 cdbd 0219 0a3e 999f 30bf

bias_hh_l0 f4 [128]
-0.7537904 -0.39491358 -0.6057322 -0.6191077 -0.6269034 -3.3699096e-05 -0.6849724 -0.76882833
-0.2914723 -0.2920186 -0.60602534 -0.4958714 -0.9575068 -0.17174856 -0.49869463 0.04298733
-0.40143305 -0.40592274 -0.699114 0.115654826 -0.17720485 -0.4964821 -0.34751856 -0.41952345
-0.47833997 -0.52740395 0.01439522 0.5690809 0.08288527 -0.3333818 -0.4864105 -0.43359378
-0.1688446 0.522476 -0.46117726 0.24232493 -0.07036222 0.022930244 -0.40884814 -0.22216016
0.036426786 0.08571749 -0.39737293 -0.47927916 -0.8559406 0.26010364 0.79628015 0.62049496
-0.038801353 0.24475946 0.45752046 0.01975046 -0.14743163 -0.32037696 -0.35161325 -0.15605573
0.62129587 -0.7893573 0.1145409 0.04381843 0.85451376 -0.031166056 -0.28465417 -0.17362459
0.0664165 -0.101387605 -0.16292278 -0.069368824 0.16490637 -0.018969323 0.118593134 -0.068442374
-0.109779574 -0.033028353 -0.1847235 0.091134496 -0.0033341863 0.06076253 0.036103066 0.29933056
-0.23099022 -0.006321102 -0.034654886 0.20282796 -0.14169353 -0.29944968 -0.20485346 -0.059162065
-0.1989475 -0.28717133 0.048520822 -0.037563134 0.034541458 -0.20472558 0.0102493735 -0.021932544
-0.13222274 0.1339618 -0.9636054 -0.45628086 -1.0293709 -0.54706407 -0.77470577 -0.94152915
-0.5578453 -0.1875757 -0.26811337 -0.78934693 -0.4175507 -0.20358458 -0.13381025 -0.11218817
0.1612362 -0.3888972 -0.12772258 -0.33643255 -0.042175736 -0.6338552 -0.93545747 -0.22681324
-0.44909486 0.086634934 -0.5031326 -0.051244065 0.064965315 -0.11306863 0.028857457 -0.44587106
00000000: 68f8 40bf 1d32 cabe 4411 1bbf d87d 1ebf
00000010: be7c 20bf 2158 0db8 5a5a 2fbf efd1 44bf
00000020: db3b 95be 7683 95be 7a24 1bbf dbe2 fdbe
00000030: 2a1f 75bf dbde 2fbe e754 ffbe 7c13 303d
00000040: a288 cdbe 1bd5 cfbe 23f9 32bf 70dc ec3d
00000050: 3075 35be e732 febe f4ed b1be c7cb d6be
00000060: fae8 f4be f203 07bf eed9 6b3c 49af 113f
00000070: c1bf a93d 05b1 aabe cc0a f9be 0100 debe
00000080: 99e5 2cbe fdc0 053f 6d1f ecbe 0724 783e
00000090: 111a 90bd 35d8 bb3c 8b54 d1be f47d 63be
000000a0: 4134 153d a78c af3d 7774 cbbe 1464 f5be
000000b0: ec1e 5bbf 4e2c 853e 04d9 4b3f c2d8 1e3f
000000c0: 2bee 1ebd 39a2 7a3e 1f40 ea3e b7cb a13c
000000d0: 51f8 16be 7308 a4be a706 b4be 13cd 1fbe
000000e0: 3f0d 1f3f 5213 4abf 6b94 ea3d f47a 333d
000000f0: 6ac1 5a3f f54f ffbc 31be 91be a5ca 31be
00000100: 6005 883d 4ea4 cfbd 3bd5 26be 3e11 8ebd
00000110: 37dd 283e 8e65 9bbc f5e0 f23d 842b 8cbd
00000120: 1dd4 e0bd bd48 07bd 2828 3dbe b9a4 ba3d
00000130: 5d82 5abb 21e2 783d cfe0 133d db41 993e
00000140: b388 6cbe 3f21 cfbb 48f2 0dbd 22b2 4f3e
00000150: 1c18 11be 7851 99be 1bc5 51be ec53 72bd
00000160: e5b8 4bbe 1f08 93be c5bd 463d cddb 19bd
00000170: 587b 0d3d 95a3 51be fdec 273c e1ab b3bc
00000180: 6665 07be 482d 093e d8ae 76bf a59d e9be
00000190: 6dc2 83bf 640c 0cbf 1e53 46bf 0e08 71bf
000001a0: f3ce 0ebf d813 40be 2846 89be a412 4abf
000001b0: 35c9 d5be 7a78 50be 8e05 09be e9c2 e5bd
000001c0: 1a1b 253e 891d c7be b5c9 02be e340 acbe
000001d0: 77c0 2cbd 5644 22bf 247a 6fbf bb41 68be
000001e0: c3ef e5be a86d b13d 4ccd 00bf 4ce5 51bd
000001f0: 890c 853d 8790 e7bd 7966 ec3c 3649 e4be

weight_ih_l0_reverse f4 [128, 16]
-0.82330763 0.0769774 0.4874699 -0.11192078 0.16225272 -0.6042139 0.06776795 0.42941186
-0.33366695 -0.28075546 -0.33723313 -0.60792685 0.14585105 0.5101236 0.05270329 0.2680825
0.087693 -0.48871773 0.33276534 -0.22830053 0.008047161 -0.12828457 0.5643101 -0.39839646
0.37489292 -0.10577177 0.35256663 -0.09539323 -0.08495164 -0.20897347 -0.06024317 0.34804812
0.6190416 -0.36122838 0.7470295 -0.33055422 -0.18128495 0.1572948 0.12615845 -0.48819795
0.33514777 -0.6412732 1.551615 -0.18942179 0.31442824 -0.23098914 0.81599665 0.50933504
0.4779658 0.21510328 -0.20684354 -0.08796002 -0.59752595 -0.07860013 0.8265047 -0.51904696
0.7738069 0.30227295 -0.3410732 -0.34616384 -1.468951 -0.7744571 0.37539428 -0.12777229
1.0154325 0.4164178 0.03969391 -1.0101649 0.10715817 -0.54195404 -0.31779 0.045234818
-1.3530235 -0.094607234 1.0064863 0.6608639 0.3831686 -0.2410717 1.2434399 0.50477874
0.04325322 -1.1407712 -0.13285588 -0.94355583 0.1360858 -0.38900062 -0.3680706 -0.3910009
0.24311982 0.16992469 0.107816376 0.1232429 0.61268795 0.043409683 0.51130414 0.4466306
1.6292095 0.23115101 0.7730391 0.41248918 -0.725145 -1.1642982 0.21458648 0.63266075
-0.76515114 -0.51602453 0.11697628 0.19012298 -0.030027712 -0.8144359 0.009763559 0.19900084
-0.2596806 0.5238301 0.2174942 1.0155329 0.54361856 0.5234195 -0.47252703 0.97194654
0.41818815 0.3317285 -1.2935725 -0.15119068 -0.17219839 0.55456537 -0.079777315 0.35794693
0.2963025 0.8090525 -0.18008345 -0.27537692 0.38826364 0.39471927 0.1256443 0.048454825
-0.24514663 -1.3483882 -0.18714607 -0.48355508 -0.47991285 -0.17621195 -1.7333984 -0.7705164
1.184686 -0.20759442 0.55979335 0.062166624 -0.16467133 -0.6898085 0.40641627 0.29282498
-0.17579 -0.02650826 -0.22802104 -0.35018533 0.3099491 -1.5549327 0.791259 0.23453787
-0.6291408 0.04310887 -0.34470677 0.009165941 0.57768136 -0.6392213 -0.040092707 1.3259706
1.1783373 -0.8445968 -0.4651183 -0.18799485 -0.78950286 0.351923 -0.6626284 -1.0043663
0.051571216 0.17660739 -0.124499336 -0.38303462 0.069572605 -0.026736872 -0.14714849 -0.058313325
0.042465173 0.17326023 -0.24416465 -0.10588012 -0.28828618 0.241515 -0.9296189 -0.15780349
-0.12322107 -0.469181 -0.3061648 -0.46737856 0.31317922 -0.236139 0.10509382 -1.2302166
0.089584455 0.42873573 0.29107505 0.16413002 0.019830441 0.029308852 0.5618222 -0.033092637
-0.018413149 0.1401809 0.5766657 -0.13782732 0.334709 0.24371433 0.04598813 -0.18439074
0.8450002 -0.55878705 -0.3501917 -0.3297063 0.13341631 0.10641134 -0.60129607 -0.53898746
-1.3095351 -0.00062918616 0.24833938 -1.8630202 -0.061982766 0.40879425 0.44812766 -0.2428293
-0.10876748 -0.27256134 0.12568189 0.08051922 -0.30077505 0.76887536 -0.33395144 -0.31304172
-0.3656942 0.09306135 -1.202718 0.4473975 0.25421292 -0.9119745 -0.3026599 -0.7946488
-0.8252646 -0.12152409 0.036314424 0.42845365 0.45046923 -0.024428828 -0.28536013 0.089959644
00000000: 4ac4 52bf 54a6 9d3d a895 f93e b936 e5bd
00000010: 9425 263e c3ad 1abf ecc9 8a3d dfdb db3e
00000020: 65d6 aabe 2ebf 8fbe d2a9 acbe 18a1 1bbf
00000030: fa59 153e 7697 023f 68df 573d 1c42 893e
00000040: 6398 b33d 3639 fabe 3860 aa3e 9dc7 69be
00000050: 3dd8 033c 085d 03be a076 103f 9ffa cbbe
00000060: f7f1 bf3e df9e d8bd 9d83 b43e 875d c3bd
00000070: 20fb adbd 24fd 55be 8bc1 76bd 5d33 b23e
00000080: 8379 1e3f edf2 b8be 533d 3f3f 673e a9be
00000090: c3a2 39be e311 213e ae2f 013e 15f5 f9be
000000a0: 7d98 ab3e 7b2a 24bf 529b c63f c9f7 41be
000000b0: bdfc a03e 6b88 6cbe 28e5 503f c863 023f
000000c0: efb7 f43e 0944 5c3e cbce 53be 6224 b4bd
000000d0: 76f7 18bf 1bf9 a0bd d095 533f 43e0 04bf
000000e0: 3618 463f 85c3 9a3e 25a1 aebe 633c b1be
000000f0: 9606 bcbf d242 46bf ae33 c03e bdd6 02be
00000100: b1f9 813f b734 d53e 1596 223d 154d 81bf
00000110: be75 db3d 80bd 0abf 5fb5 a2be 2548 393d
00000120: e02f adbf 70c1 c1bd 8bd4 803f 602e 293f
00000130: ad2e c43e 80db 76be 0a29 9f3f 2e39 013f
00000140: 4a2a 313d ca04 92bf 5f0b 08be e08c 71bf
00000150: 135a 0b3e 172b c7be c073 bcbe 4531 c8be
00000160: 67f4 783e bd00 2e3e d5ce dc3d c666 fc3d
00000170: 1ed9 1c3f 5ace 313d d4e4 023f c4ac e43e
00000180: f089 d03f dab2 6c3e e4e5 453f c831 d33e
00000190: 1aa3 39bf b907 95bf 8fbc 5b3e 0ef6 213f
000001a0: f2e0 43bf 2f1a 04bf 4391 ef3d 99af 423e
000001b0: adfc f5bc df7e 50bf 56f7 1f3c e0c6 4b3e
000001c0: dbf4 84be bb19 063f cdb6 5e3e fbfc 813f
000001d0: 962a 0b3f d2fe 053f 10ef f1be 7dd1 783f
000001e0: c21c d63e 51d8 a93e c993 a5bf bbd1 1abe
000001f0: c654 30be fff7 0d3f 4a62 a3bd d244 b73e
00000200: f6b4 973e 111e 4f3f cc67 38be 34fe 8cbe
00000210: 7eca c63e a518 ca3e e6a8 003e 9178 463d
00000220: b807 7bbe fc97 acbf 38a3 3fbe 8894 f7be
00000230: 23b7 f5be e870 34be 00e0 ddbf 9040 45bf
00000240: caa3 973f a293 54be 9e4e 0f3f 6ea2 7e3d
00000250: 9a9f 28be 4a97 30bf cb15 d03e 28ed 953e
00000260: 4b02 34be da27 d9bc 597e 69be 7e4b b3be
00000270: a6b1 9e3e 0908 c7bf f38f 4a3f b22a 703e
00000280: 5f0f 21bf ed92 303d 687d b0be be2c 163c
00000290: ede2 133f 02a4 23bf 4038 24bd 68b9 a93f
000002a0: c2d3 963f 7f37 58bf fc23 eebe b981 40be
000002b0: dc1c 4abf 402f b43e 04a2 29bf 138f 80bf
000002c0: 573c 533d 91d8 343e 82f9 febd 1d1d c4be
000002d0: 157c 8e3d 4907 dbbc 18ae 16be f4d9 6ebd
000002e0: f6ef 2d3d 216b 313e 4c06 7abe add7 d8bd
000002f0: 3f9a 93be b54f 773e 81fb 6dbf 3d97 21be
00000300: 545b fcbd 7e38 f0be a2c1 9cbe 3e4c efbe
00000310: 0759 a03e 6cce 71be 6e3b d73d bd77 9dbf
00000320: 0e78 b73d 4083 db3e ca07 953e b311 283e
00000330: 7373 a23c 1e19 f03c 94d3 0f3f 258c 07bd
00000340: 2cd7 96bc 958b 0f3e 5da0 133f 9b22 0dbe
00000350: fa5e ab3e 4090 793e 0d5e 3c3d edd0 3cbe
00000360: ef51 583f ab0c 0fbf 544c b3be 44cf a8be
00000370: 499e 083e 30ee d93d 8aee 19bf 15fb 09bf
00000380: d99e a7bf f8ef 24ba ae4c 7e3e 7277 eebf
00000390: a4e1 7dbd 7b4d d13e fd70 e53e 3ea8 78be
000003a0: 7cc1 debd 298d 8bbe c1b2 003e 43e7 a43d
000003b0: 30ff 99be 04d5 443f affb aabe 0147 a0be
000003c0: 453c bbbe f396 be3d aaf2 99bf 4911 e53e
000003d0: 3228 823e 2977 69bf 3df6 9abe 1b6e 4bbf
000003e0: 8a44 53bf 9fe1 f8bd 6fbe 143d 475e db3e
000003f0: e7a3 e63e f71e c8bc b91a 92be c33c b83d

weight_hh_l0_reverse f4 [128, 32]
-0.1808325 -0.5454127 0.8874652 -1.2217423 -0.063711375 1.2614682 0.49376687 0.18758416
-0.8203366 0.56168073 0.016119197 -0.09153959 0.71760565 0.11441982 -0.52366644 -1.3894507
-0.12111465 0.3581751 -0.36216712 1.0187693 0.44205472 1.0758816 0.28372192 0.9626425
0.1976532 0.47089222 -0.057146635 0.79275525 -0.14204001 0.14458111 0.6063957 0.57246447
1.184703 0.061399333 0.40556592 0.73330337 0.49891245 -0.5583946 0.6562463 -0.8035512
-2.3704486 1.0998299 2.0113392 0.35122612 -0.42136332 -1.2127162 1.8846083 1.2813436
-0.63738716 0.5653637 -1.339352 -0.5009224 -0.36333463 -1.1609639 -0.419807 0.61517507
-0.6417331 -0.5744304 -0.112266004 0.5235251 1.6396366 -0.6266054 -0.22432613 -0.30898678
-0.3558743 -0.13443263 -0.033047438 -0.22904755 0.107672304 -0.21591449 -0.20794138 -0.3458907
-1.7042747 0.17360418 0.30511588 -0.7188972 -0.6862934 -0.53086615 0.5338721 0.8068034
-0.3911839 -0.12638521 0.773269 -0.02689391 -0.37193966 -0.13934624 -0.52261907 0.27847362
-0.48136482 0.18633826 0.10551411 -0.4539685 0.27311817 0.48313004 0.50854886 0.36871025
-0.4505554 0.027172433 0.84293306 -0.5460365 0.7784643 -0.25486767 -1.3583704 -0.8822934
-1.1783313 -0.35629925 -1.2467167 -1.0787463 -1.0416598 -0.24360636 0.20862609 1.1599702
-0.13889591 -0.8644677 1.4967624 -0.24360514 -0.3641084 -0.022938048 -0.05483097 0.13395901
-0.16559307 1.1541123 -0.12895525 -0.4548786 -0.8419586 1.4455831 0.002982029 0.16829805
-0.5278648 -0.20785472 -0.19165154 0.32225093 0.20530415 0.46554354 -0.17138854 -0.47723374
-1.211964 0.82110953 -1.1020249 -0.02902669 0.22405091 -0.60221857 0.20588002 0.2902273
-0.7112263 -0.18968222 -0.40887037 0.0886004 -0.049346082 0.2150385 -0.12652986 0.8416446
0.6363438 0.14743112 0.32210487 -0.0471955 0.3717917 0.327545 -0.12340085 0.91150135
-0.5331704 -0.16875581 -0.066177204 0.2349348 0.64582014 0.2911027 -0.47634655 0.32844606
-2.8513508 0.4426612 0.6211519 0.17291681 -0.35186574 -1.4376187 0.4751046 0.6991589
-1.3550086 0.6750166 -0.5281714 0.12638824 -0.3827617 -0.3402424 -0.23267077 0.522014
-0.22779748 -0.19757332 0.17535014 -0.042507056 -0.97281176 0.030182112 -0.31426635 -0.5781725
-0.34367028 0.2180264 -0.04461953 0.0067332406 -0.53107387 -0.27022526 -0.07401849 -0.11690881
-1.0040767 0.19187632 -0.46030807 -0.35088694 -0.49659237 -0.89156425 -0.44699255 0.06082032
-0.8967928 -0.41826507 -0.03644359 0.4415139 -0.82110804 -0.7400462 -0.42989445 -0.31798303
0.1828025 0.15093295 -0.07968777 -0.54330295 0.017902289 0.43549272 -0.15168431 -0.3117471
-0.90482104 -0.23319247 0.18371503 -0.4380541 0.46409598 0.5333217 -1.251611 0.69016784
-0.8212358 -0.54185164 -0.77389157 -0.3679811 0.05905471 0.5451852 0.1949974 -1.2524515
0.29482484 1.070676 0.8078949 -0.512249 -1.2195835 1.2679712 -0.10985555 0.08925204
0.684972 1.1835265 0.94846684 -0.63875026 -1.6071907 0.004123041 0.0025360512 -0.16164307
00000000: 282c 39be 2ba0 0bbf eb30 633f 0d62 9cbf
00000010: 1c7b 82bd ca77 a13f 03cf fc3e 1016 403e
00000020: 9401 52bf 4fca 0f3f 680c 843c 1c79 bbbd
00000030: 01b5 373f f054 ea3d 010f 06bf 85d9 b1bf
00000040: f50a f8bd ba62 b73e f86d b9be 0867 823f
00000050: ff54 e23e 7db6 893f 0044 913e bd6f 763f
00000060: 9a65 4a3e c918 f13e 9712 6abd 02f2 4a3f
00000070: f072 11be 120d 143e c03c 1b3f 088d 123f
00000080: 59a4 973f de7d 7b3d 56a6 cf3e c5b9 3b3f
00000090: 7471 ff3e f3f2 0ebf c2ff 273f 88b5 4dbf
000000a0: 6eb5 17c0 3ac7 8c3f c8b9 0040 e9d3 b33e
000000b0: efbc d7be 493a 9bbf d83a f13f 1103 a43f
000000c0: ce2b 23bf adbb 103f e36f abbf 733c 00bf
000000d0: ff06 babe 779a 94bf f1f0 d6be 1d7c 1d3f
000000e0: 9f48 24bf df0d 13bf b8eb e5bd be05 063f
000000f0: 9ddf d13f 3669 20bf c0b5 65be 8433 9ebe
00000100: 2835 b6be b5a8 09be c05c 07bd 718b 6abe
00000110: 4c83 dc3d b018 5dbe 96ee 54be 9618 b1be
00000120: ac25 dabf 4bc5 313e 2638 9c3e a609 38bf
00000130: edb0 2fbf d8e6 07bf d8ab 083f ab8a 4e3f
00000140: 4249 c8be 206b 01be f5f4 453f 9e50 dcbc
00000150: e06e bebe c8b0 0ebe 5dca 05bf 1894 8e3e
00000160: 7375 f6be 75cf 3e3e c817 d83d 8f6e e8be
00000170: 25d6 8b3e d25c f73e 4230 023f 97c7 bc3e
00000180: 33af e6be b998 de3c 76ca 573f 0cc9 0bbf
00000190: 7049 473f 047e 82be 15df adbf fbdd 61bf
000001a0: 8fd3 96bf db6c b6be 6a94 9fbf 5c14 8abf
000001b0: 1c55 85bf f273 79be 14a2 553e e779 943f
000001c0: bb3a 0ebe c14d 5dbf e995 bf3f a073 79be
000001d0: 6b6c babe 93e8 bbbc 7096 60bd 8d2c 093e
000001e0: 3b91 29be f4b9 933f d80c 04be d9e5 e8be
000001f0: 998a 57bf de08 b93f 256e 433b 5356 2c3e
00000200: 2622 07bf ded7 54be 4d40 44be 13fe a43e
00000210: 403b 523e b95b ee3e 7a80 2fbe fb57 f4be
00000220: a321 9bbf 3c34 523f 270f 8dbf 62c9 edbc
00000230: 9a6d 653e ff2a 1abf 36d2 523e ac98 943e
00000240: ed12 36bf 0e3c 42be 7557 d1be 2074 b53d
00000250: 1e1f 4abd 0d33 5c3e 0b91 01be 0576 573f
00000260: 6de7 223f 2ff8 163e eeea a43e 1250 41bd
00000270: 7b5b be3e fab3 a73e 96b9 fcbd 2758 693f
00000280: db7d 08bf 53ce 2cbe ea87 87bd c092 703e
00000290: 7854 253f 6a0b 953e b2e3 f3be 152a a83e
000002a0: 887c 36c0 7da4 e23e d003 1f3f 1b11 313e
000002b0: bf27 b4be e403 b8bf e940 f33e 14fc 323f
000002c0: ec70 adbf e3cd 2c3f 3e36 07bf eb6b 013e
000002d0: 57f9 c3be 4034 aebe 3f41 6ebe b6a2 053f
000002e0: be43 69be a950 4abe fd8e 333e e11b 2ebd
000002f0: 310a 79bf 7a40 f73c 85e7 a0be 1d03 14bf
00000300: 8df5 afbe 5042 5f3e f8c2 36bd 84a2 dc3b
00000310: 75f4 07bf f75a 8abe 0297 97bd e36d efbd
00000320: 9685 80bf 3a7b 443e 80ad ebbe 74a7 b3be
00000330: 5b41 febe 8e3d 64bf 35dc e4be ba1e 793d
00000340: 3794 65bf d726 d6be e045 15bd 1c0e e23e
00000350: 2334 52bf ab73 3dbf 201b dcbe acce a2be
00000360: 9430 3b3e 2b8e 1a3e 5733 a3bd e715 0bbf
00000370: d2a7 923c e7f8 de3e 2253 1bbe 519d 9fbe
00000380: 5aa2 67bf 02ca 6ebe cb1f 3c3e a148 e0be
00000390: fd9d ed3e c587 083f ca34 a0bf d7ae 303f
000003a0: 823c 52bf cab6 0abf c21d 46bf 0568 bcbe
000003b0: 5ae3 713d 4291 0b3f 66ad 473e 5550 a0bf
000003c0: 48f3 963e e90b 893f 33d2 4e3f c022 03bf
000003d0: 501b 9cbf e14c a23f f2fb e0bd c6c9 b63d
000003e0: 535a 2f3f cc7d 973f b9ce 723f 2385 23bf
000003f0: 6db8 cdbf 931a 873b e133 263b c385 25be

bias_ih_l0_reverse f4 [128]
-0.5567673 -0.22774963 -0.042578716 -0.8650213 -0.6944684 -0.19041222 -0.38137534 -0.8996436
0.13433386 0.11528165 -1.1441232 -0.60169405 -0.040234797 -0.6257526 -0.8033136 0.17646311
-0.7607302 -0.72364825 0.1466383 -0.2739599 0.12735057 -0.25245005 0.0802817 0.14629988
0.22914581 -0.0027677426 0.99112964 0.034977287 -0.28432056 -0.14780983 -0.9290103 -0.30055583
-0.7343686 0.369113 0.041396882 -1.0444669 -0.008583896 0.23391695 0.39065114 -0.06440752
-0.27558222 0.16049199 -0.34629223 -0.08667426 0.54409784 -0.29109344 0.04370248 0.88674116
-0.9831421 -0.5437335 0.49119455 0.05313095 -0.8821943 -0.20195553 0.4120073 0.27669528
0.47149143 0.04789388 0.18978445 0.26701707 -0.24893461 -0.41608647 -0.23715962 -0.48441592
-0.05294478 0.3098137 -0.25748566 0.0744297 -0.20399149 -0.10213581 0.16872333 0.20612334
-0.44345942 0.2610716 -0.017058939 -0.13038713 -0.099070884 0.027088955 -0.041679267 -0.08641487
0.019178007 -0.12155474 0.30311385 -0.11255998 -0.01578583 -0.06562645 -0.07649705 -0.10037332
-0.11870615 0.19369341 -0.03604907 -0.041263245 -0.24784441 -0.14723149 0.19416344 -0.029650796
-0.6437181 -0.20197059 -0.14687696 -0.51560247 -0.35419628 -0.0046604085 -0.11013002 -0.40784204
0.35997736 -0.53189176 -0.48024136 -0.7113798 -0.46223328 -0.39385742 0.009547307 0.04872704
-0.6205462 -1.261834 -0.54835594 -0.44475025 -0.38889512 -0.41501576 -0.8704146 -0.46880832
-1.0432929 -0.6910235 -0.31434128 -0.24205747 -0.7588216 -0.40576023 -0.5852997 -0.35252905
00000000: 4d88 0ebf 3337 69be 0567 2ebd 0972 5dbf
00000010: aec8 31bf 6cfb 42be a143 c3be 0b4f 66bf
00000020: d18e 093e c918 ec3d a172 92bf 9f08 1abf
00000030: 3ecd 24bd 5331 20bf f6a5 4dbf bfb2 343e
00000040: 37bf 42bf 0341 39bf 5a28 163e 7944 8cbe
00000050: 3068 023e 2241 81be bb6a a43d a3cf 153e
00000060: 33a5 6a3e 0463 35bb acba 7d3f 5844 0f3d
00000070: 7792 91be 765b 17be 9ed3 6dbf 74e2 99be
00000080: 95ff 3bbf 61fc bc3e c78f 293d 17b1 85bf
00000090: 78a3 0cbc ed87 6f3e 6d03 c83e 17e8 83bd
000000a0: 1d19 8dbe 0358 243e 374d b1be 4682 b1bd
000000b0: ff49 0b3f 330a 95be 5f01 333d 7801 633f
000000c0: 33af 7bbf 1e32 0bbf da7d fb3e d79f 593d
000000d0: 7cd7 61bf 6ecd 4ebe 9ff2 d23e 01ab 8d3e
000000e0: 5367 f13e 602c 443d db56 423e 76b6 883e
000000f0: b7e8 7ebe 4909 d5be f9d9 72be 5d05 f8be
00000100: a0dc 58bd e79f 9e3e 29d5 83be 996e 983d
00000110: 25e3 50be 942c d1bd cfc5 2c3e ff11 533e
00000120: 1d0d e3be 2dab 853e 30bf 8bbc 3484 05be
00000130: ade5 cabd a8e9 dd3c e1b7 2abd 48fa b0bd
00000140: 321b 9d3c b1f1 f8bd bd31 9b3e d985 e6bd
00000150: 4951 81bc 2967 86bd 7caa 9cbd 8790 cdbd
00000160: 361c f3bd 9157 463e 31a8 13bd a603 29bd
00000170: edca 7dbe dac3 16be c8d2 463e 3ae6 f2bc
00000180: b6ca 24bf 61d1 4ebe ea66 16be 86fe 03bf
00000190: 3759 b5be 57b6 98bb d98b e1bd acd0 d0be
000001a0: f44e b83e 0f2a 08bf 32e2 f5be fd1c 36bf
000001b0: d7a9 ecbe aea7 c9be 4f6c 1c3c 0196 473d
000001c0: 1edc 1ebf c783 a1bf 0e61 0cbf 4eb6 e3be
000001d0: 431d c7be f27c d4be 7ed3 5ebf a507 f0be
000001e0: 9f8a 85bf ebe6 30bf 57f1 a0be eadd 77be
000001f0: 2242 42bf cebf cfbe 33d6 15bf b07e b4be

bias_hh_l0_reverse f4 [128]
-0.77064466 0.0066279774 -0.31965753 -0.65127933 -0.71441275 -0.1402309 -0.5070051 -0.9035608
0.16542284 0.0037186148 -1.008056 -0.60530126 -0.032643 -0.46425456 -0.6378669 0.17949317
-0.5417626 -0.70341015 0.00626325 -0.16353118 0.023271224 -0.21552669 -0.13550502 0.2743417
0.30987087 0.21835886 0.7580733 -0.008064929 -0.12204188 -0.1609031 -0.9179133 -0.08999821
-0.9566804 0.22529076 0.03602671 -1.0185235 -0.20971215 0.31100005 0.103418894 0.19459653
-0.2443326 0.039988134 -0.37193808 -0.08244102 0.6734511 -0.39674675 0.01705349 0.9550947
-1.2507015 -0.5749941 0.64369136 -0.1699376 -0.7212533 -0.20016283 0.3124768 0.20435251
0.6348723 0.059482776 0.013724281 0.51916295 -0.3775355 -0.45522866 -0.40614054 -0.50831115
-0.026839344 0.007848387 0.035323307 -0.04419888 -0.23579888 0.1443564 0.1582164 0.12462293
-0.34472016 0.1797397 -0.11359535 -0.054281265 -0.15381655 -0.052394066 -0.1272805 0.008437136
-0.2883813 0.07259484 0.26271123 0.18264389 0.10580878 -0.13436712 -0.2790292 -0.039054997
-0.09632394 0.06643193 0.060379542 -0.13936608 -0.25003815 0.011345085 0.18171142 -0.05801339
-0.5246955 -0.5201997 -0.14545003 -0.74024886 -0.48420575 -0.10174433 -0.45394164 -0.37351137
0.28718954 -0.47920373 -0.37549138 -0.85058016 -0.46108487 -0.51163775 -0.2419253 0.14012535
-0.63202816 -1.2758179 -0.50088745 -0.44768482 -0.22454248 -0.27093202 -0.8243003 -0.3038702
-0.8081362 -0.4885865 -0.3010847 -0.4050533 -0.7390466 -0.3931731 -0.58282214 -0.30473298
00000000: f848 45bf 812f d93b 27aa a3be 3eba 26bf
00000010: c1e3 36bf b098 0fbe 16cb 01bf c34f 67bf
00000020: 9b64 293e 01b4 733b fb07 81bf 06f5 1abf
00000030: abb4 05bd c6b2 edbe 3f4b 23bf 0fcd 373e
00000040: f4b0 0abf b012 34bf f33b cd3b b874 27be
00000050: 4ba3 be3c 07b3 5cbe d4c1 0abe 8476 8c3e
00000060: 65a7 9e3e 7799 5f3e 1711 423f c422 04bc
00000070: 18f1 f9bd c8c3 24be 5efc 6abf fb50 b8bd
00000080: 02e9 74bf 9fb2 663e be90 133d fa5e 82bf
00000090: c8be 56be 663b 9f3e 49cd d33d 5044 473e
000000a0: 5332 7abe 99ca 233d ab6e bebe d6d6 a8bd
000000b0: 4b67 2c3f 6422 cbbe c3b3 8b3c 1681 743f
000000c0: fd16 a0bf d032 13bf f5c8 243f 1f04 2ebe
000000d0: 0ea4 38bf 7cf7 4cbe f6fc 9f3e c941 513e
000000e0: fe86 223f 36a4 733d cfdb 603c dde7 043f
000000f0: 554c c1be bb13 e9be a7f1 cfbe ae20 02bf
00000100: 2fde dbbc 8596 003c 2caf 103d e309 35bd
00000110: 4375 71be 2ad2 133e 7b03 223e 4f3a ff3d
00000120: 297f b0be af0d 383e aea4 e8bd 0856 5ebd
00000130: 1682 1dbe 299b 56bd d255 02be ea3b 0a3c
00000140: b7a6 93be 9aac 943d 1682 863e 0007 3b3e
00000150: 46b2 d83d 8997 09be eadc 8ebe 22f8 1fbd
00000160: 7c45 c5bd 770d 883d 8a50 773d fbb5 0ebe
00000170: 0005 80be bce0 393c 8f12 3a3e 739f 6dbd
00000180: 7252 06bf cf2b 05bf daf0 14be f380 3dbf
00000190: d1e9 f7be 555f d0bd 0a6b e8be e23c bfbe
000001a0: 820a 933e 315a f5be 6840 c0be 9fbf 59bf
000001b0: 5113 ecbe b1fa 02bf 44bb 77be 057d 0f3e
000001c0: 99cc 21bf 004e a3bf 293a 00bf f236 e5be
000001d0: 77ee 65be 9ab7 8abe 5805 53bf e094 9bbe
000001e0: 04e2 4ebf 0228 fabe c627 9abe 2563 cfbe
000001f0: 2832 3dbf fc4d c9be d533 15bf f605 9cbe

weight f4 [2, 64]
-0.32241502 -0.40797845 0.26062816 0.38728106 0.37668467 -0.011982878 -0.23113456 0.46609816
-0.0143031785 -0.17237255 0.06236637 0.05003388 -0.033756144 -0.18191718 -0.41265836 -0.30159545
0.29962826 0.0062710694 0.23611039 0.07009952 -0.46371317 -0.13637492 0.22562489 0.35288864
0.5640912 -0.57094854 0.06762512 -0.024178041 0.65174526 0.95929706 0.19484265 0.14227441
0.19878675 -0.33056852 -0.079395056 -0.19123119 0.0063566067 0.31281272 0.008864856 -0.17718145
-0.14204143 -0.0065638106 -0.006385372 0.27795562 0.29835907 0.01578292 -0.23787291 -0.3780287
0.088347614 -0.15289266 -0.51412755 0.061739374 0.19251402 0.2768417 0.071945325 0.007168002
0.15067059 -0.41990215 -0.57504314 0.23378192 0.18724248 -0.019668527 -0.24145703 -0.052685328
0.2962905 0.45416322 -0.33307496 -0.37132967 -0.21699664 -0.18083443 0.11597568 -0.41712072
0.13258728 0.045147628 0.030045096 -0.20078826 -0.0023026248 -0.00028720294 0.54134995 0.32818708
-0.31470418 0.10503549 -0.13359243 0.02805187 0.54521173 0.30817816 -0.17581305 -0.37832466
-0.52041394 0.41122007 -0.2004725 0.09829696 -0.53856957 -0.9677799 -0.27190137 -0.097038485
-0.12387605 0.40489212 -0.061647903 0.226859 0.031306207 -0.3604363 -0.17627074 0.120335184
0.21748641 -0.09723956 0.010203287 -0.29264587 -0.24871777 0.17259009 0.023279406 0.5178032
-0.081695035 0.0364371 0.5859615 -0.25658813 -0.30897257 -0.36179978 -0.21635874 -0.03283623
-0.102946505 0.41245535 0.5079446 -0.25011605 -0.07011135 0.046877805 0.009289324 0.058002084
00000000: 9513 a5be 8de2 d0be 0e71 853e b449 c63e
00000010: d0dc c03e d553 44bc 8aae 6cbe 6ba4 ee3e
00000020: e157 6abc 6e82 30be e173 7f3d 53f0 4c3d
00000030: e243 0abd 7f48 3abe f547 d3be b86a 9abe
00000040: e068 993e 8b7d cd3b ecc6 713e 5690 8f3d
00000050: d06b edbe dea5 0bbe 360a 673e d2ad b43e
00000060: 4868 103f af29 12bf 0a7f 8a3d 0711 c6bc
00000070: c7d8 263f 7e94 753f d584 473e 62b0 113e
00000080: c18e 4b3e 4740 a9be e099 a2bd 1cd2 43be
00000090: 154b d03b fd28 a03e e73d 113c 0e6f 35be
000000a0: 4f73 11be 3c15 d7bb 623c d1bb 3350 8e3e
000000b0: 85c2 983e 2f4b 813c f594 73be fa8c c1be
000000c0: 98ef b43d e58f 1cbe dd9d 03bf 6de2 7c3d
000000d0: 6522 453e 32be 8d3e 1258 933d 8fe1 ea3b
000000e0: 6449 1a3e 6afd d6be 0736 13bf 8764 6f3e
000000f0: 7ebc 3f3e e41f a1bc 8340 77be 92cc 57bd
00000100: 63b3 973e 1588 e83e cd88 aabe ec1e bebe
00000110: 5e34 5ebe a92c 39be a884 ed3d d990 d5be
00000120: f6c4 073e b8ec 383d 2221 f63c 709b 4dbe
00000130: a2e7 16bb ba93 96b9 e995 0a3f 2308 a83e
00000140: e820 a1be d91c d73d 74cc 08be 09cd e53c
00000150: ff92 0b3f 87c9 9d3e 5608 34be c5b3 c1be
00000160: d939 05bf 708b d23e aa48 4dbe eb4f c93d
00000170: b2df 09bf 6cc0 77bf a836 8bbe 1dbc c6bd
00000180: bab2 fdbd 054e cf3e 8382 7cbd ba4d 683e
00000190: f03a 003d 1b8b b8be 5180 34be 4b72 f63d
000001a0: c2b4 5e3e 8925 c7bd b02b 273c aed5 95be
000001b0: dfaf 7ebe 75bb 303e 74b4 be3c c08e 043f
000001c0: ba4f a7bd 123f 153d 9301 163f 855f 83be
000001d0: a731 9ebe d23d b9be 258d 5dbe 487f 06bd
000001e0: 9ed5 d2bd 592d d33e a808 023f 360f 80be
000001f0: 8a96 8fbd f102 403d 4032 183c 9893 6d3d

bias f4 [2]
-0.062280115 0.021453042
00000000: 6f19 7fbd 4abe af3c

w_omega f4 [64, 39]
0.0 0.0 0.0 0.0 0.0 0.0 0.0 0.0
0.0 0.0 0.0 0.0 0.0 0.0 0.0 0.0
0.0 0.0 0.0 0.0 0.0 0.0 0.0 0.0
0.0 0.0 0.0 0.0 0.0 0.0 0.0 0.0
0.0 0.0 0.0 0.0 0.0 0.0 0.0 0.0
0.0 0.0 0.0 0.0 0.0 0.0 0.0 0.0
0.0 0.0 0.0 0.0 0.0 0.0 0.0 0.0
0.0 0.0 0.0 0.0 0.0 0.0 0.0 0.0
0.0 0.0 0.0 0.0 0.0 0.0 0.0 0.0
0.0 0.0 0.0 0.0 0.0 0.0 0.0 0.0
0.0 0.0 0.0 0.0 0.0 0.0 0.0 0.0
0.0 0.0 0.0 0.0 0.0 0.0 0.0 0.0
0.0 0.0 0.0 0.0 0.0 0.0 0.0 0.0
0.0 0.0 0.0 0.0 0.0 0.0 0.0 0.0
0.0 0.0 0.0 0.0 0.0 0.0 0.0 0.0
0.0 0.0 0.0 0.0 0.0 0.0 0.0 0.0
0.0 0.0 0.0 0.0 0.0 0.0 0.0 0.0
0.0 0.0 0.0 0.0 0.0 0.0 0.0 0.0
0.0 0.0 0.0 0.0 0.0 0.0 0.0 0.0
0.0 0.0 0.0 0.0 0.0 0.0 0.0 0.0
0.0 0.0 0.0 0.0 0.0 0.0 0.0 0.0
0.0 0.0 0.0 0.0 0.0 0.0 0.0 0.0
0.0 0.0 0.0 0.0 0.0 0.0 0.0 0.0
0.0 0.0 0.0 0.0 0.0 0.0 0.0 0.0
0.0 0.0 0.0 0.0 0.0 0.0 0.0 0.0
0.0 0.0 0.0 0.0 0.0 0.0 0.0 0.0
0.0 0.0 0.0 0.0 0.0 0.0 0.0 0.0
0.0 0.0 0.0 0.0 0.0 0.0 0.0 0.0
0.0 0.0 0.0 0.0 0.0 0.0 0.0 0.0
0.0 0.0 0.0 0.0 0.0 0.0 0.0 0.0
0.0 0.0 0.0 0.0 0.0 0.0 0.0 0.0
0.0 0.0 0.0 0.0 0.0 0.0 0.0 0.0
00000000: 0000 0000 0000 0000 0000 0000 0000 0000
00000010: 0000 0000 0000 0000 0000 0000 0000 0000
00000020: 0000 0000 0000 0000 0000 0000 0000 0000
00000030: 0000 0000 0000 0000 0000 0000 0000 0000
00000040: 0000 0000 0000 0000 0000 0000 0000 0000
00000050: 0000 0000 0000 0000 0000 0000 0000 0000
00000060: 0000 0000 0000 0000 0000 0000 0000 0000
00000070: 0000 0000 0000 0000 0000 0000 0000 0000
00000080: 0000 0000 0000 0000 0000 0000 0000 0000
00000090: 0000 0000 0000 0000 0000 0000 0000 0000
000000a0: 0000 0000 0000 0000 0000 0000 0000 0000
000000b0: 0000 0000 0000 0000 0000 0000 0000 0000
000000c0: 0000 0000 0000 0000 0000 0000 0000 0000
000000d0: 0000 0000 0000 0000 0000 0000 0000 0000
000000e0: 0000 0000 0000 0000 0000 0000 0000 0000
000000f0: 0000 0000 0000 0000 0000 0000 0000 0000
00000100: 0000 0000 0000 0000 0000 0000 0000 0000
00000110: 0000 0000 0000 0000 0000 0000 0000 0000
00000120: 0000 0000 0000 0000 0000 0000 0000 0000
00000130: 0000 0000 0000 0000 0000 0000 0000 0000
00000140: 0000 0000 0000 0000 0000 0000 0000 0000
00000150: 0000 0000 0000 0000 0000 0000 0000 0000
00000160: 0000 0000 0000 0000 0000 0000 0000 0000
00000170: 0000 0000 0000 0000 0000 0000 0000 0000
00000180: 0000 0000 0000 0000 0000 0000 0000 0000
00000190: 0000 0000 0000 0000 0000 0000 0000 0000
000001a0: 0000 0000 0000 0000 0000 0000 0000 0000
000001b0: 0000 0000 0000 0000 0000 0000 0000 0000
000001c0: 0000 0000 0000 0000 0000 0000 0000 0000
000001d0: 0000 0000 0000 0000 0000 0000 0000 0000
000001e0: 0000 0000 0000 0000 0000 0000 0000 0000
000001f0: 0000 0000 0000 0000 0000 0000 0000 0000
00000200: 0000 0000 0000 0000 0000 0000 0000 0000
00000210: 0000 0000 0000 0000 0000 0000 0000 0000
00000220: 0000 0000 0000 0000 0000 0000 0000 0000
00000230: 0000 0000 0000 0000 0000 0000 0000 0000
00000240: 0000 0000 0000 0000 0000 0000 0000 0000
00000250: 0000 0000 0000 0000 0000 0000 0000 0000
00000260: 0000 0000 0000 0000 0000 0000 0000 0000
00000270: 0000 0000 0000 0000 0000 0000 0000 0000
00000280: 0000 0000 0000 0000 0000 0000 0000 0000
00000290: 0000 0000 0000 0000 0000 0000 0000 0000
000002a0: 0000 0000 0000 0000 0000 0000 0000 0000
000002b0: 0000 0000 0000 0000 0000 0000 0000 0000
000002c0: 0000 0000 0000 0000 0000 0000 0000 0000
000002d0: 0000 0000 0000 0000 0000 0000 0000 0000
000002e0: 0000 0000 0000 0000 0000 0000 0000 0000
000002f0: 0000 0000 0000 0000 0000 0000 0000 0000
00000300: 0000 0000 0000 0000 0000 0000 0000 0000
00000310: 0000 0000 0000 0000 0000 0000 0000 0000
00000320: 0000 0000 0000 0000 0000 0000 0000 0000
00000330: 0000 0000 0000 0000 0000 0000 0000 0000
00000340: 0000 0000 0000 0000 0000 0000 0000 0000
00000350: 0000 0000 0000 0000 0000 0000 0000 0000
00000360: 0000 0000 0000 0000 0000 0000 0000 0000
00000370: 0000 0000 0000 0000 0000 0000 0000 0000
00000380: 0000 0000 0000 0000 0000 0000 0000 0000
00000390: 0000 0000 0000 0000 0000 0000 0000 0000
000003a0: 0000 0000 0000 0000 0000 0000 0000 0000
000003b0: 0000 0000 0000 0000 0000 0000 0000 0000
000003c0: 0000 0000 0000 0000 0000 0000 0000 0000
000003d0: 0000 0000 0000 0000 0000 0000 0000 0000
000003e0: 0000 0000 0000 0000 0000 0000 0000 0000
000003f0: 0000 0000 0000 0000 0000 0000 0000 0000
