m6A_BERT_Stacking/Resnet/model_pth/r_b_bilstm.pth (torch, 69975 bytes, 13 tensors)

weight f4 [64, 16]
0	0xbeda54c0	-0.42642784
1	0xbf1d0ca0	-0.6134739
2	0x3f3a523c	0.7278173
3	0x3f229436	0.635074
4	0xbd39fae0	-0.04540527
5	0x3eb79bc4	0.35861027
6	0x3e294c68	0.16533053
7	0xbed35408	-0.41275048
8	0x3e8d6c28	0.2762158
9	0xbf318ff4	-0.6936028
10	0x3dd1f6e0	0.10252166
11	0x3f51c182	0.81935894
12	0xbf69eba4	-0.91375184
13	0x3f4f98fa	0.810928
14	0x3f1d7c1e	0.6151751
15	0x3d8ffe10	0.070308805
16	0xbe9e0491	-0.3086286
17	0xbdde8ce8	-0.108667195
18	0xbe727f30	-0.2368133
19	0x3f2305c4	0.6368067
20	0xbf59c080	-0.85059357
21	0xbf35b8aa	-0.709849
22	0x3f3a5ecd	0.72800905
23	0x3f583dcf	0.8446931
24	0xbf52b506	-0.8230747
25	0x3f1d0408	0.61334276
26	0x3f4f67a0	0.81017494
27	0xbf3cf7c6	-0.7381557
28	0x3e78c6d3	0.24294595
29	0xbec8c0e7	-0.39209673
30	0x3d8c82cd	0.06860886
31	0x3f2f9400	0.68585205
32	0x3e1a101f	0.15045212
33	0x3e862569	0.26200417
34	0x3f473842	0.7782022
35	0x3ea8107c	0.32825077
36	0x3f126152	0.5717975
37	0xbecd025e	-0.4004087
38	0xbf6149cb	-0.88003224
39	0x3eb26be4	0.3484794
40	0x3f33217b	0.6997296
41	0xbf3a356e	-0.7273778
42	0x3efa83b5	0.4892861
43	0xbd56ee1f	-0.052473184
44	0x3f416443	0.7554361
45	0x3e0cc665	0.13747557
46	0xbecf173d	-0.40447417
47	0xbe171314	-0.14753371
48	0x3ee1f90a	0.44135314
49	0x3dbc4e43	0.09194615
50	0xbf71ca49	-0.9444929
51	0x3f25083e	0.644657
52	0xbf56ca18	-0.8390212
53	0xbf6035f3	-0.8758232
54	0xbe487442	-0.19575599
55	0xbe010741	-0.12600423
56	0xbf07242b	-0.5278956
57	0xbdb51195	-0.08841244
58	0x3f32ef49	0.6989637
59	0x3efe700a	0.49694854
60	0xbf816986	-1.0110328
61	0xbf079f7c	-0.5297773
62	0xbf3c572f	-0.7357053
63	0xbf763b4d	-0.96184236
64	0x3ee8d331	0.45473626
65	0xbf0c2f6a	-0.5475985
66	0x3f196894	0.599252
67	0x3eecc580	0.4624443
68	0xbf8354e7	-1.0260285
69	0xbf651185	-0.8947986
70	0xbeb9fe09	-0.36326626
71	0xbdc52f8b	-0.09628209
72	0xbf243ffa	-0.6416012
73	0x3f85a1e2	1.0440028
74	0x3f08d31d	0.53447133
75	0x3f5dcc93	0.8664028
76	0x3e9d817e	0.30762857
77	0xbf26abbe	-0.6510581
78	0x3f3784b8	0.7168689
79	0x3f585b66	0.8451446
80	0xbea3f3e6	-0.32022017
81	0xbf899b1c	-1.0750461
82	0xbe995b59	-0.29952505
83	0xbeb0bd0f	-0.3451924
84	0xbdb485ba	-0.08814569
85	0xbf14d66f	-0.581397
86	0xbf3a17e4	-0.72692704
87	0x3ec4f455	0.3846766
88	0x3ccd339f	0.025049029
89	0xbe8b5b49	-0.27218083
90	0xbe2c524c	-0.16828269
91	0xbd4c98ac	-0.049950287
92	0x3e2f304f	0.17108272
93	0x3f1d4ca4	0.6144507
94	0xbf040bf2	-0.5158073
95	0x3f06e71a	0.52696383
96	0x3e8aac73	0.27084693
97	0xbebf0731	-0.37310174
98	0xbd49cd92	-0.049268313
99	0xbebb6b29	-0.36605194
100	0xbc915801	-0.017742159
101	0x3e49375a	0.19650021
102	0xbf1f7615	-0.62289554
103	0x3ee0b31d	0.43886653
104	0x3f19136e	0.5979527
105	0xbf4a3006	-0.7897953
106	0x3fa5bcec	1.2948279
107	0xbf8da925	-1.1067244
108	0x3ed814e1	0.4220343
109	0x3cd79801	0.026317598
110	0xbefd4f78	-0.49474692
111	0x3f959d7b	1.1688684
112	0x3f174358	0.59087133
113	0xbe8f6e61	-0.280139
114	0x3eea94a7	0.45816538
115	0x3ef82472	0.48465306
116	0x3dfd96cc	0.12382278
117	0xbf2a5515	-0.66536075
118	0x3ee7c118	0.45264506
119	0x3eb2d6aa	0.349294
120	0xbcdb88ca	-0.026798625
121	0xbecac680	-0.39604568
122	0xbf2a9acf	-0.6664247
123	0xbed8aaa0	-0.42317677
124	0x3f4c01d9	0.7969032
125	0xbef169ef	-0.47151133
126	0x3eef6bb7	0.46761867
127	0xbf650682	-0.89463055
128	0x3ea93232	0.33046108
129	0x3ea9f549	0.3319495
130	0xbf68a4f1	-0.9087668
131	0xbd3f834d	-0.046756078
132	0x3ed7250d	0.42020455
133	0xbf438c54	-0.76386
134	0xbf45ca61	-0.7726193
135	0x3f81ec6b	1.0150274
136	0xbf40adb5	-0.75265056
137	0xbf2ba39d	-0.6704653
138	0xbed732da	-0.42030984
139	0x3f6607d9	0.89855725
140	0xbe7e410c	-0.24829501
141	0xbe8dacf7	-0.27671024
142	0x3f75619c	0.95852065
143	0x3f59e3b0	0.8511305
144	0xbf92364e	-1.1422822
145	0xbef0f174	-0.47059214
146	0x3f1729e5	0.590483
147	0x3f180781	0.5938645
148	0x3f03f46d	0.5154484
149	0x3c5b585b	0.013387765
150	0x3f846cd6	1.0345714
151	0xbf7b2890	-0.9810877
152	0xbef7ce93	-0.4839979
153	0xbed7da11	-0.4215856
154	0x3df93c17	0.12169664
155	0x3f100543	0.5625803
156	0x3f82189e	1.0163763
157	0xbefc38c3	-0.49262056
158	0xbcbd56ae	-0.023112621
159	0x3ee70218	0.45118785
160	0xbf4f9024	-0.81079316
161	0xbd569039	-0.052383635
162	0xbeef421c	-0.46730125
163	0x3f8843f9	1.0645744
164	0xbeaca532	-0.33719784
165	0x3f01e766	0.5074371
166	0x3c812590	0.015764982
167	0x3ec7c0b0	0.39014196
168	0xbe61ae34	-0.2203911
169	0x3f4466a0	0.76719093
170	0xbe6cc9d8	-0.23123872
171	0x3f1377c9	0.5760465
172	0x3d25b42f	0.04045504
173	0x3f8f63aa	1.120229
174	0xbecd5a96	-0.40108174
175	0xbf85ceca	-1.0453732
176	0xbcf95f2b	-0.030440887
177	0x3db4a8ef	0.08821284
178	0xbe832471	-0.2561374
179	0x3f1d9178	0.6155009
180	0x3f63b315	0.8894513
181	0x3effbea0	0.49950123
182	0xbe8043ef	-0.2505183
183	0x3f4975e9	0.7869554
184	0x3ee453fb	0.44595322
185	0xbf74f265	-0.95682365
186	0xbf15e27a	-0.585487
187	0x3f707a28	0.93936396
188	0x3f15c10d	0.584977
189	0x3f6795dd	0.9046305
190	0x3f104412	0.5635387
191	0xbe8408cd	-0.25787964
192	0xbf0dcce1	-0.55390745
193	0x3e7b50fd	0.24542613
194	0xbeb1ff46	-0.3476507
195	0xbf3df408	-0.7420049
196	0xbd783e45	-0.06060626
197	0xbec4f2e0	-0.3846655
198	0x3d278ba0	0.04090464
199	0xbf8e6a2d	-1.1126152
200	0xbe807a4a	-0.250933
201	0x3d913d55	0.07091776
202	0x3e11d490	0.14241242
203	0x3f1f0e91	0.621316
204	0xbebdce57	-0.37071487
205	0x3f711766	0.9417633
206	0xbf3658f2	-0.7122947
207	0xbc032a8c	-0.008005749
208	0xbf789d96	-0.9711546
209	0x3ef3a764	0.47588646
210	0xbe74a905	-0.23892601
211	0x3e4c5b29	0.1995665
212	0x3ef507a1	0.47857383
213	0xbf2791aa	-0.6545664
214	0x3f2e0828	0.67981195
215	0x3f2acfc7	0.66723293
216	0xbf22365f	-0.63364214
217	0xbe916e0a	-0.28404266
218	0xbe588f95	-0.21148522
219	0x3cb4f639	0.022090064
220	0x3e0a0c6b	0.134813
221	0xbd710c7c	-0.058849797
222	0xbe675742	-0.2259188
223	0x3df2f841	0.11863757
224	0x3defba27	0.117054276
225	0x3db2f18f	0.0873748
226	0x3ec27fc6	0.37988108
227	0xbe415077	-0.18878351
228	0xbec6da49	-0.38838413
229	0x3f2949b1	0.6612807
230	0x3f613687	0.8797383
231	0xbdb3cc44	-0.08779195
232	0x3ec19b6a	0.37813884
233	0xbe05a8ef	-0.13052724
234	0xbec37dad	-0.3818182
235	0x3eff221c	0.4983071
236	0xbeda8e40	-0.42686653
237	0xbd65fa79	-0.056147072
238	0x3e85dfed	0.26147404
239	0xbf13a4c2	-0.57673275
240	0xbec041c2	-0.3755017
241	0xbe659e96	-0.22423777
242	0x3f5ad7c1	0.85485464
243	0x3f21e7c1	0.63244253
244	0x3dc39cd6	0.095513985
245	0xbe1b7363	-0.15180735
246	0xbf8549a8	-1.0413103
247	0x3e99b7ad	0.30022946
248	0x3f56e4ff	0.8394317
249	0xbd9234ea	-0.07138999
250	0xbf3241ef	-0.69631857
251	0x3f66c548	0.9014478
252	0x3f38d048	0.7219281
253	0xbd8c75c4	-0.068583995
254	0x3e444b1f	0.19169281
255	0xbec2a8b1	-0.38019326

weight_ih_l0 f4 [128, 16]
0	0x3e358eed	0.17730303
1	0xbe27a419	-0.16371192
2	0xbd8c9fbd	-0.06866405
3	0x3e8a2dab	0.26987967
4	0xbd81ad9e	-0.06331943
5	0xbd663b88	-0.056209117
6	0xbdf011b7	-0.11722129
7	0xbe2c00ff	-0.16797255
8	0xbe17f633	-0.14840011
9	0x3e056a05	0.13028724
10	0x3dc1e1f5	0.09466926
11	0x3ddeccd1	0.108789094
12	0xbd864abb	-0.065572225
13	0xbcb35e84	-0.021895654
14	0xbd916cc1	-0.07100821
15	0x3e624f73	0.2210062
16	0xbe17608d	-0.14782925
17	0xbe06045a	-0.13087597
18	0x3d8a009b	0.06738397
19	0x3eb17e35	0.346666
20	0x3d9ade99	0.075619884
21	0xbe8802c7	-0.2656462
22	0xbda89c08	-0.082328856
23	0xbddd72d1	-0.10812915
24	0xbe940e43	-0.2891713
25	0xbda72e8c	-0.08163175
26	0x3ca2313e	0.019798871
27	0xbc4ae31d	-0.01238325
28	0x3c342cc9	0.010997006
29	0x3d16ac7d	0.03678559
30	0x3e1b4ccd	0.15166016
31	0x3e645886	0.22299394
32	0x3e0b5cd9	0.13609637
33	0xbe25cb1d	-0.16190763
34	0xbcda4163	-0.026642507
35	0xbe99d08b	-0.30041918
36	0xbd0ed9de	-0.034875743
37	0x3c4ca943	0.012491527
38	0x3e6fcbed	0.23417635
39	0x3e4a2df4	0.19744092
40	0xbc94395c	-0.018093757
41	0xbc795fd3	-0.0152206
42	0xbdf423dd	-0.11920903
43	0xbe065aab	-0.13120525
44	0xbe1455af	-0.1448581
45	0xbe11960d	-0.14217396
46	0x3db204c2	0.08692314
47	0xbe1b9edf	-0.15197323
48	0x3e70a2ec	0.2349965
49	0xbd80b72e	-0.06284939
50	0xbe069654	-0.13143283
51	0x3e6458bb	0.22299473
52	0xbee35bfd	-0.4440612
53	0xbe1976a7	-0.14986669
54	0x3d4896a9	0.048971806
55	0xbd8db133	-0.06918564
56	0xbc7ee9ce	-0.015558673
57	0x3e64660e	0.22304556
58	0x3e36acfd	0.17839427
59	0x3e028c8c	0.12748927
60	0x3cc8b6e9	0.02450128
61	0xbe71f254	-0.23627597
62	0x3e7a5843	0.24447732
63	0xbd507cb4	-0.050900176
64	0x3dc41196	0.09573667
65	0xbcbf7d2d	-0.023375118
66	0x3c6a14ae	0.014287157
67	0x3cb0dbc9	0.021589177
68	0x3da43574	0.08018008
69	0x3e43fe7e	0.1914005
70	0x3cbbc589	0.02292134
71	0xbde75c79	-0.11296935
72	0x3e0ba9f3	0.13639049
73	0x3eb0b716	0.34514683
74	0xbdaf708c	-0.085663885
75	0x3dbc7839	0.09202618
76	0x3d27c854	0.040962532
77	0xbe25d5de	-0.16194865
78	0x3c77a135	0.015114118
79	0xbe496e1e	-0.19670913
80	0xbe08c54b	-0.13356511
81	0x3cd30a99	0.02576189
82	0xbdbe33fb	-0.09287258
83	0xbdb0c3f1	-0.08631123
84	0xbdb3b52a	-0.08774789
85	0x3e210670	0.15725112
86	0x3ea25db2	0.3171211
87	0x3da7d9cf	0.081958406
88	0xbdf13db8	-0.1177935
89	0x3de387df	0.111099
90	0x3db8b6a9	0.09019215
91	0x3dc36aa3	0.09541824
92	0x3c8e1e91	0.01734856
93	0xbe0eee12	-0.13958004
94	0xbe3026ff	-0.17202376
95	0x3d1649c5	0.036691446
96	0xbda8d8af	-0.08244454
97	0xbdec4496	-0.11536519
98	0x3c9099e0	0.017651498
99	0x3e9c55c7	0.30534193
100	0xbd0184d9	-0.031620834
101	0xbcc07dc2	-0.023497466
102	0x3dc4cbc0	0.09609175
103	0x3e267648	0.16256058
104	0xbd9c51b1	-0.07632769
105	0x3e03f12e	0.12884971
106	0x3e5e16f5	0.21688445
107	0xbcedf3d0	-0.029046923
108	0xbda71589	-0.081584044
109	0xbde7533b	-0.11295172
110	0x3ceeda6a	0.029156882
111	0x3e57f9ad	0.21091338
112	0x3df40185	0.11914352
113	0x3d601843	0.054710638
114	0xbe308df0	-0.17241645
115	0xbc8c3707	-0.017116083
116	0xbe16ebdb	-0.14738409
117	0xbe328322	-0.17432836
118	0xbc05f093	-0.008175033
119	0xbe29fdfd	-0.16600795
120	0x3d439d68	0.047757536
121	0x3ed7a309	0.42116573
122	0x3c485239	0.012226635
123	0xbe817fe4	-0.25292885
124	0x3cbeebc5	0.023305783
125	0xbd303fb6	-0.04302951
126	0x3cdb0cc9	0.026739495
127	0x3d936f04	0.07198909
128	0x3d70dfb7	0.0588071
129	0xbde639b5	-0.112414755
130	0xbe633490	-0.2218802
131	0xbe24861a	-0.1606678
132	0x3cc90be5	0.024541805
133	0x3da522fb	0.080633126
134	0xbe352358	-0.17689264
135	0x3d69303c	0.056930766
136	0x3de2d371	0.110754855
137	0x3e186975	0.14883979
138	0x3b57b1ac	0.0032912297
139	0xbd892591	-0.06696618
140	0xba4272a2	-0.00074175943
141	0xbe7733a4	-0.24140793
142	0x3c2e0733	0.010621834
143	0x3d485d3c	0.04891704
144	0xbccd7285	-0.025079021
145	0xbdbf9a28	-0.09355575
146	0x3e3b46ae	0.18288681
147	0x3d364fcf	0.044509705
148	0x3d89be98	0.06725806
149	0xbd352b0f	-0.044230517
150	0xbdaf733a	-0.085668996
151	0x3dea0460	0.11426616
152	0x3e2ecd15	0.1707042
153	0x3e029ddb	0.1275553
154	0xbd86bac9	-0.06578595
155	0x3d7edc15	0.062221605
156	0xbdb64eaf	-0.089017265
157	0xbe425b04	-0.18980032
158	0x3e411e93	0.1885932
159	0x3e1275e6	0.14302787
160	0x3e297172	0.16547182
161	0xbd40571c	-0.046958074
162	0xbdca0758	-0.09864682
163	0xbd7be6bc	-0.061499342
164	0x3daacf8a	0.08340366
165	0xbd811773	-0.06303301
166	0xbdc0481b	-0.09388753
167	0x3e0c52ba	0.13703433
168	0x3d849f21	0.06475664
169	0x3e033d12	0.12816265
170	0x3d3bc7db	0.045844894
171	0xbe0504f3	-0.12990169
172	0xbe53f295	-0.20698006
173	0xbd3fdc0e	-0.04684072
174	0xbe30003f	-0.17187594
175	0xbd74eaa2	-0.059794076
176	0xbd0bd491	-0.034138266
177	0x3e6ae054	0.22937137
178	0xbea9c40f	-0.33157393
179	0xbe87148c	-0.26382864
180	0xbe23e1f6	-0.16004166
181	0x3e5f2ae0	0.217937
182	0x3dfdfa64	0.12401274
183	0xbd366ad2	-0.044535466
184	0x3e1b6a99	0.15177383
185	0x3dc2954e	0.09501134
186	0x3e054dec	0.13018006
187	0xbdcff784	-0.10154632
188	0xbe1f557c	-0.15559953
189	0xbe555ff9	-0.20837392
190	0x3e5fdfba	0.21862689
191	0x3e04c0df	0.129642
192	0xbd286c08	-0.04111865
193	0x3de55f7f	0.11199855
194	0x3c60d19e	0.013721852
195	0xbe5c2868	-0.21499789
196	0xbcc48680	-0.023989916
197	0x3e28f127	0.16498242
198	0x3e4feb17	0.20304523
199	0x3db5ac01	0.08870698
200	0x3dcd021d	0.10010169
201	0xbd03a01d	-0.032135118
202	0x3d14f120	0.036362767
203	0xbe3275d6	-0.17427763
204	0x3e646a91	0.22306277
205	0xbd6b06ed	-0.05737965
206	0xbd302e49	-0.04301289
207	0xbdb7fcac	-0.0898374
208	0xbc6c3313	-0.014416474
209	0xbe9d67d4	-0.30743277
210	0x3cc63b60	0.024198234
211	0x3e198abf	0.14994334
212	0x3d48338a	0.048877276
213	0x3d039e2f	0.032133278
214	0xbe605ff1	-0.21911599
215	0x3e677c02	0.22605899
216	0x3dee019c	0.11621401
217	0x3e091608	0.1338731
218	0x3ddf3540	0.108988285
219	0x3e0a1c8f	0.13487457
220	0x3cdbf56e	0.026850428
221	0xbcb1ba02	-0.02169514
222	0x3e380681	0.17971231
223	0x3e1bb836	0.1520699
224	0xbd496fa5	-0.04917874
225	0x397de2a9	0.00024212398
226	0xbd34380e	-0.04399877
227	0x3ee4a17c	0.44654453
228	0xbded543d	-0.11588333
229	0xbe1f646c	-0.15565652
230	0x3da24810	0.07923901
231	0xbe7a41c3	-0.24439149
232	0xbe0341a5	-0.1281801
233	0x3e61c66e	0.22048351
234	0xbcfa83e4	-0.030580468
235	0xbe2cf546	-0.1689044
236	0x3d7183ac	0.058963463
237	0xbd28ca08	-0.041208297
238	0xbe180eef	-0.14849447
239	0x3ddb986b	0.10722431
240	0xbd4b63c0	-0.049655676
241	0xbcaa8749	-0.020816462
242	0xbcc8dacd	-0.024518395
243	0xbe567c2a	-0.20945802
244	0xbc90b395	-0.017663756
245	0x3dc97472	0.09836663
246	0x3ccd0e14	0.025031127
247	0x3e8eb166	0.2786972
248	0xbd963af0	-0.0733546
249	0xbda7749f	-0.081765406
250	0xbdb98136	-0.09057848
251	0xbd1ef532	-0.038808055
252	0x3df799a2	0.1208985
253	0x3da31e73	0.07964792
254	0x3eae7bfc	0.34078968
255	0x3e21b92a	0.1579329

weight_hh_l0 f4 [128, 32]
0	0xbe6dac22	-0.23210195
1	0x3bd9bd92	0.006644913
2	0xbd9b4182	-0.07580854
3	0x3db587de	0.08863805
4	0x3c85bc17	0.01632504
5	0xbb73bfe2	-0.0037193228
6	0x3d8453ad	0.064612724
7	0xbee7f008	-0.45300317
8	0xbcb0ca9f	-0.021580992
9	0xbc079186	-0.008274442
10	0xbe0c3783	-0.13693051
11	0xbcdd8ef8	-0.027045712
12	0x3d81c709	0.06336791
13	0xbd7f14a8	-0.06227556
14	0xbd40becf	-0.04705697
15	0x3e94e7b3	0.29083022
16	0x3ddc2c8b	0.107506834
17	0xbe3f67bc	-0.18691915
18	0x3d91e250	0.07123244
19	0xbe21ee09	-0.1581346
20	0x3e8c9d29	0.27463654
21	0xbdc28e05	-0.09499744
22	0x3daae3a2	0.08344199
23	0x3df1828c	0.11792478
24	0xbd5cce10	-0.053907454
25	0x3bb2ed3e	0.0054604104
26	0x3d807055	0.06271426
27	0x3d46392d	0.04839437
28	0x3e79b832	0.24386671
29	0x3a09d4d9	0.0005257852
30	0x3d1dd37c	0.038531765
31	0x3e23a1a4	0.1597963
32	0xbd8c931f	-0.068639986
33	0xbe2e99ec	-0.17050904
34	0x3d3613b7	0.044452395
35	0x3e29917e	0.16559407
36	0xbdda328e	-0.10654174
37	0xbcfdca88	-0.030980363
38	0xbe8f8d2d	-0.28037396
39	0xbc56cb04	-0.013109926
40	0xbdb28bf2	-0.08718099
41	0xba7f7f68	-0.0009746463
42	0x3db52b83	0.0884619
43	0x3dfe499c	0.124163836
44	0x3dd6a1d3	0.10480084
45	0xbc57318b	-0.013134371
46	0x3dd10844	0.10206655
47	0x3e670315	0.2255977
48	0x3d8a690e	0.06758319
49	0x3ddfe17f	0.10931682
50	0x3d8e10df	0.06936812
51	0xbd6328c4	-0.0554588
52	0x3e181990	0.14853501
53	0x3b8f41fc	0.0043718796
54	0x3d423ea3	0.047423016
55	0xbd5ab612	-0.053396292
56	0x3d9a732e	0.075415
57	0x3e0221ce	0.12708208
58	0x3e3d4d5f	0.18486546
59	0xbdee6bb5	-0.11641637
60	0xbd36e632	-0.044653125
61	0xbce65de0	-0.028120935
62	0xbd8073ad	-0.062720634
63	0x3d5ba07b	0.053619843
64	0x3cbb5a19	0.02287011
65	0xbd841f77	-0.06451314
66	0x3c5dee75	0.013545622
67	0x3d4f0e16	0.050550543
68	0x3e825b1a	0.2546013
69	0x3c20b37d	0.009808418
70	0x3d193158	0.037400573
71	0x3d8e8a63	0.06959989
72	0xbce47d3a	-0.027891744
73	0x3e41f283	0.18940167
74	0x3d0aa0f4	0.033844903
75	0xbd8ab799	-0.067733
76	0x3d1c34f0	0.038136423
77	0x3e2925ef	0.16518377
78	0x3e89212b	0.26783118
79	0xbda9d4e4	-0.08292559
80	0xbdd06546	-0.101755664
81	0x3d4cbf62	0.049987204
82	0x3e062751	0.13100936
83	0xbe297939	-0.16550149
84	0x3e63e4e0	0.22255278
85	0x3c7f4a9e	0.015581755
86	0x3e598c08	0.21244824
87	0xbe2d89e3	-0.16947131
88	0xbe62091a	-0.22073784
89	0xbdd39c95	-0.103326
90	0x3d862369	0.06549723
91	0x3de0a9fc	0.10969922
92	0xbe8866f1	-0.26641038
93	0xbe354320	-0.17701387
94	0xbdb4838b	-0.08814152
95	0xbcda75f3	-0.02666757
96	0xbd80d4ea	-0.0629061
97	0xbcb66538	-0.022265062
98	0xbdb6c7f0	-0.08924854
99	0xbd5c1124	-0.053727284
100	0xbe176227	-0.14783536
101	0xbd957f1a	-0.07299633
102	0xbd38afe1	-0.045089606
103	0xbe050049	-0.1298839
104	0xbe45102d	-0.19244452
105	0xbdf14958	-0.11781567
106	0x3ce757ae	0.028240051
107	0xbdfc98ef	-0.12333857
108	0xbd816e04	-0.06319812
109	0xbe42c9c4	-0.1902228
110	0x3dced38f	0.10098945
111	0x3ea4f05d	0.32214633
112	0x3e30c5df	0.17262982
113	0xbe5d6e47	-0.21624099
114	0x3dda9ad9	0.10674066
115	0xbe641a96	-0.22275767
116	0x3e01c5ee	0.1267316
117	0xbd7512ca	-0.05983237
118	0xbe438944	-0.19095331
119	0x3da49449	0.08036096
120	0x3e0becde	0.13664576
121	0x3d037676	0.032095395
122	0x3e226011	0.15856959
123	0xbde99332	-0.114050284
124	0xbdbcbd11	-0.09215749
125	0xbdb59378	-0.08866018
126	0xbdadbc4e	-0.08483182
127	0x3dcb8c73	0.09938898
128	0x3df21438	0.11820263
129	0x3b9d3890	0.0047980025
130	0xbe1e89aa	-0.15482202
131	0x3cefc37d	0.02926802
132	0xbaa902ef	-0.0012894551
133	0xbdec0846	-0.115250155
134	0x3e456f12	0.19280651
135	0xbceefe2b	-0.029173931
136	0xbe1a591f	-0.1507306
137	0x3b2fb6b3	0.0026811778
138	0x3da78b2a	0.0818084
139	0xbe1ddbe6	-0.15415916
140	0xbe0b6bd5	-0.13615353
141	0xbe1ef05d	-0.15521379
142	0x3c81be5a	0.015837837
143	0x3d09f92a	0.033684887
144	0x3d93757b	0.07200142
145	0xbd129ab2	-0.03579206
146	0x3df5f0d2	0.120088235
147	0xbe1319cb	-0.14365308
148	0x3d6e4be3	0.05817784
149	0x3e05fb56	0.13084158
150	0xbd6f026c	-0.05835192
151	0xbe05eb0a	-0.13077942
152	0x3e2c9648	0.16854203
153	0x3d9edcb6	0.07756941
154	0x3d8eb5e3	0.06968286
155	0x3d1d89ee	0.038461618
156	0x3e3b119d	0.18268438
157	0xbd824bdb	-0.063621245
158	0x3e090e14	0.13384277
159	0x3e462d1d	0.19353147
160	0xbd4cfb8e	-0.05004459
161	0xbe656507	-0.2240182
162	0xbe8aa0c0	-0.27075768
163	0xbd925718	-0.07145518
164	0x3dfad4e2	0.122476354
165	0xbd39a1ba	-0.04532025
166	0xbe2267b3	-0.1585987
167	0xbea7473b	-0.32671532
168	0x3c41a872	0.011819946
169	0xbde3f1c1	-0.11130095
170	0xbe325c0b	-0.17417924
171	0x3d8dcb09	0.069234915
172	0xbddafdab	-0.106929146
173	0x3d33a361	0.043856982
174	0xbd3a7ab4	-0.045527175
175	0x3e925c9b	0.28586277
176	0x3cc9095a	0.024540592
177	0xbe29bd78	-0.16576183
178	0xbd6e8fa4	-0.058242455
179	0x3d15d626	0.03658118
180	0x3e10b7a4	0.14132553
181	0x3e00a53c	0.12563032
182	0xbe019147	-0.12653075
183	0xba913eca	-0.0011081335
184	0xbe272511	-0.16322733
185	0x3e7c6a63	0.24649958
186	0x3cd18ad2	0.02557889
187	0x3deb6035	0.114929594
188	0x3e4173f7	0.18891893
189	0xbe677af6	-0.226055
190	0xbdcf489f	-0.10121273
191	0x3dda3061	0.10653759
192	0xbdf6c5c8	-0.120494425
193	0xbdcb891b	-0.0993826
194	0xbce0a083	-0.027420288
195	0x3e49f100	0.1972084
196	0xbe2b7e64	-0.16747433
197	0xbd316804	-0.043312088
198	0xbe1527b4	-0.14565927
199	0xbe926aae	-0.28597015
200	0x3dd9725f	0.10617518
201	0xbd97dbba	-0.074149564
202	0xbdf4c887	-0.1195231
203	0x3d2a4841	0.041572813
204	0xbdb556c6	-0.08854441
205	0x3dcd05b1	0.10010851
206	0xbda8f0b5	-0.08249036
207	0x3e46c6d0	0.19411778
208	0x3e44b725	0.19210489
209	0xbe03b027	-0.12860166
210	0xbcb2ed6f	-0.021841733
211	0xbc537ddb	-0.012908424
212	0x3e736b50	0.23771405
213	0x3d832f0c	0.06405458
214	0xbdcdd302	-0.10050012
215	0xbdd9a904	-0.1062794
216	0xbd651625	-0.05592932
217	0x3e65ad5c	0.22429413
218	0x3e3e72d1	0.18598486
219	0x3e4cded1	0.20006873
220	0x3e512848	0.20425522
221	0xbe3b8c02	-0.18315127
222	0x3c5576b5	0.01302879
223	0xbd02b76a	-0.0319132
224	0x3d92cef3	0.07168379
225	0xbddfabc5	-0.10921434
226	0xbd940ad1	-0.072286256
227	0xbe1d9719	-0.1538967
228	0xbd9b0d35	-0.075708784
229	0xbe241b10	-0.16025949
230	0x3df8e149	0.12152345
231	0xbd4b7c7d	-0.04967927
232	0xbea4efb0	-0.32214117
233	0x3e27e43c	0.16395658
234	0xbd281c19	-0.04104242
235	0xbe8530a0	-0.2601366
236	0xbe9071b5	-0.28211752
237	0xbc070858	-0.008241735
238	0x3de9bcfb	0.11412998
239	0xbcde0092	-0.027099881
240	0xbe178ae4	-0.14799076
241	0xbcdd6fa0	-0.027030766
242	0xbdfac4c5	-0.12244562
243	0xbe95bede	-0.29247183
244	0x3e8f4948	0.27985597
245	0x3e825951	0.25458768
246	0xbd960705	-0.073255576
247	0xbe9af169	-0.30262306
248	0xbdb8adbf	-0.090175144
249	0xbd08fcd2	-0.033444233
250	0xbdd94f49	-0.106108256
251	0x3d534ba5	0.051585812
252	0xbe16b019	-0.14715613
253	0x3cb03ce6	0.021513414
254	0xbe07da05	-0.13266762
255	0xbe36f214	-0.17865783

bias_ih_l0 f4 [128]
0	0x3d19d4fe	0.03755664
1	0x3d4c55b7	0.04988643
2	0x3e368628	0.17824614
3	0x3ce0d061	0.027443113
4	0x3e5fae91	0.21843936
5	0x3e75eb58	0.24015558
6	0x3d91d30f	0.07120334
7	0x3e11099e	0.14163825
8	0xbc0365ce	-0.008019878
9	0x3df887d3	0.121352814
10	0x3e319e68	0.17345583
11	0x3df91042	0.12161304
12	0x3dba1240	0.09085512
13	0xbc8a1677	-0.016856415
14	0xbe103d53	-0.14085893
15	0x3e77f290	0.24213624
16	0x3be35e27	0.006938714
17	0x3de1e779	0.11030478
18	0xbd821b1d	-0.06352828
19	0xbe1523cb	-0.14564435
20	0x3e112d51	0.14177443
21	0xbc95b667	-0.018275453
22	0x3e2e1f00	0.17004013
23	0x3d4528c3	0.048134577
24	0x3cbcd136	0.023048978
25	0x3e1d65f6	0.15370926
26	0x3c587f61	0.013213963
27	0xbe03d51c	-0.12874264
28	0x3dbd077c	0.09229943
29	0x3da55c44	0.08074239
30	0xbcc35ab2	-0.023846958
31	0xbe102d17	-0.140797
32	0x3d599ab8	0.053126067
33	0xbcab4b9c	-0.020910077
34	0x3dd71cc5	0.10503534
35	0xbc568af4	-0.013094652
36	0x3dfc9aa1	0.123341806
37	0xbd5de876	-0.05417677
38	0x3d833dd9	0.06408281
39	0x3d594193	0.053041052
40	0xbda83189	-0.08212573
41	0xbcf43eb1	-0.02981505
42	0xbe090923	-0.13382392
43	0xbdbe0c0a	-0.0927964
44	0xbdd4168a	-0.103558615
45	0x3e16865a	0.14699689
46	0xbd0ed6c4	-0.034872785
47	0x3e84ea60	0.25960064
48	0x3dda9209	0.10672385
49	0x3c5f276b	0.013620238
50	0x3d88c192	0.066775456
51	0xbdec3835	-0.11534158
52	0xbd810058	-0.06298894
53	0x3ca807af	0.020511476
54	0x3e01fdd6	0.12694487
55	0x3e1e9ffd	0.15490718
56	0xbce070ef	-0.027397601
57	0x3e59d07e	0.2127094
58	0x3dfde643	0.123974346
59	0x3d95d8f8	0.07316774
60	0xbc03d9e7	-0.008047557
61	0xbdb77318	-0.08957499
62	0x3d8f04ce	0.06983338
63	0xbdc72dd2	-0.097255364
64	0xbccdc494	-0.02511815
65	0xbdbb7ceb	-0.091546856
66	0xbe07fb0c	-0.1327936
67	0x3d680f50	0.05665523
68	0xbd8fb648	-0.07017189
69	0xbc8317f8	-0.01600264
70	0xbdebda4a	-0.11516245
71	0xbd6845e8	-0.056707293
72	0xbe2113aa	-0.15730157
73	0xbdcdb49e	-0.100442156
74	0xba7cc438	-0.0009642276
75	0xbd310ff4	-0.043228105
76	0xbe2c900a	-0.16851822
77	0x3e02bcb6	0.127673
78	0xbe19a4a0	-0.15004206
79	0x3cb42a42	0.021992806
80	0xbe2d2923	-0.16910224
81	0x3cdccec0	0.026954055
82	0x3d552efd	0.052046765
83	0xbd1d2860	-0.038368583
84	0x3e19dc04	0.15025336
85	0x3de9dbc9	0.11418874
86	0x3c6ef6a9	0.014585176
87	0xbd8b810d	-0.06811724
88	0xbd8eb9f8	-0.069690645
89	0x3bc05eed	0.005870691
90	0xbc59f410	-0.013302818
91	0xbe3497c0	-0.17636013
92	0x3b45554f	0.0030110662
93	0xbe205d9d	-0.1566071
94	0xbdec0623	-0.11524608
95	0xbc6f228e	-0.014595641
96	0x3cc1cf5e	0.02365845
97	0xbcb6eeaa	-0.0223306
98	0xbdc61f4a	-0.09673937
99	0xbdf56c2a	-0.11983521
100	0x3e14369b	0.14473955
101	0xbc27d8af	-0.0102445325
102	0xbd495ca3	-0.04916061
103	0x3e5d80a7	0.21631108
104	0x3d1a24cc	0.03763275
105	0x3e0b0112	0.13574627
106	0xbd625d84	-0.055264965
107	0xbd8c235f	-0.06842684
108	0x3d4fd03e	0.050735705
109	0x3e2d1bf5	0.16905196
110	0x3e366d1a	0.17815056
111	0xbc8e488e	-0.017368581
112	0x3d71f58c	0.059072062
113	0x3d720bae	0.05909317
114	0x3e585a61	0.21128227
115	0x3c4b7192	0.012417214
116	0x3e029f57	0.12756096
117	0x3e17bb1f	0.14817475
118	0x3babec3f	0.0052466686
119	0x3e06aea1	0.13152553
120	0x3e40d5c5	0.18831547
121	0xbd56070d	-0.052252818
122	0x3e523fe0	0.20532179
123	0x3e0e87db	0.13919012
124	0x3d9b9fcd	0.07598839
125	0xbc87b190	-0.01656416
126	0x3e1cc09d	0.15307851
127	0xbe00d64b	-0.12581746

bias_hh_l0 f4 [128]
0	0x3db6f68f	0.08933746
1	0x3dd946ea	0.10609229
2	0xbdb3b18e	-0.087741
3	0xbe47ee81	-0.19524576
4	0x3e6b8556	0.23000082
5	0x3e2625ff	0.16225432
6	0x3d9ff4cc	0.07810363
7	0x3e44c698	0.19216383
8	0x3dc72ba5	0.097251214
9	0xbd731999	-0.059350584
10	0xbddae491	-0.10688127
11	0xbd29b6c2	-0.041434057
12	0xbdbcad73	-0.0921277
13	0x3e50e5cd	0.20400162
14	0xbe0f7dff	-0.14012907
15	0x3e0e83e1	0.13917495
16	0xbc781447	-0.015141553
17	0x3e3e1484	0.18562514
18	0xbdcfc10e	-0.10144244
19	0x3e39caaa	0.18143716
20	0x3e50ba3a	0.2038354
21	0x3da8ff14	0.08251777
22	0x3c3dc2c7	0.011582083
23	0xbd41738d	-0.04722934
24	0xbdadfce7	-0.08495503
25	0xbe0da5be	-0.13832757
26	0x3c99b707	0.018764032
27	0x3ccc8801	0.024967195
28	0x3d58e6a3	0.052954327
29	0x3e00ccb5	0.1257809
30	0xbdeb6066	-0.11492996
31	0x3e2b6a7a	0.16739836
32	0xbd014b41	-0.03156591
33	0xbd223d84	-0.039609447
34	0x3c7c284b	0.015390466
35	0xbdac0979	-0.08400244
36	0x3e74200f	0.23840354
37	0xbd0ea5a0	-0.03482592
38	0xbdac8a22	-0.08424784
39	0x3db02ee4	0.08602694
40	0x3d21db65	0.03951587
41	0x3e2ebae6	0.17063484
42	0xbe062a50	-0.13102078
43	0x3d37e99a	0.044900514
44	0xba1bb794	-0.0005940136
45	0xbd61f4f2	-0.05516524
46	0x3dfb1d8d	0.12261496
47	0x3e19300a	0.14959732
48	0xbd12d709	-0.035849605
49	0x3dcd4395	0.10022656
50	0x3e47ba44	0.19504648
51	0x3d9e85fa	0.07740398
52	0xbd2859f6	-0.04110142
53	0x3da88ff4	0.08230582
54	0xbe1bb8c0	-0.15207195
55	0x3e0a35e9	0.13497128
56	0x3e3433f2	0.1759794
57	0x3e2a2521	0.16615726
58	0x3d9ef7d2	0.07762112
59	0xbce87c08	-0.028379455
60	0x3e3d0abf	0.1846113
61	0x3a156e7f	0.0005700364
62	0x3c722ca2	0.014781149
63	0x3d7af217	0.06126603
64	0xbd385338	-0.04500124
65	0xbe097413	-0.13423185
66	0xbd8ef546	-0.06980376
67	0x3da6bc1f	0.0814135
68	0x3d5bbcd3	0.053646874
69	0xbdb0804b	-0.0861822
70	0x3e2e0fc3	0.169982
71	0x3d930b1a	0.07179852
72	0xbe1c9679	-0.15291776
73	0x3d85f487	0.065407805
74	0xbde520f5	-0.11187927
75	0xbddd377a	-0.10801597
76	0x3cf3dca4	0.029768296
77	0xbc8a0f57	-0.016853018
78	0xbcac7f67	-0.021056844
79	0x3e1cdc0a	0.15318313
80	0x3bdc62f7	0.0067256647
81	0xbdd38347	-0.103277735
82	0xbd21c093	-0.039490294
83	0x3da1706c	0.07882771
84	0x3d0915be	0.033468
85	0xbdb1fb74	-0.08690539
86	0xbd960484	-0.0732508
87	0xbcbce1f4	-0.023056962
88	0xbdb7d437	-0.08976024
89	0x3d0ed7f4	0.034873918
90	0xbcde1cf8	-0.027113423
91	0x3dcc8663	0.0998657
92	0x3d92bb5d	0.07164643
93	0xbe2a80cc	-0.16650695
94	0x3df04402	0.117317215
95	0x3c80d96e	0.015728679
96	0x3d535428	0.05159393
97	0x3e26301c	0.1622929
98	0xbdead474	-0.114663035
99	0xbdd06797	-0.10176008
100	0x3db2ff8e	0.087401494
101	0x3b98a75c	0.0046586227
102	0x3dacf1d8	0.084445655
103	0x3c736c9d	0.014857438
104	0x3e30c859	0.17263927
105	0xbc93e117	-0.018051667
106	0xbbeaf08c	-0.0071697887
107	0xbd061a1c	-0.032739744
108	0x3de09a94	0.109669834
109	0x3db26de2	0.08712365
110	0xbdfaf678	-0.122540414
111	0x3e068459	0.13136424
112	0x3df4ab37	0.11946719
113	0x3de41c79	0.11138243
114	0x3da59a1e	0.08086036
115	0x3dc0cbef	0.09413897
116	0x3d841bfc	0.0645065
117	0x3e0e3c43	0.13890176
118	0xbe21d571	-0.15804078
119	0x3d99555d	0.07486985
120	0xbdb1d5ba	-0.08683343
121	0xbddc9175	-0.10769931
122	0xbdb3e51d	-0.08783934
123	0x3dec3706	0.115339324
124	0x3c49a6ff	0.012307881
125	0xbcee5e94	-0.029097833
126	0x3d40d15b	0.047074657
127	0x3df22b12	0.11824621

weight_ih_l0_reverse f4 [128, 16]
0	0x3e850a30	0.25984335
1	0x3bb16abc	0.005414335
2	0x3e1b22c6	0.15149984
3	0xbcb16d53	-0.021658575
4	0xbdd361e3	-0.10321405
5	0xbe3b1f03	-0.18273549
6	0xbe099159	-0.13434352
7	0xbe38c155	-0.180425
8	0x3e05ea31	0.13077618
9	0xbdf3161d	-0.11869452
10	0x3d01b5d0	0.03166753
11	0x3e8ac32a	0.27102023
12	0xbd0f2966	-0.03495159
13	0xbe3f7994	-0.18698722
14	0x3e5bafde	0.21453807
15	0x3dd04759	0.101698585
16	0x3cb4a690	0.02205208
17	0xbe61eba7	-0.2206255
18	0xbe03a45b	-0.12855665
19	0x3e31f722	0.1737943
20	0xbd56985a	-0.052391388
21	0xbe2277bc	-0.15865988
22	0x3d28d0eb	0.041214865
23	0xbe8b7db1	-0.27244332
24	0x3deba144	0.11505368
25	0xbcddfcbc	-0.027098052
26	0x3e533b50	0.20628095
27	0xbe3e4f8e	-0.18585035
28	0xbd055f8b	-0.03256182
29	0xbe557238	-0.20844352
30	0x3e1f1815	0.1553653
31	0x3dd6d175	0.104891695
32	0x3eaf2f03	0.34215555
33	0xbe5d0f04	-0.2158776
34	0x3ca9a62d	0.020709122
35	0x3dc637c3	0.096786045
36	0xbe8e9759	-0.27849844
37	0xbd0bbc5f	-0.03411519
38	0xbc621ca8	-0.0138007775
39	0xbbf3bb48	-0.007438097
40	0x3d25f2c9	0.04051474
41	0xbe2f4ee9	-0.17119946
42	0x3e80dd0a	0.2516864
43	0x3e3cb889	0.1842977
44	0xbe58f42c	-0.21186894
45	0xbdd005b1	-0.101573355
46	0x3dda9480	0.106728554
47	0x3e157e0e	0.14598867
48	0x3e09e03b	0.13464443
49	0xbe058c69	-0.13041843
50	0x3d848a46	0.06471686
51	0xbda24792	-0.07923807
52	0x3e4aeeb6	0.19817623
53	0x3e2b0897	0.16702496
54	0x3e4a7723	0.1977201
55	0x3daa91b6	0.083285734
56	0x3e9d3053	0.3070093
57	0x3dd4e362	0.10394932
58	0xbe74a01c	-0.23889202
59	0xbd45928c	-0.04823546
60	0xbcdf368a	-0.027247686
61	0xbe30dbda	-0.17271367
62	0xbe4d14c7	-0.20027457
63	0x3e380818	0.17971838
64	0x3e919e48	0.28441072
65	0xbdf55f5c	-0.11981079
66	0xbdc50b3b	-0.09621283
67	0xbd820a26	-0.06349592
68	0xbdc06210	-0.09393704
69	0xbe01f377	-0.1269053
70	0xbd34f58a	-0.044179477
71	0xbb45115c	-0.0030070161
72	0xbc29562e	-0.010335488
73	0x3cbc571d	0.022990758
74	0x3e2ae35a	0.1668829
75	0x3d87193f	0.06596612
76	0x3cfe8e79	0.031073796
77	0xbc364447	-0.011124677
78	0x3eb2a713	0.34893093
79	0x3da5850a	0.08082016
80	0xbe800601	-0.2500458
81	0xbe47fc74	-0.19529897
82	0x3d801453	0.062538765
83	0xbe112b92	-0.14176777
84	0xbd8b994e	-0.0681635
85	0xbe87656f	-0.26444575
86	0x3dff1e47	0.12456947
87	0x3dc041b9	0.093875356
88	0xbd37a6bc	-0.044836745
89	0xbc63296c	-0.013864856
90	0x3e6e0d2a	0.23247209
91	0xbd51ff02	-0.051268585
92	0xbdd2ac7c	-0.10286805
93	0x3cb850b8	0.022499427
94	0x3c50f784	0.012754325
95	0x3e027e6d	0.1274354
96	0x3e42aeb3	0.19011955
97	0x3dada326	0.08478384
98	0x3d686ab3	0.05674238
99	0x3e28e798	0.16494596
100	0x3c2db806	0.010602957
101	0x3dd1baf6	0.10240738
102	0xbe4d1fee	-0.20031711
103	0xbdd605fe	-0.10450362
104	0xbdf579a6	-0.11986093
105	0x3d868ddb	0.065700255
106	0xbddaa60e	-0.10676204
107	0x3d854f2c	0.065092415
108	0xbdf86dcc	-0.12130317
109	0xbdcd6734	-0.1002945
110	0x3e378b0a	0.17924133
111	0x3d9e8750	0.077406526
112	0x3c2d3eeb	0.010574083
113	0xbe65eb78	-0.22453105
114	0x3e6dd7fa	0.2322692
115	0x3cb39bb8	0.021924838
116	0x3c4a7268	0.012356378
117	0xbe6ca597	-0.23110043
118	0xbe3f5bde	-0.18687388
119	0x3e3b9622	0.1831899
120	0xbda45cdb	-0.08025523
121	0xbdcd57c6	-0.10026507
122	0xbdad005c	-0.08447334
123	0x3dc621fe	0.09674452
124	0x3dae3bf5	0.0850753
125	0x3c8ad9f1	0.016949626
126	0xbc69775d	-0.01424965
127	0xbcad9bbf	-0.02119243
128	0xbb0fef59	-0.002196273
129	0x3ddb1a68	0.10698396
130	0xbe2e7d89	-0.17040075
131	0x3e523fb3	0.20532112
132	0xbe1e324b	-0.15448873
133	0x3dbf003b	0.09326216
134	0xbd004485	-0.031315345
135	0xbe3ca990	-0.18424058
136	0x3d9817bc	0.07426402
137	0x3ea1b29c	0.3158158
138	0x3e6304bb	0.22169773
139	0x3e6c5d2e	0.2308242
140	0x3e234687	0.15944873
141	0xbc9fae3d	-0.019492263
142	0x3e720826	0.23635921
143	0x3de436ec	0.11143288
144	0x3de0d581	0.10978223
145	0xbd74b24f	-0.05974036
146	0x3d809e76	0.06280224
147	0x3e95df6b	0.29272017
148	0x3db858b4	0.09001294
149	0xbd8f0ce0	-0.069848776
150	0x3e12ff92	0.14355305
151	0xbe9308cb	-0.28717646
152	0xbd83b3e7	-0.06430798
153	0xbe1dd323	-0.15412574
154	0xbe2e89a9	-0.170447
155	0x3c8248f4	0.015903927
156	0x3dbb9437	0.09159129
157	0xbe320358	-0.17384088
158	0xbe8b762a	-0.2723859
159	0x3e092132	0.1339157
160	0xbdec3127	-0.115328126
161	0xbd243d70	-0.040097654
162	0xbe8edd62	-0.27903277
163	0x3d7e2057	0.06204256
164	0x3d878722	0.066175714
165	0xbd7ccc76	-0.061718427
166	0xbe21a730	-0.15786433
167	0xbca2ea5d	-0.019887144
168	0xbe02b61e	-0.12764785
169	0x3d5491b3	0.051896762
170	0x3e28e609	0.16494001
171	0x3e68af86	0.22723207
172	0xbda5f607	-0.081035666
173	0xbe81d74b	-0.25359568
174	0xbe09b9a8	-0.13449728
175	0x3c9faef5	0.019492606
176	0x3d50d396	0.050983034
177	0xbd8fed07	-0.07027631
178	0xbdda59cd	-0.106616594
179	0x3ecc2d59	0.39878348
180	0x3be70e10	0.007051237
181	0x3c9de81f	0.019275723
182	0xbe37e98d	-0.17960186
183	0x3db296f1	0.08720196
184	0xbd604330	-0.054751575
185	0x3e89bc4c	0.26901472
186	0xbe658ed9	-0.22417773
187	0x3cbe27e8	0.023212388
188	0x3d8e7f6b	0.06957897
189	0xbdade6f6	-0.08491318
190	0xbe16477f	-0.14675711
191	0xbe2feae7	-0.17179452
192	0x3d377e96	0.044798456
193	0xbe075a0d	-0.13217945
194	0xbd900969	-0.07033045
195	0x3d8e8c49	0.06960351
196	0x3d87ae4e	0.06625043
197	0xbe0d86ca	-0.13820949
198	0x3d7d547d	0.061848152
199	0xbde83259	-0.11337728
200	0x3e02c7d0	0.12771535
201	0x3e6ba2ab	0.23011272
202	0x3dd01eec	0.10162148
203	0x3d65e320	0.056124806
204	0xbdd8144e	-0.10550748
205	0x3ce0b05e	0.027427848
206	0x3e199a29	0.15000214
207	0x3ddf1019	0.10891742
208	0x3e1c93bb	0.1529073
209	0x3db6f50b	0.08933457
210	0xbdc512fa	-0.0962276
211	0x3e97dc35	0.29660192
212	0xbd924d04	-0.07143596
213	0xbd5f1f9e	-0.054473512
214	0x3da4cf72	0.080473796
215	0xbe532421	-0.20619251
216	0x3cbab69e	0.022792157
217	0x3e6bd527	0.2303053
218	0x3e08be91	0.13353945
219	0x3d50cec0	0.050978422
220	0x3d4617c0	0.048362494
221	0xbe44fb9b	-0.19236605
222	0xbe385cb0	-0.18004107
223	0x3bfbbc8c	0.0076823886
224	0xbe6bd5a4	-0.23030716
225	0xbdf0c220	-0.117557764
226	0x3dab0194	0.083499104
227	0xbe78ecfe	-0.24309155
228	0x3de9e8e0	0.114213705
229	0x3eb20007	0.34765646
230	0x3cb0325d	0.02150839
231	0xbd2276f4	-0.039664224
232	0xbcb2e1de	-0.021836217
233	0xbd0c321a	-0.034227468
234	0xbe34326e	-0.17597362
235	0x3e15250b	0.14564912
236	0xbdc7019c	-0.09717104
237	0x3e3930ee	0.18085071
238	0xbda48479	-0.0803308
239	0xbdd6b63a	-0.10483976
240	0xbc3e6475	-0.0116206305
241	0xbc745166	-0.014911985
242	0xbe69a0c3	-0.22815232
243	0x3e84b43d	0.2591876
244	0xbd81880a	-0.063247755
245	0xbe6d834c	-0.23194617
246	0xbd90e446	-0.0707479
247	0xbe6c4146	-0.23071775
248	0xbc8ac9f3	-0.016942
249	0x3e14f6d5	0.14547284
250	0x3d20cb28	0.039256245
251	0x3e106a83	0.14103131
252	0x3e2440c5	0.16040333
253	0xbde28bdb	-0.110618316
254	0x3d8966bb	0.067090474
255	0x3d14be73	0.03631444

weight_hh_l0_reverse f4 [128, 32]
0	0xbdc5c4ae	-0.09656654
1	0xbe2ffc1b	-0.17186014
2	0x3e0582f4	0.13038236
3	0xbe020461	-0.12696983
4	0x3e38998f	0.18027328
5	0x3d6767a4	0.056495324
6	0x3d25325d	0.040331233
7	0xbdb4e42b	-0.08832582
8	0x3d98dd0b	0.074640356
9	0xbd258514	-0.040410116
10	0x3cfa1b3a	0.03053056
11	0x3e0f14ba	0.1397275
12	0x3e8498dc	0.25897872
13	0x3e263d7c	0.16234392
14	0xbde1e559	-0.11030073
15	0xbdfbae8b	-0.12289151
16	0x3b260ec2	0.0025338386
17	0x3e093910	0.13400674
18	0xbc2a06af	-0.01037757
19	0xbe03dfa3	-0.1287828
20	0xbe08cc68	-0.13359225
21	0x3e05057e	0.12990376
22	0x3db97cab	0.09056982
23	0xbda56956	-0.08076732
24	0xbe18fc8b	-0.14940087
25	0x3c3f0c3b	0.011660631
26	0x3cd98dfd	0.026556963
27	0x3dcf41c4	0.10119966
28	0xbe05baaf	-0.13059495
29	0x3de3065b	0.110851966
30	0x3da05e8b	0.07830533
31	0xbc249c73	-0.010047066
32	0x3d5bcf32	0.053664394
33	0x3dc82608	0.09772879
34	0x3e51b9f3	0.2048109
35	0x3e10e60b	0.14150254
36	0x3e67a512	0.22621563
37	0xbce26cd9	-0.027639793
38	0x3c03abdc	0.00803658
39	0x3da01c8f	0.07817947
40	0x3eb4f043	0.35339555
41	0xbd99c655	-0.07508532
42	0x3e17f6e0	0.14840269
43	0x3df5f46c	0.120095104
44	0x3c91d028	0.017799452
45	0xbe20454f	-0.15651439
46	0x3d9ca287	0.07648187
47	0xbea02534	-0.31278384
48	0x3e375f83	0.17907529
49	0x3e8a1b26	0.26973838
50	0xbe339d4b	-0.17540471
51	0xbe596504	-0.2122994
52	0x3d25f19b	0.040513616
53	0xbdff4503	-0.12464335
54	0x3ec92d19	0.3929222
55	0xbe51fcb7	-0.2050656
56	0x3d1c9667	0.038229372
57	0xbd8cfc87	-0.06884103
58	0x3e005731	0.12533261
59	0x3c0d5f40	0.008628666
60	0x3e589257	0.21149574
61	0xbe409335	-0.18806155
62	0xbe2a4300	-0.16627121
63	0xbdbbed2d	-0.09176097
64	0xbdbf7361	-0.09348179
65	0xbe9c7edd	-0.3056554
66	0x3dc2a3e5	0.09503917
67	0x3c3b2b19	0.0114238495
68	0x3e3f6348	0.18690217
69	0x3ddd37d1	0.10801662
70	0xbdadbaa9	-0.08482868
71	0x3d9e8597	0.07740324
72	0x3e33f31f	0.17573212
73	0x3e2e58ae	0.17026016
74	0xbe351f86	-0.17687806
75	0xbdc4f359	-0.096167274
76	0x3be819b3	0.0070831417
77	0x3b57c002	0.0032920842
78	0x3d2a4cc3	0.041577112
79	0xbe353f76	-0.1769999
80	0x3e0b14a3	0.13582091
81	0xbe11dd14	-0.14244491
82	0x3c3db506	0.011578804
83	0x3d6cbd63	0.0577978
84	0x3cf49168	0.029854491
85	0x3d28850f	0.04114252
86	0xbe3a3e72	-0.18187883
87	0x3ccd1ca5	0.025038073
88	0x3dee57d2	0.11637844
89	0xbde2acd1	-0.11068118
90	0xbd87f29b	-0.0663807
91	0x3e03a503	0.12855916
92	0x3e709007	0.23492442
93	0x3d432345	0.047641058
94	0x3d3a9b13	0.045558047
95	0x3ce22b13	0.02760843
96	0x3e2f0877	0.17093073
97	0x3c045d4c	0.008078884
98	0x3eab957d	0.33512488
99	0xbdc32808	-0.0952912
100	0x3e3ad92e	0.1824691
101	0xbd533d42	-0.051572092
102	0xbad5e764	-0.001631957
103	0x3d309676	0.04311224
104	0x3de3df1b	0.11126538
105	0x3c5b1c7a	0.013373489
106	0x3e49b7b4	0.19698983
107	0xb92f7d75	-0.00016736037
108	0xbe35a407	-0.17738353
109	0xbda026d8	-0.07819909
110	0xbdf111cc	-0.117709726
111	0xbdd48787	-0.10377412
112	0xbd6fccbe	-0.058544867
113	0xbdd76a75	-0.10518352
114	0xbd4f1f25	-0.05056681
115	0xbe299649	-0.16561235
116	0x3e2a2e65	0.1661926
117	0xbe346b4f	-0.1761906
118	0xbc231218	-0.009953044
119	0xbd29cd6c	-0.04145567
120	0x3d7229fd	0.059122074
121	0xbd7d7521	-0.06187928
122	0xbe3540c0	-0.17700481
123	0xbcefb587	-0.029261364
124	0x3e95dee3	0.29271612
125	0xbd9a84f0	-0.07544887
126	0xbe1c9ce3	-0.15294223
127	0xbd9dfaeb	-0.077138744
128	0x3e3c4194	0.18384391
129	0xbe672775	-0.22573645
130	0x3e7130ef	0.23553823
131	0xbb13652c	-0.0022490723
132	0x3e4c64c5	0.19960316
133	0x3e9499f9	0.29023722
134	0x3ce53a76	0.027981978
135	0xbe122f37	-0.14275824
136	0x3e5a2d6c	0.2130639
137	0x3e07ba3c	0.13254637
138	0x3b8e21ad	0.0043375106
139	0x3e778469	0.24171604
140	0x3e06d13f	0.13165759
141	0x3dffd5e1	0.12491966
142	0x3da34179	0.07971472
143	0x3da975b1	0.08274401
144	0xbe74916f	-0.23883604
145	0xbdeded40	-0.116175175
146	0xbe516b06	-0.20450982
147	0xbd6b36cf	-0.057425316
148	0xbd42f2c3	-0.047594797
149	0x3a9a9787	0.0011794426
150	0xbdae1078	-0.08499235
151	0x3d06825a	0.032839157
152	0x3d2cd4bc	0.042195067
153	0x3d9939fc	0.07481763
154	0xbdc06596	-0.09394376
155	0x3e6384f4	0.22218686
156	0x3dc746fe	0.097303376
157	0x3e450d77	0.19243418
158	0x3dcd8fa7	0.10037165
159	0xbe0bede2	-0.13664964
160	0xbd1953dd	-0.037433494
161	0xbdcf48e7	-0.10121327
162	0x3d3b4037	0.045715537
163	0x3e41d413	0.18928556
164	0x3e8d39b9	0.275831
165	0x3e6ec24f	0.2331631
166	0xbc36766b	-0.0111366315
167	0xbd2da31a	-0.042391874
168	0x3e50fe55	0.2040952
169	0xbda467a5	-0.08027581
170	0xbd0bc933	-0.034127425
171	0x3ccf3288	0.02529265
172	0xbddc5d77	-0.107600145
173	0x3e3efb45	0.18650539
174	0xbdf90914	-0.12159935
175	0xbe233a72	-0.15940264
176	0x3e72faa9	0.23728432
177	0xbd01840d	-0.031620074
178	0xbe7c4dcb	-0.2463905
179	0x3e1edaef	0.15513204
180	0x3df15d4c	0.11785373
181	0x3ca30885	0.019901523
182	0x3e038e49	0.12847246
183	0xbd473319	-0.048632715
184	0xbdc7394e	-0.09727727
185	0xbe0ade65	-0.135614
186	0x3d897a3b	0.06712767
187	0x3de34ede	0.11099027
188	0xbc939e73	-0.01801989
189	0x3e4229b9	0.18961228
190	0xbdc605b1	-0.09669054
191	0xbcddbb53	-0.027066862
192	0x3db98a10	0.090595365
193	0xbd144b22	-0.036204465
194	0xbc106660	-0.008813471
195	0xbd1b9cd6	-0.037991367
196	0x3c71bc50	0.01475437
197	0x3dae24c8	0.08503109
198	0x3de5ee80	0.11227131
199	0xbe4213cf	-0.18952869
200	0x3cb1bd20	0.021696627
201	0xbccc39ca	-0.0249299
202	0x3dfe653e	0.12421654
203	0x3d38c178	0.04510638
204	0xbda179d7	-0.07884567
205	0xbe10a05d	-0.14123674
206	0x3cb03a75	0.02151225
207	0xbdda37d7	-0.10655182
208	0x3db30ee9	0.08743078
209	0xbe387fee	-0.18017551
210	0xbe44f94d	-0.19235726
211	0x3c8dc3df	0.017305313
212	0x3ccdd74a	0.025127072
213	0xbda57544	-0.08079007
214	0x3de2ec4c	0.11080226
215	0x3de4270d	0.11140261
216	0xbe1e2db7	-0.15447126
217	0xbe2dcd58	-0.16972864
218	0xbe1cc9a2	-0.15311292
219	0xbdd7cdde	-0.10537313
220	0x3c3ab9a3	0.011396798
221	0x3dfdf658	0.12400502
222	0xbe6240d5	-0.22095044
223	0xbe177994	-0.14792472
224	0xbdd37e5d	-0.10326836
225	0xbd9d6a37	-0.076862745
226	0x3d76fb08	0.060297996
227	0x3d49c2d6	0.049258076
228	0x3e732cf4	0.23747617
229	0x3e412fac	0.18865842
230	0xbe3fdd63	-0.18736796
231	0xbe6f88e2	-0.2339206
232	0x3e21cdb2	0.15801123
233	0x3e24b0dc	0.16083091
234	0x3d62fd17	0.055417147
235	0x3d10e1dc	0.035371646
236	0x3c490bd4	0.012270886
237	0x3e762bde	0.24040172
238	0xbcbd6c90	-0.023123056
239	0x3dff8b56	0.12477748
240	0x3d14803c	0.036255106
241	0x3ca9d7e7	0.020732833
242	0xbc96db40	-0.018415093
243	0xbe47d75a	-0.19515744
244	0xbd6385cc	-0.05554752
245	0xbd0ffb1e	-0.035151593
246	0xbe0fb34b	-0.14033239
247	0xbe0993a3	-0.13435225
248	0x3d3b3207	0.045702007
249	0x3d667c2d	0.056270767
250	0x3c849902	0.016186241
251	0x3e059460	0.13044882
252	0xbcceebbd	-0.025258893
253	0x3cf15af3	0.029462313
254	0x3dc08461	0.09400249
255	0xbd836212	-0.0641519

bias_ih_l0_reverse f4 [128]
0	0x3ddb6432	0.1071247
1	0xbd77faa1	-0.060541753
2	0x3e5cab36	0.21549687
3	0x3c799196	0.015232464
4	0x3d9e31a2	0.077243105
5	0xbdb7e679	-0.08979506
6	0x3df5bb2c	0.11998591
7	0x3dc130b2	0.09433116
8	0x3df9d11b	0.12198087
9	0x3e48f001	0.19622804
10	0xbdf0b92a	-0.11754067
11	0x3e1181b4	0.14209634
12	0x3e3690ea	0.17828718
13	0xbe04c699	-0.12966384
14	0xbdd54305	-0.104131736
15	0xbd33b61c	-0.043874845
16	0xbdf06b0d	-0.11739168
17	0xbd5475fc	-0.05187033
18	0x3e198ed3	0.1499589
19	0xbd9de2f6	-0.07709305
20	0x3e235342	0.15949729
21	0x3d2c8aba	0.042124487
22	0x3e8f4fda	0.2799061
23	0xbd690011	-0.05688483
24	0xbd488d82	-0.048963077
25	0xbc960173	-0.018311238
26	0x3e1fea24	0.15616661
27	0xbbf7d55e	-0.007563277
28	0x3c1ec241	0.009689868
29	0x3d09975c	0.033591613
30	0x3cf4d5f1	0.029887171
31	0xbd87b614	-0.066265255
32	0x3e1a46ea	0.15066114
33	0x3daeb24a	0.085301
34	0x3df9b4c6	0.12192683
35	0x3c22f63b	0.009946401
36	0x3e1b2474	0.15150625
37	0x3e271cab	0.1631953
38	0x3e209fa4	0.15685898
39	0xbdc16433	-0.094429396
40	0x3d9dbd4b	0.077021204
41	0xbb5d4d01	-0.0033767822
42	0x3e11d1b1	0.14240147
43	0x3d9535f6	0.07285683
44	0x3cf52293	0.029923713
45	0x3c40bfa4	0.011764441
46	0x3b9278d2	0.0044699693
47	0x3da3f3a6	0.080054566
48	0x3e4b7a3f	0.19870852
49	0x3e522a11	0.2052386
50	0x3c310954	0.010805447
51	0x3e4594c7	0.19295035
52	0xbc89cfc9	-0.016822712
53	0x3e2e1ed7	0.17003952
54	0x3e9197c4	0.284361
55	0x3daa1f21	0.083067186
56	0xbd3bbd38	-0.04583475
57	0x3e27319a	0.16327515
58	0x3e412248	0.18860734
59	0xbde0e5c9	-0.10981328
60	0x3ca63aee	0.020291772
61	0xbd07e47c	-0.033176884
62	0x3defe659	0.11713857
63	0x3d74ec04	0.059795395
64	0x3dcf9ca1	0.101372965
65	0x3e32657b	0.17421524
66	0xbe2a4d58	-0.16631067
67	0x3d446c8a	0.047955073
68	0x3d39a0cc	0.045319363
69	0xbdcf9a96	-0.10136907
70	0x3d5a4c8e	0.053295664
71	0xbccfe775	-0.025378922
72	0x3addef3a	0.0016932257
73	0x3d345c25	0.04403319
74	0x3de62d5a	0.11239119
75	0x3c8c434a	0.01712193
76	0x3bb00808	0.005372051
77	0x3d544190	0.051820338
78	0x3d4dec80	0.050274372
79	0xbdefc4c6	-0.117074534
80	0x3ddc8ef5	0.107694544
81	0xbd92eb81	-0.07173825
82	0x3da9ba9b	0.08287545
83	0xbe1c2438	-0.15248191
84	0x3cfaf88a	0.03063609
85	0xbd9c08b4	-0.076188475
86	0x3d8764dd	0.06611035
87	0xbe031945	-0.12802608
88	0xbde6bba9	-0.11266262
89	0x3d3d3e37	0.04620191
90	0xbdc3cad8	-0.09560174
91	0x3e09bc49	0.13450731
92	0x3de4365b	0.1114318
93	0xbdd5d7df	-0.10441565
94	0xbd8155c8	-0.063151896
95	0xbdfabc65	-0.12242965
96	0x3d2a88cf	0.041634377
97	0x3e7c5900	0.24643326
98	0x3e4791b5	0.19489177
99	0x3e13370f	0.14376472
100	0x3e77f3fc	0.24214166
101	0x3e3f4aa1	0.18680812
102	0x3e597b31	0.212384
103	0xbd957d2c	-0.07299265
104	0x3e2f05f3	0.17092113
105	0x3da8aa44	0.082356006
106	0xbdfe3640	-0.12412691
107	0x3cb32305	0.021867285
108	0x3b1527be	0.0022759284
109	0x3de197a5	0.11015252
110	0x3e12e0ab	0.14343517
111	0x3da912ef	0.082555644
112	0x3e3e409e	0.18579337
113	0xbd0b0148	-0.03393677
114	0xbdd796e6	-0.105268285
115	0x3c8536b0	0.016261429
116	0xbc3539e0	-0.011061162
117	0xbdeb50f7	-0.11490052
118	0x3e041ebc	0.12902349
119	0xbdbcdeec	-0.092222065
120	0xbe174fb6	-0.14776501
121	0xbd49be29	-0.049253616
122	0x3cd8ef84	0.026481397
123	0x3e18d608	0.14925396
124	0xbdda4711	-0.10658086
125	0xbd8368cd	-0.064164735
126	0x3e0d081d	0.13772626
127	0x3e2e47fc	0.17019647

bias_hh_l0_reverse f4 [128]
0	0xbddaa222	-0.10675456
1	0x3e320202	0.17383578
2	0xbd7c3c9d	-0.061581243
3	0x3e6a7816	0.22897372
4	0x3d6ab1ec	0.057298586
5	0xbd2241c1	-0.03961349
6	0xbbb8f2cf	-0.0056441794
7	0x3db92ae2	0.09041382
8	0x3e1cbe5f	0.15306996
9	0x3dad64cc	0.08466491
10	0x3c97c3ec	0.01852604
11	0x3e0dd026	0.13848934
12	0x3e3e5714	0.18587905
13	0x3d026551	0.031834904
14	0x3d7b25ff	0.061315533
15	0xbd274ce1	-0.0408448
16	0x3dd006ea	0.10157569
17	0xbd0190e7	-0.03163233
18	0x3c1d06d4	0.0095841475
19	0x3d088aef	0.033335622
20	0x3d62fe02	0.055418022
21	0x3da1e3f3	0.07904806
22	0x3d8350e8	0.06411916
23	0x3d91bad3	0.07115712
24	0x3d021910	0.031762183
25	0x3e4faec2	0.20281509
26	0xbd9d77f3	-0.07688894
27	0xbd4f47b0	-0.050605476
28	0x3e30186a	0.17196813
29	0x3ca7ebfb	0.020498266
30	0x3d27def7	0.04098412
31	0x3e13c171	0.14429261
32	0xbd92bdb0	-0.07165086
33	0xbd6fb480	-0.058521748
34	0x3deeb538	0.116556585
35	0x3d13015d	0.035889972
36	0xbd4b4057	-0.049621906
37	0x3e760b54	0.24027759
38	0xbe0580ab	-0.13037364
39	0x3e28863e	0.1645746
40	0x3dddbd72	0.108271495
41	0xbdfdb4ee	-0.12388025
42	0x3def1d7d	0.11675546
43	0x3d9de16d	0.07709012
44	0x3e2319af	0.15927766
45	0xbdc048db	-0.09388896
46	0xbcb5b08a	-0.022178907
47	0x3e17f892	0.14840916
48	0xbd8d0157	-0.06885021
49	0x3e322760	0.17397833
50	0x3e2738bf	0.1633024
51	0xbcf6ba70	-0.030118197
52	0x3e13939c	0.14411777
53	0x3e2ff4cc	0.17183226
54	0x3e3d4466	0.18483123
55	0x3c2fb48e	0.0107242
56	0x3df0bb9f	0.11754536
57	0x3e330f92	0.17486408
58	0x3c4d9076	0.012546649
59	0x3e11bf9c	0.1423325
60	0xbdddd12d	-0.10830913
61	0xbd941c73	-0.07231989
62	0xbd5458a8	-0.05184236
63	0x3d130b7d	0.035899628
64	0x3e02899b	0.12747805
65	0xbe02d0da	-0.12774983
66	0x3e0188f8	0.12649906
67	0xbd90bd50	-0.070673585
68	0x3c5d61db	0.0135121
69	0x3e149b36	0.14512333
70	0x3d2f4302	0.042788513
71	0xbddae3a4	-0.1068795
72	0x3dcdaf5d	0.100432135
73	0xbd18c65a	-0.037298538
74	0x3c81e19a	0.015854646
75	0x3dbeee30	0.093227744
76	0xbd4a3bc4	-0.049373403
77	0xbce29cb3	-0.02766261
78	0xbd10b308	-0.035326988
79	0xbcb60bcc	-0.022222422
80	0xbe4ca96d	-0.19986506
81	0x3dfab2df	0.12241148
82	0x3d2df7d3	0.04247267
83	0x3e1225b8	0.14272201
84	0x3e1be258	0.15223062
85	0xbe14685f	-0.1449294
86	0xbe0bb22c	-0.13642186
87	0xbd889e2d	-0.06670795
88	0xbdb8e4d9	-0.09028024
89	0xbda60293	-0.0810596
90	0x3a58be4e	0.00082681037
91	0x3d151cd4	0.036404446
92	0x3ddfb83b	0.10923811
93	0x3d5dd7cd	0.05416088
94	0xbd9ad635	-0.07560388
95	0xbe1a6953	-0.1507924
96	0x3e248346	0.16065702
97	0xbd9309cc	-0.07179603
98	0x3e4907c7	0.19631873
99	0xbda5a4c1	-0.08088065
100	0x3de5a5db	0.11213275
101	0x3db7c12b	0.08972391
102	0xbe0694f9	-0.13142766
103	0xbd1e5bfa	-0.038661934
104	0x3dc8fa2c	0.098133415
105	0x3e0a48fe	0.13504407
106	0xbc9ebd31	-0.019377323
107	0xbdf04bca	-0.117332056
108	0x3b606a9d	0.0034243234
109	0xbbf9f587	-0.007628146
110	0xbddd42bb	-0.108037435
111	0x3e322129	0.17395462
112	0x3e327eb8	0.17431152
113	0xbd444816	-0.04792031
114	0xbd6cbfb2	-0.057800002
115	0x3c5a58ea	0.013326863
116	0x3e1cf844	0.15329081
117	0x3cef13d2	0.029184256
118	0x3e33572e	0.17513725
119	0x3d94ebf8	0.0727157
120	0x3db2fad7	0.0873925
121	0x3e1cdc8e	0.1531851
122	0x3d22c45c	0.039738044
123	0xbc612658	-0.013742052
124	0xbdb1c757	-0.08680599
125	0xbd5342a7	-0.051577237
126	0x3e0f91a2	0.14020398
127	0x3e5f398a	0.21799293
