m6A_BERT_Stacking/Resnet/model_pth/r_k_bilstm.pth (torch, 69975 bytes, 13 tensors)

weight f4 [64, 16]
0	0xbeda54c0	-0.42642784
1	0xbf1d0ca0	-0.6134739
2	0x3f3a523c	0.7278173
3	0x3f229436	0.635074
4	0xbd39fae0	-0.04540527
5	0x3eb79bc4	0.35861027
6	0x3e294c68	0.16533053
7	0xbed35408	-0.41275048
8	0x3e8d6c28	0.2762158
9	0xbf318ff4	-0.6936028
10	0x3dd1f6e0	0.10252166
11	0x3f51c182	0.81935894
12	0xbf69eba4	-0.91375184
13	0x3f4f98fa	0.810928
14	0x3f1d7c1e	0.6151751
15	0x3d8ffe10	0.070308805
16	0xbeb4ba16	-0.35298222
17	0xbe004fed	-0.1253049
18	0xbe898625	-0.26860157
19	0x3f1cee3d	0.6130102
20	0xbf608905	-0.87709075
21	0xbf3d5d8d	-0.7397087
22	0x3f37295c	0.71547484
23	0x3f50bb65	0.8153594
24	0xbf5634a9	-0.83674103
25	0x3f1fe9e5	0.6246627
26	0x3f74f899	0.9569183
27	0xbf2fa2f6	-0.68608034
28	0x3e6085ba	0.21926013
29	0xbed561fd	-0.41676322
30	0x3d9f5feb	0.07781967
31	0x3f3fee9c	0.74973464
32	0x3db665db	0.08906146
33	0x3eaa7ea9	0.3329976
34	0x3f3e1973	0.7425758
35	0x3e95f405	0.29287735
36	0x3f175735	0.5911744
37	0xbeb8ea1a	-0.36116105
38	0xbf5fc5a9	-0.8741098
39	0x3ee057ae	0.43816894
40	0x3f3c64e0	0.73591423
41	0xbf497aae	-0.7870282
42	0x3f1872f5	0.5955041
43	0xbd0855da	-0.033285
44	0x3f4a2f37	0.78978294
45	0x3e4234e5	0.1896549
46	0xbecd0030	-0.40039206
47	0xbe5a0d25	-0.21294077
48	0x3e98199e	0.29707044
49	0x3e0fe2bc	0.14051336
50	0xbf6b2477	-0.91852516
51	0x3f41142d	0.7542141
52	0xbf5c09ee	-0.8595265
53	0xbf67fdcc	-0.9062164
54	0xbe8b498c	-0.2720455
55	0xbd9dafaf	-0.076995246
56	0xbf12b9e9	-0.57314926
57	0xbd95b5d1	-0.07310069
58	0x3f4a7c41	0.79095846
59	0x3f0432f4	0.5164025
60	0xbf85513f	-1.0415419
61	0xbed3adde	-0.41343588
62	0xbf570764	-0.8399565
63	0xbf81f5c6	-1.0153129
64	0x3ec14a71	0.37752107
65	0xbefcc63a	-0.49369985
66	0x3f1ccb23	0.6124746
67	0x3ef17468	0.47159123
68	0xbf83844d	-1.027475
69	0xbf683d58	-0.90718603
70	0xbeb06cc4	-0.34457982
71	0xbe0deb01	-0.13859178
72	0xbf24b932	-0.64345086
73	0x3f83e20c	1.0303359
74	0x3f369a40	0.71329117
75	0x3f61bf73	0.88182753
76	0x3e9e31a1	0.3089724
77	0xbf0c7df8	-0.54879713
78	0x3f4c1708	0.7972264
79	0x3f5fc0d1	0.8740359
80	0xbea9bb57	-0.3315074
81	0xbf8779e0	-1.0584068
82	0xbea68bf5	-0.32528654
83	0xbeca2343	-0.39480028
84	0xbd2713e2	-0.040790446
85	0xbf0a1b34	-0.5394776
86	0xbf32c81b	-0.69836587
87	0x3ee45ba4	0.44601166
88	0x3d829c3c	0.063774556
89	0xbea3e1ab	-0.32008108
90	0xbe517ffa	-0.20458975
91	0xbdb8b331	-0.09018553
92	0x3e549e2e	0.20763466
93	0x3f1d0797	0.61339706
94	0xbefe96f8	-0.49724555
95	0x3f026bfa	0.5094601
96	0x3e7210bc	0.23639196
97	0xbef3a5fb	-0.4758757
98	0xbd128545	-0.035771627
99	0xbefcd43b	-0.4938067
100	0xbd2a4ed6	-0.04157909
101	0x3e38a532	0.18031767
102	0xbf171138	-0.5901065
103	0x3e0dc778	0.13845623
104	0x3f18e586	0.59725225
105	0xbf5008ef	-0.8126363
106	0x3f8ef23b	1.1167673
107	0xbf92f59e	-1.1481206
108	0x3ebdf3d1	0.3710008
109	0x3c9687d7	0.01837532
110	0xbea26c7b	-0.3172339
111	0x3f9d7c4c	1.2303557
112	0x3f1ca224	0.61184907
113	0xbeacb3a8	-0.33730817
114	0x3ef20519	0.47269514
115	0x3ee94946	0.45563716
116	0x3d7e873a	0.06214068
117	0xbf31c280	-0.6943741
118	0x3edbfa18	0.42964244
119	0x3e8c2a38	0.2737596
120	0xbda26820	-0.079300165
121	0xbea0c905	-0.31403366
122	0xbf41165a	-0.7542473
123	0xbec33308	-0.3812487
124	0x3f3fe75a	0.7496239
125	0xbeee075d	-0.46489993
126	0x3eff986a	0.4992097
127	0xbf5b1a53	-0.8558704
128	0x3ed10c17	0.40829536
129	0x3eeb58a8	0.45966077
130	0xbf5b5305	-0.8567355
131	0x3c19b851	0.009382323
132	0x3ebad550	0.3649087
133	0xbf516a55	-0.81802875
134	0xbf528670	-0.82236385
135	0x3f718bad	0.94353753
136	0xbf4ec312	-0.80766404
137	0xbf2bdb98	-0.6713195
138	0xbf04a967	-0.5182099
139	0x3f705ea8	0.93894434
140	0xbe99242c	-0.2991041
141	0xbe22920b	-0.15876023
142	0x3f7c1082	0.9846269
143	0x3f5ad8e9	0.8548723
144	0xbf89e67f	-1.0773467
145	0xbeee1ca7	-0.46506235
146	0x3f165f9d	0.58739644
147	0x3f16b300	0.5886688
148	0x3f036b16	0.51335275
149	0x3c4d76d8	0.012540542
150	0x3f8475ad	1.0348412
151	0xbf3069a0	-0.6891117
152	0xbefc7d83	-0.49314508
153	0xbeca1ac0	-0.39473534
154	0x3c0533dc	0.00813004
155	0x3f11c133	0.56935424
156	0x3f7ef72b	0.995959
157	0xbf031819	-0.51208645
158	0xbd7f076e	-0.062262945
159	0x3ec47588	0.3837092
160	0xbf53e012	-0.8276378
161	0xbde6e2e1	-0.112737425
162	0xbf19bf12	-0.60057175
163	0x3f7392e6	0.95146024
164	0xbe5f915e	-0.21832797
165	0x3f20ad4e	0.6276444
166	0x3e0e0f26	0.13872966
167	0x3e46ebfe	0.19425961
168	0xbde7ec83	-0.11324408
169	0x3f2b52a6	0.66922987
170	0xbe411934	-0.1885727
171	0x3ed7d93f	0.42157933
172	0x3e238bfa	0.15971366
173	0x3f80481e	1.0022008
174	0xbf059b41	-0.52190024
175	0xbf78c7bd	-0.97179776
176	0xbd6106c9	-0.05493811
177	0x3db0d18e	0.086337194
178	0xbea5d7d7	-0.32391235
179	0x3f182409	0.59429985
180	0x3f734931	0.95033556
181	0x3f0eecb7	0.5582995
182	0xbe4fd44f	-0.20295833
183	0x3f669ea9	0.90085846
184	0x3efcbfa1	0.4936495
185	0xbf73abbf	-0.9518394
186	0xbf05515e	-0.5207728
187	0x3f5dddc6	0.86666524
188	0x3f256cf3	0.6461937
189	0x3f4f4149	0.8095899
190	0x3f0393c7	0.51397365
191	0xbe64ce84	-0.22344404
192	0xbf25912d	-0.64674646
193	0x3eca30d6	0.39490384
194	0xbe9cb7ef	-0.3060908
195	0xbf2595c1	-0.6468163
196	0xbd2ca2f0	-0.042147577
197	0xbec4ad27	-0.38413355
198	0x3d08a350	0.033358872
199	0xbf72bcc8	-0.9481931
200	0xbe8652d3	-0.26235065
201	0x3d847cde	0.06469129
202	0x3eaf367c	0.34221256
203	0x3f20e300	0.62846375
204	0xbece5c8a	-0.40304977
205	0x3f853816	1.0407741
206	0xbf571b6d	-0.84026223
207	0x3d8336af	0.064069144
208	0xbf6dbb2c	-0.92863727
209	0x3edb3e87	0.42821142
210	0xbe6fb571	-0.23409058
211	0x3e6c8cb9	0.23100556
212	0x3edb623f	0.42848393
213	0xbf302706	-0.68809545
214	0x3f233ab8	0.6376147
215	0x3f21f522	0.6326467
216	0xbf2c5f44	-0.67332864
217	0xbe662b23	-0.22477393
218	0xbe7431e0	-0.23847151
219	0x3d7a0e49	0.06104878
220	0x3e0b5119	0.13605155
221	0xbd54e660	-0.051977515
222	0xbe887ba9	-0.26656845
223	0x3da49d61	0.0803783
224	0x3de8d537	0.113687925
225	0x3e02b9f2	0.12766245
226	0x3ec9a3e0	0.3938284
227	0xbe24bbb1	-0.16087224
228	0xbed8fda8	-0.42381024
229	0x3f23d385	0.6399463
230	0x3f5bfde4	0.8593428
231	0xbd0a5cc6	-0.033779882
232	0x3eb89061	0.36047652
233	0xbdcd3654	-0.10020128
234	0xbedc049e	-0.42972273
235	0x3f0450b0	0.5168562
236	0xbede2ac0	-0.4339199
237	0xbb56d634	-0.0032781484
238	0x3e0ccd7b	0.1375026
239	0xbf2a7eec	-0.6659992
240	0xbeee3d7c	-0.46531284
241	0xbe91b14a	-0.28455573
242	0x3f4d6709	0.80235344
243	0x3f2bf900	0.6717682
244	0x3ddccc5e	0.107811674
245	0xbe0e7f46	-0.13915738
246	0xbf839704	-1.0280461
247	0x3eac5c9d	0.33664408
248	0x3f584491	0.84479624
249	0xbd7ab7a3	-0.061210286
250	0xbf3ccbd3	-0.7374851
251	0x3f654b7f	0.8956832
252	0x3f3d9e49	0.7406965
253	0xbe18e57a	-0.14931288
254	0x3c629ce6	0.013831353
255	0xbea4da09	-0.32197598

weight_ih_l0 f4 [128, 16]
0	0x3e1015b9	0.14070787
1	0xbe05bd12	-0.13060406
2	0xbd826f03	-0.0636883
3	0x3e956206	0.29176348
4	0xbca5541b	-0.020181706
5	0xbdba732b	-0.09103998
6	0xbdb242fe	-0.08704184
7	0xbe1b6ba2	-0.15177777
8	0xbe6f0c81	-0.23344614
9	0x3e1eb364	0.1549812
10	0x3e993c93	0.29929027
11	0x3dac4499	0.084115215
12	0xbd536407	-0.051609065
13	0xbd24710a	-0.040146865
14	0xbd2976a4	-0.04137291
15	0x3e84bc07	0.25924703
16	0xbe3a2f5c	-0.18182129
17	0xbe164784	-0.14675719
18	0x3d3f7c26	0.046749257
19	0x3ec63036	0.38708657
20	0x3d294100	0.041321754
21	0xbe4dbdca	-0.2009193
22	0xbe046651	-0.12929656
23	0xbe1b91a7	-0.1519228
24	0xbe6f78a0	-0.23385859
25	0x3c6e5c46	0.014548367
26	0x3d5c8329	0.05383602
27	0xbc07de5e	-0.008292763
28	0x3d430c0f	0.04761892
29	0x3df466f6	0.11933701
30	0x3de3058e	0.11085044
31	0x3dd88e03	0.105739616
32	0x3dce69e9	0.100787945
33	0xbe168a6f	-0.14701246
34	0xbc06f78e	-0.008237733
35	0xbe74d84b	-0.23910634
36	0xbd259fd2	-0.04043562
37	0x3ca4fbf9	0.020139681
38	0x3ec32a7c	0.3811835
39	0xba8d1dd8	-0.001076634
40	0xbd60522b	-0.05476586
41	0xbd38d692	-0.045126505
42	0xbe8ad29e	-0.27113813
43	0xbbea5912	-0.0071517313
44	0xbe32ca64	-0.17460018
45	0xbe733830	-0.23751903
46	0x3d1deebf	0.038557764
47	0xbe8a9735	-0.27068487
48	0x3e0f73b2	0.14008978
49	0xbe6451ad	-0.22296782
50	0xbd4c8e12	-0.049940176
51	0x3e82ea9c	0.25569618
52	0xbecf7667	-0.4052002
53	0xbe000f6f	-0.12505887
54	0xbd1f6cac	-0.038921997
55	0xbdfea001	-0.12432862
56	0xbc336a17	-0.010950587
57	0x3ea189e3	0.31550512
58	0x3e15580d	0.1458437
59	0x3e2dca0e	0.16971609
60	0x3df0e851	0.11763061
61	0xbe0d0a02	-0.13773349
62	0x3e67110d	0.22565098
63	0xbdf9125d	-0.12161706
64	0x3da3d8c4	0.08000329
65	0xbd6e00b5	-0.058106143
66	0xbe5ca58c	-0.21547526
67	0xbda5e3bc	-0.081000775
68	0xbe8589ab	-0.26081595
69	0x3d6c9c8b	0.05776648
70	0xbd17d641	-0.037069563
71	0xbe2fc799	-0.17165984
72	0x3e42b019	0.19012488
73	0x3dbde2b1	0.092717536
74	0x3d766a59	0.060160015
75	0xbd105242	-0.035234697
76	0xbde2dc60	-0.110771894
77	0xbdbffba5	-0.09374169
78	0x3d4aaa73	0.04947896
79	0xbd15073e	-0.03638386
80	0xbe87b76f	-0.26507136
81	0x3d206426	0.03915801
82	0xbd86c6db	-0.065808974
83	0xbd495626	-0.049154423
84	0xbdb47945	-0.08812193
85	0x3e35d1aa	0.17755762
86	0x3eaaa838	0.33331466
87	0xbd718fd9	-0.058975074
88	0xbe3ae629	-0.18251862
89	0x3dc3e158	0.09564465
90	0x3bc3efd5	0.005979518
91	0x3e2e0f23	0.16997962
92	0x3dc882a3	0.09790542
93	0xbc9f4871	-0.019443722
94	0xbe81d079	-0.25354365
95	0xbbe566f9	-0.0070008007
96	0xbdd07a17	-0.10179537
97	0xbe1d3863	-0.15353541
98	0x3d85ec5f	0.06539225
99	0x3dfd9241	0.12381411
100	0x3dd0d66b	0.10197147
101	0x3d6346d3	0.055487465
102	0x3e056da0	0.130301
103	0x3d4c930a	0.049944915
104	0xbdca256c	-0.09870419
105	0x3dc2b898	0.09507865
106	0x3d98cca6	0.074609086
107	0xbd107d6c	-0.03527586
108	0xbd181099	-0.037125204
109	0xbd280939	-0.04102442
110	0x3d2d49b4	0.042306617
111	0x3dfb78f2	0.12278928
112	0x3d9e8ea7	0.077420525
113	0xbdc1da44	-0.09465459
114	0x3dbad6a5	0.091229714
115	0x3dee6a08	0.116413176
116	0xbdedbd89	-0.116084166
117	0xbe739bf7	-0.23789965
118	0xbde4252b	-0.11139902
119	0x3cd836ba	0.026393283
120	0x3d90d849	0.07072503
121	0x3ee3289b	0.44366917
122	0xbe05c78b	-0.13064401
123	0x3c332b87	0.010935671
124	0x3ca9ca75	0.020726422
125	0xbd30dddf	-0.043180343
126	0x3da85dc6	0.08221011
127	0xbc15ff92	-0.009155171
128	0xbcf10b82	-0.029424433
129	0xbe48be86	-0.19603929
130	0xbdc387ac	-0.09547362
131	0xbe90fc0f	-0.28317305
132	0x3c9aaffe	0.018882748
133	0x3de568dd	0.11201642
134	0xbe072d53	-0.13200884
135	0xbca9698a	-0.020680208
136	0x3d98f301	0.07468224
137	0x3e1a68fb	0.1507911
138	0x3c730820	0.01483348
139	0xbd488206	-0.048952125
140	0x3d0406bb	0.03223298
141	0xbe2643b6	-0.16236767
142	0xbd8766c1	-0.066113956
143	0x3da6db12	0.08147253
144	0x3d00998f	0.031396445
145	0xbdb29f4c	-0.0872179
146	0x3e5c3165	0.21503218
147	0xbd1603c3	-0.03662468
148	0x3d3ea3ba	0.04654286
149	0xbdc43e52	-0.09582199
150	0xbd66af85	-0.056319732
151	0x3d0f6269	0.03500596
152	0x3e1a6ef8	0.15081394
153	0x3de31f1c	0.11089918
154	0xbb115ac7	-0.0022179352
155	0x3de34abe	0.1109824
156	0xbdd00836	-0.10157816
157	0xbe226bfd	-0.15861507
158	0x3e06a4a2	0.1314874
159	0x3dfe5784	0.12419036
160	0x3ddfdd99	0.10930938
161	0xbd565ec0	-0.052336454
162	0xbd44614e	-0.04794436
163	0x3c6433e5	0.013928388
164	0xbde652ae	-0.11246239
165	0xbd65bfc7	-0.056091096
166	0xbd20e713	-0.03928287
167	0x3dbe31f9	0.09286875
168	0x3ab190c7	0.0013547175
169	0x3e822864	0.2542144
170	0x3d0329e3	0.03202237
171	0xbdfb73be	-0.122779354
172	0xbd7aa2ce	-0.06119042
173	0xbdda44ea	-0.106576756
174	0x3ca6495d	0.020298654
175	0x3c6035b8	0.013684683
176	0xbdaaeda7	-0.0834611
177	0x3e0377ea	0.12838712
178	0xbe835493	-0.25650463
179	0xbe8f3204	-0.27967846
180	0xbe1e2fd7	-0.15447937
181	0x3e51d256	0.20490393
182	0x3e222fa6	0.15838489
183	0xbe5f4ed3	-0.21807413
184	0x3e0ee573	0.13954715
185	0x3c51b6dc	0.012799945
186	0x3dc05964	0.0939205
187	0xbdf5e39b	-0.12006303
188	0xbde2c152	-0.11072029
189	0xbe1b1bda	-0.15147343
190	0x3e7c1449	0.24617113
191	0x3e354c27	0.17704831
192	0xbd8d96c8	-0.06913525
193	0x3c987870	0.018612117
194	0x3e371a29	0.17881073
195	0xbe9dda28	-0.30830503
196	0xbd06659d	-0.03281175
197	0x3daea0ff	0.08526801
198	0x3e4d3c1f	0.20042466
199	0xbd7ec4b6	-0.062199317
200	0x3db0643d	0.08612869
201	0x3c7c8b8c	0.01541413
202	0xbdc768b2	-0.09736766
203	0xbe02249a	-0.12709275
204	0x3e8cacd3	0.27475604
205	0xbc9041d8	-0.017609522
206	0xbc489923	-0.012243542
207	0xbdf1fe01	-0.118160255
208	0xbd1cf5d0	-0.038320363
209	0xbe91f795	-0.28509203
210	0x3e28950a	0.16463104
211	0x3d8a3a55	0.06749407
212	0x3ddaf4d5	0.10691229
213	0x3c759cfd	0.014991042
214	0xbe3b7cfc	-0.18309397
215	0x3e280225	0.16407068
216	0x3dd54479	0.10413451
217	0x3d9b2dc2	0.07577087
218	0x3e09fc54	0.13475162
219	0x3df9f434	0.12204781
220	0x3d97e098	0.07415885
221	0x3cf7137d	0.03016066
222	0x3e0e9b08	0.13926327
223	0x3e17dce8	0.14830363
224	0xbdfd4ba5	-0.12367944
225	0xbc9b7cf3	-0.018980479
226	0xbd77502c	-0.060379192
227	0x3eeffaa7	0.4687092
228	0xbde9e0a0	-0.11419797
229	0xbe1fe0c5	-0.15613087
230	0x3da1e733	0.07905426
231	0xbe8ffef4	-0.281242
232	0xbe1d0ba0	-0.15336466
233	0x3e858efa	0.26085645
234	0xbcc3e866	-0.023914527
235	0xbe0ee616	-0.13954958
236	0x3de88820	0.11354089
237	0x3c890e89	0.016730564
238	0xbe20df48	-0.15710175
239	0x3dccabf5	0.09993736
240	0x3cc6a678	0.0242493
241	0xbe58e0cd	-0.21179505
242	0x3e357bd2	0.17723015
243	0xbe9e9b32	-0.3097778
244	0xbdd75fd6	-0.10516326
245	0x3c7480f5	0.014923324
246	0x3db7a6d5	0.089673676
247	0x3e43aaba	0.19108096
248	0xbe34c17f	-0.17651938
249	0xbe15d165	-0.14630659
250	0xbd8154e5	-0.063150205
251	0x3e4d41c0	0.20044613
252	0x3df157a3	0.117842935
253	0xbc40a31a	-0.011757636
254	0x3ed02eb2	0.40660626
255	0x3ebb4514	0.3657614

weight_hh_l0 f4 [128, 32]
0	0xbe74cd40	-0.23906422
1	0x3b7d7ba5	0.0038678434
2	0xbd85bccc	-0.06530151
3	0x3e29bd06	0.16576013
4	0xbd8712f4	-0.06595412
5	0xbcbe209e	-0.023208912
6	0x3df6dd3c	0.12053916
7	0xbf0a61bc	-0.5405538
8	0xbd059e1c	-0.032621488
9	0x3c129656	0.008946976
10	0xbe20ac1d	-0.15690656
11	0xbda791a5	-0.08182076
12	0xbc876d3f	-0.016531585
13	0xbd83cd20	-0.06435609
14	0xbd413c0c	-0.047176406
15	0x3e940598	0.28910518
16	0x3dca270b	0.09870728
17	0xba94b5f0	-0.0011345726
18	0x3dd3c1de	0.103397116
19	0xbd819782	-0.06327726
20	0x3eb49307	0.35268423
21	0x3d986fee	0.07443224
22	0x3dfb5412	0.122718945
23	0x3e03dd73	0.12877445
24	0xbd4c6bac	-0.04990737
25	0x3c66feca	0.014098832
26	0x3df1f65e	0.11814569
27	0x3cc4c05c	0.024017505
28	0x3e5b5f04	0.21422964
29	0xbe07c712	-0.13259533
30	0x3d1b35bd	0.037893046
31	0x3e25b6ed	0.16183062
32	0xbd4b42a3	-0.049624097
33	0xbe0f3f62	-0.13989022
34	0x3c158079	0.009124869
35	0x3e473d2b	0.19456927
36	0xbe2a0330	-0.16602778
37	0xbdbc04aa	-0.09180577
38	0xbe4937c9	-0.19650187
39	0xbe080093	-0.13281469
40	0xbe16057a	-0.14650527
41	0x3d458658	0.048223823
42	0x3dd7c591	0.1053573
43	0x3c927dbc	0.01788222
44	0xbcf0972d	-0.029368961
45	0x3ae938cf	0.001779342
46	0x3defcc9d	0.11708949
47	0x3eab8a2e	0.3350386
48	0x3c8f4797	0.017490191
49	0x3e8dfcf6	0.27732056
50	0x3dc2d686	0.09513573
51	0x3be0145a	0.0068383636
52	0x3e607f2b	0.2192351
53	0x3e5f1558	0.21785486
54	0x3e1092ba	0.14118472
55	0xbda2669c	-0.079297274
56	0x3d417a21	0.04723561
57	0x3e290089	0.1650411
58	0x3e5e9a66	0.21738586
59	0xbe47512a	-0.19464555
60	0xbdcb2544	-0.09919217
61	0xbe02515a	-0.12726346
62	0xbde1979c	-0.11015245
63	0x3c91c76c	0.017795287
64	0x3cc14a0f	0.023594884
65	0xbde21fdd	-0.11041234
66	0x3cedaea6	0.029013943
67	0xbdbb06fe	-0.09132193
68	0x3d011bf1	0.031520788
69	0x3cc0a9d6	0.023518484
70	0xbb122182	-0.0022297804
71	0x3e04189a	0.1290001
72	0xbc24d8b5	-0.010061433
73	0x3e2f8592	0.17140797
74	0x3d99248c	0.07477674
75	0xbd84a3a1	-0.06476522
76	0x3d93e2fa	0.07221027
77	0x3e230ce7	0.1592289
78	0x3eaff216	0.34364384
79	0xbdb9a022	-0.09063746
80	0xbe028435	-0.12745745
81	0x3dd9da35	0.10637323
82	0x3e1b7e24	0.15184838
83	0xbe3e9fcf	-0.1861565
84	0x3e553bc1	0.20823576
85	0xba441daa	-0.0007481227
86	0x3e42888a	0.18997398
87	0xbe3ba139	-0.1832322
88	0xbe8028b3	-0.2503105
89	0xbdf3014c	-0.11865482
90	0xba91e534	-0.001113093
91	0x3db5c10a	0.0887471
92	0xbe3c6d1c	-0.18400997
93	0xbe1ac7e6	-0.15115318
94	0xbdac10d4	-0.08401647
95	0x3bdebd87	0.0067974958
96	0xbcc60a1a	-0.024174739
97	0x3bcc0ff8	0.0062274896
98	0xbcbafb75	-0.022824982
99	0xbcf245c2	-0.029574279
100	0xbe7d40d6	-0.24731764
101	0xbe0f3496	-0.13984904
102	0x3d70445c	0.058658943
103	0xbe0caaa2	-0.13736966
104	0xbe864b1f	-0.26229188
105	0xbd96367f	-0.07334613
106	0x3d439749	0.0477517
107	0xbe37b8ef	-0.1794164
108	0xbddec2e1	-0.10877014
109	0xbe2c13c4	-0.16804415
110	0x3dc4bf35	0.09606782
111	0x3eac5b40	0.33663368
112	0x3deba32e	0.115057334
113	0xbd2c7fc3	-0.04211403
114	0x3e6ccfeb	0.2312619
115	0xbd9875a2	-0.07444312
116	0x3e3124ac	0.17299145
117	0x3d9825a5	0.07429055
118	0xbdddddef	-0.10833346
119	0x3d1bc9d9	0.038034294
120	0x3decb6a8	0.115582764
121	0x3dbd4ca4	0.09243134
122	0x3e3aee58	0.18254983
123	0xbe36c208	-0.17847455
124	0xbe0646b8	-0.13112915
125	0xbe1f24c6	-0.15541372
126	0xbe0489a1	-0.12943126
127	0x3d8ba09b	0.068177424
128	0x3db3d557	0.08780926
129	0xbdb40892	-0.08790697
130	0xbdba17b3	-0.090865515
131	0xbc282a1d	-0.010263947
132	0xba086a78	-0.00052038534
133	0xbda49aa4	-0.08037308
134	0x3e2371da	0.159614
135	0x3dd9315b	0.10605117
136	0xbd89392d	-0.067003585
137	0xbcae4fc2	-0.021278266
138	0x3e0424a1	0.12904598
139	0xbd508d24	-0.050915852
140	0xbdb0ac7c	-0.08626649
141	0xbe527716	-0.2055324
142	0x3d19ec82	0.037579067
143	0xbde9ad24	-0.11409977
144	0x3e11df91	0.1424544
145	0x3ce792dc	0.02826827
146	0xbb73193e	-0.0037093903
147	0xbb63c732	-0.003475618
148	0xbcbac2ff	-0.02279806
149	0xbc7aa93e	-0.01529914
150	0xbdac51c1	-0.08414031
151	0xbd977df4	-0.073970705
152	0x3e582bd4	0.21110469
153	0xbdee2cfb	-0.11629673
154	0xbdb5e2f6	-0.0888118
155	0x3cc994c8	0.024607077
156	0x3e5af36f	0.21381925
157	0x3d471c65	0.048611064
158	0x3e543651	0.20723845
159	0x3e4fa50a	0.20277801
160	0xbd725b30	-0.059168994
161	0xbe80439e	-0.25051588
162	0xbe845d72	-0.25852543
163	0xbcc0f961	-0.023556413
164	0x3ced2569	0.028948503
165	0x3cce0829	0.025150375
166	0xbdef853e	-0.11695336
167	0xbe9ae1d5	-0.3025042
168	0x3c6cec62	0.014460655
169	0xbddc94af	-0.10770547
170	0xbe1c8aba	-0.15287295
171	0x3dcc4459	0.09973974
172	0xbdd3649c	-0.10321924
173	0x3d115cda	0.03548894
174	0xbd7a5e7c	-0.061125264
175	0x3e8e5063	0.27795705
176	0x3c9ea5c2	0.019366149
177	0xbb2d7922	-0.0026469906
178	0xbd5b2ee5	-0.05351152
179	0x3da3c9fb	0.07997509
180	0x3e0ec444	0.13942057
181	0x3da6c9f1	0.08143986
182	0xbdd5cb7c	-0.10439202
183	0x3cc174de	0.023615297
184	0xbe1c3b81	-0.15257074
185	0x3e5a418f	0.21314071
186	0x3d7e1c0f	0.062038478
187	0x3de080eb	0.10962089
188	0x3e348c7f	0.1763172
189	0xbe5e71bf	-0.21723078
190	0xbda7d005	-0.081939735
191	0x3e06ac11	0.13151576
192	0xbe1e5f6f	-0.15466093
193	0xbe133283	-0.14374737
194	0xbdccdd29	-0.100031205
195	0x3e80e845	0.25177208
196	0xbe5eadc5	-0.21745975
197	0xbda831a6	-0.08212595
198	0xbd50bcf3	-0.050961446
199	0xbe8b9c9f	-0.2726793
200	0x3dbf1a52	0.09331192
201	0xbd87f9ed	-0.066394664
202	0xbe150b6d	-0.1455514
203	0xba864f6f	-0.0010247062
204	0xbe062157	-0.13098656
205	0x3dff7442	0.12473346
206	0xbda0c10c	-0.07849321
207	0x3e2337ea	0.15939298
208	0x3e02b716	0.12765154
209	0x3c8c6daf	0.017142145
210	0x3c2353b3	0.009968686
211	0xbd3807ba	-0.044929244
212	0x3e665e85	0.22496994
213	0x3e0b9cd7	0.13634048
214	0xbe0470c5	-0.12933643
215	0xbdec4bdc	-0.115379065
216	0xbe04e8fb	-0.129795
217	0x3e4db6f9	0.2008933
218	0x3e491270	0.1963594
219	0x3e1ae1d8	0.15125215
220	0x3e55888b	0.20852868
221	0xbe532492	-0.20619419
222	0x3c4590a0	0.012058407
223	0xbd0516de	-0.03249251
224	0x3e0057b1	0.12533452
225	0xbd6950ed	-0.056961942
226	0x3d926c1c	0.071495265
227	0xbe40ec55	-0.18840154
228	0xbe97153d	-0.2950839
229	0xbe23e849	-0.16006579
230	0x3de6932a	0.11258538
231	0x3cd8059f	0.026369868
232	0xbe87718b	-0.26453814
233	0x3e430d7d	0.19048114
234	0x3d04d6c4	0.03243138
235	0xbe19799d	-0.14987798
236	0xbe35de41	-0.17760564
237	0x3cb99146	0.02265228
238	0x3ddd90e6	0.10818653
239	0xbd9df907	-0.07713514
240	0xbe04c98e	-0.12967512
241	0xbe023be3	-0.12718157
242	0xbd209068	-0.039200217
243	0xbe528bb5	-0.20561107
244	0x3e38ff33	0.18066101
245	0x3e35044f	0.17677425
246	0xbd9052bf	-0.070470326
247	0xbea8641e	-0.32888883
248	0xbd86334c	-0.06552753
249	0x3e27bc63	0.16380458
250	0xbe1df4cb	-0.15425412
251	0x3d8508cf	0.06495821
252	0xbd9f6a3f	-0.07783937
253	0x3df0802f	0.11743199
254	0xbe288aab	-0.16459148
255	0xbe25d819	-0.16195716

bias_ih_l0 f4 [128]
0	0x3d3445a9	0.044011746
1	0x3d164f81	0.036696915
2	0x3e1cf3be	0.15327355
3	0x3d2191d1	0.039445702
4	0x3e1dabfb	0.15397637
5	0x3e6cc250	0.23121
6	0x3dceeedf	0.10104155
7	0x3e0a5aec	0.13511246
8	0xbc52363f	-0.012830316
9	0x3ded2935	0.11580125
10	0x3e20fd0a	0.15721527
11	0x3e0424f2	0.12904719
12	0x3da2a370	0.079413295
13	0x3c4be193	0.012443918
14	0xbe07e3b9	-0.13270463
15	0x3e757bf0	0.2397306
16	0x3c8a732c	0.016900621
17	0x3df68922	0.12037875
18	0xbddbe896	-0.107377216
19	0xbe0c7373	-0.13715915
20	0x3e0f0684	0.1396733
21	0xbd5d3ba8	-0.05401197
22	0x3e1313c7	0.14363013
23	0x3d1eada6	0.038739823
24	0x3d5052ee	0.050860338
25	0x3e1ce364	0.15321118
26	0x3cf98657	0.030459566
27	0xbdffa362	-0.12482335
28	0x3dab91c6	0.083774135
29	0x3dc9605c	0.09832832
30	0xbc06f4c6	-0.0082370695
31	0xbe0f5dde	-0.14000651
32	0x3d967aab	0.07347616
33	0xbcecd361	-0.028909387
34	0x3db0a90f	0.08625995
35	0x3c037937	0.008024505
36	0x3d783dc8	0.060605794
37	0xbd8d11ee	-0.068881854
38	0x3db049e9	0.08607847
39	0xbd021907	-0.03176215
40	0xbda4d8d8	-0.08049172
41	0xbd15f03a	-0.03660605
42	0xbe12159c	-0.14266056
43	0xbdaca202	-0.08429338
44	0xbdf59285	-0.11990837
45	0x3e44739d	0.19184728
46	0xbced198a	-0.028942842
47	0x3e86cbba	0.26327306
48	0x3dd8eca0	0.10592008
49	0xbd37f990	-0.044915736
50	0x3c06f0b2	0.008236097
51	0xbdbab142	-0.091158405
52	0xbd60d574	-0.054891065
53	0xbd166999	-0.0367218
54	0x3dec4887	0.11537271
55	0x3e112f76	0.14178261
56	0x3c301277	0.01074659
57	0x3e61379e	0.21993873
58	0x3df81cec	0.121148914
59	0x3d8cd5e3	0.06876733
60	0xbbc5a670	-0.006031804
61	0xbd87cd5f	-0.06630968
62	0x3da84bc6	0.08217578
63	0xbde56efb	-0.112028085
64	0xbb963f4f	-0.0045851837
65	0xbd8d37bf	-0.06895398
66	0xbdbe5133	-0.09292831
67	0x3d0fe48f	0.03513008
68	0xbdd5bbf7	-0.10436242
69	0xbc432ed6	-0.011913022
70	0xbddf0052	-0.10888733
71	0xbd1c015a	-0.038087226
72	0xbe2127ef	-0.1573789
73	0xbdb79fcb	-0.08966025
74	0x3c7f3344	0.0155761875
75	0xbd327a4a	-0.043573655
76	0xbdeb2611	-0.1148187
77	0x3df9fe54	0.12206712
78	0xbe0e192c	-0.1387679
79	0x3c34f70b	0.011045228
80	0xbe27e3d2	-0.163955
81	0xb9871f75	-0.00025772644
82	0x3d5ff53a	0.054677226
83	0xbd251863	-0.04030646
84	0x3e180059	0.14843883
85	0x3dde8f6b	0.108671986
86	0x3ccc9408	0.02497293
87	0xbd8b25e8	-0.067943394
88	0xbd56667a	-0.052343823
89	0x3c0fe36d	0.00878225
90	0xbcefeba7	-0.029287172
91	0xbe25d959	-0.16196193
92	0x3c3f25d0	0.01166673
93	0xbe11fc87	-0.14256488
94	0xbde7c7d3	-0.1131741
95	0xbc923a85	-0.01785017
96	0x3d23535e	0.039874427
97	0xbc949fbf	-0.01814258
98	0xbdf03788	-0.11729342
99	0xbdc4b77a	-0.09605308
100	0x3dbc63a9	0.09198696
101	0xbc9251f9	-0.017861353
102	0xbd004b81	-0.031322006
103	0x3e2d56a3	0.1692758
104	0x3d24834d	0.04016428
105	0x3e0debb3	0.13859443
106	0xbda6e4fb	-0.08149143
107	0xbd8b47d0	-0.068008065
108	0x3d3d7d24	0.04626192
109	0x3e415cfa	0.18883124
110	0x3e4ae72f	0.19814752
111	0xbc53d3e6	-0.0129289385
112	0x3d376098	0.044769853
113	0x3cdf84c0	0.02728498
114	0x3e4626cf	0.19350742
115	0x3cff1ecc	0.031142615
116	0x3e0603ee	0.13087437
117	0x3de14fd7	0.11001556
118	0xbca09abe	-0.019605037
119	0x3dfebed2	0.1243874
120	0x3e53f954	0.2070058
121	0xbd780697	-0.06055316
122	0x3e56e2e6	0.20984992
123	0x3e213f69	0.15746845
124	0x3d8e94cd	0.06961975
125	0xbc3d336b	-0.0115479035
126	0x3e2bbb1c	0.16770595
127	0xbe06d0c7	-0.1316558

bias_hh_l0 f4 [128]
0	0x3dc42ed1	0.09579242
1	0x3dbe43cc	0.09290275
2	0xbde6d63b	-0.1127133
3	0xbe3ba41c	-0.18324322
4	0x3e2982bf	0.16553782
5	0x3e1cfcf4	0.15330869
6	0x3ddd109b	0.10794183
7	0x3e3e17d6	0.1856378
8	0x3dbd517a	0.09244056
9	0xbd84eb32	-0.064901724
10	0xbdfc2725	-0.12312154
11	0xbd0b439b	-0.03400002
12	0xbdd41c45	-0.103569545
13	0x3e6ee699	0.23330154
14	0xbe072460	-0.1319747
15	0x3e0c0d3d	0.13676925
16	0xbba9ba4a	-0.005179678
17	0x3e486548	0.19569886
18	0xbe14c74f	-0.14529155
19	0x3e427b15	0.18992265
20	0x3e4e9374	0.20173436
21	0x3d3f9db4	0.046781257
22	0xbc72f125	-0.014828001
23	0xbd67eeb2	-0.056624122
24	0xbd6a0f65	-0.057143588
25	0xbe0e2844	-0.13882548
26	0x3d137ec6	0.036009572
27	0x3ceca23c	0.028885953
28	0x3d35fb65	0.0444292
29	0x3e12cec9	0.14336695
30	0xbdcb6869	-0.09932024
31	0x3e2c39c0	0.16818905
32	0xbc37c30c	-0.011215936
33	0xbd430164	-0.047608748
34	0xbb5dd7b1	-0.0033850486
35	0xbd80c907	-0.06288343
36	0x3e33e23d	0.17566772
37	0xbd4ae0ef	-0.04953092
38	0xbd7efc17	-0.06225213
39	0x3aa05f52	0.0012235439
40	0x3d288cea	0.04115001
41	0x3e27c6a6	0.16384372
42	0xbe0f36c9	-0.13985743
43	0x3d5abd8e	0.05340343
44	0xbc8acd4b	-0.016943594
45	0xbc28ff73	-0.01031481
46	0x3e03a147	0.12854491
47	0x3e1cf2a4	0.15326935
48	0xbd1621ca	-0.036653318
49	0x3d2ac3be	0.04169058
50	0x3e0bc887	0.13650714
51	0x3dd00ce8	0.10158712
52	0xbd072ebc	-0.033003554
53	0x3ccd6513	0.02507261
54	0xbe279276	-0.16364464
55	0x3df98ac9	0.12184674
56	0x3e5b4357	0.21412407
57	0x3e318c31	0.17338635
58	0x3d992e7e	0.07479571
59	0xbd06442f	-0.03277987
60	0x3e3f1b2c	0.18662709
61	0x3cc342a1	0.023835482
62	0x3cde321b	0.027123502
63	0x3d3e6f8a	0.04649309
64	0xbcc87205	-0.024468431
65	0xbde4a2d6	-0.11163871
66	0xbcf54255	-0.029938856
67	0x3d754d5a	0.05988822
68	0x3c9f6333	0.019456482
69	0xbda82034	-0.08209267
70	0x3e347ce7	0.17625771
71	0x3db92d6f	0.09041869
72	0xbe1caabe	-0.15299508
73	0x3d9c094e	0.07618962
74	0xbdc34111	-0.09533895
75	0xbdddec99	-0.10836143
76	0x3daaf144	0.08346799
77	0xbcb7fb83	-0.022458797
78	0xbc204733	-0.0097826
79	0x3e11a63e	0.14223573
80	0x3c428485	0.011872415
81	0xbe059f02	-0.13048938
82	0xbd16fa56	-0.036859833
83	0x3d9d784c	0.076889604
84	0x3d01a6fe	0.031653397
85	0xbdbd47df	-0.09242224
86	0xbd80be5f	-0.062863104
87	0xbcbb7530	-0.022883028
88	0xbd944d89	-0.07241351
89	0x3d1ac504	0.037785545
90	0xbd30873c	-0.04309772
91	0x3dea02fe	0.11426352
92	0x3da47590	0.08030236
93	0xbe1c1fb6	-0.15246472
94	0x3df48264	0.119389325
95	0x3c4c6056	0.01247414
96	0x3d8adfdf	0.06780981
97	0x3e2a79d6	0.16648039
98	0xbe0a765b	-0.13521712
99	0xbd9fb2e8	-0.077977955
100	0x3d0dec1e	0.034649007
101	0xbb41dd39	-0.0029581322
102	0x3dd17a5c	0.10228416
103	0xbd03cd09	-0.03217796
104	0x3e33600d	0.17517109
105	0xbc791a1a	-0.015203977
106	0xbd08cab9	-0.033396456
107	0xbd0462f9	-0.03232095
108	0x3dd77105	0.10519604
109	0x3ddaefda	0.10690279
110	0xbdd20274	-0.10254374
111	0x3e0b1027	0.1358038
112	0x3dd760bf	0.105165
113	0x3da2f7bd	0.079574086
114	0x3d813322	0.06308581
115	0x3de72571	0.11286438
116	0x3d8ae565	0.06782035
117	0x3dce5226	0.10074262
118	0xbe3b482b	-0.18289249
119	0x3d8ab6dd	0.0677316
120	0xbd8b8e54	-0.06814256
121	0xbded9146	-0.11599974
122	0xbdaa9f1f	-0.08331131
123	0x3e08d30b	0.13361757
124	0x3bc29ce2	0.005939112
125	0xbcc546dc	-0.02408164
126	0x3d7cbb34	0.06170197
127	0x3de6364b	0.11240824

weight_ih_l0_reverse f4 [128, 16]
0	0x3e89481c	0.26812828
1	0xbcc519fc	-0.024060242
2	0x3d9aab77	0.075522356
3	0xbbbb43f5	-0.005714888
4	0xbda30187	-0.07959276
5	0xbe26e47a	-0.16298094
6	0xbd953ada	-0.07286616
7	0xbdcbeedc	-0.09957668
8	0x3e1b0cd9	0.1514162
9	0xbe2bb2b1	-0.16767384
10	0x3d8d130f	0.06888401
11	0x3e4c7443	0.19966225
12	0xbd09105f	-0.03346288
13	0xbe8374f3	-0.25675163
14	0x3eb12faa	0.34606677
15	0x3dfc5559	0.12320966
16	0x3d9f80b1	0.07788218
17	0xbe604be5	-0.21903951
18	0xbd902020	-0.07037377
19	0x3e238e81	0.1597233
20	0xbcaf2183	-0.021378284
21	0xbe305a47	-0.17221938
22	0x3e1ab885	0.15109451
23	0xbda2f50c	-0.07956895
24	0x3e065c62	0.13121179
25	0xbd85d52d	-0.06534801
26	0x3e08d358	0.13361871
27	0xbe8be728	-0.27324796
28	0xbce6fed7	-0.028197689
29	0xbe6176f5	-0.22018035
30	0x3e3b3999	0.1828369
31	0x3e21f66b	0.15816657
32	0x3ea14312	0.31496483
33	0xbe0f477b	-0.13992111
34	0xbc6d0197	-0.014465711
35	0x3e03cd87	0.12871371
36	0xbe52e3c4	-0.20594698
37	0xbc93e008	-0.018051162
38	0xbc951657	-0.018199129
39	0x3dfbfb54	0.123037964
40	0x3dd3e28b	0.10345944
41	0xbe7fe3b7	-0.2498921
42	0x3e6a57ab	0.22885005
43	0x3e1ca876	0.15298638
44	0xbe2ea3b3	-0.17054634
45	0xbe122d4a	-0.14275089
46	0x3e736ce8	0.23772013
47	0x3e62bac9	0.22141565
48	0x3e00e829	0.12588562
49	0xbe036910	-0.12833047
50	0x3ca61100	0.020271778
51	0xbe4cf80d	-0.20016499
52	0x3e008ff2	0.12554911
53	0x3e5aede7	0.21379815
54	0x3e81b06e	0.25329918
55	0x3df67a44	0.12035039
56	0x3ebae5a9	0.36503342
57	0x3e1f7514	0.15572006
58	0xbeb230ab	-0.34802756
59	0xbdd14ab7	-0.10219329
60	0xbe170777	-0.14748941
61	0xbe4c4444	-0.19947916
62	0xbe860ded	-0.261825
63	0x3d829de2	0.0637777
64	0x3ea0d56b	0.31412825
65	0xbe783b23	-0.24241309
66	0xbe0f6907	-0.14004909
67	0x3b65ae0c	0.0035046367
68	0xbd90b960	-0.070666075
69	0xbe2773f2	-0.16352823
70	0x3cd43009	0.025901811
71	0x3d6ebfd6	0.058288418
72	0x3dfd4387	0.123663954
73	0xbcd54a17	-0.026036305
74	0x3e26b0ca	0.16278377
75	0xbd507a48	-0.050897866
76	0x3d28828f	0.041140135
77	0xbe06c3f5	-0.13160689
78	0x3f0444bf	0.516674
79	0x3e1acd99	0.15117492
80	0xbe0f3743	-0.13985924
81	0xbe638280	-0.2221775
82	0x3d9ed097	0.07754629
83	0xbe4bb6f2	-0.19894007
84	0xbd3eaaaa	-0.046549477
85	0xbe7451d6	-0.23859343
86	0x3e1d79df	0.15378521
87	0x3e0b03bd	0.13575645
88	0xbc96e8a8	-0.018421486
89	0xbd929327	-0.07156973
90	0x3e5f316b	0.21796195
91	0xbcf94570	-0.030428618
92	0xbe230caa	-0.159228
93	0x3b28d6f9	0.00257629
94	0x3d534169	0.05157605
95	0x3e2c0f89	0.16802801
96	0x3e1213b0	0.14265323
97	0x3dd1e66b	0.10249027
98	0x3cbe7ef9	0.023253905
99	0x3e1d87f2	0.1538389
100	0x3cdc3cdf	0.026884494
101	0x3e2c7c6d	0.1684434
102	0xbe3c7fd6	-0.1840814
103	0xbe23e547	-0.16005431
104	0xbcff94e1	-0.03119892
105	0xbc4dac05	-0.01255322
106	0xbe04649b	-0.12929003
107	0x3d66b46e	0.056324415
108	0xbe110755	-0.14162953
109	0xbd8148b6	-0.06312697
110	0x3e1802e5	0.14844854
111	0x3c9dcd08	0.019262806
112	0x3c8d465f	0.01724547
113	0xbe8e7309	-0.2782214
114	0x3e53cf33	0.20684509
115	0x3d2800d3	0.04101641
116	0xbb59ef51	-0.0033254216
117	0xbe6b1f52	-0.22961167
118	0xbe3fcc01	-0.18730165
119	0x3e3269fb	0.17423241
120	0xbde7a0a3	-0.11309936
121	0xbe603940	-0.21896839
122	0xbcb3192e	-0.021862593
123	0x3ddd6218	0.108097255
124	0x3d8ca22f	0.068668716
125	0xbdceb335	-0.10092775
126	0x3dd6b8ec	0.1048449
127	0x3d31fe0a	0.04345516
128	0xbcc1defe	-0.023665901
129	0x3e11c4c6	0.1423522
130	0xbe2bf453	-0.16792421
131	0x3eb6f261	0.35731795
132	0xbda921a0	-0.082583666
133	0x3dfe5d53	0.12420144
134	0xbd36912d	-0.044572044
135	0xbe18aa35	-0.14908679
136	0x3d9b2f5b	0.07577392
137	0x3e7d8109	0.24756254
138	0x3e32af97	0.17449795
139	0x3e1373e5	0.14399679
140	0x3e5f4b92	0.21806172
141	0xbd7139cd	-0.058893014
142	0x3df3dacb	0.11906966
143	0xbb6520e4	-0.0034962231
144	0x3e2c23f7	0.16810594
145	0xbd7fb9a6	-0.062432908
146	0x3d81cb7f	0.06337642
147	0x3e49157d	0.19637103
148	0x3cdf2b8e	0.027242448
149	0xbdb8cdb7	-0.09023612
150	0x3d26ae79	0.040693734
151	0xbe8b9089	-0.2725871
152	0xbe30b78f	-0.17257522
153	0xbe5dd2e3	-0.21662478
154	0xbdf793e8	-0.12088758
155	0x3cc2a0b6	0.023758274
156	0x3bf8d168	0.0075933225
157	0xbe30d99e	-0.17270514
158	0xbe2c6804	-0.16836554
159	0x3e316675	0.1732424
160	0xbd07dc6d	-0.0331692
161	0xbcf376ae	-0.029719677
162	0xbe9e2fc7	-0.30895826
163	0x3ca275fe	0.019831654
164	0x3da4b3b4	0.08042088
165	0xbe02c242	-0.12769416
166	0xbe5da186	-0.21643648
167	0x3ce9529b	0.028481772
168	0xbe009501	-0.1255684
169	0x3d0b2d5a	0.033978797
170	0x3e2cce61	0.16875602
171	0x3e46fe8b	0.19433038
172	0xbdb29471	-0.08719719
173	0xbe96ad5a	-0.29429132
174	0xbd351481	-0.044209007
175	0x3d95cfe9	0.07315046
176	0x3d8e1c6b	0.06939014
177	0xbdfe75d3	-0.12424817
178	0xbdc7c665	-0.09754638
179	0x3eb61f15	0.3557059
180	0x3c3e3d70	0.0116113275
181	0x3cc81c7e	0.024427649
182	0xbe2984a4	-0.16554505
183	0x3da81767	0.08207589
184	0xbd0cb09b	-0.03434811
185	0x3e73a0cd	0.2379181
186	0xbe5a85d8	-0.2134012
187	0x3c80138a	0.015634317
188	0xbd112acd	-0.03544121
189	0xbcb23198	-0.021752164
190	0xbdee8eba	-0.11648317
191	0xbe12ffd9	-0.1435541
192	0x3d552750	0.052039444
193	0xbdd8d08c	-0.10586652
194	0xbde34f92	-0.11099161
195	0x3cc6efd5	0.024284283
196	0x3da7243f	0.0816121
197	0xbe20c808	-0.15701306
198	0x3dea3126	0.114351556
199	0xbd5cd320	-0.053912282
200	0x3e336576	0.17519173
201	0x3e722453	0.23646669
202	0x3d486906	0.048928283
203	0xbd1b2489	-0.03787664
204	0xbe28f319	-0.16498984
205	0xbc787e10	-0.015166774
206	0x3e384625	0.17995508
207	0x3dd6b203	0.10483172
208	0x3e2b7989	0.1674558
209	0x3d487684	0.04894115
210	0xbd8b0365	-0.06787757
211	0x3eaac60c	0.33354223
212	0xbda8a093	-0.08233752
213	0xbd2c778f	-0.042106207
214	0x3ddcf3b7	0.107886724
215	0xbd9d7246	-0.076878116
216	0x3d1d7c16	0.038448416
217	0x3e05ca80	0.13065529
218	0x3e3ea48b	0.18617456
219	0x3da9dfc2	0.082946315
220	0x3d0383f6	0.03210827
221	0xbe200605	-0.15627296
222	0xbe4d2135	-0.20032199
223	0x3c637b53	0.013884383
224	0x3b7e26ad	0.0038780377
225	0xbdf52bec	-0.11971268
226	0x3dd8d491	0.10587419
227	0xbd9a712c	-0.07541117
228	0x3e58bb2d	0.21165152
229	0x3e0e2ce5	0.13884313
230	0xbdc5a8fc	-0.09651372
231	0xbcf3cfa1	-0.029762091
232	0xbd79d13a	-0.06099055
233	0xbdf77e20	-0.12084603
234	0xbdda2e8b	-0.106534086
235	0x3d6c52c0	0.057696104
236	0x3b540d68	0.0032356624
237	0x3df7a490	0.12091935
238	0xbda720de	-0.08160566
239	0xbd394435	-0.045231063
240	0xbd3ebaf1	-0.046565
241	0x3d7aacee	0.061200075
242	0xbe8195d9	-0.25309637
243	0x3ea8f45f	0.3299894
244	0xbe4489e2	-0.19193223
245	0xbe7b5219	-0.24543037
246	0xbc4e41bb	-0.012588914
247	0xbe1d53ed	-0.15364046
248	0x3d227496	0.039661966
249	0xbabe41ad	-0.0014515423
250	0x3e110f75	0.14166053
251	0x3de2a4b1	0.11066569
252	0x3d85874d	0.06519947
253	0xbe46644d	-0.19374199
254	0x3df5159d	0.11967013
255	0x3da6a6c1	0.081372745

weight_hh_l0_reverse f4 [128, 32]
0	0xbde1bd77	-0.11022466
1	0xbdd3e89a	-0.103470996
2	0x3dd2794e	0.10277043
3	0xbd9d6871	-0.07685936
4	0x3e26b034	0.16278154
5	0x3ce6723c	0.028130643
6	0x3d95947c	0.07303712
7	0xbd766f61	-0.060164813
8	0x3d885046	0.06655936
9	0xbd86cffe	-0.0658264
10	0x3c69061a	0.014222646
11	0x3e166207	0.14685832
12	0x3e55ccf8	0.2087897
13	0x3e15878b	0.14602487
14	0xbd901840	-0.07035875
15	0xbdc65dbe	-0.09685849
16	0x3d1f74ba	0.03892968
17	0x3e242e18	0.16033208
18	0x3d6086c6	0.05481603
19	0xbe25d368	-0.16193926
20	0xbdccc9e2	-0.099994436
21	0x3db873ca	0.0900646
22	0x3df41b0b	0.119192205
23	0xbe107768	-0.1410805
24	0xbe0c403e	-0.13696381
25	0x3d2ae424	0.041721478
26	0x3d1b8819	0.03797159
27	0x3daabcb1	0.08336771
28	0xbe1a9631	-0.15096356
29	0x3da10de9	0.07863981
30	0x3d774663	0.06036986
31	0xbd6e0278	-0.058107823
32	0x3dea22c8	0.11432415
33	0x3cec8953	0.028874075
34	0x3e21d04a	0.15802112
35	0x3e2bd9fb	0.16782372
36	0x3e6d3be2	0.23167375
37	0xbd4ee843	-0.05051447
38	0x3d384fa0	0.04499781
39	0x3c5fded5	0.013663967
40	0x3e89a5e8	0.2688439
41	0x3ba8c3c1	0.005150289
42	0x3e6f57eb	0.23373382
43	0x3e406d9d	0.18791814
44	0x3cd75766	0.026286792
45	0xbda3ffa4	-0.08007744
46	0x3e040a8a	0.12894645
47	0xbe71e375	-0.23621924
48	0x3de81f27	0.11334067
49	0x3e4147c6	0.18875036
50	0xbe02f265	-0.12787779
51	0xbe0c70ab	-0.13714854
52	0x3d722beb	0.059123915
53	0xbda6bf3c	-0.08141944
54	0x3e925642	0.28581434
55	0xbe4f8152	-0.20264176
56	0xbcb725c0	-0.022356868
57	0xbe0390c3	-0.12848191
58	0x3d3fb637	0.046804633
59	0x3dab1f4d	0.083555795
60	0x3e3fe55b	0.18739836
61	0xbe2f4c40	-0.17118931
62	0xbe2d5f52	-0.16930893
63	0xbd6ed14e	-0.058305077
64	0xbdcddb85	-0.10051636
65	0xbe80b77e	-0.25139993
66	0x3dbccd41	0.092188366
67	0x3d76cbbb	0.060252886
68	0x3e43c489	0.19117941
69	0x3d9003ee	0.070319995
70	0xbd7093ad	-0.058734585
71	0x3dad6323	0.084661745
72	0x3e11fe35	0.14257129
73	0x3e0cd2f8	0.13752353
74	0xbe47716d	-0.19476862
75	0xbdef80bf	-0.11694478
76	0xbca2d400	-0.01987648
77	0xbd229ea4	-0.039702073
78	0x3e081fda	0.132934
79	0xbe1bf51b	-0.15230219
80	0x3e99bb45	0.30025688
81	0xbe03ff3f	-0.12890337
82	0x3d9542d5	0.07288138
83	0x3d1d7dc3	0.038450014
84	0x3cec221d	0.02882486
85	0x3d5b5b91	0.05355412
86	0xbe049c86	-0.12950334
87	0x3d101e76	0.0351853
88	0x3e1ad23f	0.15119265
89	0xbddcea8b	-0.10786923
90	0xbbbbb9a5	-0.0057289177
91	0x3dd0a453	0.10187592
92	0x3e2d248f	0.16908477
93	0x3d315c6a	0.043301024
94	0x3d93ca31	0.07216299
95	0x3d5786ee	0.052618913
96	0x3e23671b	0.159573
97	0xbc81e542	-0.015856389
98	0x3ea9ba26	0.33149832
99	0xbe1b2038	-0.15149009
100	0x3e4f5adf	0.20249508
101	0xbde3094a	-0.11085756
102	0x3bd28eb9	0.0064257053
103	0x3dbdcd1d	0.09267638
104	0x3c5a5c80	0.013327718
105	0x3c63092f	0.01385717
106	0x3e6818c3	0.22665696
107	0xbde16d91	-0.11007226
108	0xbe3cd4dc	-0.18440574
109	0xbcd6fc0a	-0.026243228
110	0xbe1128b4	-0.14175683
111	0xbdd7db1e	-0.1053984
112	0xbe022d43	-0.12712578
113	0xbe23b5c1	-0.15987302
114	0xbd54bbc3	-0.051936876
115	0xbe110307	-0.14161311
116	0x3ddf5c94	0.1090633
117	0xbe0635d4	-0.13106471
118	0xbd48cc9d	-0.04902326
119	0xbcb0afde	-0.021568235
120	0x3c6848da	0.014177525
121	0xbdcde3d8	-0.10053223
122	0xbe4238ce	-0.18966982
123	0xbd038cd8	-0.03211674
124	0x3e83c815	0.25738588
125	0xbdb4f43f	-0.08835649
126	0xbe4ac02c	-0.1979987
127	0xbd3ad63c	-0.045614466
128	0x3e4dd233	0.20099716
129	0xbd0dff6f	-0.03466743
130	0x3e4dc10f	0.20093177
131	0x3e9b9a56	0.30391186
132	0x3e7afa99	0.24509658
133	0x3e637591	0.22212817
134	0x3e309eb2	0.17248037
135	0xbd839ccd	-0.06426392
136	0x3ea6c90b	0.3257526
137	0x3c062eac	0.008189838
138	0xbd88df59	-0.06683225
139	0x3e6a1a82	0.22861674
140	0xbcd038f5	-0.025417784
141	0x3d097061	0.03355444
142	0x3dda592b	0.10661539
143	0x3db96e5b	0.09054252
144	0x3d8c24e4	0.06842974
145	0x3c940fd9	0.018073963
146	0xbd836006	-0.064147994
147	0xbe2423e7	-0.1602932
148	0x3e1ccd38	0.1531266
149	0xbe5939a9	-0.21213402
150	0x3db39c9d	0.08770106
151	0xbe5d34d0	-0.21602178
152	0x3de89c2a	0.11357911
153	0x3d9426b0	0.072339416
154	0x3d27bfb9	0.040954325
155	0x3ded9e0f	0.11602413
156	0x3d8d3a7c	0.06895921
157	0x3daf951c	0.08573362
158	0x3d65953a	0.056050517
159	0xbec04f01	-0.37560275
160	0xbd8b8ca4	-0.068139344
161	0xbd137055	-0.0359958
162	0x3bb24564	0.005440401
163	0x3e825519	0.2545555
164	0x3e7c84b4	0.24659997
165	0x3e6bccba	0.23027316
166	0x3dae75aa	0.085185364
167	0xbb0613f8	-0.002045868
168	0x3dec13a7	0.11527186
169	0xbdb21ccf	-0.08696901
170	0xbd481068	-0.04884377
171	0x3c86aeca	0.016440768
172	0xbe2a99fb	-0.16660301
173	0x3e37c538	0.17946327
174	0xbd5772b4	-0.052599624
175	0xbdc30e71	-0.09524239
176	0x3e5208d0	0.20511174
177	0xbcfff8d6	-0.031246584
178	0xbda2eaba	-0.07954927
179	0x3e6117ea	0.21981779
180	0x3e0a8e1c	0.13530773
181	0xbc922071	-0.017837735
182	0x3dfdee90	0.12399018
183	0xbe1424cb	-0.1446716
184	0xbd9706e7	-0.073743634
185	0xbdb3181a	-0.087448314
186	0x3d960399	0.07324905
187	0x3dc90213	0.09814849
188	0xbcd367fd	-0.025806421
189	0x3e1c5426	0.15266475
190	0xbda94114	-0.08264366
191	0xbd3ac229	-0.04559532
192	0x3c85b0f0	0.016319722
193	0xbc480a77	-0.012209526
194	0xbdcca440	-0.09992266
195	0x3d1240bd	0.03570627
196	0xbd9196cd	-0.07108841
197	0xbba3b19e	-0.004995539
198	0x3d97d958	0.07414502
199	0xbde1766d	-0.11008916
200	0x3d393b34	0.045222476
201	0xbe0b02cc	-0.13575286
202	0xbd3b474b	-0.045722287
203	0xbcd21c49	-0.025648253
204	0xbe390d0b	-0.18071382
205	0xbe0ecea2	-0.13946012
206	0xbb4d7e7b	-0.0031355906
207	0x3c222368	0.009896137
208	0x3e32ec8b	0.17473046
209	0xbdc301c7	-0.095218234
210	0xbe2613dd	-0.16218515
211	0xbd451bf0	-0.048122346
212	0x3dc453e4	0.09586313
213	0xbe09339c	-0.13398594
214	0x3e7842df	0.2424426
215	0x3d52195a	0.05129371
216	0xbc850b4c	-0.016240738
217	0xbd9cab4e	-0.07649861
218	0xbdcd995d	-0.10039017
219	0xbe6707cc	-0.22561568
220	0xbb821d1a	-0.0039707543
221	0x3d060467	0.032719042
222	0xbe78511a	-0.24249688
223	0xbe3d579a	-0.18490449
224	0xbdc42139	-0.09576649
225	0xbd819b17	-0.06328409
226	0x3d7f5fac	0.0623471
227	0x3d44cd93	0.048047613
228	0x3e7f983a	0.24960414
229	0x3e3af7a7	0.18258534
230	0xbe2079c6	-0.15671453
231	0xbe693c57	-0.22776924
232	0x3e179a5a	0.14804974
233	0x3e021476	0.12703118
234	0x3d867410	0.06565106
235	0x3d52da66	0.051477812
236	0x3c4fd2ab	0.0126845045
237	0x3e6c01c3	0.23047547
238	0x3d0e3dc1	0.034726862
239	0x3e15742d	0.14595099
240	0x3d92a794	0.07160869
241	0x3d816ef2	0.06319989
242	0x3d9da38b	0.07697209
243	0xbddb6f3e	-0.10714577
244	0xbcea52d3	-0.028603947
245	0xbdc8b6d3	-0.09800496
246	0xbde5b988	-0.11217028
247	0xbe448851	-0.19192626
248	0x3d490853	0.049080204
249	0x3d571f65	0.052520175
250	0x3c7b02e0	0.01532051
251	0x3e0bb203	0.13642125
252	0xbbb07eb5	-0.0053861984
253	0x3b103d80	0.0022009313
254	0x3df7a36f	0.12091719
255	0xbde42bcc	-0.11141166

bias_ih_l0_reverse f4 [128]
0	0x3dc9989d	0.09843562
1	0xbd4298b1	-0.0475089
2	0x3e1a9002	0.15093997
3	0x3cb43890	0.021999627
4	0x3dc21ffe	0.09478758
5	0xbd91499b	-0.07094117
6	0x3dc618f9	0.09672732
7	0x3dd59aa2	0.104298845
8	0x3dbe12a1	0.09280897
9	0x3e54620a	0.20740524
10	0xbdee0ea8	-0.11623889
11	0x3e15b665	0.14620359
12	0x3e42d3d5	0.1902612
13	0xbdfec4eb	-0.12439903
14	0xbe15fdec	-0.14647645
15	0xbdb5472e	-0.08851467
16	0xbe03e88e	-0.12881681
17	0xbda4efd8	-0.08053559
18	0x3e0818a3	0.13290648
19	0xbd9f65cf	-0.0778309
20	0x3e35692d	0.17715903
21	0x3d2bbe31	0.041929428
22	0x3e9a3544	0.30118763
23	0xbce869ec	-0.02837082
24	0xbd24750e	-0.040150695
25	0xbd0b1407	-0.033954646
26	0x3e1f184d	0.15536614
27	0x3c04fd10	0.008116975
28	0x3d03941f	0.03212368
29	0x3ce104e0	0.027468145
30	0x3d59f32b	0.05321042
31	0xbd4c47b1	-0.049873058
32	0x3e0aa238	0.13538444
33	0x3db13344	0.08652356
34	0x3d7e3ff1	0.062072698
35	0x3ce3d54b	0.027811667
36	0x3e027c76	0.1274279
37	0x3e2c16f4	0.16805631
38	0x3e1965d7	0.14980255
39	0xbdd403b2	-0.10352267
40	0x3d7ab9ea	0.061212458
41	0xbbb57eb2	-0.005538785
42	0x3e0476e2	0.12935975
43	0x3d9fbc8a	0.07799633
44	0x3d255c65	0.040371317
45	0x3c57b96a	0.013166765
46	0xbdaaf217	-0.08346956
47	0x3d34fe35	0.044187743
48	0x3e407458	0.18794382
49	0x3e0f9e95	0.14025338
50	0x3c90fc8e	0.017698552
51	0x3e3866fd	0.18008037
52	0xbb9f319a	-0.004858208
53	0x3e1b7ae3	0.15183596
54	0x3eacca55	0.33748117
55	0x3de893a4	0.11356285
56	0xbd0435fd	-0.03227805
57	0x3e1e60f8	0.15466678
58	0x3e4b0fe2	0.19830278
59	0xbddf0a1e	-0.108906016
60	0x3d08aafe	0.033366196
61	0xbd45e9ea	-0.04831878
62	0x3e12320d	0.14276905
63	0x3d8e8e0e	0.069606885
64	0x3de6b0af	0.112641685
65	0x3e3f4a9f	0.1868081
66	0xbe21e89c	-0.1581139
67	0x3d3cea17	0.046121683
68	0x3d82878f	0.06373512
69	0xbdd7caad	-0.10536704
70	0x3d2be116	0.041962706
71	0xbcded98e	-0.027203348
72	0x3aa49288	0.0012555877
73	0x3d2379ee	0.039911203
74	0x3de6f346	0.112768695
75	0x3ad83fe3	0.0016498532
76	0xbb9b7d23	-0.004745142
77	0x3d2fd412	0.042926855
78	0x3d5e7be0	0.054317355
79	0xbe02aaae	-0.12760422
80	0x3e067952	0.13132218
81	0xbd81f41b	-0.063453875
82	0x3d65ba89	0.056086097
83	0xbe25e063	-0.16198878
84	0x3d089442	0.033344515
85	0xbda67409	-0.08127601
86	0x3da1dcab	0.07903417
87	0xbdf2401f	-0.118286364
88	0xbdd9257a	-0.10602851
89	0x3d27e0a8	0.040985733
90	0xbd9c3891	-0.07627977
91	0x3e01c6a3	0.1267343
92	0x3de6e3df	0.11273932
93	0xbde14bb4	-0.11000767
94	0xbd97e617	-0.07416933
95	0xbe0a81ea	-0.13526121
96	0x3d0487f5	0.03235622
97	0x3e7af558	0.24507654
98	0x3e182b24	0.14860207
99	0x3e28a0c0	0.16467571
100	0x3e865ef6	0.26244324
101	0x3e52ce63	0.20586543
102	0x3e402f1e	0.18767974
103	0xbd961425	-0.07328061
104	0x3e0c869c	0.13723224
105	0x3d97ee2d	0.07418475
106	0xbdfc78a9	-0.123277016
107	0x3caaa641	0.02083123
108	0x3c49c0b2	0.012314009
109	0x3ddd9d6a	0.1082104
110	0x3da760b1	0.08172739
111	0x3d660fc8	0.056167394
112	0x3e4139e2	0.18869737
113	0xbd8b1cb0	-0.06792581
114	0xbdebdeaa	-0.11517079
115	0x3ca20799	0.019779013
116	0x3c1cb514	0.009564657
117	0xbde6e9cd	-0.11275063
118	0x3e380fd0	0.17974782
119	0xbd899157	-0.067171745
120	0xbe14f910	-0.14548135
121	0xbd630049	-0.055420194
122	0x3d0a954a	0.03383378
123	0x3e2027cb	0.1564018
124	0xbd91fcbf	-0.071282856
125	0xbd5edafb	-0.054408055
126	0x3e283025	0.16424616
127	0x3e3804cc	0.1797058

bias_hh_l0_reverse f4 [128]
0	0xbdec6d9b	-0.11544343
1	0x3e3f5a91	0.18686892
2	0xbe012a73	-0.1261385
3	0x3e71660b	0.23574083
4	0x3d99475f	0.07484316
5	0xbcaa103f	-0.0207597
6	0xbcecc593	-0.028902804
7	0x3dcd94d2	0.10038151
8	0x3dfdbe52	0.12389816
9	0x3dc448cd	0.09584198
10	0x3ca26de1	0.019827785
11	0x3e1204d7	0.14259659
12	0x3e4a99ff	0.19785307
13	0x3d17f5e0	0.03709972
14	0x3c9b6881	0.01897073
15	0xbdaf1294	-0.08548465
16	0x3db8a066	0.090149686
17	0xbd76faa0	-0.06029761
18	0xbbf4b8bf	-0.0074683125
19	0x3d058516	0.032597624
20	0x3d95aae7	0.07307988
21	0x3da17d90	0.07885277
22	0x3daee655	0.08540026
23	0x3dcc2058	0.099671066
24	0x3d263188	0.04057458
25	0x3e3fa9e7	0.18717156
26	0xbd9f1baf	-0.07768952
27	0xbd0f0dd3	-0.034925293
28	0x3e471161	0.19440223
29	0x3c6b84af	0.014374896
30	0x3d83b3bf	0.06430768
31	0x3e248a9a	0.16068497
32	0xbdb2075b	-0.08692809
33	0xbd6ab2be	-0.057299368
34	0x3d6840df	0.05670249
35	0x3d5c2e69	0.053755198
36	0xbd96f020	-0.07370019
37	0x3e7b05bf	0.2451391
38	0xbe0cba78	-0.13743007
39	0x3e1f36a2	0.15548185
40	0x3dbd5d21	0.092462786
41	0xbe011131	-0.12604214
42	0x3dd467e8	0.10371381
43	0x3da86800	0.082229614
44	0x3e2dcc75	0.16972525
45	0xbdbd69b3	-0.09248676
46	0xbde185ca	-0.11011846
47	0x3de67c87	0.112542205
48	0xbda30d5c	-0.079615325
49	0x3ddf37a2	0.10899283
50	0x3e2e47ae	0.17019531
51	0xbd301415	-0.0429879
52	0x3e1fd414	0.15608245
53	0x3e1d50d9	0.15362872
54	0x3e73a95a	0.23795071
55	0x3d28d633	0.0412199
56	0x3e063fbe	0.13110253
57	0x3e2a3ef2	0.16625574
58	0x3cb6354c	0.02224221
59	0x3e12ad69	0.14323963
60	0xbdc30a47	-0.095234446
61	0xbdb31f25	-0.08746175
62	0xbcd6baad	-0.02621206
63	0x3d3b3bb7	0.045711245
64	0x3e0e13ac	0.13874692
65	0xbdebd76c	-0.11515698
66	0x3e09edb4	0.13469583
67	0xbd947e86	-0.07250695
68	0x3d02c681	0.03192759
69	0x3e108342	0.14112571
70	0x3d00d791	0.03145558
71	0xbddea01b	-0.108703814
72	0x3dccc9f4	0.09999457
73	0xbd29a88e	-0.041420512
74	0x3c84f980	0.016232252
75	0x3d9f3e59	0.07775564
76	0xbd73ac61	-0.059490565
77	0xbd15bbe0	-0.036556125
78	0xbd0023a4	-0.03128399
79	0xbd06273c	-0.03275226
80	0xbe347783	-0.17623715
81	0x3e05d526	0.13069591
82	0x3c807a7e	0.015683409
83	0x3e08698e	0.13321516
84	0x3e1ea859	0.15493907
85	0xbe199e12	-0.15001705
86	0xbdfceca9	-0.12349827
87	0xbd69575f	-0.05696809
88	0xbdab4ea7	-0.08364611
89	0xbdb0b156	-0.08627574
90	0x3ca50ef6	0.020148735
91	0x3cea8cdc	0.02863162
92	0x3de265bb	0.1105456
93	0x3d46efe9	0.04856864
94	0xbdb16683	-0.08662131
95	0xbe278d08	-0.16362393
96	0x3e1b0307	0.15137874
97	0xbd95d0d0	-0.073152184
98	0x3e19a136	0.15002903
99	0xbd75a2e7	-0.05996981
100	0x3e079cd0	0.13243413
101	0x3ddec8b6	0.10878126
102	0xbe1fe10c	-0.15613192
103	0xbd1f89f1	-0.03894991
104	0x3d83fb6d	0.0644444
105	0x3e01eace	0.12687227
106	0xbc97c76f	-0.018527715
107	0xbdf26b06	-0.11836819
108	0x3c5c9157	0.013462386
109	0xbc1ccc09	-0.00957013
110	0xbe2dd1bf	-0.16974543
111	0x3e171b9e	0.14756629
112	0x3e3577fc	0.17721552
113	0xbda7c01c	-0.08190939
114	0xbd8aa7c2	-0.067702785
115	0x3c89fd54	0.01684443
116	0x3e32175a	0.1739172
117	0x3d0057f6	0.031333886
118	0x3e67483a	0.22586146
119	0x3dc8398e	0.09776603
120	0x3db7a820	0.08967614
121	0x3e168bee	0.14701816
122	0x3d40e1ef	0.047090467
123	0xbbd81303	-0.0065940632
124	0xbd52f9c9	-0.051507745
125	0xbd2b4c08	-0.041820556
126	0x3e2ab9aa	0.16672388
127	0x3e68f65f	0.22750233
