m6A_BERT_Stacking/Resnet/model_pth/r_l_bilstm.pth (torch, 69975 bytes, 13 tensors)

weight f4 [64, 16]
-0.42642784 -0.6134739 0.7278173 0.635074 -0.04540527 0.35861027 0.16533053 -0.41275048
0.2762158 -0.6936028 0.10252166 0.81935894 -0.91375184 0.810928 0.6151751 0.070308805
-0.2905783 -0.14391628 -0.23661439 0.64504594 -0.87404543 -0.7269072 0.70219254 0.8343419
-0.8449222 0.63079435 0.85410833 -0.6822487 0.2207991 -0.33112612 0.026986936 0.74611115
0.19775805 0.35972995 0.77180374 0.34073964 0.5624152 -0.4044848 -0.91232485 0.4370128
0.7183345 -0.76551425 0.5238122 -0.0014885297 0.7531097 0.25124964 -0.43915233 -0.26601782
0.3075502 -0.02826134 -0.9251826 0.77594674 -0.901035 -0.9140411 -0.22607282 -0.17297456
-0.55100894 -0.0254407 0.83054805 0.5291685 -1.03801 -0.5733851 -0.7570515 -0.8220765
0.4265707 -0.44804582 0.6137079 0.4342532 -0.9659034 -0.8658158 -0.33834973 -0.0748766
-0.607174 0.9701624 0.5103328 0.85978234 0.33742902 -0.4614691 0.541634 0.92382985
-0.3484325 -1.0285772 -0.31384182 -0.38205776 -0.0740913 -0.56425405 -0.71704096 0.44048086
0.03904998 -0.29843453 -0.1911977 -0.06551798 0.17353822 0.65357554 -0.46553624 0.47030222
0.3197536 -0.41053084 0.037779223 -0.5009821 0.027248198 0.17943323 -0.64400357 0.26415938
0.56373215 -0.932351 1.2688237 -1.1363907 0.39151055 0.09900839 -0.264906 1.1936301
0.61340785 -0.36731017 0.5287486 0.46628216 0.055891667 -0.71574545 0.40537247 0.26036495
-0.08893076 -0.3094343 -0.6785414 -0.37487346 0.72337997 -0.47076336 0.6225576 -0.8250945
0.40581635 0.475664 -0.8517642 0.044424996 0.38270077 -0.82682973 -0.83046746 0.96958077
-0.81407666 -0.67165655 -0.5350204 0.9366239 -0.2976673 -0.09814517 0.8132371 0.6944443
-1.039526 -0.42672843 0.65719295 0.6650424 0.4096009 -0.08458205 0.9467872 -0.7981298
-0.5809954 -0.2868199 0.15466873 0.65134543 0.9234387 -0.4873781 0.19773422 0.3162165
-0.90243363 -0.14166647 -0.6138942 0.9396515 -0.21638559 0.6463301 0.1512082 0.23726273
-0.10929939 0.6435828 -0.2653556 0.42139825 0.17645685 1.0006325 -0.5924753 -0.96610874
-0.10853478 0.035930376 -0.36760765 0.58195066 0.9399104 0.57545805 -0.17005265 0.85659146
0.543267 -0.9226522 -0.519461 0.85523367 0.65458554 0.76567006 0.49000674 -0.16908413
-0.58746403 0.2384693 -0.38836658 -0.6062081 -0.052148953 -0.3706091 0.058465976 -0.9983274
-0.23194513 0.07837105 0.21844828 0.63322705 -0.35721755 0.9027576 -0.91920704 0.115484506
-0.92753637 0.39152217 -0.22866428 0.21400137 0.41327047 -0.70568526 0.63545346 0.612972
-0.65498924 -0.20787862 -0.16445817 0.046992913 0.107042424 -0.07598594 -0.14315864 0.101960845
0.08424764 0.019483026 0.3280962 -0.21350552 -0.3898462 0.67659414 0.9101506 -0.025137128
0.39429808 -0.113602206 -0.30194142 0.4751481 -0.40184748 -0.099621445 0.35248178 -0.677141
-0.41828087 -0.33564973 0.81958765 0.6915821 0.08320532 -0.16155118 -1.0214396 0.2755049
0.8304024 -0.0075857257 -0.66415465 0.8866471 0.72227573 -0.2092354 0.10370884 -0.27846906
00000000: c054 dabe a00c 1dbf 3c52 3a3f 3694 223f
00000010: e0fa 39bd c49b b73e 684c 293e 0854 d3be
00000020: 286c 8d3e f48f 31bf e0f6 d13d 82c1 513f
00000030: a4eb 69bf fa98 4f3f 1e7c 1d3f 10fe 8f3d
00000040: aec6 94be ca5e 13be 0b4b 72be bb21 253f
00000050: 71c1 5fbf 9716 3abf e4c2 333f 6e97 553f
00000060: d24c 58bf bd7b 213f d8a6 5a3f daa7 2ebf
00000070: 2919 623e 5d89 a9be b513 dd3c 2401 3f3f
00000080: 1681 4a3e 862e b83e ee94 453f 6d75 ae3e
00000090: 71fa 0f3f a218 cfbe 1f8e 69bf 24c0 df3e
000000a0: c5e4 373f bef8 43bf 8e18 063f c51a c3ba
000000b0: cccb 403f cba3 803e 93d8 e0be 7d33 88be
000000c0: 3877 9d3e 5384 e7bc c4d8 6cbf 72a4 463f
000000d0: 3baa 66bf 99fe 69bf a27f 67be 3e20 31be
000000e0: ec0e 0dbf 0469 d0bc cc9e 543f 9677 073f
000000f0: 83dd 84bf 5ec9 12bf 21ce 41bf 9b73 52bf
00000100: 7a67 da3e 4366 e5be f61b 1d3f 6f56 de3e
00000110: 7245 77bf 1ba6 5dbf 2d3c adbe e758 99bd
00000120: c16f 1bbf 905c 783f 2ca5 023f b21a 5c3f
00000130: 7fc3 ac3e ae45 ecbe 87a8 0a3f 1d80 6c3f
00000140: bf65 b2be 6ba8 83bf e0af a0be 139d c3be
00000150: 2ebd 97bd f472 10bf ff8f 37bf b586 e13e
00000160: dff2 1f3d 69cc 98be 54c9 43be 4a2e 86bd
00000170: 01b4 313e ba50 273f c45a eebe 74cb f03e
00000180: beb6 a33e 1931 d2be 63be 1a3d 5d40 00bf
00000190: 9d37 df3c 58bd 373e 6bdd 24bf e63f 873e
000001a0: c050 103f 8eae 6ebf d168 a23f 4075 91bf
000001b0: 1274 c83e e9c4 ca3d c2a1 87be dfc8 983f
000001c0: 4c08 1d3f 1410 bcbe 115c 073f 89bc ee3e
000001d0: a9ee 643d 183b 37bf fb8c cf3e 8e4e 853e
000001e0: 5521 b6bd 2c6e 9ebe e4b4 2dbf 6aef bfbe
000001f0: 6e2f 393f e507 f1be ef5f 1f3f 6539 53bf
00000200: 29c7 cf3e 3b8a f33e 380d 5abf fcf6 353d
00000210: 5bf1 c33e 1dab 53bf 8499 54bf 7236 783f
00000220: 5467 50bf aff1 2bbf 19f7 08bf 95c6 6f3f
00000230: d967 98be 5600 c9bd 4e30 503f 1ac7 313f
00000240: 300f 85bf 267c dabe cc3d 283f 3840 2a3f
00000250: 36b7 d13e 5b39 adbd a560 723f 3c52 4cbf
00000260: 1dbc 14bf 0fda 92be 7b61 1e3e 93be 263f
00000270: 7b66 6c3f 9f89 f9be d77a 4a3e 21e7 a13e
00000280: e405 67bf 0411 11be 2c28 1dbf 008d 703f
00000290: 2f94 5dbe e475 253f 53d6 1a3e 00f5 723e
000002a0: 5cd8 dfbd d8c1 243f b0dc 87be 83c1 d73e
000002b0: 1bb1 343e ba14 803f 76ac 17bf e752 77bf
000002c0: 7c47 debd bb2b 133d 1237 bcbe b8fa 143f
000002d0: f89d 703f 3851 133f 4822 2ebe 9449 5b3f
000002e0: 8c13 0b3f ef32 6cbf 65fb 04bf 98f0 5a3f
000002f0: eb92 273f f402 443f 2ae2 fa3e 6424 2dbe
00000300: 0b64 16bf 4c31 743e fcd7 c6be 7430 1bbf
00000310: 249a 55bd 7ac0 bdbe 057a 6f3d 6292 7fbf
00000320: 0683 6dbe 0081 a03d e8b0 5f3e 2b1b 223f
00000330: 38e5 b6be 1f1b 673f 2751 6bbf 2483 ec3d
00000340: 0673 6dbf 9875 c83e f826 6abe 2d23 5b3e
00000350: 3098 d33e caa7 34bf 14ad 223f bceb 1c3f
00000360: 60ad 27bf 22de 54be b967 28be a47b 403d
00000370: 0f39 db3d 849e 9bbd 2e98 12be d9d0 d03d
00000380: 078a ac3d de9a 9f3c 3afc a73e 31a1 5abe
00000390: ec99 c7be 4635 2d3f a1ff 683f 61ec cdbc
000003a0: 70e1 c93e 46a8 e8bd 1198 9abe 9d46 f33e
000003b0: f4be cdbe 5406 ccbd 7e78 b43e 1d59 2dbf
000003c0: e928 d6be 48da abbe 7fd0 513f 860b 313f
000003d0: 8d67 aa3d ac6d 25be 88be 82bf fa0e 8d3e
000003e0: 4095 543f ae91 f8bb 0a06 2abf 4efb 623f
000003f0: 10e7 383f ce41 56be 4d65 d43d 7f93 8ebe

weight_ih_l0 f4 [128, 16]
0.08893321 -0.15784144 0.001641194 0.15308052 -0.058476236 -0.09202279 -0.090466455 -0.1599747
-0.13685367 0.109153144 0.19202062 0.104739174 -0.06543505 0.068048894 -0.0423209 0.20290962
-0.1559799 -0.1462074 0.04298091 0.29301983 0.053950373 -0.22144471 -0.20885538 -0.09351969
-0.1699403 -0.059917744 0.03853199 0.025812997 -0.042996626 0.16266021 0.12858026 0.16581398
0.12791258 -0.17295137 0.12695046 -0.18741742 -0.03522613 -0.099332415 0.1986649 0.094133705
-0.009673281 -0.08146525 -0.15985991 0.12192963 -0.056820177 -0.0885016 0.10871259 -0.13876656
0.16073576 -0.09655096 0.010112141 0.114388645 -0.28608534 -0.11613326 -0.1535118 -0.2360429
-0.017132023 0.24359322 0.14702131 0.11832868 -0.095532686 -0.087007284 0.19470361 -0.13479438
0.14264585 -0.07920535 -0.0960757 -0.05498316 -0.20420894 0.043234408 -0.054197486 -0.09605762
0.1410716 0.14693508 -0.009949202 0.015754385 -0.059717573 -0.034342322 0.055470094 -0.056812707
-0.20898598 -0.002407923 -0.043376338 -0.03575583 -0.13558581 0.11795235 0.23291965 0.015026677
-0.16422634 0.040604286 0.13236721 0.21198833 0.08880314 0.030664615 -0.20815818 0.05664799
-0.056414884 -0.10375222 0.07282627 0.21945214 0.12235126 -0.034061357 0.12905003 0.11560004
-0.08761326 0.09269012 0.122186475 -0.040312078 -0.08853449 0.0045677847 0.04703654 0.17958814
0.07186499 0.119168006 0.013569731 -0.15674835 -0.10494674 -0.17211765 -0.05112847 0.18112603
0.040208664 0.1735115 -0.22836533 -0.031202704 -0.122562714 -0.071022436 0.09373057 -0.052260045
0.0239991 -0.1815605 -0.0851229 -0.26292765 0.02898925 0.017672958 -0.14387116 0.01504256
0.15853047 0.13547787 0.07733151 -0.0057504005 -0.0324502 -0.16067787 0.026901525 0.093596704
0.031320445 -0.09823991 0.2095852 0.035165966 0.0133598065 -0.11991362 -0.026730526 -0.011015239
0.13539085 0.045682196 0.02295546 0.09214443 -0.11910003 -0.1709946 0.08483814 0.20472471
0.106153004 -0.045326386 -0.03375793 0.0030214053 -0.035687402 -0.1638386 0.0025734312 0.06873895
0.13997044 0.08937346 0.04921343 -0.14120814 -0.17766336 -0.026267175 -0.07444998 0.003806067
0.0219127 0.14222234 -0.21722102 -0.20793451 -0.10292722 0.16679245 0.08212071 -0.14919268
0.13149531 0.01577782 0.12253566 -0.07724063 -0.15243022 -0.0695206 0.2536814 0.20565036
-0.0558116 0.08912034 0.11585139 -0.16263074 -0.08077003 0.08469886 0.14309275 0.029541684
0.11146569 -0.13385211 0.040204436 -0.010293297 0.20588996 0.034594372 -0.054748427 -0.04751555
-0.0053280727 -0.3009656 0.13102019 0.09281313 0.07579447 0.0003642168 -0.2123029 0.11611169
0.10632615 0.08679355 0.18454087 0.13821088 -8.796782e-05 0.029817356 0.13996588 0.13583249
-0.10526085 0.04270066 -0.07786793 0.32441005 -0.055502363 -0.16885021 0.009880105 -0.24248104
-0.13688399 0.17526521 0.0356817 -0.13588843 0.03614151 0.0629964 -0.12475321 0.095619075
0.017080547 -0.14782144 0.09266295 -0.31603944 -0.052797336 0.14061843 0.09149192 0.1663383
-0.011843962 -0.1255773 -0.0965373 0.058278978 0.07643719 0.0069511575 0.20478098 0.19654031
00000000: 9d22 b63d 30a1 21be 551d d73a 24c1 1c3e
00000010: c784 6fbd 7276 bcbd 7a46 b9bd 68d0 23be
00000020: 5e23 0cbe af8b df3d 0ea1 443e 7e81 d63d
00000030: d002 86bd 385d 8b3d ae58 2dbd 8ac7 4f3e
00000040: 32b9 1fbe 65b7 15be c00c 303d b206 963e
00000050: 11fb 5c3d 67c2 62be 2fde 55be 4087 bfbd
00000060: d404 2ebe 4f6c 75bd b8d3 1d3d c775 d33c
00000070: 3b1d 30bd 6690 263e 8baa 033e 24cb 293e
00000080: 84fb 023e 2a1a 31be 4dff 013e 5aea 3fbe
00000090: 4649 10bd cb6e cbbd d06e 4b3e 2cc9 c03d
000000a0: ae7c 1ebc 41d7 a6bd 51b2 23be 3eb6 f93d
000000b0: 46bc 68bd 5440 b5bd b5a4 de3d d218 0ebe
000000c0: ea97 243e 82bc c5bd 65ad 253c 9844 ea3d
000000d0: c779 92be 46d7 edbd 3332 1dbe 3bb5 71be
000000e0: 7558 8cbc 8070 793e c18c 163e 4f56 f23d
000000f0: a4a6 c3bd e030 b2bd 6260 473e 8a07 0abe
00000100: c111 123e 6a36 a2bd 56c3 c4bd 0636 61bd
00000110: 261c 51be 9016 313d 2ffe 5dbd dcb9 c4bd
00000120: 1375 103e 2676 163e fa01 23bc 570f 813c
00000130: 6a9a 74bd 89aa 0cbd 9c34 633d 71b4 68bd
00000140: 6c00 56be 3fce 1dbb 63ab 31bd b574 12bd
00000150: 02d7 0abe 0091 f13d 7d82 6e3e 7432 763c
00000160: f32a 28be ae50 263d 458b 073e 7813 593e
00000170: 6cde b53d 5c34 fb3c 6b27 55be b907 683d
00000180: 4b13 67bd 0b7c d4bd f025 953d 10b8 603e
00000190: 4c93 fa3d ec83 0bbd b125 043e b7bf ec3d
000001a0: 956e b3bd 51d4 bd3d e73c fa3d 471e 25bd
000001b0: 9251 b5bd 5bad 953b 63a9 403d f4e5 373e
000001c0: f42d 933d 5b0e f43d 9453 5e3c a482 20be
000001d0: 51ee d6bd 9c3f 30be 166c 51bd 1a79 393e
000001e0: d7b1 243d 00ad 313e 9ad8 69be d09c ffbc
000001f0: 2902 fbbd 3674 91bd d0f5 bf3d a10e 56bd
00000200: c399 c43c ffea 39be ea54 aebd 749e 86be
00000210: dd7a ed3c e1c6 903c f652 13be 1275 763c
00000220: d055 223e b6ba 0a3e fc5f 9e3d db6d bcbb
00000230: 80ea 04bd bd88 24be 9660 dc3c a1af bf3d
00000240: de49 003d 0232 c9bd 819d 563e 300a 103d
00000250: 17e3 5a3c 4695 f5bd faf9 dabc 4379 34bc
00000260: e6a3 0a3e 411d 3b3d 170d bc3c 38b6 bc3d
00000270: b7ea f3bd 3519 2fbe 9ebf ad3d 5ba3 513e
00000280: bf66 d93d 29a8 39bd c145 0abd c502 463b
00000290: f42c 12bd 4ec5 27be 03a7 283b 02c7 8c3d
000002a0: 6954 0f3e 6f09 b73d 0694 493d de98 10be
000002b0: 62ed 35be 422e d7bc 3b79 98bd 356f 793b
000002c0: 4382 b33c bca2 113e 306f 5ebe c9ec 54be
000002d0: 82cb d2bd a4cb 2a3e e72e a83d f7c5 18be
000002e0: b5a6 063e 7d40 813c faf3 fa3d 5630 9ebd
000002f0: ab16 1cbe d160 8ebd 87e2 813e 0296 523e
00000300: b49a 64bd ba84 b63d 7e43 ed3d ac88 26be
00000310: c26a a5bd 9976 ad3d e886 123e 6701 f23c
00000320: 2048 e43d 8710 09be 68ad 243d 37a5 28bc
00000330: d1d4 523e d4b2 0d3d e33f 60bd aa9f 42bd
00000340: 1d97 aebb 2a18 9abe 282a 063e cf14 be3d
00000350: 223a 9b3d 5af4 be39 ee65 59be f7cb ed3d
00000360: 86c1 d93d d1c0 b13d 48f8 3c3e 2787 0d3e
00000370: 5d7b b8b8 8743 f43c 3753 0f3e ac17 0b3e
00000380: 0093 d7bd e3e6 2e3d 3979 9fbd 1319 a63e
00000390: 7256 63bd 12e7 2cbe 2ae0 213c f34c 78be
000003a0: 512b 0cbe b978 333e f926 123d 5626 0bbe
000003b0: 1f09 143d 4204 813d 9c7e ffbd efd3 c33d
000003c0: 81ec 8b3c 815e 17be 13c6 bd3d eccf a1be
000003d0: 0542 58bd 47fe 0f3e 1e60 bb3d 9654 2a3e
000003e0: 2d0d 42bc 5697 00be 59b5 c5bd f0b5 6e3d
000003f0: 1a8b 9c3d 89c6 e33b 1bb2 513e dd41 493e

weight_hh_l0 f4 [128, 32]
-0.19995347 0.012650606 -0.009915208 0.091647185 -0.03083828 0.0012084399 0.09603609 -0.3852154
-0.03760105 0.00942363 -0.13298836 -0.03997296 0.10946533 -0.059644964 -0.047790922 0.22577238
0.07533258 -0.09340043 0.08285716 -0.0765393 0.28138912 -0.07114506 0.10104212 0.1346394
-0.041784514 -0.020518608 0.043109484 0.023191934 0.21096618 -0.007783439 0.041923076 0.14038046
-0.0472348 -0.16209762 0.06437769 0.16489841 -0.11670324 -0.03127229 -0.24584919 0.005586434
-0.1087079 0.014202531 0.102807514 0.08791165 0.09645119 -0.01851339 0.095517896 0.22968636
0.007914966 0.18261382 0.043348655 0.008566361 0.15713915 0.052276094 0.08250752 -0.053360272
0.07081788 0.10858954 0.16542993 -0.1618235 -0.07008928 -0.040077135 -0.07429743 0.030426145
-0.015582868 -0.12143778 0.03378618 -0.045674566 0.05204993 0.06197806 -0.03286783 0.079082966
-0.03300021 0.046745796 0.031826127 -0.07829346 0.061820585 0.122947425 0.1879093 -0.066870295
-0.11492932 0.007583289 -0.007331993 -0.07618217 0.21048322 -0.02623711 0.14496335 -0.12893054
-0.258402 -0.03585338 0.11063774 0.1164493 -0.14853056 -0.16161017 -0.020500684 0.06741831
-0.046594776 -0.010079826 -0.0071191313 -0.04522732 -0.18368787 -0.061895803 -0.013317774 -0.065715365
-0.16619526 -0.10838389 0.023137178 -0.1107527 0.006243431 -0.20997328 0.08687793 0.23080978
0.15811715 -0.15713875 0.15753119 -0.13263428 0.1535923 0.05205898 -0.16308106 0.09878593
0.13933067 -0.0039466363 0.13600256 -0.12144653 -0.09309086 -0.08961753 -0.08998162 0.0861416
0.16937244 0.05550987 -0.082099326 -0.039783917 -0.02732945 -0.13136247 0.2085216 0.083965
-0.09477192 0.05710696 0.17971416 -0.068490036 -0.086906515 -0.12204465 0.045913715 -0.058004376
0.099177286 0.058638714 0.015084411 -0.008261305 -0.029054837 -0.014071867 -0.00093129644 -0.12066182
0.17338604 0.02595398 0.045980144 0.005532772 0.11720092 0.04057235 0.13251293 0.13228221
-0.04089346 -0.24998687 -0.2728853 -0.07868545 0.03775667 0.052864764 -0.14910376 -0.3031368
-0.014468893 -0.10251474 -0.13278177 0.08794079 -0.09710245 0.046230465 -0.067609295 0.28593162
0.003914726 -0.015397325 -0.1090639 0.101680435 0.13157225 0.047943544 -0.14133207 0.027045254
-0.15288058 0.20798801 0.014207097 0.073995955 0.16698207 -0.21436916 -0.08260038 0.12744555
-0.10451536 -0.105250664 -0.067499496 0.17098826 -0.21434386 -0.0831188 -0.053004865 -0.20167288
0.1119724 -0.024394404 -0.0953562 0.012796935 -0.090217054 0.13721454 -0.070414476 0.13684823
0.11005399 0.0050878585 4.6209287e-05 -0.039797615 0.18005085 0.04328964 -0.14389448 -0.115758464
-0.10512473 0.19527535 0.15215588 0.12985744 0.16768232 -0.17705153 0.0006818077 -0.080032796
0.07219169 -0.06461849 0.098619096 -0.0941227 -0.22531952 -0.11786913 0.12020277 -0.1021622
-0.23376346 0.23784047 0.07827377 -0.17552163 -0.18600957 -1.8744538e-05 0.060440432 -0.05331442
-0.02642005 -0.25982437 0.02203355 -0.19175583 0.18133806 0.29012564 -0.018129315 -0.27808642
-0.05328742 0.08591655 -0.015636569 0.04658349 -0.12295969 0.106404364 -0.15636066 -0.13148862
00000000: 9ac0 4cbe 7d44 4f3c 6673 22bc 85b1 bb3d
00000010: 90a0 fcbc 8464 9e3a 92ae c43d f43a c5be
00000020: 8f03 1abd 9265 1a3c 1a2e 08be b0ba 23bd
00000030: 5c2f e03d 474e 74bd 6ac0 43bd e030 673e
00000040: f847 9a3d ba48 bfbd 04b1 a93d a3c0 9cbd
00000050: 3c12 903e 80b4 91bd 2cef ce3d e9de 093e
00000060: 3d26 2bbd a416 a8bc 9293 303d 03fd bd3c
00000070: 8507 583e 380c ffbb 88b7 2b3d e5bf 0f3e
00000080: 4779 41bd ebfc 25be 73d8 833d 21db 283e
00000090: 1c02 efbd 5f17 00bd e4bf 7bbe 680e b73b
000000a0: 3fa2 debd bcb1 683c bf8c d23d 060b b43d
000000b0: 3488 c53d 65a9 97bc e39e c33d e732 6b3e
000000c0: c6ad 013c 1eff 3a3e 5c8e 313d ec59 0c3c
000000d0: 16e9 203e 751f 563d b4f9 a83d 4d90 5abd
000000e0: f708 913d 3164 de3d 7766 293e 0fb5 25be
000000f0: f88a 8fbd ec27 24bd 4029 98bd 4040 f93c
00000100: 494f 7fbc 5fb4 f8bd 6163 0a3d 4115 3bbd
00000110: 4f32 553d b5dc 7d3d 6ba0 06bd 40f6 a13d
00000120: 3a2b 07bd 8578 3f3d 1d5c 023d 5258 a0bd
00000130: 9537 7d3d dccb fb3d 4c6b 403e 4bf3 88bd
00000140: 1060 ebbd 3d7d f83b 3741 f0bb 6605 9cbd
00000150: ea88 573e 35ef d6bc 4671 143e 5e06 04be
00000160: 444d 84be feda 12bd 0a96 e23d f87c ee3d
00000170: 6518 18be 237d 25be 0df1 a7bc 9c12 8a3d
00000180: 2ada 3ebd db25 25bc 9a47 e9bb 4840 39bd
00000190: ac18 3cbe 7486 7dbd cb32 5abc c795 86bd
000001a0: 172f 2abe 5ff8 ddbd 2e8a bd3c 50d2 e2bd
000001b0: b295 cc3b 3c03 57be 0eed b13d 6659 6c3e
000001c0: 76e9 213e fbe8 20be db4f 213e 48d1 07be
000001d0: 4d47 1d3e cc3b 553d b9fe 26be 4750 ca3d
000001e0: b3ac 0e3e c952 81bb 4144 0b3e f5b8 f8bd
000001f0: 6ca6 bebd 6589 b7bd 4948 b8bd 026b b03d
00000200: f86f 2d3e 515e 633d b123 a8bd 76f4 22bd
00000210: 03e2 dfbc e283 06be b086 553e d8f5 ab3d
00000220: c817 c2bd fde8 693d fd06 383e 8144 8cbd
00000230: 0bfc b1bd 8cf2 f9bd 0510 3c3d ff95 6dbd
00000240: 761d cb3d 262f 703d 9b24 773c 6d5a 07bc
00000250: 6904 eebc b08d 66bc 3f22 74ba 8b1d f7bd
00000260: 1c8c 313e 719d d43c ad55 3c3d 414c b53b
00000270: 0907 f03d 312f 263d 78b1 073e fd74 073e
00000280: e77f 27bd 8ffc 7fbe 9fb7 8bbe d625 a1bd
00000290: bda6 1a3d b988 583d a8ae 18be bf34 9bbe
000002a0: f00e 6dbc 3ff3 d1bd f2f7 07be 4d1a b43d
000002b0: a6dd c6bd 285c 3d3d be76 8abd a165 923e
000002c0: 1a47 803b 1045 7cbc e55c dfbd d53d d03d
000002d0: e0ba 063e 7360 443d 5bb9 10be 028e dd3c
000002e0: ba8c 1cbe cffa 543e e2c4 683c 318b 973d
000002f0: 59fd 2a3e 9783 5bbe 632a a9bd 1681 023e
00000300: 260c d6bd a98d d7bd 2d3d 8abd 8c17 2f3e
00000310: f57c 5bbe 303a aabd a11b 59bd 5683 4ebe
00000320: c951 e53d c6d6 c7bc 1d4a c3bd 3caa 513c
00000330: b8c3 b8bd f881 0c3e 7735 90bd f121 0c3e
00000340: fc63 e13d 0db8 a63b d8d0 4138 d302 23bd
00000350: 405f 383e 7a50 313d 1359 13be c612 edbd
00000360: a24b d7bd 43f6 473e c0ce 1b3e 59f9 043e
00000370: eab4 2b3e ff4c 35be 57bb 323a 3ce8 a3bd
00000380: 3dd9 933d b356 84bd cff8 c93d 67c3 c0bd
00000390: 29ba 66be 5f65 f1bd df2c f63d 6a3a d1bd
000003a0: b05f 6fbe 748c 733e 004e a03d f1bb 33be
000003b0: 4b79 3ebe 973d 9db7 6390 773d 3960 5abd
000003c0: dc6e d8bc b307 85be b47f b43c a45b 44be
000003d0: afb0 393e 598b 943e ee83 94bc 5861 8ebe
000003e0: e943 5abd 04f5 af3d 4318 80bc 54ce 3e3d
000003f0: 4ad2 fbbd 88ea d93d 021d 20be f4a4 06be

bias_ih_l0 f4 [128]
0.056765765 0.06344713 0.17097968 0.06477891 0.11840908 0.22937696 0.086695336 0.025657304
-0.011242612 0.14915012 0.15316746 0.13458483 0.070951305 0.034737356 -0.10539604 0.20324071
0.018701253 0.14985713 -0.10083765 -0.09224647 0.12589704 -0.09325568 0.16292818 0.05478452
0.05395007 0.15003659 0.052275877 -0.12968867 0.11395086 0.08561198 0.017095407 -0.1112533
0.05054345 -0.016377306 0.095566824 -0.0029864025 0.018051477 -0.08365639 0.07152531 -0.044175517
-0.086861305 -0.012717313 -0.16915329 -0.09313513 -0.12948628 0.20599525 -0.012909594 0.17505236
0.10189289 0.030284 0.022089658 -0.08597634 -0.061536245 -0.05937302 0.08828354 0.14518952
0.0027104255 0.18928455 0.12402396 0.047945555 0.0019550056 -0.08443419 0.089404255 -0.08940967
-0.041362636 -0.11051337 -0.1281946 0.077537775 -0.09910382 -0.0054931063 -0.11592094 -0.09914089
-0.15689795 -0.10840714 -0.00091556145 -0.04520779 -0.16296431 0.1058267 -0.15780213 0.0056623365
-0.15620282 -0.0075723133 0.049603004 -0.028990477 0.15552157 0.12449116 0.007591816 -0.06018423
-0.05629409 0.050661154 0.02971974 -0.1618202 0.03966253 -0.16025954 -0.09528884 0.01114355
0.021406906 -0.0092991395 -0.10256576 -0.10761184 0.047036648 -0.028213143 -0.045753967 0.107203014
0.04302805 0.15316834 -0.09072547 -0.058541562 0.037580203 0.17895333 0.1966251 -0.072349034
0.030335858 0.06862166 0.19416617 0.050301906 0.1291405 0.09268109 -0.0035496664 0.13095318
0.19607294 -0.059872556 0.20711601 0.13636789 0.07380066 -0.014765129 0.1685589 -0.113074094
00000000: 3883 683d 92f0 813d 4c15 2f3e ceaa 843d
00000010: 7680 f23d cbe1 6a3e 538d b13d 442f d23c
00000020: ef32 38bc cfba 183e eed7 1c3e 9bd0 093e
00000030: eb4e 913d c248 0e3d e1d9 d7bd 551e 503e
00000040: 5f33 993c 2674 193e f883 cebd b8eb bcbd
00000050: 27eb 003e d5fc bebd a5d6 263e bc65 603d
00000060: c0fa 5c3d 31a3 193e 3b1f 563d 1bcd 04be
00000070: 125f e93d 5555 af3d ab0b 8c3c c5d8 e3bd
00000080: a606 4f3d b329 86bc 8ab8 c33d 85b7 43bb
00000090: b1e0 933c 0b54 abbd dd7b 923d 63f1 34bd
000000a0: 57e4 b1bd 475c 50bc 8536 2dbe a2bd bebd
000000b0: 0d98 04be 6bf0 523e c382 53bc ed40 333e
000000c0: 38ad d03d 2716 f83c 5ff5 b43c 5d14 b0bd
000000d0: 6e0d 7cbd 2031 73bd 00ce b43d 90ac 143e
000000e0: 65a1 313b cfd3 413e 4600 fe3d 8f62 443d
000000f0: 8d1f 003b d5eb acbd 9419 b73d 6b1c b7bd
00000100: de6b 29bd d554 e2bd 7245 03be 20cc 9e3d
00000110: f2f6 cabd 84ff b3bb f567 edbd 610a cbbd
00000120: dba9 20be 9004 debd 4a02 70ba ce2b 39bd
00000130: 1ee0 26be abbb d83d e296 21be 1f8b b93b
00000140: a2f3 1fbe 2b21 f8bb 852c 4b3d 707d edbc
00000150: 0c41 1f3e 39f5 fe3d c5c4 f83b bd83 76bd
00000160: a294 66bd 1282 4f3d d076 f33c 32b4 25be
00000170: 2d75 223d 141b 24be cc26 c3bd 7093 363c
00000180: 895d af3c 6b5b 18bc ff0d d2bd 9963 dcbd
00000190: 80a9 403d 401f e7bc 8368 3bbd 418d db3d
000001a0: 2e3e 303d 29d8 1c3e 46ce b9bd 47c9 6fbd
000001b0: b3ed 193d 8b3f 373e 1758 493e bb2b 94bd
000001c0: e882 f83c 8389 8c3d 7fd3 463e 5f09 4e3d
000001d0: 683d 043e 95cf bd3d 85a1 68bb 9718 063e
000001e0: 58c7 483e ed3c 75bd 3816 543e 06a4 0b3e
000001f0: cd24 973d 71e9 71bc b49a 2c3e 6493 e7bd

bias_hh_l0 f4 [128]
0.10854653 0.119653 -0.09500724 -0.15791005 0.12997063 0.15147558 0.09359562 0.07618276
0.0940283 -0.031553008 -0.12716934 -0.028462222 -0.11203155 0.2555953 -0.10466608 0.10027943
-0.0033789976 0.22517742 -0.13875161 0.23483521 0.18795806 0.0075376285 0.004470237 -0.04057942
-0.05405394 -0.14200006 0.057825953 0.024020996 0.074605785 0.13065057 -0.0739877 0.19694208
-0.034148544 -0.035076737 0.005921788 -0.07389446 0.1331133 -0.06430549 -0.07680525 -0.011189704
0.034780387 0.18773246 -0.16635016 0.04456157 -0.026521768 0.0038329584 0.14457814 0.06504926
-0.040680528 0.11689039 0.15036035 0.10676919 -0.039648756 0.0024214345 -0.19073357 0.12525357
0.20608737 0.14273214 0.07767066 -0.05360161 0.19461353 0.005711047 0.034352098 0.069111586
-0.06124592 -0.15319824 -0.06520463 0.102295995 0.024715073 -0.075672686 0.16922341 0.02936509
-0.15251413 0.05744275 -0.11183071 -0.10999571 0.03532224 -0.038699217 -0.02881676 0.13685273
0.019624857 -0.13780388 -0.041934054 0.08820585 0.038736302 -0.076603144 -0.08024405 -0.015123879
-0.07636365 0.07966446 0.015909161 0.11440554 0.108297825 -0.17015938 0.13727443 0.041467857
0.049342424 0.17532407 -0.12048937 -0.08953674 -0.010301526 -0.013310004 0.08785222 -0.094250746
0.17803457 -0.00063025183 -0.04263035 -0.022854283 0.09651422 0.09702494 -0.1040659 0.076383844
0.09073085 0.120910965 0.06374434 0.13202375 0.066086054 0.08340811 -0.16683713 0.07429744
-0.07907569 -0.1153192 -0.0860449 0.11251688 0.01011998 -0.027298808 0.06255542 0.13098966
00000000: a54d de3d a20c f53d 2893 c2bd 2cb3 21be
00000010: 0517 053e 6a1c 1b3e 0faf bf3d b505 9c3d
00000020: e991 c03d ba3d 01bd ae38 02be 9b29 e9bc
00000030: cc70 e5bd 63dd 823e 2b5b d6bd 4d5f cd3d
00000040: 2c72 5dbb e994 663e e714 0ebe a478 703e
00000050: 1478 403e 36fe f63b 117b 923b 9b36 26bd
00000060: aa67 5dbd 7768 11be e8da 6c3d aec7 c43c
00000070: ebca 983d 43c9 053e dd86 97bd 2fab 493e
00000080: 58df 0bbd a0ac 0fbd 8f0b c23b fb55 97bd
00000090: da4e 083e 99b2 83bd 124c 9dbd 0555 37bc
000000a0: e175 0e3d f03c 403e b257 2abe 3186 363d
000000b0: 2e44 d9bc 5f32 7b3b 4b0c 143e 8c38 853d
000000c0: a0a0 26bd 3b64 ef3d 10f8 193e cea9 da3d
000000d0: bc66 22bd eeb0 1e3b a94f 43be 7942 003e
000000e0: 9108 533e 6028 123e cc11 9f3d 5d8d 5bbd
000000f0: c548 473e bc23 bb3b c9b4 0c3d 608a 8d3d
00000100: 00dd 7abd 00e0 1cbe 018a 85bd 9080 d13d
00000110: 4477 ca3c 48fa 9abd e748 2d3e 0f8f f03c
00000120: aa2c 1cbe 1749 6b3d 8007 e5bd 6e45 e1bd
00000130: 0eae 103d 1283 1ebd 2011 ecbc 1f23 0c3e
00000140: 4fc4 a03c 761c 0dbe 0bc3 2bbd 45a5 b43d
00000150: f5a9 1e3d 1ce2 9cbd fe56 a4bd 25ca 77bc
00000160: 8c64 9cbd 1f27 a33d ee53 823c 744d ea3d
00000170: 40cb dd3d 433e 2ebe ab91 0c3e 33da 293d
00000180: 481b 4a3d 2788 333e 21c3 f6bd 0a5f b7bd
00000190: bbc7 28bc 3412 5abc ddeb b33d 8906 c1bd
000001a0: b24e 363e 7c37 25ba 299d 2ebd e838 bbbc
000001b0: 3fa9 c53d 03b5 c63d 8120 d5bd 226f 9c3d
000001c0: 19d1 b93d 2ba0 f73d 648c 823d 3c31 073e
000001d0: 2058 873d dfd1 aa3d 5ad7 2abe 4229 983d
000001e0: 6ff2 a1bd 792c ecbd 4f38 b0bd 406f e63d
000001f0: 46ce 253c c0a1 dfbc 0e1d 803d 2722 063e

weight_ih_l0_reverse f4 [128, 16]
0.10081453 0.0659886 0.14902787 0.0017269553 -0.13584939 -0.2329986 -0.12809281 -0.1986064
0.102549665 -0.12647997 0.042438924 0.21782671 -0.027606023 -0.16775817 0.19478375 0.1630935
0.042129196 -0.21318457 -0.12374964 0.060924087 -0.015993122 -0.17278662 0.07924343 -0.15132979
0.111108616 -0.040117316 0.14006677 -0.25339943 -0.025739014 -0.19705522 0.20755807 0.12428075
0.24848372 -0.07350254 -0.011092155 0.12637906 -0.27816376 -0.0150678735 0.011497758 0.02702399
0.017894525 -0.21419093 0.2406038 0.17912284 -0.19888392 -0.068431765 0.057634078 0.23295748
0.12913011 -0.10534945 0.049648676 -0.048659086 0.0684652 0.062023837 0.15380435 0.122869805
0.26177928 0.13583493 -0.21953738 -0.026347537 -0.050181594 -0.15416633 -0.1369581 0.09654449
0.20059375 -0.10303334 -0.074841894 -0.02525762 -0.13369559 -0.2075763 -0.067799695 0.06758187
0.055502128 -0.043459572 0.21846859 0.0015507118 0.08404811 -0.04011688 0.3625476 0.14159228
-0.084024265 -0.20465605 0.078327164 -0.17070962 -0.10981153 -0.2706873 0.13617817 0.09456576
-0.05024233 -0.02951707 0.23744303 0.008859573 -0.1358219 0.0050612167 0.028474139 0.28127962
0.12176475 0.15646955 0.046625055 0.15538648 -0.03853628 0.12965466 -0.12115847 -0.15435152
-0.069579646 -0.09705733 -0.011849799 0.10197366 -0.071109235 -0.010177313 0.10757053 0.08004395
-0.066230126 -0.1641377 0.20862934 0.0344795 -0.041810136 -0.21270469 -0.14302854 0.117733285
-0.1358385 -0.17119971 0.02222218 0.12080997 0.045401175 0.0026955754 0.0057079084 0.047400635
-0.08449932 0.1953924 -0.22100465 0.23694186 -0.12789303 0.119249575 -0.020807736 -0.15793145
0.12139391 0.27315313 0.17479955 0.08758657 0.097174354 -0.018049655 0.11844655 0.02990035
0.19214606 -0.02729526 0.10224499 0.29294956 0.006725157 -0.0588275 0.008141487 -0.24531992
-0.20369281 -0.1893471 -0.060774013 0.012248023 0.026632441 -0.15816721 -0.14751813 0.1740409
-0.058864694 -0.030939404 -0.26984403 0.015525714 0.024485687 -0.10583905 -0.17446285 -0.04393176
-0.08904295 0.041404366 0.16549537 0.15491351 -0.057756204 -0.1989398 -0.07483243 0.07265909
0.091858566 -0.031597786 -0.08755432 0.29773772 0.029632444 -0.023963481 -0.194238 0.12373908
-0.059997514 0.2189136 -0.20900397 0.021754216 -0.056113057 0.0023615323 -0.09440267 -0.081713
0.060815275 -0.12473957 -0.06700022 -0.078700595 0.08336136 -0.17565484 0.008266771 -0.04965569
0.16239195 0.25471184 0.04419031 0.056532256 -0.053715453 0.038823787 0.25482085 0.15808982
0.12061981 0.096221656 -0.035640374 0.2794899 -0.11101741 -0.061094407 0.12019837 -0.13225855
0.0013777331 0.19579794 0.22051081 0.09644177 0.038610123 -0.11104377 -0.19768122 0.055194374
0.0042634476 -0.051236544 0.124108575 -0.11164133 0.17092036 0.13477267 -0.073440075 -0.017680606
-0.11753057 -0.14606458 -0.052933425 0.10591486 -0.04340241 -0.012787223 -0.0042553404 -0.0005583974
0.0037988485 0.072476685 -0.17113088 0.29887992 -0.14170618 -0.19846857 -0.05302648 -0.18371174
-0.015509787 0.04463494 0.16324387 0.10621569 0.081267476 -0.07073604 -0.016815593 0.13147832
00000000: d977 ce3d 0825 873d c39a 183e 015b e23a
00000010: 1a1c 0bbe 2f97 6ebe c32a 03be 7a5f 4bbe
00000020: 8f05 d23d f783 01be 70d4 2d3d f70d 5f3e
00000030: 0726 e2bc ccc8 2bbe 6475 473e fc01 273e
00000040: aa8f 2c3d 0e4d 5abe 7470 fdbd 898b 793d
00000050: 0204 83bc faee 30be 614a a23d 32f6 1abe
00000060: ea8c e33d 0e52 24bd aa6d 0f3e 92bd 81be
00000070: a0da d2bc d8c8 49be 1a8a 543e e886 fe3d
00000080: 8472 7e3e 8088 96bd dfbb 35bc 8369 013e
00000090: 7b6b 8ebe 3edf 76bc 1861 3c3c 6a61 dd3c
000000a0: 8a97 923c de54 5bbe d860 763e fa6b 373e
000000b0: 3aa8 4bbe f425 8cbd b611 6c3d 688c 6e3e
000000c0: af3a 043e 74c1 d7bd 695c 4b3d c04e 47bd
000000d0: 7c37 8c3d b50c 7e3d e37e 1d3e 2aa3 fb3d
000000e0: ef07 863e 5018 0b3e 68ce 60be cad6 d7bc
000000f0: 378b 4dbd c7dd 1dbe bf3e 0cbe 1eb9 c53d
00000100: 7368 4d3e 2503 d3bd b546 99bd 11e9 cebc
00000110: 7fe7 08be e28e 54be 91da 8abd 5d68 8a3d
00000120: 3356 633d aa02 32bd 3bb6 5f3e 4141 cb3a
00000130: 6a21 ac3d 9951 24bd d79f b93e 91fd 103e
00000140: ea14 acbd 5b91 51be fe69 a03d 81ce 2ebe
00000150: dee4 e0bd 8797 8abe 4a72 0b3e b1ab c13d
00000160: e7ca 4dbd c8cd f1bc 4424 733e be27 113c
00000170: e514 0bbe 90d8 a53b 9942 e93c e203 903e
00000180: cc5f f93d 8e39 203e eaf9 3e3d a21d 1f3e
00000190: 38d8 1dbd 31c4 043e ef21 f8bd 530e 1ebe
000001a0: c67f 8ebd fec5 c6bd a925 42bc 91d7 d03d
000001b0: b8a1 91bd bfbe 26bc f04d dc3d 15ee a33d
000001c0: a9a3 87bd b713 28be eea2 553e 603a 0d3d
000001d0: 1b41 2bbd 42cf 59be 1376 12be 261e f13d
000001e0: 3f19 0bbe fa4e 2fbe 4a0b b63c 386b f73d
000001f0: 95f6 393d 40a8 303b 6809 bb3b 2b27 423d
00000200: fb0d adbd f214 483e 0b4f 62be e3a0 723e
00000210: 64f6 02be 1f39 f43d fc74 aabc c8b8 21be
00000220: 5f9d f83d bada 8b3e a7fe 323e 9660 b33d
00000230: 5903 c73d dfdc 93bc 1b94 f23d 94f1 f43c
00000240: f0c1 443e 4f9a dfbc d265 d13d 7cfd 953e
00000250: b55e dc3b 1bf5 70bd df63 053c 2535 7bbe
00000260: d994 50be 35e4 41be 2cee 78bd efab 483c
00000270: 472c da3c 96f6 21be fe0e 17be c737 323e
00000280: 1b1c 71bd a274 fdbc ff28 8abe 905f 7e3c
00000290: 3596 c83c 25c2 d8bd 64a6 32be caf1 33bd
000002a0: 265c b6bd a097 293d 9e77 293e a6a1 1e3e
000002b0: c591 6cbd e0b6 4bbe bf41 99bd 4ace 943d
000002c0: 5820 bc3d ae6c 01bd ae4f b3bd 1471 983e
000002d0: bdbf f23c 104f c4bc 54e6 46be ea6a fd3d
000002e0: f4bf 75bd e32a 603e 2305 56be e635 b23c
000002f0: ced6 65bd f0c3 1a3b 3056 c1bd 2559 a7bd
00000300: 7019 793d 7677 ffbd 6937 89bd c72d a1bd
00000310: 5cb9 aa3d ddde 33be 5a71 073c c463 4bbd
00000320: 134a 263e 9769 823e e600 353d 5e8e 673d
00000330: bc04 5cbd b105 1f3d e177 823e 4ce2 213e
00000340: 8507 f73d dc0f c53d a4fb 11bd 4d19 8f3e
00000350: 195d e3bd 213e 7abd 902a f63d c96e 07be
00000360: 0d95 b43a 417f 483e 96cd 613e 4383 c53d
00000370: a625 1e3d eb6a e3bd f26c 4abe 7f13 623d
00000380: 64b4 8b3b 69dd 51bd a32c fe3d 36a4 e4bd
00000390: bf05 2f3e d901 0a3e c067 96bd ebd6 90bc
000003a0: deb3 f0bd f491 15be b8d0 58bd e4e9 d83d
000003b0: bac6 31bd 8081 51bc 6270 8bbb 6a61 12ba
000003c0: 1af6 783b a86e 943d ef3c 2fbe ca06 993e
000003d0: 6d1b 11be 583b 4bbe 4b32 59bd ee1e 3cbe
000003e0: c31c 7ebc 20d3 363d 6729 273e 9d87 d93d
000003f0: 906f a63d 0fde 90bd dbc0 89bc 41a2 063e

weight_hh_l0_reverse f4 [128, 32]
-0.090807445 -0.04074352 0.12728101 -0.10524357 0.17732348 0.07077226 0.12228251 -0.08991448
0.019852452 -0.01043869 0.048419997 0.13168648 0.20076603 0.15722209 -0.11037013 -0.13887334
-0.02942801 0.08703389 0.09893491 -0.1054733 -0.11431566 0.13345054 0.04064972 -0.08963998
-0.16845165 0.036900774 0.039582316 0.10533984 -0.1429718 0.13601777 0.06082607 -0.04231075
0.039503403 0.07030625 0.08809056 0.01877745 0.10935341 -0.09945411 0.00870663 0.07485117
0.13147584 -0.0014222224 0.23405257 0.1198365 -0.023682872 -0.112078 0.014075831 -0.19625936
0.021325259 0.14899708 -0.12671031 -0.1690783 0.013249851 -0.02051784 0.19686362 -0.18270652
0.0075633926 -0.03809929 0.07258613 0.050503347 0.13961144 -0.19614883 -0.14471184 -0.027179664
-0.09691559 -0.2123224 0.09831535 -0.013554895 0.17121479 0.09243313 -0.023288164 0.07940929
0.07519846 0.17701098 -0.1663493 -0.14112544 -0.033881657 -0.037766133 0.0789626 -0.16904928
0.17954004 -0.19466403 0.11391236 0.07410784 0.0064493096 0.09015802 -0.19334702 0.06417123
0.122361995 -0.10209705 -0.013306348 0.114234254 0.17958553 0.070772335 0.05513886 0.0660713
0.1331246 0.009793862 0.13953154 -0.13443837 0.0769654 -0.14883976 0.005877377 0.12964419
0.05343475 0.0037754574 0.13548476 -0.08163263 -0.20678283 -0.09709853 -0.13691448 0.017688558
-0.027359284 -0.14203341 -0.063803114 -0.22303821 0.17577888 -0.15801932 -0.018613195 -0.04501254
0.16095467 -0.03668894 -0.15434211 -0.04388171 0.19703901 -0.13464001 -0.15186037 -0.07377181
0.13580416 -0.07717678 0.18394075 0.030496337 0.15488052 0.23723367 0.05478385 -0.04816893
0.1271438 0.07452857 -0.039325334 0.16535597 0.046132375 0.008650082 0.11229035 0.14030667
-0.14520693 -0.09176267 -0.08712587 -0.05120431 0.019115487 0.043365587 -0.04850309 0.026115164
0.109766796 0.118049316 0.01450109 0.15644638 -0.0097748805 0.14646907 0.114823125 -0.1795838
-0.065111324 0.060574226 -0.032066308 0.16028543 0.22198112 0.22881867 0.055694174 0.008132605
0.12193369 -0.06494012 -0.04293139 0.010127487 -0.19705662 0.18912521 -0.1197653 -0.11804435
0.18993412 -0.051718086 -0.043106068 0.14300913 0.21312493 0.024356876 0.07093346 -0.10072336
-0.083380036 -0.086006604 0.114989065 0.09562672 -0.06329245 0.14811812 -0.116337575 -0.07554478
0.02395324 0.0063233706 -0.107087076 0.03333943 -0.06181653 0.022506678 0.062882565 -0.048910905
0.042519953 -0.13063559 -0.025799101 0.044113085 -0.18126187 -0.14630182 -0.046202045 -0.015412878
0.2084814 -0.11071504 -0.12326593 -0.039319247 0.10832145 -0.13877863 0.1726358 0.029003454
-0.022638394 -0.12795116 -0.1266815 -0.16912296 -0.023124581 0.05973627 -0.23147325 -0.19233574
-0.11988725 0.03705131 0.039517794 -0.004742628 0.1985961 0.16412622 -0.13174947 -0.20278469
0.06741003 0.14503868 0.06090023 0.012742997 -0.03035869 0.20745672 -0.009490615 0.15098107
0.047744583 0.048490953 0.10269334 -0.155552 -0.0020912094 -0.054220542 -0.17448387 -0.17789009
0.04919629 0.090374924 0.03373227 0.12595515 -0.04006413 0.005594839 0.0721285 -0.13187972
00000000: 41f9 b9bd ade2 26bd f455 023e f189 d7bd
00000010: 4994 353e 0cf1 903d 416f fa3d 1525 b8bd
00000020: 9ca1 a23c 0a07 2bbc 0c54 463d d2d8 063e
00000030: 9c95 4d3e d4fe 203e bc09 e2bd d034 0ebe
00000040: 0313 f1bc d33e b23d 639e ca3d 6302 d8bd
00000050: 541e eabd 42a7 083e 5280 263d 2a95 b7bd
00000060: 977e 2cbe 4425 173d 1121 223d 6abc d73d
00000070: 3367 12be 3e48 0b3e c224 793d 094e 2dbd
00000080: 52ce 213d b9fc 8f3d d368 b43d 2bd3 993c
00000090: aef4 df3d 99ae cbbd 41a6 0e3c 924b 993d
000000a0: 9aa1 063e dd69 baba 7aab 6f3e d76c f53d
000000b0: 9502 c2bc 2789 e5bd 509e 663c 37f8 48be
000000c0: 4fb2 ae3c b192 183e 59c0 01be dd22 2dbe
000000d0: e715 593c 0715 a8bc 9e96 493e 6b17 3bbe
000000e0: 56d6 f73b 000e 1cbd 09a8 943d 99dc 4e3d
000000f0: 4df6 0e3e 3ddb 48be 572f 14be e3a7 debc
00000100: ae7b c6bd 0b6b 59be 8f59 c93d 5a15 5ebc
00000110: ee52 2f3e 954d bd3d d2c6 bebc 56a1 a23d
00000120: a601 9a3d 5e42 353e 7957 2abe 3083 10be
00000130: 7ec7 0abd a9b0 1abd 25b7 a13d 411b 2dbe
00000140: 58d9 373e 0256 47be e24a e93d dac5 973d
00000150: bb54 d33b c5a4 b83d c3fc 45be 356c 833d
00000160: ed98 fa3d 4218 d1bd de02 5abc a6f3 e93d
00000170: 45e5 373e 16f1 903d 49d9 613d 6450 873d
00000180: d151 083e 6f76 203c 5be1 0e3e 36aa 09be
00000190: 09a0 9d3d 7369 18be 0397 c03b 72c1 043e
000001a0: 65de 5a3d aa6d 773b 84bc 0a3e 022f a7bd
000001b0: e1be 53be 98db c6bd 4f33 0cbe 98e7 903c
000001c0: 9420 e0bc 3571 11be 35ab 82bd 2164 64be
000001d0: 61ff 333e d1cf 21be b37a 98bc 125f 38bd
000001e0: 4dd1 243e 2447 16bd dc0b 1ebe 4fbd 33bd
000001f0: 98c4 493e 12df 09be 4981 1bbe ad15 97bd
00000200: 3f10 0b3e dc0e 9ebd f75a 3c3e 74d3 f93c
00000210: 0099 1e3e 62ed 723e 0865 603d c94c 45bd
00000220: fc31 023e 6fa2 983d 9a13 21bd 1353 293e
00000230: 4df5 3c3d 13b9 0d3c 7cf8 e53d 8dac 0f3e
00000240: 20b1 14be 11ee bbbd 0c6f b2bd 9cbb 51bd
00000250: 1598 9c3c 1da0 313d 2dab 46bd 78ef d53c
00000260: 6acd e03d d7c3 f13d fb95 6d3c 7b33 203e
00000270: d226 20bc fdfb 153e 6328 eb3d d1e4 37be
00000280: 1659 85bd ae1c 783d f657 03bd dd21 243e
00000290: 054f 633e 714f 6a3e 931f 643d 9e3e 053c
000002a0: 5fb8 f93d 53ff 84bd d3d8 2fbd c2ed 253c
000002b0: 36c9 49be 0aaa 413e 8247 f5bd 3cc1 f1bd
000002c0: 177e 423e 58d6 53bd fd8f 30bd fc70 123e
000002d0: 6c3d 5a3e 1288 c73c 9045 913d 0d48 cebd
000002e0: 27c3 aabd 3b24 b0bd 637f eb3d f1d7 c33d
000002f0: 799f 81bd 47ac 173e 6542 eebd 39b7 9abd
00000300: 9639 c43c 4734 cf3b 7850 dbbd ed8e 083d
00000310: 5433 7dbd ed5f b83c 93c8 803d cd56 48bd
00000320: 6729 2e3d 56c5 05be a358 d3bc ecaf 343d
00000330: b69c 39be 25d0 15be 5b3e 3dbd 4c86 7cbc
00000340: 267c 553e 91be e2bd d972 fcbd 380d 21bd
00000350: a3d7 dd3d fc1b 0ebe 70c7 303e a798 ed3c
00000360: 2774 b9bc a105 03be ccb8 01be 922e 2dbe
00000370: c36f bdbc 05ae 743d 5307 6dbe a9f3 44be
00000380: 7287 f5bd 1dc3 173d 69dd 213d 0c68 9bbb
00000390: c75c 4b3e b410 283e 55e9 06be caa6 4fbe
000003a0: 450e 8a3d 0585 143e 8572 793d 01c8 503c
000003b0: cab2 f8bc 896f 543e 867e 1bbc c89a 1a3e
000003c0: d38f 433d 739e 463d e350 d23d 0649 1fbe
000003d0: ac0c 09bb 5c16 5ebd e6ab 32be d228 36be
000003e0: 0d82 493d 7d16 b93d d92a 0a3d 63fa 003e
000003f0: 491a 24bd e954 b73b 1bb8 933d 7a0b 07be

bias_ih_l0_reverse f4 [128]
0.122638166 -0.047389206 0.17442031 -0.0036364943 0.012738932 -0.072723724 0.092184536 0.10212018
0.061530847 0.2102433 -0.11589048 0.15641876 0.20853606 -0.11561372 -0.13994664 -0.061053265
-0.15334353 -0.053925738 0.11844227 -0.08082443 0.17972106 0.03520834 0.19910748 -0.05131047
-0.039290834 -0.050967555 0.17773968 -0.003772759 -0.025089152 0.037554633 0.035766825 -0.053044718
0.1729594 0.09296319 0.095379084 -0.028240047 0.06849548 0.17524275 0.1436119 -0.09331407
0.018516427 -0.0035551284 0.1349235 0.07639965 0.061427627 0.014475217 -0.06896289 0.07485879
0.16938932 0.16973534 0.00029517637 0.18515253 -0.0035813753 0.14600903 0.1733949 0.08815336
-0.030979589 0.13500515 0.2019536 -0.117513046 -0.013596669 -0.040658478 0.114083834 0.06596777
0.135493 0.18952389 -0.14107347 0.06622653 0.09471262 -0.10600947 0.08543426 -0.040470213
0.029599845 0.0450972 0.11204449 0.019115774 -0.0066229943 0.059197772 0.053754974 -0.15098986
0.13708322 -0.060816314 0.05355592 -0.17156413 0.04273374 -0.0937998 0.073946804 -0.13144754
-0.11155637 0.0214928 -0.09131067 0.12648731 0.13998085 -0.11072156 -0.072424956 -0.1454854
0.051320095 0.23284315 0.15913433 0.12033786 0.17114091 0.19999792 0.18002419 -0.0784132
0.104373105 0.0803734 -0.13259305 0.020133257 0.022114268 0.10549581 0.089065745 0.06924978
0.17812145 -0.03953546 -0.12936702 0.014172296 0.010352672 -0.107813336 0.056515153 -0.0756641
-0.14184995 -0.08623007 0.03854921 0.14213496 -0.12850285 -0.04817639 0.14836197 0.17807063
00000000: b829 fb3d 2f1b 42bd 3d9b 323e 4052 6ebb
00000010: f4b6 503c 2df0 94bd 3fcb bc3d 6324 d13d
00000020: c507 7c3d 054a 573e fd57 edbd 3d2c 203e
00000030: 7a8a 553e e3c6 ecbd 2c4e 0fbe fd12 7abd
00000040: 1606 1dbe 3ce1 5cbd dc91 f23d 4787 a5bd
00000050: cc08 383e 9f36 103d d5e2 4b3e ed2a 52bd
00000060: 6def 20bd 5bc3 50bd 6401 363e 6540 77bb
00000070: c487 cdbc e3d2 193d 3c80 123d 6b45 59bd
00000080: 451c 313e 7c63 be3d 1c56 c33d ac57 e7bc
00000090: 5c47 8c3d d672 333e ff0e 133e 721b bfbd
000000a0: c3af 973c 28fd 68bb 6329 0a3e 6b77 9c3d
000000b0: 899b 7b3d 7629 6d3c 6a3c 8dbd 914f 993d
000000c0: 6574 2d3e 1acf 2d3e e7c1 9a39 a098 3d3e
000000d0: 82b5 6abb 6483 153e 6f8e 313e c089 b43d
000000e0: e8c8 fdbc ca3e 0a3e edcc 4e3e aeaa f0bd
000000f0: 90c4 5ebc 8189 26bd c9a4 e93d 1c1a 873d
00000100: adbe 0a3e 8d12 423e 9075 10be c6a1 873d
00000110: b1f8 c13d 7e1b d9bd 28f8 ae3d 18c4 25bd
00000120: 607b f23c d7b7 383d 9577 e53d af98 9c3c
00000130: b405 d9bb 5d79 723d 2d2e 5c3d 169d 1abe
00000140: 8b5f 0c3e 871a 79bd 745d 5b3d 82ae 2fbe
00000150: 9309 2f3d 1c1a c0bd 6c71 973d 2f9a 06be
00000160: ab77 e4bd ab11 b03c 1701 bbbd e485 013e
00000170: 2457 0f3e fcc1 e2bd 8953 94bd 20fa 14be
00000180: 0535 523d 6f6e 6e3e 1cf4 223e b273 f63d
00000190: 903f 2f3e 41cc 4c3e 4358 383e 1a97 a0bd
000001a0: 91c1 d53d cf9a a43d 79c6 07be 80ee a43c
000001b0: fb28 b53c 300e d83d 1a68 b63d d4d2 8d3d
000001c0: 7865 363e efef 21bd ca78 04be eb32 683c
000001d0: 419e 293c 3dcd dcbd 6f7c 673d c8f5 9abd
000001e0: 1d41 11be 6499 b0bd c7e5 1d3d d48b 113e
000001f0: 4096 03be 9b54 45bd 33ec 173e 2658 363e

bias_hh_l0_reverse f4 [128]
-0.091241084 0.18698873 -0.10265796 0.21010469 -0.0072055543 -0.02254223 -0.03344562 0.09820285
0.09262004 0.09868062 0.020176219 0.15281175 0.21612793 0.045884956 0.025500387 -0.05802322
0.06562378 -0.03368773 -0.021932637 0.029604172 0.075642005 0.07213173 -0.016679198 0.0767315
0.04143441 0.17015876 -0.055315923 -0.04681496 0.13718963 0.024461329 0.04686379 0.15751316
-0.049353056 -0.05085975 0.090008855 -0.0022964766 -0.13263257 0.2523252 -0.14362073 0.1656902
0.049766544 -0.124058634 0.109277494 0.08063293 0.19078162 -0.091178246 -0.09561179 0.14321329
-0.09816926 0.1384751 0.15279189 -0.037915945 0.157359 0.14780177 0.07386463 0.015810383
0.13240072 0.14659412 0.025893033 0.1346327 -0.14219746 -0.07980133 -0.05489735 0.04207202
0.16159843 -0.11244108 0.15173626 -0.05240222 0.06290528 0.1404831 0.07492715 -0.12197054
0.12833905 -0.036234517 0.015507966 0.095221445 -0.06136849 -0.020285074 -0.03184642 -0.056137666
-0.17047611 0.13333337 0.013153165 0.12363981 0.16432844 -0.16254081 -0.12858559 -0.070129454
-0.089173995 -0.105768606 0.0051179524 0.02838459 0.1377871 0.047854833 -0.08487693 -0.17384812
0.17034245 -0.085385844 0.1605613 -0.10430767 0.041131854 0.10291368 -0.16378747 -0.044082657
0.031585153 0.1330616 -0.02784366 -0.11906607 0.023262655 -0.012284921 -0.16240701 0.16064873
0.1666396 -0.053519078 -0.08189894 0.011237727 0.17470506 0.036271308 0.10262894 0.08927374
0.09330767 0.11620855 0.05180586 -0.020860765 -0.108727746 -0.035588916 0.15083967 0.22586712
00000000: 9bdc babd f979 3f3e 563e d2bd af25 573e
00000010: 921c ecbb 7caa b8bc 46fe 08bd 931e c93d
00000020: 93af bd3d 1119 ca3d 9948 a53c af7a 1c3e
00000030: a450 5d3e ddf1 3b3d 30e6 d03c c2a9 6dbd
00000040: c365 863d 25fc 09bd 13ac b3bc 7384 f23c
00000050: 32ea 9a3d cdb9 933d d0a2 88bc 6825 9d3d
00000060: 21b7 293d 193e 2e3e f392 62bd 0bc1 3fbd
00000070: 707b 0c3e 2063 c83c 3ff4 3f3d 214b 213e
00000080: 6e26 4abd 5052 50bd 9056 b83d 7c80 16bb
00000090: d5d0 07be c530 813e 5011 13be b1aa 293e
000000a0: 01d8 4b3d 7412 febd e1cc df3d e122 a53d
000000b0: 425c 433e a9bb babd 1dd0 c3bd 81a6 123e
000000c0: f70c c9bd 6bcc 0d3e 7a75 1c3e c04d 1bbd
000000d0: b822 213e 5959 173e 5746 973d c784 813c
000000e0: 0e94 073e c51c 163e a01d d43c 28dd 093e
000000f0: 369c 11be e16e a3bd 0bdc 60bd b653 2c3d
00000100: 0f7a 253e 8247 e6bd c060 1b3e b6a3 56bd
00000110: 7cd4 803d cdda 0f3e 6873 993d b1cb f9bd
00000120: 506b 033e a56a 14bd 2015 7e3c 7603 c33d
00000130: 875d 7bbd e22c a6bc 6471 02bd 9cf0 65bd
00000140: 4a91 2ebe 8b88 083e 5f80 573c de36 fd3d
00000150: b745 283e 1971 26be f1ab 03be 08a0 8fbd
00000160: dba0 b6bd 369d d8bd 7fb4 a73b cd86 e83c
00000170: 1018 0d3e 6e03 443d f5d3 adbd 3e05 32be
00000180: 406e 2e3e c6de aebd 2e6a 243e 429f d5bd
00000190: e079 283d 68c4 d23d e7b7 27be 0490 34bd
000001a0: 6f5f 013d 4d41 083e 6318 e4bc e9d8 f3bd
000001b0: 5391 be3c b146 49bc 064e 26be 1a81 243e
000001c0: 92a3 2a3e d236 5bbd a2ba a7bd 711e 383c
000001d0: e2e5 323e 3991 143d 1f2f d23d 27d5 b63d
000001e0: 1718 bf3d c0fe ed3d 6232 543d 32e4 aabc
000001f0: a7ac debd afc5 11bd b775 1a3e b649 673e

weight f4 [2, 64]
-0.16664708 -0.044977427 0.051441733 0.16020076 0.13450934 0.055366196 -0.1481611 0.14143409
0.14955498 -0.12153796 -0.0014188498 0.039673645 0.054775774 -0.23687719 -0.04701997 -0.13449328
0.14483924 0.16467012 -0.04847335 0.17036317 -0.06022479 -0.05463079 0.008909718 0.12911358
0.19643198 -0.1340195 -0.014278183 0.2055293 0.135979 0.098258585 0.037542414 0.11977669
0.078821175 -0.16717595 0.0027570776 -0.1609505 0.03355137 0.19158523 -0.11303782 -0.14918175
-0.021956576 0.07448375 0.12233052 0.03688721 0.1773158 0.16084892 -0.07100942 0.026044993
-0.11751559 -0.21133952 0.095596105 0.059876524 -0.14492333 0.082937464 -0.20175079 0.16504602
-0.052659594 -0.07936414 -0.20004123 0.20594744 0.10221286 0.17625089 0.0076484694 0.14669184
0.14052184 0.091162145 -0.12388754 -0.14424856 0.02517829 -0.24818262 0.033002347 -0.09245747
-0.031271435 -0.005686537 0.09383092 -0.1904277 -0.09083434 0.05467318 0.17571168 0.16108426
-0.15991414 -0.053363927 0.15099198 -0.07221156 0.14172362 0.22643399 0.04090193 -0.15455008
-0.15275267 -0.025708325 -0.11856989 -0.13141067 -0.022804093 -0.10674154 -0.114601396 -0.074540205
-0.0039105453 0.24149859 -0.14379966 0.19657835 0.004111579 -0.23920882 -0.05436866 0.09233496
0.09740169 -0.17828773 -0.11851242 -0.05157754 -0.12767413 0.027523987 -0.14358419 0.11372936
0.12416825 0.094884045 -0.023763021 -0.25472504 0.028464532 -0.16789587 0.057338394 -0.19071367
0.100383826 0.0719173 0.13294116 -0.22228147 0.01491774 -0.14904149 -0.23981707 -0.14137512
00000000: 88a5 2abe 403a 38bd 91b4 523d ab0b 243e
00000010: d1bc 093e aac7 623d 8bb7 17be 19d4 103e
00000020: f124 193e e5e8 f8bd b3f8 b9ba d580 223d
00000030: 905c 603d ef8f 72be 0398 40bd 9bb8 09be
00000040: bd50 143e 499f 283e fe8b 46bd af73 2e3e
00000050: 45ae 76bd 89c4 5fbd 11fa 113c 5a36 043e
00000060: 7725 493e 683c 09be 0aef 69bc 4676 523e
00000070: 143e 0b3e cc3b c93d 13c6 193d 7b4d f53d
00000080: ff6c a13d 2c30 2bbe 16b0 343b 35d0 24be
00000090: 296d 093d eb2e 443e 5f80 e7bd 1ac3 18be
000000a0: 47de b3bc f08a 983d 6c88 fa3d 0b17 173d
000000b0: 4692 353e 94b5 243e 636d 91bd 4f5c d53c
000000c0: 03ac f0bd 6369 58be e4c7 c33d 1641 753d
000000d0: c866 14be 1edb a93d c297 4ebe d301 293e
000000e0: 96b1 57bd ab89 a2bd 9cd7 4cbe e3e3 523e
000000f0: fa54 d13d 1d7b 343e 03a0 fa3b 6336 163e
00000100: f5e4 0f3e 38b3 ba3d c0b8 fdbd e5b5 13be
00000110: b442 ce3c 9623 7ebe 782d 073d 585a bdbd
00000120: 7a16 00bd 2156 babb 6d2a c03d 7bff 42be
00000130: 5b07 babd fcf0 5f3d c3ed 333e 46f3 243e
00000140: 88c0 23be 2294 5abd a49d 1a3e a8e3 93bd
00000150: ff1f 113e 50de 673e c888 273d 6042 1ebe
00000160: 326b 1cbe 449a d2bc c5d4 f2bd 8590 06be
00000170: a6cf babc 4f9b dabd 23b4 eabd 89a8 98bd
00000180: 0824 80bb 684b 773e 3840 13be d64b 493e
00000190: 6dba 863b 28f3 74be acb1 5ebd 1d1a bd3d
000001a0: 8a7a c73d 0f91 36be a4b6 f2bd f842 53bd
000001b0: 02bd 02be fc79 e13c bc07 13be f0ea e83d
000001c0: ec4b fe3d 9152 c23d abaa c2bc 526b 82be
000001d0: 732e e93c e5ec 2bbe aadb 6a3d 724a 43be
000001e0: 0996 cd3d 6149 933d ba21 083e c19d 63be
000001f0: 8969 743c 559e 18be 9b92 75be a4c4 10be

bias f4 [2]
-0.058652233 0.017826537
00000000: 533d 70bd f508 923c
